results/PRIMNET/ABAQUS32/weights/epoch_363.pth (torch, 89861 bytes, 189 tensors)

motor_std f4 [3]
0	0x3e669df4	0.22521192
1	0x3d6a6882	0.057228573
2	0x3bbcdfa9	0.005763967

motor_mean f4 [3]
0	0xbe834dc2	-0.25645262
1	0x39518e80	0.00019984879
2	0xbdb83994	-0.08995357

position_std f4 [3, 1]
0	0x3f800000	1.0
1	0x3f800000	1.0
2	0x3f800000	1.0

position_mean f4 [3, 1]
0	0x00000000	0.0
1	0x00000000	0.0
2	0x00000000	0.0

ACT_EMBED.layers.0.weight f4 [32, 3]
0	0x4008727e	2.131988
1	0xc018d027	-2.3877046
2	0x3f893323	1.0718731
3	0x403d3c56	2.9568076
4	0x3fbc8ea8	1.4731035
5	0x401493bb	2.3215168
6	0xbfb6235a	-1.4229538
7	0x3fb036ad	1.3766686
8	0x3ec616f2	0.3868938
9	0xbfacf8ce	-1.3513429
10	0x3fa2f40f	1.2730731
11	0xbf2ba221	-0.67044264
12	0x3f548ca9	0.8302713
13	0xc02cdf56	-2.7011313
14	0x3fa7e488	1.3116617
15	0xbfbd6459	-1.4796249
16	0x3ff83a1e	1.9392736
17	0x3efb486e	0.49078697
18	0xbea48b20	-0.32137394
19	0x40236239	2.55287
20	0xbfb68bc0	-1.4261398
21	0x3f4f4469	0.8096376
22	0xbfa5b518	-1.294589
23	0x3e0a1459	0.13484325
24	0xbfe44a0d	-1.7835099
25	0x401a9418	2.415289
26	0xbe8493c0	-0.25893974
27	0xbf057b65	-0.5214141
28	0x3f8a9f5e	1.0829885
29	0xbf1ef0db	-0.62086266
30	0x3fd351a2	1.6509287
31	0xbf8519ff	-1.0398558
32	0x400789bf	2.1177824
33	0x3f36291e	0.7115649
34	0x3f477097	0.77906173
35	0xbeefa8af	-0.46808383
36	0x400b4b60	2.1764755
37	0xc033bd4f	-2.8084295
38	0xbf377c85	-0.71674377
39	0x3dbd578f	0.09245216
40	0x3fccb0aa	1.5991414
41	0xbf5dc292	-0.86625016
42	0xbeffba83	-0.49946985
43	0x3fe6554d	1.7994782
44	0xbf7ef0bb	-0.99586076
45	0xc0215adc	-2.5211706
46	0x3fc2714f	1.5190829
47	0xbf6d13ff	-0.92608637
48	0x3fab7c1d	1.3397251
49	0xbfe237e9	-1.7673312
50	0xbe421d37	-0.18956457
51	0xbf5cae7b	-0.86203736
52	0x3fb7e5a2	1.4366953
53	0xbe74360c	-0.23848742
54	0x3f3108ba	0.6915394
55	0xc00e71ef	-2.225704
56	0xbffe0d51	-1.9847814
57	0xbfa929e6	-1.3215911
58	0x3fa0805e	1.2539175
59	0xbf4639da	-0.77432024
60	0xbf968998	-1.176074
61	0x3fc260ba	1.5185769
62	0xbf9c2bd4	-1.2200875
63	0x3f3332af	0.6999921
64	0xbf9302ac	-1.148519
65	0x3e91cc1a	0.2847603
66	0x3fce4d6c	1.6117377
67	0xbf428bd4	-0.7599461
68	0x3fecefc4	1.8510671
69	0x401dd4aa	2.466105
70	0xbf759b74	-0.9594033
71	0x3f7b00b4	0.9804795
72	0xbf1dedf3	-0.61691207
73	0x3f01a010	0.5063486
74	0xbf583340	-0.844532
75	0x3fe61fe9	1.7978488
76	0x3fab65cd	1.3390442
77	0x3f4d04b0	0.8008528
78	0xbe7f2fe5	-0.24920614
79	0x400c4fef	2.1923788
80	0x3f977c18	1.1834745
81	0xbfe4dfe0	-1.7880821
82	0x40245c9e	2.568153
83	0xbff9353a	-1.9469368
84	0xc025d0d1	-2.5908701
85	0x403452ea	2.8175607
86	0xbf922760	-1.1418266
87	0x3faeae2f	1.3646907
88	0xbf2b45c9	-0.6690336
89	0x3fcc1438	1.594367
90	0xc004866d	-2.0707047
91	0x40219d35	2.5252202
92	0xbe64ee63	-0.22356562
93	0x3fe63957	1.7986249
94	0x3fbb9219	1.465396
95	0x3f86f488	1.0543375

ACT_EMBED.layers.2.weight f4 [32, 32]
0	0xc04f8177	-3.242277
1	0xc0324a50	-2.7857857
2	0xbfe02106	-1.7510078
3	0xc013df94	-2.3105211
4	0xc03943b3	-2.894757
5	0x4032b9eb	2.7925975
6	0xc026a9e2	-2.6041188
7	0xc02f213c	-2.7364035
8	0xc004ade6	-2.073114
9	0x4009991f	2.1499708
10	0xc015de8e	-2.3417087
11	0xc03164f0	-2.7717857
12	0xc0474f0b	-3.1141994
13	0xbf8f7b94	-1.1209588
14	0x4019ddba	2.404158
15	0xbfd7bd93	-1.6854728
16	0xc0258322	-2.5861287
17	0xc02405a3	-2.562844
18	0xc02e6d7f	-2.725433
19	0x402dff75	2.7187169
20	0xbf838654	-1.0275369
21	0xc00c9c48	-2.1970387
22	0xc02a5544	-2.6614542
23	0x403641ec	2.8477736
24	0xbfef2457	-1.8682965
25	0xc017d467	-2.372339
26	0xc04df020	-3.217781
27	0xc01e871f	-2.4769971
28	0xc01f92ac	-2.4933271
29	0xbfc1e62b	-1.5148367
30	0xc01f22ae	-2.4864917
31	0x4036aa3b	2.85414
32	0xbfe6f4ba	-1.8043435
33	0xc02751fb	-2.6143787
34	0x3fd9a877	1.7004536
35	0x400820a6	2.1269927
36	0xbfc316fe	-1.5241392
37	0xc03a260c	-2.9085722
38	0xc02a6033	-2.6621215
39	0xbfb60fc8	-1.4223566
40	0xc04c870b	-3.1957424
41	0x3fac89a7	1.3479508
42	0xc04dd5be	-3.2161708
43	0xc044b016	-3.0732474
44	0xc0371c3b	-2.861098
45	0xc03fb1d4	-2.9952288
46	0xc03c5254	-2.942525
47	0xc03090f8	-2.7588482
48	0xc02f6cf5	-2.7410252
49	0xc0329938	-2.7906017
50	0xc04c118b	-3.1885707
51	0xc04ae08a	-3.1699548
52	0xc0279c00	-2.6188965
53	0xc03e8d07	-2.9773576
54	0xc03243c5	-2.7853863
55	0xc03254ff	-2.7864377
56	0xc00c38a7	-2.1909578
57	0xc0219054	-2.524434
58	0xbfea88a2	-1.8322947
59	0xc014c6d1	-2.3246348
60	0xc03da638	-2.9632702
61	0xc0205462	-2.5051503
62	0xc04059db	-3.0054843
63	0xc0498ea8	-3.149332
64	0xc04175d3	-3.0228164
65	0xc036758c	-2.8509245
66	0x403fdda4	2.9979029
67	0xc02d08f4	-2.7036715
68	0xc047ec68	-3.123804
69	0xc03df345	-2.967973
70	0xc02eb32f	-2.7296865
71	0xc0279e5e	-2.619041
72	0xc03187c5	-2.7739117
73	0xc02af356	-2.671102
74	0xc0426f8c	-3.0380583
75	0xc0489734	-3.1342287
76	0xc026db89	-2.6071494
77	0xc02d7aef	-2.7106283
78	0xc034413b	-2.8164814
79	0xc027977d	-2.618621
80	0x4043240e	3.0490756
81	0xc040a577	-3.0100992
82	0xc036c5e1	-2.8558276
83	0xc0395a4a	-2.8961358
84	0x4048dfeb	3.1386669
85	0xc03e826c	-2.9767103
86	0xc0290e2b	-2.6414897
87	0xc0465c68	-3.09939
88	0xc04667ad	-3.1000779
89	0xc044e495	-3.0764515
90	0xc0258995	-2.5865223
91	0xc038e26e	-2.8888202
92	0xc0386614	-2.8812304
93	0xc03fd70a	-2.9975
94	0xc040aa62	-3.0103993
95	0xc02960fc	-2.6465445
96	0xc04c16db	-3.188895
97	0xc03e90d2	-2.9775891
98	0x402d383c	2.7065573
99	0xc0269c5c	-2.6032934
100	0xc03db0d9	-2.963919
101	0xc0367bd1	-2.8513072
102	0xc04ce697	-3.201574
103	0xc0425626	-3.036508
104	0xc036980a	-2.8530297
105	0xc03ab577	-2.9173257
106	0xc03109e2	-2.7662282
107	0xc028a36d	-2.6349747
108	0xc0335aba	-2.8024125
109	0xc03d3f08	-2.9569721
110	0xc030d14b	-2.7627742
111	0xc0298282	-2.6485906
112	0xc0383fb0	-2.8788872
113	0xc03de08a	-2.9668298
114	0xc03e645e	-2.974876
115	0xc03c7529	-2.944651
116	0xc02c3a9c	-2.6910772
117	0xc04557c6	-3.0834823
118	0xc041bda0	-3.0271988
119	0x403d1690	2.954502
120	0x40305335	2.7550786
121	0xc03337f2	-2.8002896
122	0xc0430810	-3.047367
123	0xc03ca6b9	-2.947676
124	0xc02288d0	-2.5396004
125	0xc047769f	-3.116615
126	0xc03977ea	-2.897944
127	0xc03d867d	-2.9613335
128	0xc0353984	-2.8316355
129	0xc034a238	-2.822401
130	0x40254685	2.5824292
131	0xc024b7e9	-2.573725
132	0xc040f538	-3.014967
133	0xc045bccf	-3.089649
134	0xc033decc	-2.8104734
135	0xc05733dc	-3.3625402
136	0xc037560e	-2.8646274
137	0xc03188f0	-2.773983
138	0x403a1f04	2.908143
139	0xc039ec41	-2.9050448
140	0xc020431d	-2.5040963
141	0xc0147baa	-2.3200479
142	0xc04815b2	-3.1263242
143	0xc0464cc8	-3.0984364
144	0xc01f414b	-2.4883602
145	0xc01ea5d4	-2.4788713
146	0xc02f7351	-2.7414134
147	0xc037950c	-2.868472
148	0xc01629de	-2.3463054
149	0x4022ca69	2.5436041
150	0xc0496e4d	-3.1473572
151	0xc02d75a2	-2.7103047
152	0xc0223559	-2.534506
153	0xc0510883	-3.2661445
154	0xc0380b9b	-2.8757083
155	0xc050dafc	-3.2633657
156	0xc0342578	-2.814787
157	0xc0355635	-2.8333867
158	0xc036c329	-2.8556616
159	0xc04080d2	-3.0078626
160	0x401e0ee5	2.469659
161	0xbe522c80	-0.20524788
162	0x3e1984cd	0.14992066
163	0x3fcb2bf6	1.5872791
164	0x3fa0a2d7	1.2549695
165	0xbfed98fa	-1.856231
166	0x3f3af149	0.7302442
167	0xbe6219e7	-0.22080193
168	0xc0333183	-2.799897
169	0x3da36014	0.0797731
170	0x3e9c3b46	0.30513972
171	0x3eb4b7c4	0.35296452
172	0x3f684b91	0.90740305
173	0xbefe7faf	-0.4970679
174	0xc03148bf	-2.770065
175	0x3f3d4422	0.7393209
176	0x3fcafa98	1.5857725
177	0x3f502160	0.81300926
178	0x3de41524	0.11136845
179	0xc03253c0	-2.7863617
180	0xc02201a1	-2.5313494
181	0xbf88d8ec	-1.0691199
182	0x3f0d07b3	0.55089873
183	0xbe4a390f	-0.19748329
184	0x3ef5d613	0.48014888
185	0xbe55117d	-0.20807452
186	0xbe3fabd0	-0.18717885
187	0x3fb19c2e	1.3875787
188	0xbfb45c34	-1.4090638
189	0xbf537375	-0.8259805
190	0x3e0eb43c	0.13935941
191	0x3eba0ec7	0.363394
192	0xc03aad81	-2.9168398
193	0xc025eaef	-2.5924642
194	0xbfedf573	-1.859053
195	0x3ffe58d2	1.9870856
196	0xbfdac845	-1.7092367
197	0x4025da87	2.5914629
198	0xbf47e37a	-0.78081477
199	0xbf965c51	-1.1746923
200	0xbf5761bf	-0.84133524
201	0x3d862e70	0.06551826
202	0x403cf311	2.9523356
203	0xbfd02dac	-1.6263938
204	0xc025283d	-2.580581
205	0xbf52ec5a	-0.82391894
206	0xbfba9c2c	-1.457891
207	0xbfc03349	-1.5015651
208	0xc00ccce6	-2.200006
209	0xbef7df4d	-0.48412552
210	0xbf469e1a	-0.77584994
211	0x400712cc	2.1105223
212	0x3f342761	0.7037259
213	0xbeb86d6c	-0.36020982
214	0xc020775f	-2.5072858
215	0xbf918350	-1.1368198
216	0x402c036a	2.6877084
217	0xbf8cb0d0	-1.0991459
218	0xc0228324	-2.5392542
219	0xc008ae5a	-2.1356416
220	0xbfb03111	-1.3764974
221	0xbfaad83c	-1.334724
222	0xbf5d2575	-0.8638528
223	0xbe386ee9	-0.18011059
224	0xc047d069	-3.1220953
225	0xc033bfc0	-2.8085785
226	0x40457eaf	3.0858572
227	0xc02f66de	-2.7406535
228	0xc0394ba0	-2.8952408
229	0xc03e6de6	-2.9754577
230	0xc0350489	-2.8284018
231	0xc032938a	-2.790255
232	0xc03706ed	-2.8597977
233	0xc035d3cc	-2.841052
234	0xc03b3b0e	-2.9254794
235	0xc03a3849	-2.9096854
236	0xc03d9f37	-2.9628427
237	0xc027b4d8	-2.6204128
238	0xc045ec6a	-3.0925546
239	0xc033dc33	-2.810315
240	0xc03d869b	-2.9613407
241	0xc03035cd	-2.7532837
242	0xc033a26d	-2.8067887
243	0xc03c8b72	-2.946011
244	0xc02aa6ed	-2.6664383
245	0xc03a6791	-2.9125712
246	0xc041da7d	-3.0289605
247	0xc032ec66	-2.7956786
248	0xc036ffa0	-2.859352
249	0xc039889c	-2.898963
250	0xc049095a	-3.1411958
251	0xc051226d	-3.2677262
252	0xc036e14f	-2.8575017
253	0xc0346cae	-2.8191333
254	0xc03a6098	-2.9121456
255	0xc03c7071	-2.9443629

ACT_EMBED.layers.4.weight f4 [64, 32]
0	0x4009de26	2.1541839
1	0x400d1a1f	2.2047193
2	0x402b0929	2.672434
3	0x4035d420	2.841072
4	0xc048f9d0	-3.1402473
5	0xbfee9fd0	-1.8642521
6	0xc03e28eb	-2.9712474
7	0xc04b8268	-3.1798344
8	0xc0254443	-2.5822914
9	0xc047daa1	-3.122719
10	0xc04f965e	-3.2435527
11	0xbd5c3192	-0.05375821
12	0x4014f3a9	2.3273718
13	0xc0386a1f	-2.881477
14	0x401cb75b	2.4486911
15	0xc03c35bc	-2.9407797
16	0x40481e32	3.126843
17	0xc0458ac2	-3.086594
18	0x40333df7	2.800657
19	0xc03e1e63	-2.9706047
20	0xc04facc2	-3.2449193
21	0xbc864c26	-0.016393732
22	0x403128b1	2.7681086
23	0xc02fb8e2	-2.7456594
24	0x40468d6a	3.1023812
25	0x3c181ad5	0.009283741
26	0x40230fd8	2.547842
27	0xc042feac	-3.046794
28	0xc02cea4c	-2.7018003
29	0xbd586ba0	-0.052837014
30	0xc0337dd4	-2.804555
31	0x40361061	2.8447497
32	0xc0404e02	-3.0047612
33	0xbf449f12	-0.7680522
34	0xc03448f6	-2.8169532
35	0xc031b73e	-2.7768092
36	0xc02b4a22	-2.6763997
37	0xbf9f032b	-1.2422842
38	0xc025a7cd	-2.5883667
39	0xc0351613	-2.8294723
40	0xc0393d47	-2.894365
41	0xc0291b43	-2.642289
42	0xc0435753	-3.0522048
43	0xc043ce8a	-3.0594811
44	0xc0319a70	-2.775051
45	0xc030e51e	-2.7639842
46	0xc04e71f7	-3.2257059
47	0xc03b9773	-2.9311187
48	0xc03392cb	-2.8058345
49	0xc02cf7e4	-2.70263
50	0xc033cb55	-2.8092854
51	0xc0334d01	-2.801575
52	0xc044a224	-3.0723963
53	0xbe10e3fb	-0.14149468
54	0x4038838b	2.8830287
55	0xc03b670e	-2.928165
56	0xc02f1e79	-2.736235
57	0x404b9a48	3.1812916
58	0x403050af	2.7549245
59	0xc034e7cb	-2.8266475
60	0xc03586a6	-2.8363433
61	0xc02a17f7	-2.6577127
62	0xc047c8f6	-3.1216407
63	0xc038d0a3	-2.8877342
64	0xc03a2b3e	-2.9088893
65	0xc03aba30	-2.917614
66	0xc0280da5	-2.6258328
67	0xc03f5479	-2.9895308
68	0xc02fbfd3	-2.746083
69	0xc047dad5	-3.1227314
70	0xc039baea	-2.9020333
71	0xc0377007	-2.8662126
72	0xc03bca3a	-2.934218
73	0xc029ed00	-2.6550903
74	0xc049535d	-3.145713
75	0xc0405abd	-3.0055382
76	0xc041ad51	-3.0262034
77	0xc0312e6f	-2.768459
78	0xc031bfdf	-2.777336
79	0xc041de0f	-3.0291784
80	0xc036c62e	-2.855846
81	0xc032a3b6	-2.7912421
82	0xc038e36d	-2.888881
83	0xc048ef18	-3.1395931
84	0xc03aabc5	-2.916734
85	0xbc0b218b	-0.008491884
86	0x3f28deae	0.6596478
87	0xc0314a76	-2.7701697
88	0xc032ea35	-2.7955449
89	0x4039192c	2.8921614
90	0xc03fcbb1	-2.9968073
91	0xc0314fdb	-2.770499
92	0xc0493d8b	-3.1443813
93	0xc035c733	-2.8402832
94	0xc03e04a2	-2.9690328
95	0xc030691f	-2.756416
96	0xc018ef1d	-2.3895943
97	0xc00b8ae4	-2.1803522
98	0x403ae1e7	2.920038
99	0xc03a4cb7	-2.9109323
100	0xc029ea47	-2.6549242
101	0xc00bdf2a	-2.1854959
102	0xbff19e27	-1.8876389
103	0xc03054d8	-2.7551785
104	0xc01cf772	-2.4526029
105	0xc018f77d	-2.3901055
106	0xc02203ba	-2.5314775
107	0x404233b8	3.0344067
108	0xc01a5145	-2.4112103
109	0xc033f121	-2.8115923
110	0xc0142efa	-2.3153672
111	0x4043cdeb	3.0594432
112	0xc033f682	-2.8119206
113	0xc022ecf6	-2.545713
114	0xc0339a6f	-2.8063009
115	0xc0366fc3	-2.8505714
116	0xc01c62c5	-2.4435284
117	0xc017a55e	-2.3694682
118	0x40431769	3.0483038
119	0xc0375262	-2.8644032
120	0x403c989f	2.9468153
121	0x404357cf	3.0522344
122	0x4028bbf7	2.6364725
123	0xbff3bdb2	-1.9042265
124	0xc0084739	-2.129347
125	0x404f1eb9	3.2362502
126	0x402caf2b	2.6981914
127	0xc01f07d5	-2.484853
128	0xc035cd7b	-2.8406665
129	0x40185544	2.3802042
130	0xc034425c	-2.8165503
131	0xc036dcfd	-2.857238
132	0xc0350fe7	-2.8290956
133	0xc0388dbe	-2.8836513
134	0xc0318c33	-2.774182
135	0xc0392590	-2.8929176
136	0xc047df4f	-3.1230047
137	0xc03561ac	-2.8340864
138	0xc02f05d1	-2.73473
139	0xc0434bb9	-3.0514967
140	0xc033aa1b	-2.8072574
141	0xc03dde8d	-2.9667084
142	0xc040d03a	-3.0127091
143	0xc0382bdc	-2.877677
144	0xc03d5b22	-2.9586873
145	0xc0385f1d	-2.8808053
146	0xc0439c4c	-3.0564146
147	0xc041fb4b	-3.0309627
148	0xc03c0522	-2.9378133
149	0xbdfdeb3c	-0.12398383
150	0x3e498fd0	0.19683766
151	0xc0476bd4	-3.1159563
152	0x402ccf27	2.7001436
153	0xbe0cb4ba	-0.13740817
154	0xc03eb425	-2.9797451
155	0xc036b666	-2.8548827
156	0xc042c3ab	-3.0431926
157	0xc03b9251	-2.9308054
158	0xc034fd9a	-2.8279786
159	0xc041bf21	-3.0272906
160	0xc03da7f1	-2.9633753
161	0x40397340	2.8976593
162	0xc0255a72	-2.5836453
163	0x403b3859	2.9253142
164	0xc0390453	-2.890889
165	0xbfa20f6b	-1.2660955
166	0xc0377c28	-2.866953
167	0x402d4c9a	2.7078004
168	0xc031d284	-2.7784739
169	0xc03af3f3	-2.9211395
170	0xc02e3564	-2.7220087
171	0xc0494a1c	-3.1451483
172	0xc043834b	-3.0548885
173	0xc03bbf96	-2.9335685
174	0xc03d955b	-2.962241
175	0xc023f750	-2.5619698
176	0xc04343df	-3.0510175
177	0x4026c630	2.6058464
178	0x40473aa2	3.1129537
179	0xc02ec729	-2.7309058
180	0xc041d021	-3.0283282
181	0xbf0053aa	-0.5012766
182	0xbe391883	-0.18075757
183	0x404173d5	3.0226948
184	0x40360300	2.843933
185	0xc02d975a	-2.7123628
186	0xc0440622	-3.0628743
187	0xc0346f18	-2.8192806
188	0xc0470938	-3.1099377
189	0x403edc70	2.9822044
190	0x403744f6	2.863584
191	0xc0339130	-2.8057365
192	0xc03ae60b	-2.9202907
193	0xc00d141c	-2.2043524
194	0xc031fa18	-2.7808895
195	0xc0433be3	-3.0505302
196	0xc03161f7	-2.7716043
197	0xc01b397c	-2.4253836
198	0xc03f20be	-2.9863734
199	0xc03de078	-2.9668255
200	0xc03eb02b	-2.9795024
201	0xc037cbc5	-2.871812
202	0xc03ab826	-2.9174895
203	0xc03b2706	-2.9242568
204	0xc0426a3e	-3.0377345
205	0xc03ea40a	-2.9787621
206	0xc03b7162	-2.9287953
207	0xc03ddc9b	-2.9665897
208	0xc0399594	-2.8997545
209	0xc024400c	-2.566409
210	0xc028a0bf	-2.6348112
211	0xc03ae44f	-2.9201849
212	0xc0397aee	-2.898128
213	0xbdff8338	-0.124762
214	0xc031045d	-2.7658913
215	0x404a0bc2	3.1569676
216	0x403114d8	2.7668972
217	0xc038d2f5	-2.8878758
218	0xc037ee6f	-2.8739278
219	0xc0410946	-3.016191
220	0xc0493afe	-3.1442256
221	0xc03f0c61	-2.9851305
222	0xc048236e	-3.1271625
223	0xc03a78cb	-2.9136226
224	0xc0483c57	-3.1286829
225	0xc00b32e7	-2.1749818
226	0xc02211ab	-2.5323284
227	0xc03ad010	-2.9189491
228	0xc0379913	-2.868718
229	0xc0017d1e	-2.0232615
230	0xc03a9f83	-2.9159858
231	0xc04849c2	-3.1295018
232	0xc02d5491	-2.7082865
233	0xc03b49f2	-2.9263883
234	0xc03e56d7	-2.9740503
235	0xc046d7f1	-3.10693
236	0xc01e7383	-2.4758003
237	0xc040890f	-3.0083654
238	0xc02ed2dc	-2.7316198
239	0xc0403cc7	-3.0037096
240	0xc041d659	-3.0287077
241	0xc03e7f51	-2.9765208
242	0xc03bf444	-2.9367838
243	0xc03c1872	-2.938992
244	0xc03f0882	-2.9848943
245	0x3dbe7574	0.09299746
246	0xbe3aabde	-0.18229625
247	0xc033bf9d	-2.8085701
248	0xc03e9f77	-2.978483
249	0xc02f5b73	-2.7399566
250	0xc03810cd	-2.8760254
251	0xc03deae0	-2.9674606
252	0xbf5dd236	-0.8664888
253	0xc02e6b08	-2.7252827
254	0xc03e3f7f	-2.9726255
255	0xc0454f38	-3.0829601

FK_LAYER.joints.0.p_offset f4 [3, 1]
0	0xc08d9fdf	-4.4257655
1	0xc0b2654f	-5.574867
2	0x3f08ba9e	0.53409755

FK_LAYER.joints.0.rpy_offset f4 [3]
0	0x3ba5b9c4	0.0050575454
1	0x3c33edcb	0.010981987
2	0xbba90176	-0.005157645

FK_LAYER.joints.1.p_offset f4 [3, 1]
0	0xc08cf64b	-4.405065
1	0xc0b2a6a8	-5.582844
2	0x3f13732e	0.57597625

FK_LAYER.joints.1.rpy_offset f4 [3]
0	0x3b9809e6	0.004639852
1	0xbb1ac285	-0.0023614478
2	0x3b94b1bb	0.0045377887

FK_LAYER.joints.1.axis f4 [3, 1]
0	0xbeb608f2	-0.355537
1	0xbe500ee0	-0.20318174
2	0x3eeae140	0.45874977

FK_LAYER.joints.1.q_layer.0.weight f4 [1, 64]
0	0x40421ba3	3.0329368
1	0x40307c59	2.7575896
2	0x4037dc2d	2.8728135
3	0xbfe1c501	-1.7638246
4	0xc040c532	-3.0120358
5	0xc01b2b14	-2.4245043
6	0x40353db0	2.83189
7	0x3f809a5f	1.004711
8	0x4026351d	2.5969918
9	0xc0094578	-2.144865
10	0x40197a75	2.3980992
11	0x4034e0f0	2.826229
12	0xc041a3e6	-3.0256286
13	0x402a5102	2.6611943
14	0x40086d72	2.13168
15	0xc0172db5	-2.3621647
16	0x40293c1d	2.644294
17	0x3e816111	0.25269368
18	0x40385d15	2.8806813
19	0xc025ffab	-2.5937297
20	0xc00967b4	-2.1469545
21	0xc02160b6	-2.5215278
22	0xbfb0f400	-1.3824463
23	0xc03d32ce	-2.9562259
24	0x3eedffe3	0.4648429
25	0x3cf7d55c	0.030253105
26	0x40273c64	2.613061
27	0x402f4fa0	2.739235
28	0xc042165a	-3.0326142
29	0x40366509	2.8499167
30	0x401cd8f3	2.4507415
31	0xc00811e3	-2.1260917
32	0xc04ab256	-3.1671348
33	0x40123464	2.2844477
34	0x4011bb7c	2.2770681
35	0x4027d9f9	2.622679
36	0x403772fe	2.8663936
37	0xc052c516	-3.2932792
38	0xc039710c	-2.8975248
39	0xc0099e0b	-2.1502712
40	0x403ec09d	2.9805062
41	0xc0273ea3	-2.613198
42	0x3e979635	0.29606786
43	0xc0109955	-2.2593586
44	0x401bf47e	2.4367976
45	0x402fe2fb	2.7482288
46	0x4033ea8f	2.8111913
47	0x4042df10	3.0448647
48	0x403a7cad	2.9138596
49	0x4031a77f	2.7758482
50	0x403453b3	2.8176086
51	0x4044a54c	3.072589
52	0xc0295b26	-2.6461883
53	0xc02e0428	-2.7190037
54	0xc02e2ef7	-2.7216165
55	0xc022badc	-2.542655
56	0xc002aaa5	-2.0416653
57	0xc0309f63	-2.7597282
58	0x4027f26d	2.6241715
59	0x402f4dda	2.7391267
60	0x403a4a3d	2.9107811
61	0xc039d63a	-2.9037004
62	0xc038d548	-2.8880177
63	0xc022e056	-2.5449424

FK_LAYER.joints.2.p_offset f4 [3, 1]
0	0xc08ab9a4	-4.335161
1	0xc0b1098d	-5.532416
2	0x3f208851	0.62708

FK_LAYER.joints.2.rpy_offset f4 [3]
0	0x3c62600e	0.013816847
1	0x3c29c71a	0.010362411
2	0x3c6aae88	0.014323838

FK_LAYER.joints.2.axis f4 [3, 1]
0	0x400401c3	2.0626075
1	0x40410c00	3.0163574
2	0xc03272de	-2.788261

FK_LAYER.joints.2.q_layer.0.weight f4 [1, 64]
0	0xc02685e3	-2.6019218
1	0xbfca69c7	-1.5813531
2	0x4034313b	2.8155048
3	0x40375ff9	2.8652327
4	0xc0392dd4	-2.8934221
5	0xc03e6d05	-2.975404
6	0xc033823f	-2.8048246
7	0xc03ac162	-2.9180532
8	0x40438d27	3.0554903
9	0x4041101c	3.0166082
10	0x40449bd1	3.0720103
11	0xc021a21c	-2.5255194
12	0x403564ba	2.8342729
13	0x4036eb50	2.8581123
14	0xbf5c224c	-0.8598983
15	0x403fdbd9	2.9977934
16	0x40405f34	3.0058107
17	0x3f951b68	1.1648989
18	0xc01b299b	-2.4244144
19	0x403ffea1	2.9999163
20	0x40380377	2.8752115
21	0xc0389e87	-2.8846757
22	0x4030b4d6	2.7610373
23	0xc042e4e1	-3.0452197
24	0x3be5ac43	0.0070090606
25	0xc03f23a2	-2.9865499
26	0x404676b5	3.1009953
27	0xbfd71ac7	-1.6805047
28	0x404dcc20	3.2155838
29	0xbfd7ee3e	-1.6869581
30	0x4057987f	3.3686826
31	0x4044b7da	3.0737214
32	0x404529dc	3.08068
33	0xc0371362	-2.860558
34	0xc036d0ca	-2.8564935
35	0x40516ecc	3.2723875
36	0x402f1e34	2.7362185
37	0x402ae67d	2.670318
38	0xc02b010e	-2.6719394
39	0x4040e0a3	3.0137107
40	0x4046599b	3.099219
41	0xc0285a92	-2.630528
42	0xc0224887	-2.5356767
43	0x404bd95b	3.1851413
44	0xc049fd5d	-3.156089
45	0x4042c998	3.0435543
46	0x4044e08f	3.076206
47	0x4032352a	2.7844949
48	0x40401966	3.0015502
49	0x4022c27e	2.5431209
50	0x40331686	2.7982497
51	0x40333b23	2.8004844
52	0x3fdc2a47	1.7200402
53	0x402f96ef	2.7435873
54	0x4048a55f	3.1350935
55	0x404b441c	3.176032
56	0x3f018583	0.5059435
57	0x402c1bd3	2.6891983
58	0x40434f42	3.0517125
59	0x4032d86e	2.7944598
60	0x402f3508	2.7376118
61	0xc03f5bb0	-2.9899712
62	0xc03a7e2a	-2.9139504
63	0xc043d2b0	-3.0597343

FK_LAYER.joints.3.p_offset f4 [3, 1]
0	0xc08e6354	-4.449625
1	0xc0adcc01	-5.431153
2	0x3f40e560	0.7535

FK_LAYER.joints.3.rpy_offset f4 [3]
0	0xbbfc181b	-0.0076933033
1	0xba679860	-0.00088346563
2	0xbc2a33fb	-0.01038837

FK_LAYER.joints.3.axis f4 [3, 1]
0	0x3f3a0699	0.7266632
1	0xbedcc0c1	-0.4311581
2	0xbe69c62a	-0.228295

FK_LAYER.joints.3.q_layer.0.weight f4 [1, 64]
0	0xc020d612	-2.5130658
1	0xc0260f6e	-2.5946918
2	0xc02ca5b5	-2.697614
3	0xc010b98a	-2.2613244
4	0x3ffbe762	1.9679987
5	0x402b6aa0	2.6783829
6	0xc03a535e	-2.9113383
7	0x3ff4d70b	1.9128126
8	0xc028f304	-2.6398325
9	0xc02b41e5	-2.675897
10	0xbfe3b76f	-1.7790354
11	0x3f52e4d6	0.82380426
12	0x40357f63	2.8359
13	0xc01f04f5	-2.4846776
14	0x3e44e027	0.19226132
15	0xc01f356f	-2.4876363
16	0xc01cc317	-2.4494073
17	0x3f5725d1	0.8404208
18	0xc03797bc	-2.8686361
19	0xc028e176	-2.638761
20	0xc01d8e91	-2.4618266
21	0x4037f0d2	2.8740735
22	0xbfd3c545	-1.6544577
23	0x40334b5a	2.801474
24	0xbf30377d	-0.6883467
25	0xbe132644	-0.14370066
26	0xc02e7717	-2.7260187
27	0xc01cd3c0	-2.4504242
28	0x404e4a90	3.223301
29	0xc02c9a5f	-2.696922
30	0xc033f87d	-2.8120415
31	0xc0244c08	-2.5671406
32	0x402ff4ae	2.749309
33	0x3fb8809e	1.4414251
34	0x401054e3	2.255181
35	0xc023f661	-2.5619128
36	0x403c4ea0	2.942299
37	0x402f3e30	2.7381706
38	0x4028b33e	2.63594
39	0xc01633f1	-2.3469203
40	0xc0316de3	-2.772332
41	0x40359d34	2.83772
42	0xbfb574ed	-1.4176308
43	0xc02fac41	-2.7448885
44	0x3f97cd8a	1.18596
45	0xc0270be4	-2.6101007
46	0xc0191450	-2.3918648
47	0x403b3380	2.9250183
48	0xc02d1ebf	-2.7050016
49	0x40397d31	2.898266
50	0xc01863a6	-2.381082
51	0xc04471ef	-3.069454
52	0x403a1f76	2.9081702
53	0xc025bd24	-2.5896692
54	0x40333a38	2.8004284
55	0xc028844c	-2.6330748
56	0xbfd01d36	-1.6258914
57	0x402fe907	2.7485979
58	0xc01e4b72	-2.4733548
59	0xc02533af	-2.5812795
60	0x403817b2	2.8764462
61	0x4026335b	2.5968845
62	0x402e60e2	2.7246633
63	0xc02797db	-2.6186435

FK_LAYER.joints.4.p_offset f4 [3, 1]
0	0xc0c6e13f	-6.214996
1	0xc0e43808	-7.1318398
2	0xbf0dca46	-0.5538677

FK_LAYER.joints.4.rpy_offset f4 [3]
0	0x3b5fc766	0.003414595
1	0xbc116e61	-0.008876414
2	0xbbd6eb9d	-0.006558849

FK_LAYER.joints.4.axis f4 [3, 1]
0	0x3e6a43c6	0.22877416
1	0xbe83dcdc	-0.2575444
2	0x3fa8eca3	1.3197216

FK_LAYER.joints.4.q_layer.0.weight f4 [1, 64]
0	0x40369587	2.8528764
1	0xbfaf8fdb	-1.3715776
2	0x4040d1dd	3.012809
3	0xc0139acb	-2.3063228
4	0xc028abf8	-2.6354961
5	0xc013f1ae	-2.311626
6	0x404b5ffb	3.1777332
7	0xbec94a6b	-0.3931459
8	0xbffefad9	-1.9920303
9	0x401a4511	2.4104655
10	0x401e63b8	2.4748363
11	0x4019e6fe	2.4047236
12	0xc0461946	-3.0952926
13	0x403cb8c2	2.9487767
14	0x402b54ee	2.6770587
15	0x402b3c44	2.6755533
16	0xbfe099b1	-1.7546903
17	0x3d02bb7b	0.031917077
18	0x40288af1	2.6334803
19	0x40259339	2.5871108
20	0xc01f7bd3	-2.4919326
21	0xc03488be	-2.820846
22	0x400bce99	2.1844847
23	0xc0380b2f	-2.8756826
24	0xbedc8c32	-0.4307571
25	0x3ec8dc7d	0.3923072
26	0x401ad3ac	2.4191694
27	0x402239e3	2.5347831
28	0xc01e5030	-2.4736443
29	0xbf9df2f0	-1.2339764
30	0x402da04f	2.7129095
31	0xc0296aa9	-2.647135
32	0xc04771a3	-3.1163108
33	0xbfcef398	-1.6168089
34	0xbf1b3332	-0.6062499
35	0x402ce981	2.701752
36	0xc03d5cc8	-2.958788
37	0xc048c3d4	-3.1369524
38	0xc02fa522	-2.744454
39	0x402fa957	2.7447107
40	0x4027b256	2.6202598
41	0xc02bcbb7	-2.6843088
42	0xc02fcdae	-2.7469287
43	0xbffd7d8a	-1.9803936
44	0x4012865f	2.2894514
45	0x403a6e8e	2.9129977
46	0x4036a4e7	2.8538148
47	0xc03a75e9	-2.9134467
48	0x402f2eb2	2.737225
49	0xc03d6d01	-2.959778
50	0x40237c21	2.5544512
51	0x402b17d2	2.6733289
52	0xc026dcdc	-2.6072302
53	0x401a725d	2.4132302
54	0xc0366fb2	-2.8505673
55	0xc009304d	-2.143573
56	0xc025bc18	-2.5896053
57	0xc033de1e	-2.810432
58	0x40346c10	2.8190956
59	0x404035a1	3.0032732
60	0xc040c6ce	-3.012134
61	0xc02c503a	-2.6923966
62	0xc030e842	-2.764176
63	0x403f5684	2.9896555

FK_LAYER.joints.5.p_offset f4 [3, 1]
0	0xc0c60222	-6.1877604
1	0xc0eb3fa8	-7.3515205
2	0xbf50f404	-0.8162234

FK_LAYER.joints.5.rpy_offset f4 [3]
0	0xbc44300a	-0.011974344
1	0x37fa397c	2.982909e-05
2	0x3bd60f2a	0.0065325694

FK_LAYER.joints.5.axis f4 [3, 1]
0	0xbf0a78fb	-0.5409085
1	0xc0013b9c	-2.0192633
2	0xc02d5f18	-2.708929

FK_LAYER.joints.5.q_layer.0.weight f4 [1, 64]
0	0xc0479d41	-3.118973
1	0xc03c9216	-2.9464164
2	0xc029a42f	-2.650646
3	0x40066f2e	2.1005359
4	0xc0579012	-3.3681684
5	0xc0240ef7	-2.5634134
6	0xc039c86d	-2.902858
7	0xc0386d05	-2.881654
8	0xc0241363	-2.5636833
9	0xc0452af5	-3.080747
10	0x401efa77	2.4840372
11	0xc04158a8	-3.0210361
12	0x402d451b	2.7073429
13	0xc0331aee	-2.7985187
14	0xc01846f5	-2.3793309
15	0xc043cb3c	-3.0592794
16	0xc0278d54	-2.618001
17	0x3ff32d3f	1.8998183
18	0xc0332e12	-2.799687
19	0xc0308661	-2.7582018
20	0xc030235c	-2.7521582
21	0x40206a2d	2.5064805
22	0x4020c765	2.51217
23	0xc03e3784	-2.9721384
24	0x3f501095	0.812753
25	0xbfbf02b7	-1.4922704
26	0xc03712f2	-2.8605313
27	0xc044127f	-3.063629
28	0x40276862	2.615746
29	0xc0321e58	-2.783102
30	0xc0430351	-3.0470774
31	0xc03683ee	-2.8518023
32	0x403ffac8	2.9996815
33	0xc0449e2a	-3.0721536
34	0xc0348b57	-2.8210046
35	0xc03a1192	-2.9073224
36	0xc04551de	-3.0831218
37	0x403f42b8	2.9884472
38	0xc02b2c0e	-2.674564
39	0xc02ffd95	-2.7498524
40	0xc025f9a8	-2.5933628
41	0xc0330aa4	-2.7975245
42	0xc0507122	-3.256905
43	0xc03fb76f	-2.995571
44	0xc0398f5c	-2.899375
45	0xc032562d	-2.7865098
46	0xc02b19e2	-2.6734548
47	0x403290f2	2.7900968
48	0xc02d4c5a	-2.7077851
49	0x4034e9d0	2.8267708
50	0xc037d622	-2.8724446
51	0xc031d4f7	-2.7786233
52	0x400923a2	2.1427999
53	0xc03d1c20	-2.9548416
54	0x403ecf42	2.9814
55	0xc0312275	-2.767728
56	0xbffba7d8	-1.9660597
57	0x403d0f64	2.9540644
58	0xc03d15c9	-2.9544547
59	0xc03ff6f9	-2.999449
60	0x3eb626f5	0.35576597
61	0xc0515cbc	-3.271285
62	0xc0314e46	-2.7704024
63	0xc01c1b6d	-2.439174

FK_LAYER.joints.6.p_offset f4 [3, 1]
0	0xc0c7b343	-6.2406325
1	0xc0ea412e	-7.3204565
2	0xbf79215c	-0.9731653

FK_LAYER.joints.6.rpy_offset f4 [3]
0	0xbbd8d01d	-0.006616606
1	0xba5f7d0d	-0.0008525409
2	0xbb34b232	-0.0027572033

FK_LAYER.joints.6.axis f4 [3, 1]
0	0x3e2effed	0.17089815
1	0xbd8e0e45	-0.069363154
2	0xbf8a6585	-1.0812231

FK_LAYER.joints.6.q_layer.0.weight f4 [1, 64]
0	0xbff150d4	-1.8852792
1	0x401dd536	2.4661384
2	0x402761a8	2.6153355
3	0x3fe3b050	1.7788181
4	0xc02f3279	-2.7374556
5	0xbfaefdf7	-1.3671254
6	0x402171a2	2.5225606
7	0xbee57cee	-0.44821876
8	0xc03c827e	-2.9454646
9	0x403f5c00	2.9899902
10	0x3ff10f69	1.8832828
11	0x40048c2d	2.0710557
12	0xc042d8cc	-3.0444822
13	0x4033c079	2.8086226
14	0xbd9b0ef4	-0.075712115
15	0x4029cca6	2.6531157
16	0xc019c6a8	-2.40275
17	0x3e14793d	0.14499374
18	0x402bc751	2.6840403
19	0x40333e4c	2.8006773
20	0xc01df759	-2.468222
21	0xc02f7b66	-2.7419066
22	0x400a7e39	2.163954
23	0x3fdc35b5	1.720389
24	0x3f288568	0.6582856
25	0xbc83207b	-0.016006699
26	0x40331379	2.7980635
27	0xc02c82cf	-2.695484
28	0xc0393bc3	-2.8942726
29	0x402bad5c	2.682456
30	0x402e9d93	2.7283676
31	0xc029195b	-2.6421726
32	0xc02f0804	-2.7348642
33	0x40102859	2.2524626
34	0x402649b7	2.5982492
35	0x401f3a9b	2.487952
36	0xc044f788	-3.077608
37	0xc04a7984	-3.1636667
38	0xc04c5e93	-3.1932724
39	0x40276a99	2.6158812
40	0x402b15e7	2.6732118
41	0xc02eb03a	-2.729506
42	0xbffe23b7	-1.9854649
43	0x401db807	2.4643571
44	0x4019111e	2.3916698
45	0x4042abf8	3.0417461
46	0x404155c5	3.02086
47	0xc045862a	-3.0863137
48	0x403cf1e9	2.952265
49	0xc03d1b95	-2.9548085
50	0x4036681a	2.8501039
51	0x404e485f	3.2231672
52	0xc043b9b0	-3.0582085
53	0xc02f1b57	-2.7360437
54	0xc03c9aba	-2.9469438
55	0x40358f0e	2.8368564
56	0x3fe425f2	1.782408
57	0xc03cfa8b	-2.952792
58	0x4032dfed	2.7949173
59	0x401b4004	2.4257822
60	0xc030581e	-2.7553782
61	0xc0207d8e	-2.5076632
62	0x40350978	2.828703
63	0x403f7b5d	2.9919045

FK_LAYER.joints.7.p_offset f4 [3, 1]
0	0xbfe592d1	-1.793543
1	0xbfca1b10	-1.5789509
2	0x42281f51	42.030582

FK_LAYER.joints.7.rpy_offset f4 [3]
0	0xbc01ed28	-0.007930078
1	0x3be925ac	0.0071150865
2	0xbca4e742	-0.020129804

FK_LAYER.joints.8.p_offset f4 [3, 1]
0	0xc0059d64	-2.0877314
1	0xbff6ea00	-1.9290161
2	0x42284143	42.063732

FK_LAYER.joints.8.rpy_offset f4 [3]
0	0xbc8930e3	-0.016746944
1	0xbbc56c12	-0.006024846
2	0xbc5b7eba	-0.013396913

FK_LAYER.joints.8.axis f4 [3, 1]
0	0x3efb5536	0.49088448
1	0x3e7d287d	0.24722476
2	0x3f5ce6de	0.86289775

FK_LAYER.joints.8.q_layer.0.weight f4 [1, 64]
0	0x401df7f2	2.4682584
1	0x4037ce1c	2.871955
2	0x4030e826	2.7641692
3	0x40143efb	2.316344
4	0xc02f6d13	-2.7410324
5	0xc00d8b72	-2.211636
6	0x40399d7e	2.9002376
7	0xbfae4734	-1.361548
8	0xc041e079	-3.0293257
9	0x40316a7c	2.7721243
10	0x402a3130	2.6592522
11	0x40024115	2.0352223
12	0xc03481f5	-2.820432
13	0x402dec9f	2.7175672
14	0x40174895	2.363805
15	0x40329b6d	2.7907364
16	0xc012a667	-2.2914064
17	0xbdc97f1b	-0.098386966
18	0x40273099	2.6123412
19	0x4033f941	2.8120883
20	0xc02cd3ee	-2.7004352
21	0xc040cbce	-3.0124393
22	0x4007bf0f	2.1210363
23	0x3fde8823	1.7385296
24	0x3e94a712	0.29033715
25	0xbe00c07c	-0.12573427
26	0x403f569b	2.989661
27	0xc0250e26	-2.5789886
28	0xc03c3e34	-2.9412966
29	0x402fd58f	2.7474096
30	0x4037c3f6	2.8713355
31	0xc00620f1	-2.0957606
32	0xc04bfd0b	-3.1873195
33	0x401444ee	2.3167071
34	0x402351b9	2.551863
35	0x402e1c95	2.7204945
36	0xc03ef1c7	-2.983507
37	0xc0405cb5	-3.0056584
38	0xc0354039	-2.8320448
39	0x4023557f	2.5520933
40	0x40391ec8	2.8925037
41	0xc0322383	-2.7834175
42	0xbfc8c0b0	-1.5683804
43	0x402b832d	2.6798813
44	0x401d3b0a	2.4567285
45	0x4036b685	2.85489
46	0xc02eeff1	-2.7333949
47	0xc031b62e	-2.7767444
48	0x404309c9	3.0474722
49	0xc0394add	-2.8951943
50	0x40330868	2.797388
51	0x402cad7f	2.6980894
52	0xc0465fe6	-3.0996032
53	0xc0184fdf	-2.379875
54	0xc033ec44	-2.8112955
55	0x4033f789	2.8119833
56	0x3fd64cf1	1.6742231
57	0xc03ba6e8	-2.9320621
58	0x40318417	2.7736871
59	0x40399a89	2.900057
60	0xc043b5d2	-3.0579724
61	0xc0315da9	-2.7713416
62	0x40203128	2.5030003
63	0xc036d455	-2.8567097

FK_LAYER.joints.9.p_offset f4 [3, 1]
0	0xbfe9b95c	-1.8259692
1	0xc029e20d	-2.654422
2	0x4227b9cd	41.931446

FK_LAYER.joints.9.rpy_offset f4 [3]
0	0x3c338485	0.010956888
1	0xbb1de054	-0.0024090009
2	0xbbdea65e	-0.006794735

FK_LAYER.joints.9.axis f4 [3, 1]
0	0x4036edce	2.8582644
1	0x4038906c	2.8838148
2	0xc03c5711	-2.942814

FK_LAYER.joints.9.q_layer.0.weight f4 [1, 64]
0	0xc035652f	-2.8343008
1	0xbfda598a	-1.7058575
2	0x404474bb	3.0696247
3	0x404ef7c7	3.2338731
4	0xc02e4a77	-2.723295
5	0xc03e86d0	-2.9769783
6	0xc032ec05	-2.7956555
7	0xc030fa02	-2.7652593
8	0x40021b34	2.0329103
9	0x402f9b1a	2.7438416
10	0x4045cedd	3.090751
11	0xc01d1e3f	-2.454971
12	0xbf56bb8f	-0.8387994
13	0x4046a909	3.104067
14	0xbf9a70e5	-1.2065703
15	0x4031cea6	2.7782378
16	0xbff914de	-1.9459493
17	0x404e867e	3.2269588
18	0xc036579b	-2.849097
19	0x404e8259	3.2267058
20	0x404021e1	3.0020678
21	0xc029c3e1	-2.6525805
22	0x402bd5d8	2.684927
23	0xc0453e63	-3.0819328
24	0x3fbc0724	1.4689679
25	0xc04053cd	-3.0051148
26	0x40292d43	2.6433876
27	0xc02d98ce	-2.7124515
28	0x3f983155	1.1890055
29	0xbfee7582	-1.862961
30	0xc027221c	-2.6114569
31	0x404175c9	3.022814
32	0xbfca923d	-1.5825878
33	0xc037d48a	-2.8723474
34	0xc031e0fc	-2.779357
35	0x4027c45c	2.6213598
36	0x403ae1ad	2.9200242
37	0x3fe7508b	1.8071455
38	0xc0444a07	-3.0670183
39	0x40327cb6	2.7888618
40	0x403ed82a	2.9819436
41	0xc048c53c	-3.1370382
42	0xc036b952	-2.855061
43	0xbfb130b7	-1.3842992
44	0xc039f469	-2.9055426
45	0x402fdf02	2.7479863
46	0x403e78e8	2.9761295
47	0x400ea379	2.2287276
48	0xc00ffddc	-2.2498693
49	0x402fd2cc	2.747241
50	0x403b2430	2.9240837
51	0x403ecb8a	2.981173
52	0xbecf10d4	-0.40442526
53	0x4032273f	2.7836454
54	0xc0396b16	-2.897161
55	0x4032f21c	2.7960272
56	0xbf097d4a	-0.537068
57	0x3fccf740	1.6012955
58	0x404190fe	3.0244746
59	0x4042cc2a	3.0437112
60	0x402494d4	2.5715837
61	0xc03d3109	-2.9561179
62	0xc04b49c6	-3.1763778
63	0xc0359a4d	-2.8375428

FK_LAYER.joints.10.p_offset f4 [3, 1]
0	0xbfdbc258	-1.7168684
1	0xc00c8676	-2.1957068
2	0x42279f1a	41.905373

FK_LAYER.joints.10.rpy_offset f4 [3]
0	0xbbe58a01	-0.0070049767
1	0xbb84af26	-0.0040491996
2	0xba52ead4	-0.00080458564

FK_LAYER.joints.10.axis f4 [3, 1]
0	0x3ebbf7e6	0.3671257
1	0xbf5950f2	-0.8488914
2	0x3e496613	0.19667844

FK_LAYER.joints.10.q_layer.0.weight f4 [1, 64]
0	0xc0026865	-2.0376217
1	0x4027e598	2.6233883
2	0x403cad2d	2.9480698
3	0xbff91555	-1.9459635
4	0xbfddbe9b	-1.7323793
5	0x3f6cfaa9	0.9256998
6	0x4029ab09	2.6510642
7	0xc0124648	-2.2855396
8	0x401f58cb	2.4897945
9	0x40418af8	3.024107
10	0x402549ff	2.5826414
11	0x4015346e	2.331325
12	0xc03a920d	-2.9151642
13	0x40241c00	2.564209
14	0xbda05d16	-0.07830255
15	0x4038cca7	2.887491
16	0x4023d1a1	2.5596697
17	0x3f15f755	0.58580524
18	0x4037a244	2.869279
19	0x403e73ca	2.9758172
20	0x4023f18c	2.5616179
21	0xc02e6b39	-2.7252944
22	0xbfb52b21	-1.4153787
23	0xc01a52c6	-2.411302
24	0xbf49d0d8	-0.78834295
25	0xbec952cc	-0.39320982
26	0x403644c6	2.8479476
27	0x40225327	2.5363252
28	0xc0394f46	-2.8954635
29	0x40234f63	2.5517204
30	0x4036d0e9	2.8565009
31	0x40201c33	2.5017211
32	0xc0426054	-3.0371294
33	0x3fe62fbe	1.798332
34	0xc01297d7	-2.2905176
35	0x40324900	2.7857056
36	0xc03fc690	-2.9964943
37	0xc02ece19	-2.7313292
38	0xc033991a	-2.8062196
39	0x40327846	2.788591
40	0x4039e2d8	2.9044704
41	0xc027a81b	-2.6196353
42	0xbfa6d99f	-1.3035163
43	0x3f4950b7	0.78638786
44	0x400ac9af	2.1685598
45	0x403c886a	2.945826
46	0x402b877e	2.6801448
47	0xc03305d9	-2.797232
48	0x4043e8ba	3.0610795
49	0xc04131f1	-3.0186732
50	0x4026b6af	2.6049001
51	0x403833cc	2.8781614
52	0xc02fa862	-2.7446523
53	0x40333929	2.8003638
54	0xc03b9897	-2.9311883
55	0xbfddfa68	-1.7342043
56	0xc02ac30d	-2.668155
57	0xc0499819	-3.1499083
58	0x4026946e	2.6028094
59	0x401697c1	2.3530123
60	0xc03a6bbb	-2.9128253
61	0xc002cdc8	-2.04381
62	0xc0222926	-2.5337615
63	0x4034db39	2.8258803

FK_LAYER.joints.11.p_offset f4 [3, 1]
0	0xbfc7753b	-1.5582651
1	0xc01fd30b	-2.497256
2	0x4226e981	41.72803

FK_LAYER.joints.11.rpy_offset f4 [3]
0	0x3c21e86b	0.009882073
1	0xbc3d796b	-0.011564593
2	0x3c7f59d3	0.015585381

FK_LAYER.joints.11.axis f4 [3, 1]
0	0xbf03fe30	-0.51559734
1	0xbf54fee4	-0.8320143
2	0x3f0ee8fa	0.55824244

FK_LAYER.joints.11.q_layer.0.weight f4 [1, 64]
0	0xbfe59548	-1.7936182
1	0x4033a656	2.8070273
2	0x400f2a53	2.2369583
3	0x400f9e7d	2.2440484
4	0xc0297b1b	-2.6481388
5	0xc02437fd	-2.5659173
6	0xc00e3692	-2.2220807
7	0xc025f54f	-2.5930974
8	0xbfe6c2dd	-1.8028218
9	0x402eed50	2.7332344
10	0x400d8062	2.2109609
11	0x3fbd75db	1.4801592
12	0xc0307dd7	-2.7576807
13	0x40286414	2.6311083
14	0x401cb14d	2.4483216
15	0xc01640e5	-2.3477108
16	0x4021cd8a	2.52817
17	0xbe7c33a1	-0.2462907
18	0x40375626	2.864633
19	0x402f45ca	2.7386346
20	0x401b1bf3	2.423581
21	0xc03fba2a	-2.9957376
22	0xbfd97dfb	-1.6991571
23	0xc025216c	-2.580165
24	0xbd733107	-0.059372928
25	0x3df97691	0.12180818
26	0x40316c47	2.7722337
27	0x4031658d	2.7718232
28	0xc03dd7df	-2.9663007
29	0x4024fbc7	2.5778673
30	0x401f955c	2.4934912
31	0x40127b17	2.2887628
32	0xc0425da8	-3.0369663
33	0xbfe22576	-1.7667682
34	0xc017e538	-2.3733654
35	0x402788af	2.6177175
36	0xc0394658	-2.8949184
37	0xc03c8582	-2.9456487
38	0xc02a4c10	-2.6608925
39	0x4020101f	2.500984
40	0x4017d0cd	2.3721192
41	0xc033650c	-2.8030424
42	0xbfab9885	-1.340592
43	0xbf9e88d0	-1.2385502
44	0xc001ef9b	-2.0302494
45	0x40273627	2.6126802
46	0x403d7f76	2.9609046
47	0xc04496bd	-3.0717003
48	0x403e1fb1	2.9706843
49	0xc03b62fc	-2.9279165
50	0x403d92a4	2.9620752
51	0x40305904	2.755433
52	0xc039d54b	-2.9036434
53	0xc00e9bdc	-2.228263
54	0xc03c6821	-2.9438555
55	0xbffdda9c	-1.9832339
56	0xc04abbf7	-3.1677225
57	0xc04ef92c	-3.2339582
58	0x401e8816	2.477056
59	0x4037af94	2.8700914
60	0xc04c2406	-3.1896987
61	0xc01d8a74	-2.4615755
62	0xc0215815	-2.521001
63	0x4032db54	2.7946367

FK_LAYER.joints.12.p_offset f4 [3, 1]
0	0xbf8a040c	-1.0782485
1	0xc0057473	-2.0852325
2	0x42265a05	41.58791

FK_LAYER.joints.12.rpy_offset f4 [3]
0	0xbc83c2d0	-0.016084105
1	0x3c01c627	0.007920778
2	0x3b0b39b8	0.002124412

FK_LAYER.joints.12.axis f4 [3, 1]
0	0xc0216b9e	-2.5221934
1	0xc0300c20	-2.75074
2	0x403c7899	2.9448607

FK_LAYER.joints.12.q_layer.0.weight f4 [1, 64]
0	0x40513c66	3.2693114
1	0x4032d9c7	2.794542
2	0x40304e68	2.7547855
3	0xc028c4e2	-2.6370168
4	0x4018311e	2.3779979
5	0x40290155	2.6407063
6	0x402f93d7	2.7433984
7	0x403f63e8	2.9904728
8	0x402d40f4	2.7070894
9	0x4026652c	2.599925
10	0xc02d8a29	-2.7115576
11	0x403d5c30	2.9587517
12	0xc02ba320	-2.6818314
13	0xc021b891	-2.52689
14	0x403d7504	2.960267
15	0x40302105	2.7520154
16	0x4025c754	2.590291
17	0xc0450556	-3.0784507
18	0x4028ebb0	2.6393852
19	0xc047cdca	-3.1219354
20	0xc015ec90	-2.3425636
21	0xc036bb54	-2.8551836
22	0xc028b956	-2.636312
23	0x403e86fe	2.9769893
24	0xc00a4cc1	-2.1609347
25	0x4031a436	2.7756476
26	0x4032a8d1	2.7915537
27	0x402dbfe2	2.7148366
28	0xc0327ae1	-2.78875
29	0x4043d500	3.0598755
30	0x40323a4e	2.7848086
31	0xc03a8c54	-2.914815
32	0xc04b0f90	-3.1728249
33	0x40520da1	3.2820818
34	0x403c209f	2.939491
35	0xc02b9ba2	-2.681374
36	0x40271892	2.6108747
37	0xc050392e	-3.25349
38	0x3fb50c4a	1.4144375
39	0xc02c1532	-2.6887937
40	0x403650bd	2.8486779
41	0x4010deb3	2.2635925
42	0x402c3e7f	2.6913145
43	0x3fe176a4	1.7614331
44	0x404596d4	3.0873308
45	0x40326eb2	2.7880063
46	0x4042276c	3.0336561
47	0xc02c3b75	-2.691129
48	0x40281c5b	2.6267307
49	0xc02297ea	-2.540522
50	0xc02e8690	-2.726963
51	0xc0265324	-2.5988245
52	0xbfecc6a8	-1.8498125
53	0x40293194	2.643651
54	0xc05b063f	-3.4222562
55	0x4010816b	2.257899
56	0x3fb324f1	1.3995649
57	0xc02d980f	-2.712406
58	0x401ed1dc	2.4815588
59	0x402ceb8b	2.7018764
60	0xc047cfa8	-3.1220493
61	0x4032d40f	2.794193
62	0x4030796d	2.7574112
63	0x40331882	2.7983708

FK_LAYER.joints.13.p_offset f4 [3, 1]
0	0xbfb4e669	-1.4132816
1	0xc0310766	-2.7660766
2	0x42261a1a	41.52549

FK_LAYER.joints.13.rpy_offset f4 [3]
0	0xbc907041	-0.017631652
1	0x3c983560	0.018580139
2	0xb95792e1	-0.00020558714

FK_LAYER.joints.13.axis f4 [3, 1]
0	0x3d816f99	0.06320114
1	0x3dc9c8c2	0.09852745
2	0x3e591ddd	0.21202798

FK_LAYER.joints.13.q_layer.0.weight f4 [1, 64]
0	0xbfae64bd	-1.3624493
1	0xbf6eded5	-0.93308765
2	0x40235807	2.5522478
3	0xc0232d5c	-2.5496435
4	0xc04276cb	-3.0385005
5	0x3f9f011a	1.2422211
6	0x402eac68	2.7292728
7	0x3d8cc486	0.06873421
8	0x4015ee6a	2.3426766
9	0x40357e0c	2.8358183
10	0xbfc83a87	-1.5642861
11	0x3ff78ded	1.9340187
12	0xc04456fa	-3.0678086
13	0x402c0a6f	2.6881368
14	0x402418b8	2.5640087
15	0x40268e30	2.6024284
16	0x400896f7	2.1342142
17	0x3eacdc29	0.3376172
18	0x404282b2	3.039227
19	0x40291fa6	2.6425567
20	0xc01500fa	-2.3281846
21	0xc03f4a21	-2.9888995
22	0x400c2567	2.1897829
23	0x400aa4ed	2.1663163
24	0xbee6aa93	-0.45052013
25	0x3e7bddfa	0.24596396
26	0x4041978c	3.0248747
27	0x4024730f	2.5695226
28	0xc03b76e3	-2.9291313
29	0x401e0ef3	2.4696624
30	0x402babf4	2.6823702
31	0xc01a33cc	-2.4094114
32	0xc0423868	-3.0346928
33	0x3fe84be2	1.8148158
34	0x3feaf7db	1.835689
35	0x4029efd0	2.655262
36	0xc035a86a	-2.8384042
37	0xc030bfd5	-2.7617085
38	0xc0348529	-2.8206275
39	0x403225a4	2.7835474
40	0x40307ee5	2.757745
41	0xc0320cee	-2.7820392
42	0x3f26dc59	0.65179974
43	0x40307901	2.7573855
44	0x40093c73	2.1443145
45	0x4029d70b	2.6537502
46	0x404002d5	3.0001729
47	0xc041a702	-3.0258183
48	0x403368aa	2.8032632
49	0xc0346652	-2.8187451
50	0x401e8d04	2.477357
51	0x403befcb	2.9365108
52	0xc039a9a9	-2.9009802
53	0x40322945	2.783769
54	0xc03661ef	-2.8497274
55	0x4020cf17	2.5126398
56	0x3fe56cc2	1.7923815
57	0xc03d24f4	-2.9553804
58	0x4041549b	3.020789
59	0x402c93ae	2.6965137
60	0xc03a0adb	-2.9069126
61	0xc038de47	-2.8885667
62	0xc01e417c	-2.4727468
63	0x40352bf9	2.8308089

FK_LAYER.joints.14.p_offset f4 [3, 1]
0	0xc0a26764	-5.075121
1	0xc0cc4f4d	-6.3846803
2	0x42255c81	41.340336

FK_LAYER.joints.14.rpy_offset f4 [3]
0	0xbba1613c	-0.0049249213
1	0x3a39c388	0.00070863264
2	0xbc56eb67	-0.013117648

FK_LAYER.joints.15.p_offset f4 [3, 1]
0	0xc0a35ae7	-5.1048465
1	0xc0d45050	-6.634804
2	0x42256807	41.35159

FK_LAYER.joints.15.rpy_offset f4 [3]
0	0xb9fcb399	-0.00048198996
1	0xbcb7a8f7	-0.022419436
2	0xbbecb66c	-0.007223895

FK_LAYER.joints.15.axis f4 [3, 1]
0	0x3bf2e560	0.0074125975
1	0xbdf3086c	-0.11866841
2	0x3f4267a7	0.7593941

FK_LAYER.joints.15.q_layer.0.weight f4 [1, 64]
0	0x400f2e55	2.237203
1	0x403479f7	2.8199441
2	0x4043bd96	3.0584464
3	0xbffba1a5	-1.9658705
4	0xc02aac8e	-2.666782
5	0xc01dde50	-2.4666939
6	0xc02ad630	-2.669323
7	0x3fd8376b	1.6891912
8	0xc026cf0e	-2.6063876
9	0x402d4732	2.7074704
10	0xbff96644	-1.9484334
11	0x3fc06f01	1.5033876
12	0xc02ed978	-2.7320232
13	0x40316f9a	2.7724366
14	0xbecd847e	-0.40140146
15	0x40371528	2.8606663
16	0x40323551	2.7845042
17	0x3f012a9b	0.50455636
18	0xc01f58fb	-2.489806
19	0x403dcbe3	2.9655693
20	0x403e5ef1	2.9745448
21	0xc0341963	-2.8140495
22	0xc0096f5b	-2.1474216
23	0xc03d0f93	-2.9540756
24	0x3f03dd50	0.5150957
25	0xbed13169	-0.4085801
26	0x403f53d5	2.9894917
27	0xc0272e80	-2.6122131
28	0xc0375dd6	-2.8651023
29	0x402c696f	2.6939352
30	0x40365d2e	2.8494372
31	0x4011fa6e	2.28091
32	0xc042593c	-3.0366964
33	0x402aed7b	2.6707447
34	0x40209336	2.508985
35	0x4040ab2a	3.010447
36	0x40393521	2.8938677
37	0xc03e4c4e	-2.9734073
38	0xc04395c3	-3.0560157
39	0x40314940	2.7700958
40	0x40447f0e	3.0702548
41	0xc0042d47	-2.0652635
42	0xbf902ba9	-1.1263324
43	0xbf70e58d	-0.94100267
44	0x40140ba9	2.3132117
45	0x403cf7ff	2.9526365
46	0x402b498e	2.6763644
47	0xc02729e2	-2.6119313
48	0x4037bc29	2.8708594
49	0x4046c257	3.1056116
50	0x403542da	2.8322053
51	0x40432ff7	3.0498025
52	0x4041086e	3.0161395
53	0xc031c99c	-2.7779303
54	0xc029d36c	-2.6535292
55	0x40102d89	2.2527792
56	0x4000b2f7	2.0109231
57	0x402d9ba2	2.712624
58	0x4020a0a6	2.5098052
59	0x402dfd78	2.7185955
60	0x3e2faae9	0.17155041
61	0x3fe38e43	1.777779
62	0xc037a2ba	-2.869307
63	0xc03280c5	-2.7891095

FK_LAYER.joints.16.p_offset f4 [3, 1]
0	0xc084bead	-4.148276
1	0xc0d5b4a0	-6.678299
2	0x422628c4	41.53981

FK_LAYER.joints.16.rpy_offset f4 [3]
0	0x3b2bb2f3	0.0026199191
1	0xbc668cd2	-0.01407166
2	0xbb69f480	-0.0035698712

FK_LAYER.joints.16.axis f4 [3, 1]
0	0x3ffcb8da	1.9743912
1	0xc0080762	-2.1254506
2	0x403a8dd7	2.9149072

FK_LAYER.joints.16.q_layer.0.weight f4 [1, 64]
0	0x4037bd9f	2.8709486
1	0x3fd2b4be	1.6461408
2	0xbf62fc4a	-0.8866621
3	0xc02e0755	-2.7191975
4	0x404ace3c	3.1688375
5	0x4035565c	2.833396
6	0x403f4e11	2.9891398
7	0x40306c6d	2.7566178
8	0x402068ae	2.5063891
9	0xc03cc5f2	-2.9495816
10	0xc0330b8c	-2.7975798
11	0x4014b6be	2.3236537
12	0xc023cf66	-2.5595336
13	0xc0369548	-2.8528614
14	0x3faf3fb0	1.3691311
15	0xc04ad211	-3.1690714
16	0x40298861	2.648949
17	0xc012dee7	-2.2948549
18	0x4026a802	2.6040044
19	0xc039b5e9	-2.901728
20	0xc041825e	-3.023582
21	0x403bee60	2.9364243
22	0xc03ddee6	-2.9667296
23	0x4052fffb	3.2968738
24	0xc017cbd9	-2.3718169
25	0x40459f8f	3.0878637
26	0xc03c50aa	-2.9424233
27	0x403d9189	2.9620078
28	0xc02e56ab	-2.7240398
29	0x3ffe1373	1.9849685
30	0x4017b6a2	2.370522
31	0x3ffaf136	1.9604862
32	0xc02cee39	-2.70204
33	0x4040f11b	3.014716
34	0x4039c465	2.902612
35	0xc03e458e	-2.9729953
36	0xc0358cde	-2.8367229
37	0xc02f25c6	-2.7366805
38	0x402aa2a5	2.666177
39	0xc039cc5f	-2.9030988
40	0xc025bfb2	-2.5898252
41	0x4035e22a	2.841929
42	0x4035c9b8	2.840437
43	0x3fd8f1c7	1.6948785
44	0x402706fb	2.609801
45	0xc03183d7	-2.7736719
46	0x40319ced	2.775203
47	0xc049550a	-3.1458154
48	0xc035ffe1	-2.8437426
49	0xc02c7bb7	-2.695051
50	0xc03870ba	-2.8818803
51	0xc04349c4	-3.0513773
52	0xbf705323	-0.93876857
53	0xc02a94de	-2.6653361
54	0xc02ee324	-2.7326136
55	0x3fc87bcb	1.5662779
56	0x3fcf1e64	1.618115
57	0xc01fad8b	-2.4949672
58	0xc02ff00b	-2.749026
59	0x40194183	2.3946235
60	0xbed443c1	-0.41457942
61	0x403369b3	2.8033264
62	0x40388324	2.8830042
63	0x40451270	3.0792503

FK_LAYER.joints.17.p_offset f4 [3, 1]
0	0xc062d57e	-3.5442805
1	0xc0d274a9	-6.5767407
2	0x422718e9	41.774326

FK_LAYER.joints.17.rpy_offset f4 [3]
0	0xbb7349d1	-0.0037122855
1	0x3c2a26e1	0.010385246
2	0xbc43a95d	-0.011942235

FK_LAYER.joints.17.axis f4 [3, 1]
0	0xbf149b82	-0.58049786
1	0x3eee6e4b	0.46568522
2	0xbddda07b	-0.10821625

FK_LAYER.joints.17.q_layer.0.weight f4 [1, 64]
0	0x40351509	2.829409
1	0x40322875	2.7837193
2	0x403ba446	2.9319015
3	0x3fccc697	1.5998105
4	0x4030f587	2.7649858
5	0x3f91cd4b	1.1390775
6	0xc004095a	-2.0630708
7	0x3f3e296a	0.7428194
8	0x4026d2e4	2.6066217
9	0xc030ea23	-2.7642906
10	0x4006ce5b	2.106345
11	0x4006cab2	2.1061215
12	0xc032e136	-2.7949958
13	0x403624c9	2.8459952
14	0x4014011f	2.3125684
15	0xc0386129	-2.8809302
16	0x401ecf22	2.4813924
17	0xbeab037b	-0.33401093
18	0x40467f7b	3.1015308
19	0x403609d3	2.8443496
20	0x400d3fd9	2.207022
21	0xc030dbb2	-2.7634091
22	0x3fce829e	1.6133611
23	0xc01f1dcd	-2.486194
24	0xbfdcf47d	-1.7262112
25	0x3f5a1774	0.85192037
26	0x402bdb44	2.685258
27	0x4037968d	2.868564
28	0xc048c8af	-3.1372488
29	0x402cbd95	2.6990712
30	0x401e422b	2.4727886
31	0x3ff01c86	1.8758705
32	0xc03a2ace	-2.9088626
33	0x402d41e4	2.7071466
34	0xbff45aee	-1.909025
35	0x402f5214	2.7393847
36	0xc02b356e	-2.675136
37	0xc049aec9	-3.151293
38	0xc0286c73	-2.6316192
39	0x40169f71	2.3534815
40	0x40144761	2.3168566
41	0x3fe0b4ab	1.7555135
42	0x3e40ebb2	0.1883991
43	0xbf977207	-1.1831673
44	0xbf9827fb	-1.1887201
45	0x40415982	3.0210881
46	0x401d594d	2.4585755
47	0xc038aff9	-2.8857405
48	0x40249666	2.5716796
49	0xc03eb8b6	-2.9800239
50	0xc01cabfe	-2.4479976
51	0x4040ab7f	3.0104673
52	0xc03ddbcc	-2.9665403
53	0x402938a9	2.6440833
54	0xc04323ef	-3.0490682
55	0x3fb232f2	1.3921797
56	0x3fcd246d	1.6026741
57	0xc0328ad8	-2.7897243
58	0x4024adbb	2.5731037
59	0x4032344f	2.7844427
60	0xc038dcc5	-2.8884747
61	0x401506f5	2.3285496
62	0xc031b9a7	-2.7769563
63	0x404ae7dc	3.1704016

FK_LAYER.joints.18.p_offset f4 [3, 1]
0	0xc085e9f0	-4.184807
1	0xc0da91a6	-6.8302794
2	0x4225d835	41.46114

FK_LAYER.joints.18.rpy_offset f4 [3]
0	0xbbaed878	-0.0053358637
1	0x3b3e9cd1	0.002908517
2	0xbba1954f	-0.004931129

FK_LAYER.joints.18.axis f4 [3, 1]
0	0xbc9223ba	-0.017839301
1	0x3e04f625	0.12984522
2	0x3dac7bb6	0.084220335

FK_LAYER.joints.18.q_layer.0.weight f4 [1, 64]
0	0xc03afd80	-2.9217224
1	0x3f907078	1.1284323
2	0xc041db79	-3.0290205
3	0xc018c53d	-2.3870385
4	0x40392a30	2.8932
5	0x401e0022	2.468758
6	0xc02f129a	-2.7355103
7	0x40155f65	2.3339474
8	0xc0294eae	-2.6454272
9	0x402e69ee	2.7252154
10	0xc01fa2fa	-2.4943223
11	0xc02339b9	-2.550398
12	0x40496690	3.146885
13	0xc025e94a	-2.5923638
14	0xc012afd1	-2.291981
15	0x4024357c	2.5657644
16	0xc01548f0	-2.3325768
17	0x3a6a2f25	0.00089334167
18	0xc0231ac5	-2.548509
19	0xc011a664	-2.2757807
20	0xc00b05a3	-2.172219
21	0x403d0d55	2.9539387
22	0xc00aa8d5	-2.1665547
23	0x4021a37e	2.5256038
24	0xbf1dac55	-0.6159108
25	0x3e391af7	0.18076693
26	0xc021d774	-2.5287752
27	0xc028488a	-2.6294274
28	0x40353a47	2.831682
29	0xc01afe9f	-2.4217908
30	0xc01ad3a8	-2.4191685
31	0xc01772ad	-2.3663743
32	0x40367b7a	2.8512864
33	0x3fd00b31	1.6253415
34	0x4000bf50	2.0116768
35	0xc023c14f	-2.5586736
36	0x403c1d3a	2.9392838
37	0x403f343d	2.9875634
38	0x404ef5f5	3.233762
39	0xc02d5bc6	-2.7087264
40	0xc030613c	-2.7559347
41	0x40285635	2.6302617
42	0xbf235f59	-0.63817364
43	0xbf861ae7	-1.047696
44	0x3fa2acd2	1.270899
45	0xc02fe0d4	-2.7480974
46	0xc034536f	-2.8175924
47	0x403a1f2d	2.9081528
48	0xc0255b32	-2.5836911
49	0x4026ad03	2.6043098
50	0x40334029	2.800791
51	0xc02c86ce	-2.6957278
52	0x402e1672	2.72012
53	0xc02e8156	-2.726644
54	0x4037b598	2.8704586
55	0x403a81f4	2.9141817
56	0xbffc170b	-1.9694532
57	0x40430bd6	3.0475974
58	0xc03335ab	-2.8001506
59	0xc03e76cc	-2.9760008
60	0x403355c5	2.80211
61	0x40345b5e	2.8180766
62	0x40188ad5	2.3834736
63	0xc033a6dc	-2.8070593

FK_LAYER.joints.19.p_offset f4 [3, 1]
0	0xc08a3626	-4.31911
1	0xc0e21291	-7.0647664
2	0x4224ee38	41.232635

FK_LAYER.joints.19.rpy_offset f4 [3]
0	0xbb5f8708	-0.0034107585
1	0x3bb9ab9c	0.0056662094
2	0xbb01f006	-0.0019826903

FK_LAYER.joints.19.axis f4 [3, 1]
0	0xc0200e07	-2.5008562
1	0x3ff967a9	1.948476
2	0xc044055e	-3.0628276

FK_LAYER.joints.19.q_layer.0.weight f4 [1, 64]
0	0xc0334007	-2.800783
1	0xbfdd5cbc	-1.7293925
2	0x4024afbf	2.5732267
3	0x40489d5a	3.134604
4	0xc02cd1aa	-2.7002969
5	0xc031d4fa	-2.778624
6	0xc03e5ee0	-2.9745407
7	0xc044830a	-3.070498
8	0xc030b4f6	-2.761045
9	0x40463f58	3.0976162
10	0x40482f9e	3.1279063
11	0xc052dcff	-3.2947385
12	0x4034c815	2.824712
13	0x403820fb	2.877013
14	0xbfaaf665	-1.3356444
15	0x403666d1	2.8500254
16	0xbffc9276	-1.9732196
17	0x402e745e	2.7258525
18	0xc03d05f6	-2.9534888
19	0x404d9b21	3.2125933
20	0x4048de0b	3.1385524
21	0x402ad385	2.6691601
22	0x4042708d	3.0381196
23	0xc0299ef3	-2.6503265
24	0x402aad6b	2.6668346
25	0xc04c7db4	-3.1951723
26	0x4047b4bf	3.1204069
27	0xc02d1a54	-2.704732
28	0x403ed9d8	2.9820461
29	0xc006ffd6	-2.109365
30	0xc012cc5a	-2.2937226
31	0x403a3b72	2.9098783
32	0x40297f52	2.648396
33	0xc03a450b	-2.910464
34	0xc033087e	-2.7973933
35	0x403d0522	2.9534383
36	0x4038c505	2.887025
37	0x4032fed8	2.7968044
38	0xbff67bc3	-1.9256519
39	0x403bda36	2.9351935
40	0x40342c3f	2.8152006
41	0xc027c1ff	-2.6212156
42	0xc045d319	-3.0910094
43	0x3f973251	1.181223
44	0xc030d716	-2.7631278
45	0x403bdd8c	2.9353971
46	0xc015490c	-2.3325834
47	0x40396690	2.896885
48	0xc01bd959	-2.4351408
49	0x40295ae7	2.6461732
50	0x4030326a	2.753077
51	0xc0231aca	-2.54851
52	0x3ff7eb1d	1.9368626
53	0x4034724e	2.8194766
54	0x403f212a	2.9863992
55	0x404433f5	3.0656712
56	0xbff0812b	-1.8789419
57	0x402a91c0	2.6651459
58	0x40459587	3.0872514
59	0x4031cd92	2.778172
60	0xbe00b4e3	-0.12569003
61	0xc0272fd2	-2.6122937
62	0xc01aa49a	-2.4162965
63	0xc0251657	-2.5794885

FK_LAYER.joints.20.p_offset f4 [3, 1]
0	0xc09186ac	-4.5476894
1	0xc0e6c9eb	-7.212148
2	0x42245032	41.078316

FK_LAYER.joints.20.rpy_offset f4 [3]
0	0x3c251572	0.010075914
1	0x3b85e8e2	0.0040865997
2	0x3c7e1a5c	0.015509214

FK_LAYER.joints.20.axis f4 [3, 1]
0	0xbdfccc84	-0.12343696
1	0xbdf0a82c	-0.11750826
2	0xbf8b3859	-1.0876571

FK_LAYER.joints.20.q_layer.0.weight f4 [1, 64]
0	0x401f8dbb	2.4930255
1	0x4025c4cf	2.5901372
2	0x4030a6d2	2.760182
3	0x4009f168	2.1553593
4	0xc0310996	-2.76621
5	0xbfe911fc	-1.8208613
6	0x40240525	2.562814
7	0xbffc2848	-1.9699793
8	0xc0322db8	-2.7840405
9	0x404a1103	3.1572883
10	0xbfe6d250	-1.8032932
11	0x400656ea	2.0990548
12	0xc055a50d	-3.338199
13	0xc02696e2	-2.6029592
14	0x3f63d40b	0.88995427
15	0x40431fcf	3.0488164
16	0x401cf2d0	2.45232
17	0x3e830b25	0.2559444
18	0x403a1b0e	2.9079013
19	0xc01c7553	-2.444661
20	0xc034c424	-2.8244715
21	0xc02fcfb3	-2.747052
22	0xbff3dc0c	-1.9051528
23	0x3fe4be84	1.7870641
24	0x3e211456	0.15730414
25	0xbeb6bb4c	-0.3568977
26	0x40269988	2.6031208
27	0xc027a905	-2.6196911
28	0xc04ed73d	-3.231887
29	0x402d12a3	2.7042625
30	0x402c5a89	2.6930258
31	0xc019cc51	-2.4030955
32	0xc04df47d	-3.2180474
33	0x40090b48	2.1413136
34	0xbf4bbef4	-0.79588246
35	0xc028dae6	-2.6383605
36	0xc029efc4	-2.6552591
37	0xc0226e2e	-2.5379748
38	0xc032fd91	-2.7967265
39	0xc02e1de3	-2.7205741
40	0x4033d99e	2.8101573
41	0x3f5b15d1	0.85580164
42	0x3fbb7d38	1.4647589
43	0x4021aaae	2.5260425
44	0x40030d04	2.0476694
45	0x403bd1ec	2.9346876
46	0xc02b73e9	-2.6789496
47	0xc01faf83	-2.4950874
48	0x4035d287	2.8409746
49	0x403b1970	2.9234276
50	0xc0332815	-2.7993214
51	0x40314274	2.769681
52	0x40265f09	2.5995505
53	0xc0265235	-2.5987675
54	0xc039a9ea	-2.9009957
55	0x4037d2b4	2.8722353
56	0x3ff9505e	1.9477651
57	0xc0321e61	-2.7831042
58	0x402f6abc	2.7408895
59	0x404d2281	3.205231
60	0x403744fa	2.863585
61	0xc02ed7b9	-2.7319167
62	0x4010ce0e	2.2625766
63	0xc0301587	-2.751314

FK_LAYER.joints.21.p_offset f4 [3, 1]
0	0xc0d8956f	-6.7682414
1	0xc112489d	-9.142728
2	0x42220bba	40.51145

FK_LAYER.joints.21.rpy_offset f4 [3]
0	0x3cc39b83	0.023877865
1	0x3c6ca69f	0.014444022
2	0x3c075197	0.008259199

FK_LAYER.joints.22.p_offset f4 [3, 1]
0	0xc0eb07b4	-7.3446903
1	0xc101d45b	-8.114345
2	0x4223e267	40.971096

FK_LAYER.joints.22.rpy_offset f4 [3]
0	0x3c2c4928	0.010515489
1	0x3c1a2e54	0.00941046
2	0xbb8124fb	-0.003941176

FK_LAYER.joints.22.axis f4 [3, 1]
0	0x3f1dbf81	0.61620337
1	0xbee969a0	-0.45588398
2	0xbe865150	-0.26233912

FK_LAYER.joints.22.q_layer.0.weight f4 [1, 64]
0	0xc01ea125	-2.4785855
1	0xc041b08f	-3.0264013
2	0xc0458ac3	-3.0865943
3	0xc001ce4c	-2.0282164
4	0x40423fca	3.0351434
5	0x3fa62ef8	1.2983084
6	0xc0592302	-3.3927617
7	0xc010097e	-2.2505794
8	0xc020babc	-2.5113974
9	0xc028ffc9	-2.640612
10	0xc027f9de	-2.6246257
11	0xc021cb5f	-2.5280378
12	0x40432d9a	3.0496583
13	0xc0227028	-2.5380955
14	0x3ebbad67	0.36655733
15	0xc034d685	-2.8255932
16	0xc01c3fb1	-2.4413874
17	0x3dddd0cd	0.10830841
18	0xc02ac36c	-2.6681776
19	0xc033a628	-2.8070164
20	0x401b3ceb	2.4255931
21	0x40393662	2.8939443
22	0xc014d6cd	-2.3256104
23	0x401ff16c	2.4991102
24	0x3f110427	0.5664696
25	0x3d0aeaac	0.033915207
26	0xc017fd0a	-2.3748193
27	0xc02386e0	-2.555107
28	0x402b1a11	2.673466
29	0xc0396fae	-2.8974414
30	0xc02d3d64	-2.706872
31	0x4016ce0e	2.3563266
32	0x403a40da	2.9102082
33	0xc01197ae	-2.2748828
34	0xc0132609	-2.2991965
35	0xc03f6b0c	-2.9909086
36	0x40486288	3.1310139
37	0x403e7940	2.9761505
38	0x403ec643	2.980851
39	0xc027daf8	-2.6227398
40	0xc02fb93b	-2.7456806
41	0xbf8da6ac	-1.1066489
42	0x3fefd6e8	1.8737459
43	0xc02f2f9f	-2.7372816
44	0xc02266b7	-2.5375192
45	0xc0233e65	-2.5506833
46	0xc03d6fd7	-2.9599512
47	0x40281d5f	2.6267927
48	0xc04c4e80	-3.1922913
49	0x403e306c	2.9717054
50	0xc027b121	-2.620186
51	0xc0320201	-2.7813723
52	0x4034d1bb	2.825301
53	0xc03e3a8e	-2.972324
54	0x4034f4eb	2.8274486
55	0xbfdcdb4f	-1.7254428
56	0xc000e58a	-2.01401
57	0x4042e411	3.04517
58	0xc0303d84	-2.7537546
59	0xc0420cb4	-3.0320253
60	0x40362aca	2.8463616
61	0x40213773	2.5190094
62	0x403626cc	2.846118
63	0xc03bb139	-2.9326918

FK_LAYER.joints.23.p_offset f4 [3, 1]
0	0xc0f87a8f	-7.764961
1	0xc0f677ac	-7.7021084
2	0x42240088	41.00052

FK_LAYER.joints.23.rpy_offset f4 [3]
0	0xba02fa3c	-0.0004996394
1	0x3b8fb741	0.0043858592
2	0xbc5216ca	-0.012822816

FK_LAYER.joints.23.axis f4 [3, 1]
0	0xc018e319	-2.388861
1	0xc01bbead	-2.433513
2	0x403c53a0	2.942604
