results/PRIMNET/ABAQUS32/weights/epoch_13.pth (torch, 89670 bytes, 189 tensors)

motor_std f4 [3]
0	0x3e669df4	0.22521192
1	0x3d6a6882	0.057228573
2	0x3bbcdfa9	0.005763967

motor_mean f4 [3]
0	0xbe834dc2	-0.25645262
1	0x39518e80	0.00019984879
2	0xbdb83994	-0.08995357

position_std f4 [3, 1]
0	0x3f800000	1.0
1	0x3f800000	1.0
2	0x3f800000	1.0

position_mean f4 [3, 1]
0	0x00000000	0.0
1	0x00000000	0.0
2	0x00000000	0.0

ACT_EMBED.layers.0.weight f4 [32, 3]
0	0x3f4c10ac	0.7971294
1	0xbf2095c3	-0.6272852
2	0x3eb5633e	0.35427278
3	0x3ee76db6	0.4520089
4	0xbe6d20b3	-0.23157005
5	0xbda6cf50	-0.081450105
6	0xbeb22751	-0.3479562
7	0xbea907bb	-0.3301371
8	0x3e42cb3c	0.1902284
9	0xbe611d7a	-0.219839
10	0x3dacce9c	0.08437845
11	0xbe6dcb81	-0.23222162
12	0x3e83aa6a	0.25715953
13	0xbf2c4d00	-0.6730499
14	0x3e12cf38	0.1433686
15	0xbf179731	-0.59215075
16	0x3e957ed7	0.29198334
17	0xbeea2c2c	-0.45736825
18	0x3e2555b0	0.16145968
19	0x3daf6a63	0.085652135
20	0xbe50d7c9	-0.20394816
21	0x3e88715a	0.2664898
22	0xbf1d5ac0	-0.614666
23	0xbd893d6c	-0.067011684
24	0xbf1b68d6	-0.6070684
25	0x3eba94f8	0.3644178
26	0x3ebc9a11	0.36836293
27	0xbeb612fd	-0.35561362
28	0x3bba4a2c	0.0056851115
29	0xbdfae594	-0.1225082
30	0x3e87844e	0.26468128
31	0x3f12c816	0.57336557
32	0xbe395e32	-0.18102339
33	0x3e1d1788	0.15341008
34	0x3e1ff7e9	0.15621914
35	0xbe2b2270	-0.16712356
36	0x3f1ecbbf	0.6202964
37	0xbe9f46c1	-0.31108668
38	0x3dd043d7	0.101691894
39	0xbef6a4a4	-0.48172486
40	0x3eb17731	0.34661248
41	0xbe3c81a7	-0.18408833
42	0xbee2b40d	-0.44277993
43	0x3e3d5cae	0.18492386
44	0xbe0e1a40	-0.13877201
45	0xbe6bdb28	-0.2303282
46	0x3ebda011	0.37036183
47	0x3e5ec079	0.2175311
48	0x3e9f73ff	0.31143185
49	0x3d931619	0.07181949
50	0x3e63035d	0.22169252
51	0xbddc1e64	-0.10747984
52	0x3e1d8462	0.15382531
53	0x3eb44016	0.35205144
54	0x3e518a4f	0.20462917
55	0x3e7b1742	0.24520591
56	0x3e2fd28d	0.17170162
57	0xbeac7ebb	-0.33690438
58	0x3c8370b1	0.016044946
59	0xbdcd87be	-0.100356564
60	0xbed7fa4e	-0.42183155
61	0x3eee9fd6	0.4660632
62	0xbd6dba11	-0.058038775
63	0xbb9b7763	-0.0047444566
64	0x3ec0d520	0.376626
65	0xbe9965ac	-0.29960382
66	0x3e510613	0.20412473
67	0xbe12fc6c	-0.14354104
68	0xbd0d1cc6	-0.03445127
69	0x3d4148a9	0.047188435
70	0x3e62e2aa	0.22156778
71	0x3eacc143	0.33741197
72	0xbc94e77b	-0.018176785
73	0xbec74034	-0.3891617
74	0xbd94276e	-0.07234083
75	0xbe970b2c	-0.2950071
76	0x3e75ab0e	0.23991033
77	0x3dba8f4d	0.09109364
78	0x3ebb6173	0.36597785
79	0xbe262d7f	-0.16228293
80	0x3ba1cd8e	0.004937834
81	0x3e00b274	0.12568074
82	0x3d97c320	0.07410264
83	0x3e27d014	0.1638797
84	0xbe33898f	-0.17532943
85	0x3ef47f32	0.47753292
86	0xbd3f9a9b	-0.046778303
87	0x3ea9d311	0.33168843
88	0xbeb8c1d2	-0.36085373
89	0xbd6c75da	-0.05772958
90	0xbdaafc75	-0.083489336
91	0x3f0cbc90	0.54975224
92	0xbd9118e5	-0.070848264
93	0xbd13a021	-0.036041383
94	0x3e431205	0.19049843
95	0xbc99774e	-0.018733647

ACT_EMBED.layers.2.weight f4 [32, 32]
0	0xbf3b171d	-0.73082143
1	0xbe8c3728	-0.2738583
2	0x3e43b4dc	0.19111961
3	0x3d67c7a3	0.056586873
4	0xbec30e18	-0.3809669
5	0x3eaf636b	0.34255537
6	0xbdd55bd4	-0.104179054
7	0xbe67ac06	-0.22624215
8	0x3bacb0ab	0.005270084
9	0xbe8858df	-0.26630303
10	0x3e26fde9	0.16307797
11	0xbea6777a	-0.32513028
12	0xbf1a3e5e	-0.60251415
13	0x3f027948	0.5096631
14	0x3a55ce9a	0.0008156091
15	0x3e90e718	0.2830131
16	0xbda61f19	-0.081114
17	0xbe72d62e	-0.23714516
18	0xbe6d6a0f	-0.2318499
19	0x3e5a6d4c	0.21330756
20	0x3ee06052	0.43823487
21	0x3e996343	0.29958543
22	0xbe199f01	-0.15002061
23	0x3eadf3e1	0.33975127
24	0x3e13f762	0.14449838
25	0xbdbbfbe6	-0.09178905
26	0xbf34e9aa	-0.70669043
27	0xbe670a71	-0.22562577
28	0xbc0c4dc3	-0.008563462
29	0xbe20732e	-0.15668938
30	0xb8d01818	-9.922701e-05
31	0x3ebef2a9	0.3729451
32	0x3f2a45ae	0.6651257
33	0xbdd662b6	-0.10468046
34	0xbe853a36	-0.26020974
35	0xbdb1841c	-0.08667776
36	0x3f263a06	0.64932287
37	0xbed0625d	-0.40700045
38	0xbe2baa5b	-0.16764204
39	0x3f0b77f2	0.544799
40	0xbf2fa46f	-0.6861028
41	0xbeed2c16	-0.46322697
42	0xbf34cffa	-0.7062985
43	0xbf11d173	-0.5696022
44	0xbeb441e8	-0.35206532
45	0xbef90eb2	-0.48644024
46	0xbedd27f0	-0.43194532
47	0xbe7e251f	-0.24818848
48	0xbe740c50	-0.23832822
49	0xbe904f07	-0.28185293
50	0xbf2f1142	-0.6838571
51	0xbf28eee8	-0.6598954
52	0xbddc4864	-0.10755995
53	0xbeef6d1e	-0.46762937
54	0xbe92a191	-0.2863889
55	0xbe8f526a	-0.27992564
56	0x3c14fd20	0.009093553
57	0xbc7effea	-0.015563944
58	0x3efca58d	0.49345055
59	0x3e3b22ba	0.18274966
60	0xbee75545	-0.45182243
61	0xbe1c357c	-0.15254778
62	0xbefcf36e	-0.49404472
63	0xbf235c3c	-0.63812613
64	0xbf02e996	-0.51137674
65	0xbeadd1f2	-0.33949238
66	0x3ef93b45	0.48678032
67	0xbe44dbc2	-0.19224456
68	0xbf1cc40f	-0.6123666
69	0xbee9beca	-0.45653373
70	0xbe5f7ee8	-0.21825755
71	0xbddc5783	-0.10758879
72	0xbe86642e	-0.26248306
73	0xbe238023	-0.15966849
74	0xbf06d22d	-0.5266445
75	0xbf1f6f38	-0.6227908
76	0xbdc3fa90	-0.095692754
77	0xbe4bfeb7	-0.19921385
78	0xbe9c3021	-0.3050547
79	0xbddb7ce6	-0.10717182
80	0x3f09b5b8	0.53792906
81	0xbeff5085	-0.4986612
82	0xbeb05736	-0.34441537
83	0xbec4f67d	-0.38469306
84	0x3f209407	0.6272587
85	0xbeee56cd	-0.465506
86	0xbe052ab5	-0.13004573
87	0xbf16863d	-0.5879858
88	0xbf16b8f8	-0.5887599
89	0xbf10a53a	-0.56502116
90	0xbd99b79f	-0.07505726
91	0xbec137b4	-0.3773781
92	0xbebd55c8	-0.36979508
93	0xbef8dc37	-0.4860551
94	0xbeff774f	-0.49895713
95	0xbe0a56ac	-0.13509625
96	0xbf2d6fa4	-0.67748475
97	0xbeeeab42	-0.46615034
98	0x3e47f03e	0.19525239
99	0xbdbc4f3d	-0.09194801
100	0xbee7af1e	-0.4525079
101	0xbeae04dd	-0.33988085
102	0xbf30aec6	-0.69016683
103	0xbf066cf1	-0.5250998
104	0xbeaee69e	-0.34160322
105	0xbecfd37e	-0.40591043
106	0xbe827506	-0.25479907
107	0xbdfcfec6	-0.12353282
108	0xbe950d1a	-0.29111558
109	0xbee41d88	-0.4455378
110	0xbe80b06c	-0.251346
111	0xbe0c71a5	-0.13715227
112	0xbebc24e2	-0.3674689
113	0xbee9294b	-0.45539317
114	0xbeed4a09	-0.46345547
115	0xbeddcf00	-0.4332199
116	0xbe37f9bc	-0.1796636
117	0xbf1271f9	-0.5720516
118	0xbf040ab8	-0.51578856
119	0x3ee3d120	0.44495487
120	0x3e79b9b7	0.24387251
121	0xbe93e5c9	-0.2888625
122	0xbf09345c	-0.5359552
123	0xbedf5b6c	-0.43624437
124	0xbce6df93	-0.02818278
125	0xbf1aef2b	-0.6052119
126	0xbec5e597	-0.38651726
127	0xbee6590f	-0.4498982
128	0xbea3f27c	-0.32020938
129	0xbe9f3815	-0.31097475
130	0x3d919095	0.07107655
131	0xbd7f1569	-0.062276278
132	0xbf00e886	-0.503548
133	0xbf140617	-0.5782179
134	0xbe991e4e	-0.29905933
135	0xbf59e289	-0.8511129
136	0xbeb4d658	-0.3531978
137	0xbe866d96	-0.26255482
138	0x3ecb2072	0.3967319
139	0xbec986e1	-0.39360717
140	0x3bf02102	0.0073281536
141	0x3e43fd5e	0.1913962
142	0xbf1d6982	-0.6148912
143	0xbf1645f3	-0.58700484
144	0x3cbd2aa8	0.02309163
145	0x3d057ae0	0.032587886
146	0xbe6b815c	-0.22998565
147	0xbeb6ce1f	-0.35704133
148	0x3e290caf	0.16508745
149	0x3d03f708	0.03221801
150	0xbf22cbda	-0.635923
151	0xbe4bad59	-0.19890346
152	0xbcbcfeff	-0.02307081
153	0xbf4134e3	-0.75471324
154	0xbeba8243	-0.36427507
155	0xbf407dfe	-0.7519225
156	0xbe9b520b	-0.3033603
157	0xbea4d80c	-0.3219608
158	0xbeb03f85	-0.34423462
159	0xbefe2b4a	-0.49642402
160	0x3f283bcc	0.6571624
161	0x3d46444e	0.048404984
162	0xbeda08fc	-0.4258498
163	0xbefdace7	-0.49545977
164	0x3f1fbb9f	0.6239566
165	0xbeaa04c0	-0.3320675
166	0xbf05d35d	-0.5227564
167	0x3f12346f	0.5711126
168	0xbed7e884	-0.42169583
169	0xbeeec307	-0.4663317
170	0x3ebcd590	0.36881685
171	0xbdbc3e14	-0.09191528
172	0x3e785419	0.2425083
173	0xbef452d4	-0.47719443
174	0xbe8de479	-0.27713373
175	0xbed1453c	-0.40873134
176	0xbe248d0f	-0.16069435
177	0x3f279d4a	0.6547438
178	0x3be3199a	0.006930542
179	0xbeafef2a	-0.34362155
180	0xbf19edb8	-0.60128355
181	0x3e4e7378	0.20161235
182	0xbe27c7d3	-0.1638482
183	0xbee5d852	-0.44891602
184	0xbea85038	-0.32873702
185	0x3d6c05fd	0.0576229
186	0x3ef5ed02	0.48032385
187	0xbed10e0c	-0.4083103
188	0xbec3ef42	-0.38268477
189	0x3ea17f67	0.31542513
190	0x3e2018d1	0.15634467
191	0xbe46c271	-0.19410111
192	0xbecec881	-0.40387347
193	0xbe804e51	-0.2505975
194	0x3e0d1547	0.13777648
195	0xbda85f8e	-0.082213506
196	0xbf51894e	-0.81850135
197	0x3f11a999	0.5689941
198	0xbbba9e28	-0.005695123
199	0xbeec3ba8	-0.46139264
200	0xbe436990	-0.19083238
201	0x3deee723	0.116651796
202	0x3f16bcd5	0.58881885
203	0xbd1004f9	-0.035160992
204	0xbe4b1e6e	-0.19835827
205	0x3ef9cb14	0.4878775
206	0x3ec3955d	0.38199893
207	0x3ee6cf4d	0.45080033
208	0xbdd89588	-0.10575396
209	0x3d5b0b9d	0.053477872
210	0x3d6e6369	0.058200274
211	0x3d5cc68c	0.053900287
212	0x3e5353f5	0.20637496
213	0x3ecb953e	0.397623
214	0xbe7f964b	-0.24959676
215	0x3ed7ef45	0.42174736
216	0x3e367b13	0.17820387
217	0x3edf5055	0.43615976
218	0xbe072d04	-0.13200766
219	0xbdd2dfa4	-0.10296562
220	0xbb2dd77c	-0.0026526144
221	0xbe0fbe28	-0.14037383
222	0x3d9685a1	0.073497064
223	0x3def3264	0.11679533
224	0xbf1c5656	-0.6106924
225	0xbe98243e	-0.2971515
226	0x3f13194b	0.5746047
227	0xbe6abd5d	-0.22923799
228	0xbec484f1	-0.38382676
229	0xbeed93ed	-0.4640192
230	0xbea24c6b	-0.31698927
231	0xbe8ec611	-0.27885488
232	0xbeb25d83	-0.3483697
233	0xbea8c4cb	-0.3296264
234	0xbed3fdd0	-0.4140458
235	0xbecbe742	-0.39824873
236	0xbee72217	-0.45143196
237	0xbddf2705	-0.10896114
238	0xbf14c47f	-0.5811233
239	0xbe9907da	-0.29888803
240	0xbee65c57	-0.44992325
241	0xbe77af97	-0.24188076
242	0xbe9739a3	-0.2953616
243	0xbede8142	-0.4345799
244	0xbe1eb9e6	-0.15500602
245	0xbecd618e	-0.4011349
246	0xbf047ca1	-0.5175267
247	0xbe918aee	-0.28426307
248	0xbeb2303d	-0.34802428
249	0xbec669a3	-0.3875247
250	0xbf2139c5	-0.62978774
251	0xbf419bc7	-0.7562832
252	0xbeb132a1	-0.3460894
253	0xbe9d8f35	-0.3077332
254	0xbecd3050	-0.40075922
255	0xbedda946	-0.43293208

ACT_EMBED.layers.4.weight f4 [64, 32]
0	0x3d3f8514	0.046757773
1	0x3ed29f1e	0.41137022
2	0x3e252c01	0.16130067
3	0x3ea99652	0.33122498
4	0xbf2100d4	-0.6289189
5	0x3ecb25ee	0.39677376
6	0xbeeb6e28	-0.4598248
7	0xbf2b9528	-0.6702447
8	0xbd93c06e	-0.072144374
9	0xbf1c99d2	-0.6117221
10	0xbf3b7707	-0.73228496
11	0xbd5c3192	-0.05375821
12	0xbe3becbc	-0.18352026
13	0xbebd9fcf	-0.37035987
14	0xbd802732	-0.06257476
15	0xbedbe57d	-0.42948523
16	0x3f1dc4a7	0.6162819
17	0xbf134ab2	-0.5753585
18	0x3ed4d6e6	0.41570204
19	0xbefea9f8	-0.4973905
20	0xbf3c2525	-0.7349418
21	0xbc864c26	-0.016393732
22	0x3f04f19a	0.51931155
23	0xbe6ff242	-0.23432258
24	0x3f176470	0.5913763
25	0x3c181ad5	0.009283741
26	0x3d2b69fa	0.041849114
27	0xbf09528e	-0.53641593
28	0xbe41d26f	-0.1892793
29	0xbd586ba0	-0.052837014
30	0xbe97a132	-0.2961517
31	0x3eab51c4	0.3346082
32	0xbefcda29	-0.49385193
33	0x3f0c3a1b	0.5477616
34	0xbe9c7497	-0.305577
35	0xbe87e19a	-0.26539308
36	0xbe28f171	-0.16498353
37	0xbf49faa4	-0.7889807
38	0xbd9d847b	-0.07691284
39	0xbea2d952	-0.31806427
40	0xbec40ed8	-0.38292575
41	0xbe06008b	-0.13086145
42	0xbf0a71cb	-0.54079884
43	0xbf13a178	-0.57668257
44	0xbe86fb32	-0.26363522
45	0xbe8154a3	-0.25259885
46	0xbf36dbc1	-0.7142907
47	0xbed6e119	-0.4196861
48	0xbe96bc99	-0.29440764
49	0xbe43cac5	-0.19120319
50	0xbe9a5ca0	-0.30148792
51	0xbe948fde	-0.29016012
52	0xbf0f9b79	-0.5609661
53	0xbe10e3fb	-0.14149468
54	0x3ec5566d	0.385425
55	0xbed56141	-0.4167576
56	0xbe69c74f	-0.22829936
57	0x3f2c08bb	0.6720082
58	0x3e79726f	0.24360059
59	0xbea17f17	-0.31542274
60	0xbea67cf3	-0.32517204
61	0xbe15d303	-0.14631276
62	0xbf1c3696	-0.6102079
63	0xbec0a9f7	-0.37629673
64	0xbecb812e	-0.39746994
65	0xbecff6aa	-0.40617877
66	0xbdea41b2	-0.11438312
67	0xbef4ca8f	-0.4781079
68	0xbe705769	-0.23470844
69	0xbf1c7e11	-0.6112986
70	0xbec7fc1e	-0.39059538
71	0xbeb5ac78	-0.35483146
72	0xbed87767	-0.42278597
73	0xbe131d8e	-0.14366743
74	0xbf22601c	-0.634279
75	0xbf0519a3	-0.51992244
76	0xbf04012f	-0.51564306
77	0xbe83ab08	-0.25716424
78	0xbe88284e	-0.2659325
79	0xbf048ae9	-0.5177446
80	0xbeb05aed	-0.3444437
81	0xbe8f43dd	-0.27981463
82	0xbec14394	-0.3774687
83	0xbf20cf0c	-0.6281593
84	0xbecf85e6	-0.40531844
85	0xbc0b218b	-0.008491884
86	0x3dea577a	0.11442466
87	0xbe848b40	-0.2588749
88	0xbe91b4fb	-0.2845839
89	0x3ec30d35	0.38096014
90	0xbef889c7	-0.48542616
91	0xbe84a4e4	-0.25907052
92	0xbf220a8c	-0.63297343
93	0xbea86326	-0.32888144
94	0xbeea4b8d	-0.45760766
95	0xbe7ae206	-0.24500284
96	0x3d15df11	0.036589686
97	0x3d121148	0.035661012
98	0x3ed13470	0.4086032
99	0xbecc8d07	-0.39951345
100	0xbe12ee7d	-0.14348789
101	0x3e8e952c	0.27848184
102	0x3eba8fc8	0.3643782
103	0xbe79a040	-0.24377537
104	0x3d71a0ce	0.058991246
105	0xbccf3aa3	-0.025296515
106	0xbca4a8bf	-0.020099996
107	0x3f0633de	0.52422893
108	0x3dd37336	0.10324709
109	0xbe99be8b	-0.30028185
110	0x3e574eb9	0.21026124
111	0x3f0c4a99	0.54801327
112	0xbe99da51	-0.30049375
113	0xbd0c45b9	-0.03424618
114	0xbe974435	-0.29544225
115	0xbeada648	-0.33915925
116	0x3d8b1ffe	0.067932114
117	0x3e10e267	0.14148866
118	0x3f099916	0.53749216
119	0xbeb4c79e	-0.35308546
120	0x3edeedef	0.43540904
121	0x3f0a792b	0.5409114
122	0x3e0007e1	0.12503006
123	0x3eaef89f	0.34174058
124	0x3eae2120	0.34009647
125	0x3f39908f	0.72486204
126	0x3e6ffa0b	0.23435228
127	0x3d029e1d	0.03188907
128	0xbea89d3c	-0.3293246
129	0x3f19270d	0.5982521
130	0xbe9c3863	-0.3051177
131	0xbeb1105e	-0.345828
132	0xbea2a590	-0.3176694
133	0xbebfab94	-0.3743559
134	0xbe8688fd	-0.2627639
135	0xbec35819	-0.3815315
136	0xbf1c8bb1	-0.6115065
137	0xbea533c0	-0.32266045
138	0xbe64a902	-0.22330096
139	0xbf0ba474	-0.5454781
140	0xbe97c286	-0.29640597
141	0xbee91afe	-0.45528406
142	0xbf005357	-0.50127167
143	0xbebb8435	-0.36624303
144	0xbee51138	-0.447397
145	0xbebd1e19	-0.36937025
146	0xbf0b8acd	-0.5450867
147	0xbf04ffe1	-0.5195294
148	0xbeda4ec7	-0.42638227
149	0xbdfdeb3c	-0.12398383
150	0x3e498fd0	0.19683766
151	0xbf1ad4d0	-0.60480976
152	0x3e44aa28	0.19205534
153	0xbe0cb4ba	-0.13740817
154	0xbeefc5ca	-0.4683059
155	0xbeb01641	-0.34391978
156	0xbf083aac	-0.53214526
157	0xbed6c2f9	-0.41945627
158	0xbea2153c	-0.31656826
159	0xbf040f29	-0.5158563
160	0xbee7294a	-0.4514869
161	0x3ec877c5	0.39153877
162	0xbd93d2a5	-0.07217912
163	0x3ed3f9e4	0.4140159
164	0xbec248e5	-0.3794624
165	0x3ead96e7	0.33904192
166	0xbeb6051f	-0.35550782
167	0x3e4932db	0.19648306
168	0xbe897fbd	-0.2685527
169	0xbed1c4a2	-0.4097033
170	0xbe57a229	-0.21057953
171	0xbf251c06	-0.64495885
172	0xbf0bb48f	-0.54572386
173	0xbed82276	-0.42213792
174	0xbee6e8d4	-0.4509951
175	0xbd4ed47d	-0.050495613
176	0xbf0a23fb	-0.5396115
177	0x3dc18ee3	0.094510816
178	0x3f1a0917	0.6017012
179	0xbe60c228	-0.21949065
180	0xbf0454bf	-0.5169181
181	0xbf0053aa	-0.5012766
182	0xbe391883	-0.18075757
183	0x3f02e314	0.51127744
184	0x3eab2c8f	0.33432433
185	0xbe50ca53	-0.2038968
186	0xbf0d2b75	-0.55144435
187	0xbe9d71fe	-0.30751032
188	0xbf19d344	-0.6008799
189	0x3ef11623	0.470872
190	0x3eb48fd5	0.35265985
191	0xbe96b347	-0.29433653
192	0xbed15944	-0.40888417
193	0x3e9f20c6	0.31079692
194	0xbe89f6d5	-0.2694613
195	0xbf0a059a	-0.539148
196	0xbe853758	-0.26018786
197	0x3db8a921	0.09016634
198	0xbef329ef	-0.4749293
199	0xbee995c8	-0.45622087
200	0xbeee8b98	-0.46590877
201	0xbeb883c5	-0.36038032
202	0xbecfe654	-0.40605414
203	0xbed5e2f8	-0.41774726
204	0xbf06a4b1	-0.5259505
205	0xbeef57dc	-0.4674672
206	0xbed5b3e4	-0.41738808
207	0xbee90988	-0.45515084
208	0xbec6dca7	-0.3884022
209	0xbd611e26	-0.054960392
210	0xbdfcdba2	-0.12346579
211	0xbed14a07	-0.4087679
212	0xbec5fe68	-0.3867066
213	0xbdff8338	-0.124762
214	0xbe9e3ee0	-0.30907345
215	0x3f2550af	0.6457624
216	0x3e8780cf	0.2646546
217	0xbec2af45	-0.38024345
218	0xbeb998fc	-0.3624953
219	0xbf013796	-0.5047544
220	0xbf214865	-0.6300109
221	0xbef29366	-0.4737808
222	0xbf1da657	-0.6158194
223	0xbecdeece	-0.40221256
224	0xbf1e04c8	-0.61726046
225	0x3e9a72a2	0.30165583
226	0xbcaaef6b	-0.020866117
227	0xbed0a913	-0.40753993
228	0xbeb6f177	-0.35731098
229	0x3ea3b62b	0.3197492
230	0xbecf310e	-0.40467113
231	0xbf1e40e8	-0.6181779
232	0xbe4b7212	-0.19867733
233	0xbed474f5	-0.4149548
234	0xbeecdb7f	-0.46261212
235	0xbf18c273	-0.59671706
236	0xbe260fb4	-0.16216928
237	0xbefeddf2	-0.49778706
238	0xbe617a35	-0.22019275
239	0xbefc0acd	-0.4922699
240	0xbf046f31	-0.51732165
241	0xbeee227b	-0.46510682
242	0xbed9d293	-0.42543468
243	0xbedaead9	-0.427573
244	0xbef26a1f	-0.4734659
245	0x3dbe7574	0.09299746
246	0xbe3aabde	-0.18229625
247	0xbe9831e2	-0.29725558
248	0xbef04e4a	-0.4693473
249	0xbe6a25af	-0.22865938
250	0xbebaabd4	-0.3645922
251	0xbeeab84a	-0.45843726
252	0xbed0b7a1	-0.40765098
253	0xbe5b02d0	-0.21387792
254	0xbeec240d	-0.46121255
255	0xbf125088	-0.5715413

FK_LAYER.joints.0.p_offset f4 [3, 1]
0	0xc0ac43c6	-5.383273
1	0xc0d3b26f	-6.6155314
2	0x3dc1bd24	0.09459904

FK_LAYER.joints.0.rpy_offset f4 [3]
0	0x3ba5b9c4	0.0050575454
1	0x3c33edcb	0.010981987
2	0xbba90176	-0.005157645

FK_LAYER.joints.1.p_offset f4 [3, 1]
0	0xc0ab71b9	-5.357632
1	0xc0d43b62	-6.632249
2	0x3d910a85	0.070820846

FK_LAYER.joints.1.rpy_offset f4 [3]
0	0x3b9809e6	0.004639852
1	0xbb1ac285	-0.0023614478
2	0x3b94b1bb	0.0045377887

FK_LAYER.joints.1.axis f4 [3, 1]
0	0xbd6c845a	-0.057743408
1	0xbdcd54fe	-0.100259766
2	0xbc90960a	-0.01764967

FK_LAYER.joints.1.q_layer.0.weight f4 [1, 64]
0	0x3f23010a	0.6367346
1	0x3e7b35e7	0.24532281
2	0x3eb911bd	0.36146346
3	0x3c6766b9	0.014123612
4	0xbf004105	-0.5009921
5	0xbe2745d3	-0.1633523
6	0x3ea418fe	0.32050318
7	0xbe196ff5	-0.14984114
8	0x3dbe3a28	0.09288436
9	0x3ebb9f3e	0.3664493
10	0x3d35f49a	0.044422723
11	0x3f1e3f9c	0.6181581
12	0xbf03ee69	-0.5153566
13	0x3e195f1b	0.14977686
14	0x3e8d96a5	0.27653995
15	0x3e18dbae	0.14927551
16	0x3e0b6ca7	0.13615666
17	0xbe9f4c42	-0.31112868
18	0x3ebd0deb	0.3692468
19	0xbda8c6dd	-0.08241055
20	0x3ddc2450	0.107491136
21	0xbc24f97b	-0.010069246
22	0x3e309bf7	0.17246996
23	0xbee3c034	-0.44482577
24	0x3e16da66	0.1473175
25	0x3cf6c83d	0.030124778
26	0x3dd0195e	0.101610884
27	0x3e6963c5	0.22791965
28	0xbf05d37e	-0.52275836
29	0x3eb58050	0.35449457
30	0xbd7d5092	-0.061844416
31	0x3e2cd2a7	0.16877232
32	0xbf27efb4	-0.6560013
33	0xba61ef34	-0.0008618713
34	0xbdf1845e	-0.11792825
35	0x3de3f0b9	0.111298986
36	0x3eb5bfcb	0.3549789
37	0xbf4903fd	-0.7852171
38	0xbec56b74	-0.38558543
39	0x3e91f13d	0.28504363
40	0x3ef02bd9	0.46908453
41	0xbde287db	-0.110610686
42	0xbeed8b3f	-0.463953
43	0xbe03df79	-0.12878217
44	0x3e17161d	0.1475453
45	0x3e728519	0.23683585
46	0x3e9985db	0.29984936
47	0x3f08a461	0.5337582
48	0x3ece7dae	0.4033026
49	0x3e8779c3	0.26460084
50	0x3e9d006a	0.30664378
51	0x3f0fa9b4	0.5611832
52	0xbe3f410b	-0.18677156
53	0xbe548f03	-0.2075768
54	0xbe5aad54	-0.21355182
55	0xbcf6d2ec	-0.030129872
56	0x3e8b8a1f	0.27253816
57	0xbe815987	-0.25263616
58	0x3de710d9	0.1128251
59	0x3e69300e	0.22772238
60	0x3ecd1b38	0.4005983
61	0xbec8a564	-0.39188683
62	0xbec0cdd4	-0.37657034
63	0xbd099955	-0.033593494

FK_LAYER.joints.2.p_offset f4 [3, 1]
0	0xc0ac557e	-5.385436
1	0xc0d316db	-6.59654
2	0x3de74d95	0.112940945

FK_LAYER.joints.2.rpy_offset f4 [3]
0	0x3c62600e	0.013816847
1	0x3c29c71a	0.010362411
2	0x3c6aae88	0.014323838

FK_LAYER.joints.2.axis f4 [3, 1]
0	0x3e9ae631	0.30253747
1	0x3f02f433	0.5115387
2	0xbedbfb85	-0.42965332

FK_LAYER.joints.2.q_layer.0.weight f4 [1, 64]
0	0xbda06b90	-0.07833016
1	0x3f019aab	0.5062663
2	0x3ebe326c	0.37147844
3	0x3eac24ad	0.3362173
4	0xbebc4642	-0.36772352
5	0xbedefb4f	-0.43551108
6	0xbe964c86	-0.29355258
7	0xbecaf6e9	-0.39641502
8	0x3f0c6452	0.54840577
9	0x3f01c2b8	0.5068774
10	0x3f0ba786	0.54552495
11	0x3c02b6a6	0.007978117
12	0x3ec03066	0.37536925
13	0x3eb1ccc7	0.34726545
14	0x3ef0950c	0.46988714
15	0x3efa34b2	0.48868328
16	0x3f003696	0.5008329
17	0x3e30ac2e	0.17253181
18	0x3da70715	0.08155648
19	0x3efae475	0.49002424
20	0x3eb74bf8	0.35800147
21	0xbeef0b0c	-0.46688116
22	0x3e6e20cf	0.23254703
23	0xbf0656e4	-0.52476335
24	0x3ea11d51	0.3146768
25	0xbee42186	-0.44556826
26	0x3f17870f	0.5919046
27	0xbd87b2e4	-0.066259176
28	0x3f47468d	0.77842027
29	0x3edca600	0.43095398
30	0x3f5e036d	0.8672398
31	0x3f0deebb	0.554424
32	0x3f170bd1	0.59002405
33	0xbeaa654e	-0.33280414
34	0xbeabb197	-0.33533928
35	0x3f432048	0.7622113
36	0x3e6d0015	0.23144563
37	0x3e800398	0.25002742
38	0xbe249dee	-0.1607587
39	0x3f00824b	0.5019881
40	0x3f17475a	0.5909325
41	0xbdcf0e39	-0.10110135
42	0xbac3c726	-0.001493667
43	0x3f2cc7e9	0.6749254
44	0xbf20d73a	-0.6282841
45	0x3f0910ba	0.5354115
46	0x3f10f791	0.56627756
47	0x3e9af1e1	0.30262664
48	0x3f26cf19	0.65159756
49	0x3da6464d	0.081188776
50	0x3e9318a6	0.28729743
51	0x3eba4eab	0.36388144
52	0x3d8cecc0	0.06881094
53	0x3e6fd6d3	0.23421793
54	0x3f22bf86	0.6357349
55	0x3f2832d2	0.65702546
56	0xbe82ce2c	-0.25547922
57	0x3e98132d	0.2970213
58	0x3f0a9ec1	0.5414849
59	0x3e94485d	0.2896146
60	0x3e87eb3c	0.26546657
61	0xbef45331	-0.4771972
62	0xbecf1a18	-0.40449595
63	0xbf0cfe12	-0.5507518

FK_LAYER.joints.3.p_offset f4 [3, 1]
0	0xc0af7e4f	-5.4841685
1	0xc0cf91d8	-6.486553
2	0x3e165c4d	0.14683647

FK_LAYER.joints.3.rpy_offset f4 [3]
0	0xbbfc181b	-0.0076933033
1	0xba679860	-0.00088346563
2	0xbc2a33fb	-0.01038837

FK_LAYER.joints.3.axis f4 [3, 1]
0	0x3e0d2621	0.13784076
1	0xbe7fdaff	-0.24985884
2	0xbd651bb7	-0.055934634

FK_LAYER.joints.3.q_layer.0.weight f4 [1, 64]
0	0xbd03d43c	-0.032184824
1	0xbdabc061	-0.08386303
2	0xbe3eaf73	-0.18621616
3	0x3e40980d	0.18808003
4	0x3e368bd9	0.17826785
5	0x3e37d5bd	0.17952628
6	0xbecdad1f	-0.40171143
7	0xbf080ecb	-0.5314757
8	0xbe005f0b	-0.12536256
9	0xbe286970	-0.16446471
10	0x3efbd2fa	0.491844
11	0xbef89718	-0.48552775
12	0x3ea622dd	0.32448474
13	0x3cdb68b8	0.026783332
14	0xbd3d5d66	-0.04623165
15	0x3cc281e3	0.023743575
16	0x3d78f899	0.060783956
17	0x3eceff44	0.40429127
18	0xbeb6e396	-0.3572051
19	0xbe02600e	-0.12731954
20	0x3d3b8ad1	0.045786683
21	0x3eb9ad77	0.36265156
22	0x3e8e808a	0.27832443
23	0x3e934ea7	0.28770944
24	0x3e91d410	0.28482103
25	0xbf3001ee	-0.68752944
26	0xbe5bbc5a	-0.21458569
27	0x3d79fdf6	0.06103321
28	0x3f363e63	0.71188945
29	0xbe3c1862	-0.18368676
30	0xbe9ab238	-0.30214095
31	0xbd87a054	-0.06622377
32	0x3e739699	0.23787917
33	0xbef327f3	-0.47491416
34	0xbe57a91f	-0.21060608
35	0xbd4ea257	-0.050447788
36	0x3edc9acc	0.4308685
37	0x3e6836bb	0.22677128
38	0x3e009012	0.12554958
39	0x3e29a07e	0.16565129
40	0xbe857ded	-0.26072636
41	0x3ea72890	0.32648134
42	0xbe8a39df	-0.26997277
43	0xbe69b3ee	-0.22822544
44	0xbf2f44ce	-0.6846436
45	0xbdc9f97b	-0.09862038
46	0x3df504f5	0.11963836
47	0x3ed3c3af	0.41360232
48	0xbe496f53	-0.19671373
49	0x3ec62049	0.38696507
50	0x3e05e8b4	0.1307705
51	0xbf0edc3c	-0.558048
52	0x3ecba9ad	0.3977789
53	0xbda0205e	-0.078186736
54	0x3e93f7f3	0.28900108
55	0xbde6752d	-0.11252818
56	0x3efa6dd0	0.48911905
57	0x3e72f2f8	0.23725498
58	0x3d1c481f	0.038154718
59	0xbd8ef9ec	-0.069812626
60	0x3ebb9cfb	0.36643204
61	0x3e1baca1	0.15202571
62	0x3e5a5a97	0.2132362
63	0xbddb8354	-0.10718408

FK_LAYER.joints.4.p_offset f4 [3, 1]
0	0xc0ae1059	-5.4394956
1	0xc0d50075	-6.656306
2	0x3db80b22	0.089864984

FK_LAYER.joints.4.rpy_offset f4 [3]
0	0x3b5fc766	0.003414595
1	0xbc116e61	-0.008876414
2	0xbbd6eb9d	-0.006558849

FK_LAYER.joints.4.axis f4 [3, 1]
0	0x3e13f545	0.14449032
1	0xbcf967dc	-0.030445032
2	0x3e8ff56f	0.28116938

FK_LAYER.joints.4.q_layer.0.weight f4 [1, 64]
0	0x3f0b36b2	0.54380333
1	0x3ee593ad	0.4483923
2	0x3f005f5d	0.5014551
3	0xbd812e00	-0.06307602
4	0xbdf62d36	-0.12020342
5	0xbdf41b05	-0.11919216
6	0x3f2a60eb	0.66554135
7	0xbd19f265	-0.03758468
8	0xbda48dba	-0.08034845
9	0xbdced41a	-0.10099049
10	0x3e2f6a52	0.17130402
11	0x3f08d44c	0.5344894
12	0xbf157a29	-0.58389527
13	0x3edfeb83	0.4373437
14	0x3e8b3bb7	0.27193996
15	0x3e28101f	0.164124
16	0x3ec5bc35	0.38620153
17	0x3db0eee8	0.08639318
18	0x3df9ec53	0.122032784
19	0x3d9aee6d	0.07565007
20	0xbdaea5df	-0.08527731
21	0xbe9e6ad4	-0.30940878
22	0x3b031b68	0.002000535
23	0xbec020b2	-0.37524945
24	0xbef8b787	-0.4857752
25	0x3db5d691	0.08878816
26	0xbdbcfe53	-0.09228196
27	0x3cc02b87	0.023458255
28	0x3d1a9016	0.037735067
29	0x3ec492b3	0.38393173
30	0x3e4fd970	0.2029779
31	0xbe5236d4	-0.20528728
32	0xbf1ad996	-0.6048826
33	0x3f02aef4	0.5104821
34	0x3f01f0b7	0.50757927
35	0x3e42e3d6	0.19032225
36	0xbee50b7c	-0.44735324
37	0xbf2027f9	-0.62560993
38	0xbe6dbd44	-0.2321673
39	0x3e7078d2	0.2348359
40	0x3ddf670c	0.109083265
41	0xbe402244	-0.18763071
42	0xbe9cd000	-0.3062744
43	0x3e4367ce	0.19082567
44	0x3ebb2b8d	0.36556664
45	0x3ecd9cd5	0.40158716
46	0x3eaf53a5	0.34243503
47	0xbecdd6ee	-0.4020304
48	0x3e64d2c6	0.22346029
49	0xbee5869a	-0.44829255
50	0x3d322656	0.04349359
51	0x3e25d06a	0.16192785
52	0xbdc6bf27	-0.09704428
53	0xbdc8eb88	-0.09810549
54	0xbeada3ec	-0.33914125
55	0x3e20a533	0.15688019
56	0xbe47fc0c	-0.19529742
57	0xbe9924bf	-0.29910848
58	0x3e9d9234	0.30775607
59	0x3efbd1d5	0.49183527
60	0xbefffcec	-0.49997652
61	0xbe371c67	-0.17881928
62	0xbe816a4d	-0.25276414
63	0x3ef4d91d	0.47821894

FK_LAYER.joints.5.p_offset f4 [3, 1]
0	0xc0ac7a6a	-5.389943
1	0xc0d6879c	-6.704054
2	0x3e1eeeae	0.15520737

FK_LAYER.joints.5.rpy_offset f4 [3]
0	0xbc44300a	-0.011974344
1	0x37fa397c	2.982909e-05
2	0x3bd60f2a	0.0065325694

FK_LAYER.joints.5.axis f4 [3, 1]
0	0xbe835b3a	-0.25655538
1	0xbe924b3b	-0.2857302
2	0xbef8a494	-0.48563063

FK_LAYER.joints.5.q_layer.0.weight f4 [1, 64]
0	0xbf1994ee	-0.59992874
1	0xbed571d8	-0.41688418
2	0xbe381c4e	-0.17979547
3	0xbe1593bf	-0.14607142
4	0xbf571bc6	-0.84026754
5	0xbce832a0	-0.028344452
6	0xbec88c94	-0.39169753
7	0xbeb9fa16	-0.36323613
8	0xbd4d9606	-0.0501919
9	0xbf1229f2	-0.57095253
10	0xbd403941	-0.0469296
11	0xbefc3ece	-0.49266666
12	0x3e6bfe03	0.23046117
13	0xbe93ad2a	-0.2884305
14	0xbb85f971	-0.0040885736
15	0xbf0d33ed	-0.5515736
16	0xbdd2d651	-0.10294784
17	0xbedcbea0	-0.43114185
18	0xbe9411a8	-0.2891972
19	0xbe7fd1d0	-0.24982381
20	0xbe73d95b	-0.23813383
21	0x3d6fc62c	0.0585386
22	0xbca6c26a	-0.020356376
23	0xbee93b06	-0.45552844
24	0x3e808d8d	0.25107995
25	0xbf3ad8e1	-0.7298718
26	0xbeb3e6ce	-0.35137028
27	0xbf0f9f85	-0.5610278
28	0x3e1f8105	0.15576561
29	0xbe81ed87	-0.2537653
30	0xbf0903b5	-0.5352128
31	0xbeac1fa0	-0.33617878
32	0x3f007cab	0.5019023
33	0xbf0c5233	-0.54812926
34	0xbe9b05c3	-0.30277833
35	0xbecc4e3e	-0.39903444
36	0xbf15351a	-0.5828415
37	0x3f0b7ba7	0.54485554
38	0xbe16671b	-0.14687769
39	0xbe87742d	-0.26455823
40	0xbdac36e2	-0.084089056
41	0xbe8bd635	-0.27311864
42	0xbf3ac129	-0.7295099
43	0xbef24e22	-0.47325236
44	0xbec04468	-0.3755219
45	0xbe8e2891	-0.27765325
46	0xbe2673d3	-0.16255121
47	0x3e9e4d0d	0.3091816
48	0xbe532fc2	-0.20623687
49	0x3ed27190	0.41102266
50	0xbeb99b75	-0.36251417
51	0xbe996de1	-0.29966643
52	0x3e993a08	0.29927087
53	0xbee3ceb4	-0.4449364
54	0x3ef90a4c	0.48640668
55	0xbe827032	-0.25476223
56	0x3d438e6b	0.047743242
57	0x3f089a82	0.5336076
58	0xbee3b5d6	-0.44474667
59	0xbefb4940	-0.49079323
60	0x3f110c49	0.5665937
61	0xbf418b2a	-0.7560297
62	0xbe84d8f5	-0.25946775
63	0x3d928e10	0.071560025

FK_LAYER.joints.6.p_offset f4 [3, 1]
0	0xc0add4e4	-5.4322376
1	0xc0d6102c	-6.689474
2	0x3d9e71e8	0.0773657

FK_LAYER.joints.6.rpy_offset f4 [3]
0	0xbbd8d01d	-0.006616606
1	0xba5f7d0d	-0.0008525409
2	0xbb34b232	-0.0027572033

FK_LAYER.joints.6.axis f4 [3, 1]
0	0x3d9d0c82	0.07668401
1	0xbdba12b1	-0.09085596
2	0xbdfd925b	-0.12381431

FK_LAYER.joints.6.q_layer.0.weight f4 [1, 64]
0	0x3f125409	0.5715948
1	0xbd3b83c2	-0.04577995
2	0x3dd4d802	0.10392763
3	0xbd7daa1c	-0.061929807
4	0xbe72552a	-0.236653
5	0xbedbea04	-0.42951977
6	0x3c1fc5b4	0.009751726
7	0x3e2871a5	0.16449602
8	0xbee1ed52	-0.44126374
9	0x3ef50458	0.47854877
10	0xbd78b8b1	-0.06072301
11	0x3df2be11	0.118526585
12	0xbf087f98	-0.5331969
13	0x3e982a07	0.29719564
14	0x3ee18d57	0.44053146
15	0x3e111374	0.14167577
16	0x3ddb2abe	0.10701512
17	0x3e2bff1b	0.16796534
18	0x3e30c199	0.17261352
19	0x3e941897	0.2892501
20	0x3d35fa23	0.044428002
21	0xbe6c04d9	-0.23048724
22	0x3d881a62	0.06645657
23	0xbf0b0e19	-0.54318386
24	0xbe0af440	-0.13569736
25	0x3d228b9b	0.03968392
26	0x3e92c1e8	0.28663564
27	0xbe3c8e37	-0.18413626
28	0xbec41ee0	-0.38304806
29	0x3e2e2482	0.17006114
30	0x3e5fb5c0	0.21846676
31	0xbe04f94f	-0.12985729
32	0xbe64d977	-0.22348581
33	0x3e75b76a	0.23995748
34	0x3e06f96d	0.13181086
35	0xbcc098c0	-0.023510337
36	0xbf10f6eb	-0.56626767
37	0xbf270dcc	-0.6525543
38	0xbf2ebed4	-0.6825993
39	0x3de34d9a	0.11098786
40	0x3e258ebb	0.16167729
41	0xbe732a3f	-0.23746584
42	0xbdfe6c63	-0.12423017
43	0xbd2c8aa5	-0.04212441
44	0x3eab1671	0.3341556
45	0x3f07c323	0.5303213
46	0x3f028911	0.50990397
47	0xbf13347e	-0.5750197
48	0x3ee0edd0	0.43931437
49	0xbee3cc02	-0.44491583
50	0x3ead50e9	0.33850792
51	0x3f363978	0.7118144
52	0xbf0d7241	-0.5525246
53	0xbe66152b	-0.22469012
54	0xbedefdff	-0.4355316
55	0x3eb7a85c	0.35870636
56	0xbea16370	-0.31521177
57	0xbee2466b	-0.4419435
58	0x3e912693	0.28349742
59	0xbdaf762c	-0.08567461
60	0xbe806301	-0.25075534
61	0x3acf0b4f	0.0015796217
62	0x3ea276de	0.31731313
63	0x3ef5fea6	0.48045844

FK_LAYER.joints.7.p_offset f4 [3, 1]
0	0xbfb6877e	-1.4260099
1	0xbf714710	-0.9424906
2	0x42280e5b	42.01402

FK_LAYER.joints.7.rpy_offset f4 [3]
0	0xbc01ed28	-0.007930078
1	0x3be925ac	0.0071150865
2	0xbca4e742	-0.020129804

FK_LAYER.joints.8.p_offset f4 [3, 1]
0	0xbfdbd968	-1.7175722
1	0xbfa5ff38	-1.2968512
2	0x4227d719	41.960056

FK_LAYER.joints.8.rpy_offset f4 [3]
0	0xbc8930e3	-0.016746944
1	0xbbc56c12	-0.006024846
2	0xbc5b7eba	-0.013396913

FK_LAYER.joints.8.axis f4 [3, 1]
0	0x3d526a2a	0.051370777
1	0xbc0197a9	-0.007909694
2	0xbdc0fea4	-0.09423569

FK_LAYER.joints.8.q_layer.0.weight f4 [1, 64]
0	0x3e963b94	0.2934233
1	0x3eb6d472	0.35708958
2	0x3e816e1d	0.25279322
3	0x3e31fac9	0.17380823
4	0xbe7d4ccd	-0.24736328
5	0xbeac3b9e	-0.33639234
6	0x3ec640d9	0.3872135
7	0xbdb352bf	-0.08756017
8	0xbf073f1d	-0.5283068
9	0x3e8579f5	0.26069608
10	0x3e9dd6e4	0.3082801
11	0x3e74a7b4	0.23892099
12	0xbe9e426f	-0.3091006
13	0x3e531c93	0.20616369
14	0x3e84a9c4	0.2591077
15	0x3e8f018d	0.2793087
16	0x3e5e57a3	0.21713118
17	0xbe8fd79a	-0.28094178
18	0x3dcea61f	0.10090279
19	0x3e99f04e	0.3006615
20	0xbe54474a	-0.2073032
21	0xbf004270	-0.50101376
22	0xbe63b070	-0.22235274
23	0xbe139b13	-0.14414625
24	0xbec709ff	-0.38874814
25	0xbda2d9cb	-0.07951697
26	0x3ef4d917	0.47821876
27	0xbd8a719a	-0.06759949
28	0xbedc2873	-0.4299961
29	0x3e6f443d	0.23365875
30	0x3eb8f868	0.3612702
31	0x3e96f8b0	0.29486609
32	0xbf2d0888	-0.6759114
33	0x3dd78b78	0.105246484
34	0x3e147202	0.14496616
35	0x3e561563	0.20906596
36	0xbef1b528	-0.47208524
37	0xbefd2254	-0.49440253
38	0xbea4feaf	-0.32225558
39	0x3d34940e	0.04408651
40	0x3ec30cbf	0.38095662
41	0xbe9129c5	-0.2835218
42	0xbe9d3a48	-0.30708528
43	0x3e24d601	0.16097261
44	0x3eb00f04	0.34386456
45	0x3eafd97f	0.34345624
46	0xbe631d41	-0.22179128
47	0xbe87de55	-0.26536813
48	0x3f092e16	0.53585947
49	0xbec4b9be	-0.3842296
50	0x3e91da52	0.28486878
51	0x3e3f2c1e	0.18669173
52	0xbf1742c4	-0.5908625
53	0x3e06b6b2	0.1315563
54	0xbe998868	-0.29986882
55	0x3e9977fa	0.29974347
56	0xbef3e343	-0.47634324
57	0xbed77950	-0.42084742
58	0x3e86439a	0.2622345
59	0x3ec6f8fa	0.3886183
60	0xbf0b86bf	-0.5450248
61	0xbe872aa9	-0.26399735
62	0xbbf8ebd0	-0.0075964704
63	0xbeb0cdd5	-0.34532037

FK_LAYER.joints.9.p_offset f4 [3, 1]
0	0xbfb9cf71	-1.4516431
1	0xc0016242	-2.0216222
2	0x4227a4e7	41.911037

FK_LAYER.joints.9.rpy_offset f4 [3]
0	0x3c338485	0.010956888
1	0xbb1de054	-0.0024090009
2	0xbbdea65e	-0.006794735

FK_LAYER.joints.9.axis f4 [3, 1]
0	0x3eaaaf81	0.33337024
1	0x3ebb6c96	0.36606282
2	0xbed0eb28	-0.4080441

FK_LAYER.joints.9.q_layer.0.weight f4 [1, 64]
0	0xbe9f55ea	-0.31120235
1	0x3ed4d1be	0.4156627
2	0x3f1dc0e3	0.61622447
3	0x3f33a89d	0.7017916
4	0xbe492249	-0.19641985
5	0xbedf852c	-0.4365629
6	0xbe916aa3	-0.2840167
7	0xbe797896	-0.24362406
8	0x3d141f9a	0.03616295
9	0x3e708a5e	0.23490283
10	0x3f10070f	0.5626077
11	0x3da1fb56	0.07909267
12	0xbe15abca	-0.14616314
13	0x3f17fa9d	0.5936678
14	0x3ee86a96	0.4539382
15	0x3e8a8505	0.2705461
16	0x3f0ca69c	0.54941726
17	0x3f2e2d29	0.6803766
18	0xbeaebf61	-0.34130386
19	0x3f37d374	0.71807027
20	0x3ef93505	0.48673263
21	0xbe1d002e	-0.153321
22	0x3e1d8ce3	0.15385775
23	0xbf0fd89e	-0.56189907
24	0xbe6e51c9	-0.23273386
25	0xbeeeab96	-0.46615285
26	0x3e0a4ee7	0.13506661
27	0xbe7faff5	-0.24969466
28	0x3e310fc2	0.17291167
29	0x3e8afa3d	0.27144042
30	0xbdc915f8	-0.09818643
31	0x3f020930	0.5079527
32	0xbe839299	-0.25697783
33	0xbeb0612f	-0.34449145
34	0xbe843e50	-0.2582879
35	0x3de5aa3a	0.11214109
36	0x3ed8cd09	0.4234393
37	0x3e2d468b	0.16921441
38	0xbf0d5d09	-0.55220085
39	0x3e8e1b29	0.27755097
40	0x3ef3341c	0.47500694
41	0xbf1bd86a	-0.60877097
42	0xbea48b55	-0.32137552
43	0x3e61e366	0.22059402
44	0xbec160ae	-0.37769073
45	0x3e772f22	0.24139073
46	0x3ef3cb7a	0.47616178
47	0x3e865b4f	0.26241538
48	0x3e1e2d14	0.15446883
49	0x3ec74f00	0.3892746
50	0x3ed3c2a4	0.41359437
51	0x3f03c50a	0.5147253
52	0xbdeeae5a	-0.11654349
53	0x3e8ef2f9	0.27919748
54	0xbee51692	-0.44743782
55	0x3ea4d792	0.32195717
56	0xbd51399e	-0.05108034
57	0x3e024eb7	0.1272534
58	0x3f03c842	0.51477444
59	0x3f0a30dc	0.53980803
60	0x3df0b96c	0.117541164
61	0xbee24be1	-0.44198516
62	0xbf2a7aa2	-0.6659337
63	0xbea7e8d9	-0.32794836

FK_LAYER.joints.10.p_offset f4 [3, 1]
0	0xbfab6db3	-1.3392853
1	0xbfc84a99	-1.5647765
2	0x4227d7a3	41.960583

FK_LAYER.joints.10.rpy_offset f4 [3]
0	0xbbe58a01	-0.0070049767
1	0xbb84af26	-0.0040491996
2	0xba52ead4	-0.00080458564

FK_LAYER.joints.10.axis f4 [3, 1]
0	0xbde88790	-0.113539815
1	0xbda653ed	-0.08121476
2	0xbb55a761	-0.0032600986

FK_LAYER.joints.10.q_layer.0.weight f4 [1, 64]
0	0x3ecd2765	0.40069118
1	0x3ddeb400	0.10874176
2	0x3edf9255	0.4366633
3	0xbda5fd1a	-0.08104916
4	0x3ea14ddb	0.31504712
5	0xbf0cfc55	-0.5507253
6	0x3e0fb9e6	0.14035758
7	0x3e3b7bbb	0.18308918
8	0xbc7be5f0	-0.015374646
9	0x3f033e7b	0.5126721
10	0x3e2250f9	0.15851201
11	0x3ef081fb	0.46974167
12	0xbecec43b	-0.40384087
13	0x3d5807e8	0.052741915
14	0x3b14a3ba	0.0022680596
15	0x3ec09915	0.37616792
16	0x3d4817c5	0.048850793
17	0xbe7bff4c	-0.24609107
18	0x3eb737db	0.35784802
19	0x3eedc310	0.46437883
20	0x3d80b6a6	0.062848374
21	0xbe5afefa	-0.21386328
22	0xbbcc12dd	-0.0062278346
23	0x3dc305be	0.095225796
24	0xbefe425d	-0.49660006
25	0x3e644ede	0.2229571
26	0x3eac4ce8	0.33652425
27	0x3ccc92dd	0.024972374
28	0xbec4b057	-0.38415787
29	0x3d1974d3	0.037464928
30	0x3eb03301	0.34413913
31	0x3d46988d	0.048485328
32	0xbf0695c1	-0.52572256
33	0x3ea3e91e	0.32013792
34	0x3e452ba2	0.19254926
35	0x3e8c6e3a	0.27427846
36	0xbef85c07	-0.4850771
37	0xbe615df7	-0.22008501
38	0xbe96256c	-0.29325426
39	0x3e8e4268	0.2778504
40	0x3ec94555	0.3931071
41	0xbe32bbab	-0.17454402
42	0xbd55b7b5	-0.05217715
43	0x3de7e207	0.11322408
44	0x3efb59a3	0.49091825
45	0x3ede69c9	0.43440083
46	0x3e2cbf9e	0.16869971
47	0xbe92623d	-0.28590575
48	0x3f0d2281	0.55130774
49	0xbf01de30	-0.50729656
50	0x3dbfd914	0.09367576
51	0x3ebbd10a	0.36682922
52	0xbe728346	-0.2368289
53	0x3e93f1db	0.2889546
54	0xbed6f0b9	-0.41980532
55	0x3e734dc1	0.2376013
56	0xbe25a13f	-0.16174792
57	0xbf2389dc	-0.6388223
58	0x3dbb1d2c	0.091364235
59	0xbe223f0a	-0.1584436
60	0xbecd72b4	-0.40126574
61	0x3e587faa	0.2114245
62	0xbcb644d0	-0.02224961
63	0x3ea10035	0.3144547

FK_LAYER.joints.11.p_offset f4 [3, 1]
0	0xbf956902	-1.1672671
1	0xbfee52fd	-1.8619076
2	0x4227b746	41.928978

FK_LAYER.joints.11.rpy_offset f4 [3]
0	0x3c21e86b	0.009882073
1	0xbc3d796b	-0.011564593
2	0x3c7f59d3	0.015585381

FK_LAYER.joints.11.axis f4 [3, 1]
0	0xbe610d42	-0.21977714
1	0x3a531300	0.00080518425
2	0xbdce050f	-0.100595586

FK_LAYER.joints.11.q_layer.0.weight f4 [1, 64]
0	0x3f080322	0.5312978
1	0x3ef1f78b	0.47259173
2	0xbe8c7f16	-0.2744071
3	0xbe500e4d	-0.20317955
4	0xbe072373	-0.13197117
5	0xbe18b7f8	-0.14913929
6	0x3e95ba2b	0.29243597
7	0xbde892f4	-0.11356154
8	0x3d9afc79	0.075676866
9	0x3e63249a	0.22181931
10	0xbe18a3c5	-0.14906223
11	0x3ed87482	0.42276388
12	0xbe7c4a05	-0.24637611
13	0x3df5118a	0.11966236
14	0x3e3b1660	0.18270254
15	0x3e27a750	0.16372418
16	0x3c9d446a	0.019197661
17	0xbe6698de	-0.22519252
18	0x3eb4d73d	0.35320464
19	0x3e68aec8	0.22722924
20	0xbd8bde01	-0.06829453
21	0xbef7f8f7	-0.48432133
22	0x3bbaec2b	0.005704423
23	0xbd83417c	-0.064089745
24	0xbdc5a535	-0.09650651
25	0x3e8371bc	0.2567271
26	0x3e8587eb	0.2608026
27	0x3e855a28	0.26045346
28	0xbee9021a	-0.45509416
29	0x3e95fa84	0.2929269
30	0xbc9295b7	-0.017893655
31	0xbe4b5dd4	-0.19860011
32	0xbf068c5f	-0.5255794
33	0x3edf04e6	0.43558425
34	0x3db5ec81	0.08883
35	0x3dd9a44a	0.10627039
36	0xbec464fe	-0.383583
37	0xbede790f	-0.43451735
38	0xbe16ed77	-0.14739023
39	0xbc2cd8d3	-0.010549742
40	0xbe0eb86b	-0.13937537
41	0xbec6eaa9	-0.38850906
42	0xbe928364	-0.28615868
43	0x3e9d42b1	0.30714944
44	0x3e6d4cd3	0.23173837
45	0x3dcf457c	0.10120675
46	0x3ee61848	0.449404
47	0xbf0f76ca	-0.5604063
48	0x3ef1953f	0.47184178
49	0xbed576fd	-0.41692343
50	0x3ee6924b	0.45033488
51	0x3e79fe49	0.24413408
52	0xbecbc0de	-0.39795583
53	0x3e90afb6	0.28259057
54	0xbedd6a21	-0.43245032
55	0xbc338ffc	-0.0109596215
56	0xbf253333	-0.6453125
57	0xbf391c71	-0.72309023
58	0xbd0cfe14	-0.034421995
59	0x3eb7a265	0.35866085
60	0xbf2cdff7	-0.67529243
61	0x3d62dffb	0.055389386
62	0xbc1bee51	-0.009517268
63	0x3e9100f3	0.28321037

FK_LAYER.joints.12.p_offset f4 [3, 1]
0	0xbf3322e1	-0.69975096
1	0xbfb7708f	-1.4331225
2	0x4227ee35	41.982624

FK_LAYER.joints.12.rpy_offset f4 [3]
0	0xbc83c2d0	-0.016084105
1	0x3c01c627	0.007920778
2	0x3b0b39b8	0.002124412

FK_LAYER.joints.12.axis f4 [3, 1]
0	0x3b8f507f	0.0043736096
1	0xbe69e36d	-0.22840662
2	0x3ed29e27	0.41136286

FK_LAYER.joints.12.q_layer.0.weight f4 [1, 64]
0	0x3f3f5034	0.74731755
1	0x3e8804d6	0.2656619
2	0x3ec61c0a	0.38693267
3	0xbdc85728	-0.09782249
4	0xbe2991ae	-0.16559479
5	0x3dca2795	0.09870831
6	0x3e6d9a40	0.23203373
7	0x3ef056aa	0.4694112
8	0x3e5193f8	0.20466602
9	0x3dbcb02a	0.09213288
10	0xbe3a061c	-0.18166393
11	0x3ed9e8db	0.42560467
12	0xbe53e005	-0.20690925
13	0xbcbc2346	-0.022966038
14	0x3ed2f8b5	0.41205373
15	0x3ea4dd9e	0.3220033
16	0x3d915d27	0.070978455
17	0xbf067ea5	-0.52536994
18	0x3e049030	0.12945628
19	0xbf1fc235	-0.6240571
20	0x3e337d7f	0.17528342
21	0xbeb39ea4	-0.3508197
22	0xbdd4ede6	-0.10396938
23	0x3ee9d614	0.4567114
24	0xbef240c9	-0.47315052
25	0x3e7341d4	0.2375558
26	0x3e911f74	0.2834431
27	0x3e5d2d05	0.21599205
28	0xbeaa9809	-0.3331912
29	0x3f08368d	0.5320824
30	0x3e8bb29b	0.27284703
31	0xbecf00f2	-0.4043041
32	0xbf2d0954	-0.6759236
33	0x3f4151c7	0.7551541
34	0x3ed696e4	0.41911995
35	0xbe366d5b	-0.17815153
36	0x3debfb5c	0.11522552
37	0xbf50ded2	-0.81589997
38	0xbf16b377	-0.5886759
39	0xbe35bf9a	-0.17748871
40	0x3eae9f7b	0.3410605
41	0xbe877b5f	-0.26461312
42	0x3e227cfd	0.15867992
43	0xbe722f31	-0.23650815
44	0x3f0f6c5e	0.5602473
45	0x3e907d14	0.28220427
46	0x3f05fe14	0.5234082
47	0xbe52fdb9	-0.206046
48	0x3df86f22	0.12130572
49	0xbd8d05e0	-0.06885886
50	0xbe602b27	-0.21891461
51	0xbe809344	-0.25112355
52	0xbdce6498	-0.100777805
53	0x3e0e8230	0.1391685
54	0xbf6b4082	-0.91895306
55	0x3eadbc8c	0.33932912
56	0xbe49a3b7	-0.19691359
57	0xbe99b604	-0.3002168
58	0xbca02159	-0.019547151
59	0x3e476d51	0.19475295
60	0xbf273fa9	-0.6533151
61	0x3e8e37b3	0.2777687
62	0x3e7ce68c	0.24697322
63	0x3e939101	0.28821567

FK_LAYER.joints.13.p_offset f4 [3, 1]
0	0xbf84b9c0	-1.0369186
1	0xc0073b3a	-2.11299
2	0x422799b4	41.9001

FK_LAYER.joints.13.rpy_offset f4 [3]
0	0xbc907041	-0.017631652
1	0x3c983560	0.018580139
2	0xb95792e1	-0.00020558714

FK_LAYER.joints.13.axis f4 [3, 1]
0	0x3dee08cf	0.11622774
1	0xbda4f607	-0.080547385
2	0x3e818c8f	0.2530255

FK_LAYER.joints.13.q_layer.0.weight f4 [1, 64]
0	0x3ef359f5	0.4752957
1	0x3e92594d	0.28583756
2	0x3d275a7d	0.04085778
3	0xbe14d9f1	-0.14536263
4	0xbf08df98	-0.53466177
5	0xbed66fd1	-0.41882184
6	0x3e5e5925	0.21713693
7	0x3d8b8746	0.06812911
8	0xbe396f2f	-0.1810882
9	0x3ea616c1	0.32439235
10	0x3dd51c93	0.10405841
11	0x3d152307	0.036410358
12	0xbf0e761b	-0.55648965
13	0x3e34f2ab	0.17670695
14	0x3d5df817	0.054191675
15	0x3dba508f	0.090973966
16	0xbdf7f416	-0.121071026
17	0x3dfc4aa0	0.12318921
18	0x3f071daa	0.5277964
19	0x3e064353	0.1311162
20	0x3e0a688d	0.13516445
21	0xbef474e8	-0.47745442
22	0x3e29762e	0.16548988
23	0xbe7a214b	-0.24426763
24	0xbe9e3ace	-0.3090424
25	0x3e816c9c	0.25278175
26	0x3f03712f	0.5134458
27	0x3d6f2a8d	0.05839019
28	0xbed5ee55	-0.41783395
29	0x3c0eca02	0.008715155
30	0x3e30d2da	0.17267933
31	0x3d873519	0.066019244
32	0xbf05f5fc	-0.5232847
33	0x3ee5ebc9	0.44906452
34	0x3edabd5b	0.42722592
35	0x3e134637	0.14382254
36	0xbea76bdf	-0.32699487
37	0xbe803cd8	-0.2504642
38	0xbe9e5f8a	-0.30932266
39	0x3e8d0754	0.27544653
40	0x3e7c3c57	0.24632393
41	0xbeac5cc9	-0.3366454
42	0xbe95a562	-0.2922774
43	0x3e79f55f	0.24410008
44	0x3ea45ec3	0.32103547
45	0x3e11c05e	0.14233539
46	0x3efa4250	0.48878717
47	0xbf03b4ad	-0.51447564
48	0x3e946415	0.28982607
49	0xbe9d8d8d	-0.30772057
50	0xbd0b20ee	-0.03396695
51	0x3ed9a75c	0.42510498
52	0xbec9378f	-0.393002
53	0x3e8b71b8	0.27235198
54	0xbead38f7	-0.33832523
55	0x3e59e22f	0.21277688
56	0xbed56f40	-0.4168644
57	0xbee37762	-0.4442702
58	0x3f0269e8	0.5094285
59	0x3e3d8804	0.18508917
60	0xbeca95fb	-0.3956755
61	0xbec0ae81	-0.37633136
62	0x3d1d6444	0.0384257
63	0x3ea38618	0.31938243

FK_LAYER.joints.14.p_offset f4 [3, 1]
0	0xc07da275	-3.9630406
1	0xc0a2ba26	-5.085223
2	0x42268b4a	41.636024

FK_LAYER.joints.14.rpy_offset f4 [3]
0	0xbba1613c	-0.0049249213
1	0x3a39c388	0.00070863264
2	0xbc56eb67	-0.013117648

FK_LAYER.joints.15.p_offset f4 [3, 1]
0	0xc07ba804	-3.9321299
1	0xc0aac675	-5.3367257
2	0x42265eb7	41.592495

FK_LAYER.joints.15.rpy_offset f4 [3]
0	0xb9fcb399	-0.00048198996
1	0xbcb7a8f7	-0.022419436
2	0xbbecb66c	-0.007223895

FK_LAYER.joints.15.axis f4 [3, 1]
0	0xbd2a105c	-0.041519508
1	0x3da96906	0.08271985
2	0xbe280b81	-0.16410638

FK_LAYER.joints.15.q_layer.0.weight f4 [1, 64]
0	0xbe87c6c9	-0.2651885
1	0x3e9bc3f8	0.3042295
2	0x3f0c0ec1	0.5471001
3	0xbcf3f9ad	-0.02978214
4	0xbe37a5ef	-0.17934392
5	0xbe88d0a2	-0.26721674
6	0xbe212803	-0.1573792
7	0xbec5599a	-0.38544923
8	0xbeb899f5	-0.3605496
9	0x3e48c736	0.19607243
10	0xbcb53294	-0.022118844
11	0xbdc070a1	-0.09396482
12	0xbe637d75	-0.22215827
13	0x3e85a531	0.26102594
14	0x3e97a813	0.29620418
15	0x3eb2d5b1	0.3492866
16	0x3e8a43e1	0.27004912
17	0xbd806554	-0.06269327
18	0x3cb0fa3e	0.0216037
19	0x3ee88764	0.45415795
20	0x3eed4395	0.46340623
21	0xbe9af4f2	-0.30265003
22	0xbd18e997	-0.037332144
23	0xbeeaafbc	-0.458372
24	0x3e380502	0.1797066
25	0xbe99773e	-0.29973787
26	0x3ef4c591	0.4780698
27	0xbdd10a8a	-0.10207088
28	0xbeb7bc0f	-0.35885665
29	0x3e3849d2	0.1799691
30	0x3eace387	0.3376734
31	0xbe6ae6cb	-0.22939603
32	0xbf06a6c7	-0.5259823
33	0x3e78ee8d	0.2430975
34	0x3daaf2bf	0.083470814
35	0x3eff809e	0.49902815
36	0x3ec3f665	0.38273922
37	0xbef304d3	-0.47464618
38	0xbf0bfc72	-0.54682076
39	0x3e83ed0b	0.25766787
40	0x3f0f16b2	0.55894005
41	0xbd4bc0ab	-0.04974429
42	0xbe4aca88	-0.19803822
43	0x3e957734	0.29192507
44	0x3d145035	0.036209304
45	0x3ee1e53d	0.44120207
46	0x3e28c09c	0.16479725
47	0xbdd2d9e7	-0.10295468
48	0x3eb9cfe1	0.36291412
49	0x3f183148	0.594502
50	0x3ea42a5c	0.32063568
51	0x3f09d8b9	0.5384632
52	0x3f0e08c4	0.55482125
53	0xbe887323	-0.26650342
54	0xbe119bf0	-0.14219642
55	0xbdf54fb3	-0.11978092
56	0xbe635b5c	-0.2220282
57	0x3e575888	0.21029866
58	0xbada1942	-0.0016639607
59	0x3e5423d1	0.20716788
60	0x3e77b094	0.24188453
61	0xbdf49bdc	-0.1194379
62	0xbeb73e1d	-0.35789576
63	0xbe8e2c3f	-0.27768132

FK_LAYER.joints.16.p_offset f4 [3, 1]
0	0xc03d44df	-2.9573286
1	0xc0ac36b5	-5.381678
2	0x4226d31e	41.70617

FK_LAYER.joints.16.rpy_offset f4 [3]
0	0x3b2bb2f3	0.0026199191
1	0xbc668cd2	-0.01407166
2	0xbb69f480	-0.0035698712

FK_LAYER.joints.16.axis f4 [3, 1]
0	0xbdeb96e5	-0.1150339
1	0xbe57c8c7	-0.21072684
2	0x3ec29d3e	0.3801059

FK_LAYER.joints.16.q_layer.0.weight f4 [1, 64]
0	0x3eb23e42	0.34813124
1	0xbf180535	-0.59382945
2	0x3e2c75f8	0.16841877
3	0xbe321e65	-0.17394407
4	0x3f22c40b	0.6358039
5	0x3e957a11	0.29194692
6	0x3ef4a6f9	0.4778364
7	0x3e710023	0.23535208
8	0x3cc946cf	0.024569897
9	0xbee41eb2	-0.4455467
10	0xbe886974	-0.26642954
11	0xbe588d40	-0.21147633
12	0xbe810550	-0.25199366
13	0xbeb1cee4	-0.34728158
14	0xbf23e2d5	-0.64017993
15	0xbf2a8cb2	-0.66620934
16	0x3e03356d	0.12813349
17	0x3e875ea6	0.264394
18	0x3dd3431c	0.103155345
19	0xbecbfea4	-0.39842713
20	0xbf0283c8	-0.5098233
21	0x3ede4b86	0.43416995
22	0xbedd3e22	-0.43211466
23	0x3f46be5f	0.77634233
24	0x3da89aef	0.08232676
25	0x3f0ca29f	0.5493564
26	0xbee0576f	-0.43816707
27	0x3efe13db	0.49624524
28	0xbefc4a97	-0.49275658
29	0xbeddcbb7	-0.43319485
30	0xbe10fa7d	-0.14158054
31	0x3cf91500	0.030405521
32	0xbe8e7d7f	-0.2783012
33	0x3ef95bad	0.48702756
34	0x3ec36a46	0.38167018
35	0xbf01de97	-0.5073027
36	0xbeb11a51	-0.3459039
37	0xbf07327f	-0.52811426
38	0x3e17c92d	0.14822836
39	0xbec910af	-0.3927054
40	0xbdd77f8a	-0.10522373
41	0x3ea0bb2d	0.31392804
42	0x3e9d1d1e	0.30686277
43	0xbe7f44e1	-0.24928619
44	0x3da7b4bb	0.081887685
45	0xbe8fad09	-0.28061703
46	0x3e890182	0.26758963
47	0xbf379df6	-0.71725404
48	0xbf027be1	-0.50970274
49	0xbe8e60a8	-0.27808118
50	0xbebf07a7	-0.37310526
51	0xbf20de16	-0.62838876
52	0xbe7d950e	-0.24763891
53	0xbe31f5be	-0.173789
54	0xbe8324c3	-0.25613984
55	0xbd908da9	-0.070582695
56	0xbd88673d	-0.06660316
57	0xbebe5954	-0.37177527
58	0xbe7f09cb	-0.2490608
59	0xbbdd347b	-0.006750641
60	0xbf15aad3	-0.5846378
61	0x3e93329c	0.2874955
62	0x3ebed76b	0.37273726
63	0x3f124730	0.57139874

FK_LAYER.joints.17.p_offset f4 [3, 1]
0	0xc0165cb3	-2.349408
1	0xc0a8f9c2	-5.280488
2	0x422717d0	41.773254

FK_LAYER.joints.17.rpy_offset f4 [3]
0	0xbb7349d1	-0.0037122855
1	0x3c2a26e1	0.010385246
2	0xbc43a95d	-0.011942235

FK_LAYER.joints.17.axis f4 [3, 1]
0	0xbea79841	-0.32733348
1	0x3e9a6a15	0.3015906
2	0x3d746261	0.059664134

FK_LAYER.joints.17.q_layer.0.weight f4 [1, 64]
0	0x3ebdf044	0.3709737
1	0x3ee36354	0.4441172
2	0x3ed74e3c	0.42051876
3	0xbeff154d	-0.4982094
4	0x3e81af90	0.25329256
5	0xbe0a46f5	-0.1350363
6	0x3edbb3d1	0.42910627
7	0x3ea0d871	0.31415132
8	0x3db6822c	0.08911547
9	0xbe81883a	-0.25299245
10	0xbd9b75a0	-0.075907946
11	0x3ef8132b	0.48452124
12	0xbe913b67	-0.28365633
13	0x3eab4d3c	0.33457363
14	0xbdf76904	-0.12080577
15	0xbebd2e7d	-0.3694953
16	0xbbb4d7be	-0.0055188825
17	0xbf024456	-0.5088552
18	0x3f1710b1	0.59009844
19	0x3eaa76fe	0.3329391
20	0xbe67d21b	-0.22638743
21	0xbe8107d9	-0.252013
22	0xbec53a79	-0.38521174
23	0xbda2f152	-0.079561844
24	0xbf2f8e68	-0.6857667
25	0x3e56dd55	0.20982869
26	0x3e31fc86	0.17381486
27	0x3eb6d63b	0.3571032
28	0xbf203fbd	-0.62597257
29	0x3e7d6236	0.24744496
30	0x3a51da22	0.00080052216
31	0xbf01f397	-0.50762314
32	0xbecb7dec	-0.39744508
33	0x3ec99657	0.39372513
34	0x3f0bcc15	0.5460828
35	0x3e696e1b	0.22795908
36	0xbe27a619	-0.16371955
37	0xbf23d9ca	-0.64004195
38	0xbdfa2081	-0.12213231
39	0xbe24864b	-0.16066854
40	0xbe477f04	-0.19482046
41	0xbe73f4a6	-0.23823795
42	0xbe56ba31	-0.20969464
43	0xbf012f10	-0.50462437
44	0x3e9f91a2	0.31165797
45	0x3f0272f0	0.5095663
46	0xbd599c8c	-0.05312781
47	0xbebfb236	-0.37440652
48	0x3d8fa320	0.070135355
49	0xbef098c4	-0.4699155
50	0x3d6dfb6d	0.058101106
51	0x3eff8bbb	0.49911293
52	0xbeeb2a9a	-0.4593094
53	0x3e07c006	0.13256845
54	0xbf09a888	-0.53772783
55	0xbe021bd1	-0.12705924
56	0xbf055162	-0.52077305
57	0xbe8ea2cc	-0.2785858
58	0x3d7bd5e2	0.06148327
59	0x3e8bc71b	0.27300343
60	0xbec597f6	-0.385925
61	0xbe3b09a4	-0.18265396
62	0xbe87f401	-0.26553348
63	0x3f28b1d0	0.6589632

FK_LAYER.joints.18.p_offset f4 [3, 1]
0	0xc02e9b63	-2.728234
1	0xc0aeaafc	-5.458372
2	0x4226d733	41.710155

FK_LAYER.joints.18.rpy_offset f4 [3]
0	0xbbaed878	-0.0053358637
1	0x3b3e9cd1	0.002908517
2	0xbba1954f	-0.004931129

FK_LAYER.joints.18.axis f4 [3, 1]
0	0x3d9678ce	0.073472604
1	0xbe11ce8f	-0.14238952
2	0xbd4a3426	-0.04936614

FK_LAYER.joints.18.q_layer.0.weight f4 [1, 64]
0	0xbede68ea	-0.43439418
1	0xbecb61fe	-0.397232
2	0xbf048222	-0.51761067
3	0x3dd4e02d	0.10394321
4	0x3ec4c6d3	0.3843294
5	0xbbd2bb38	-0.0064310096
6	0xbe6720ec	-0.22571152
7	0xbe10f991	-0.14157702
8	0xbe096f68	-0.13421404
9	0x3e5bc025	0.21460016
10	0x3c0e9540	0.008702576
11	0xbefe32f5	-0.49648252
12	0x3f22b095	0.6355069
13	0xbda5b1fc	-0.080905885
14	0xbe163c05	-0.14671333
15	0x3d5ed8df	0.054406043
16	0x3e2e22be	0.1700544
17	0x3ec0fb20	0.37691593
18	0xbd17b87e	-0.03704118
19	0x3e71449c	0.23561329
20	0x3eac875a	0.33697015
21	0x3ee2905e	0.44250768
22	0x3e953e83	0.29149255
23	0x3c4c501b	0.0124702705
24	0x3e18c043	0.14917092
25	0xbce2044a	-0.027589936
26	0xbc8ee5d5	-0.017443577
27	0xbdf1ca21	-0.11806131
28	0x3ea40420	0.32034397
29	0xbc0c9deb	-0.008582572
30	0x3db6f576	0.08933537
31	0x3e05194d	0.12997933
32	0x3eae0404	0.3398744
33	0xbeef8ca9	-0.46787003
34	0xbeec393e	-0.46137422
35	0xbd415f79	-0.04721019
36	0x3edb0f91	0.42785314
37	0x3ef3d4c1	0.47623256
38	0x3f38f7a8	0.72252893
39	0xbe47fe9f	-0.19530724
40	0xbe7b6115	-0.24548753
41	0x3df73816	0.120712444
42	0x3e4a94e7	0.19783364
43	0x3f1c951d	0.6116503
44	0xbebf7a6b	-0.37398085
45	0xbe72540f	-0.23664878
46	0xbe9cb3cd	-0.30605927
47	0x3ecb21b5	0.39674154
48	0xbd969e51	-0.07354415
49	0x3dbe85f1	0.09302891
50	0x3e9494a0	0.29019642
51	0xbe3cc10f	-0.18433021
52	0x3e579955	0.21054585
53	0xbe5c631e	-0.21522185
54	0x3eb7d3fe	0.35903925
55	0x3ee5a26e	0.44850487
56	0x3e3b7dfb	0.18309776
57	0x3f094c47	0.53632015
58	0xbe93cd4f	-0.28867576
59	0xbeeddca1	-0.4645739
60	0x3e94e819	0.29083326
61	0x3ea32ba4	0.31869233
62	0xbe030c5a	-0.1279768
63	0xbe975d1b	-0.2956322

FK_LAYER.joints.19.p_offset f4 [3, 1]
0	0xc034d9e6	-2.8257995
1	0xc0b62e6d	-5.693167
2	0x42269b57	41.6517

FK_LAYER.joints.19.rpy_offset f4 [3]
0	0xbb5f8708	-0.0034107585
1	0x3bb9ab9c	0.0056662094
2	0xbb01f006	-0.0019826903

FK_LAYER.joints.19.axis f4 [3, 1]
0	0xbe356c10	-0.17717004
1	0x3d89454f	0.06702673
2	0xbf07d1b2	-0.53054345

FK_LAYER.joints.19.q_layer.0.weight f4 [1, 64]
0	0xbe8f1aae	-0.27950042
1	0x3f047c52	0.517522
2	0x3e2e37ae	0.17013428
3	0x3f1a1612	0.60189927
4	0xbe2bce37	-0.16777883
5	0xbe736e64	-0.2377258
6	0xbeed2576	-0.46317643
7	0xbf0ce269	-0.55032974
8	0xbe80ca10	-0.2515416
9	0x3f16c343	0.58891696
10	0x3f19d8b7	0.60096306
11	0xbf4311b0	-0.76198864
12	0x3ec6f12e	0.3885588
13	0x3ebbd75c	0.36687744
14	0x3ee5dd55	0.44895425
15	0x3eaef62e	0.34172195
16	0x3f0d3dd2	0.55172455
17	0x3e38352e	0.17989036
18	0xbee3065a	-0.44340783
19	0x3f342a54	0.7037709
20	0x3f20faa6	0.6288246
21	0x3e281c12	0.16416958
22	0x3f022667	0.5083985
23	0xbe05bb4b	-0.13059728
24	0x3e7e7fa3	0.24853377
25	0xbf28bf29	-0.6591669
26	0x3f1cee25	0.6130088
27	0xbe54355d	-0.20723481
28	0x3f13a193	0.5766842
29	0x3e08528a	0.13312736
30	0x3e5fc69f	0.21853112
31	0x3ed27e4c	0.41111982
32	0x3e2a3e52	0.16625336
33	0xbec4d80c	-0.3844608
34	0xbe8e16a1	-0.2775164
35	0x3ee32e04	0.44371045
36	0x3ed116a4	0.40837586
37	0x3ed41449	0.41421726
38	0x3eb16690	0.3464856
39	0x3ed90264	0.42384636
40	0x3e9df4b2	0.3085075
41	0xbdbf8578	-0.09351629
42	0xbf0eff54	-0.5585835
43	0x3f6f6ad9	0.9352241
44	0xbe72c5d9	-0.23708285
45	0x3edc54b6	0.4303338
46	0x3e343d03	0.17601399
47	0x3eed4537	0.4634187
48	0x3d3c0965	0.045907397
49	0x3e93da7a	0.28877622
50	0x3e78b176	0.24286446
51	0xbea3ae19	-0.31968763
52	0x3f0ea491	0.5571986
53	0x3ead5567	0.3385422
54	0x3f06ee55	0.52707416
55	0x3f144ed2	0.5793277
56	0x3db053fe	0.0860977
57	0x3ea7d7cd	0.3278183
58	0x3f13f09c	0.57789016
59	0x3e8c3a9e	0.2738847
60	0x3dd11a58	0.10210103
61	0xbdc2912a	-0.09500344
62	0x3dc0f30a	0.09421356
63	0xbd8d97c3	-0.06913712

FK_LAYER.joints.20.p_offset f4 [3, 1]
0	0xc043630d	-3.0529206
1	0xc0bae6ad	-5.8406587
2	0x42265cd3	41.59065

FK_LAYER.joints.20.rpy_offset f4 [3]
0	0x3c251572	0.010075914
1	0x3b85e8e2	0.0040865997
2	0x3c7e1a5c	0.015509214

FK_LAYER.joints.20.axis f4 [3, 1]
0	0xbcaa89e4	-0.020817704
1	0xbb89e880	-0.0042086244
2	0xbd8c193d	-0.06840751

FK_LAYER.joints.20.q_layer.0.weight f4 [1, 64]
0	0x3cf2e1d9	0.029648708
1	0x3e7e5f5a	0.24841061
2	0x3e7ed110	0.24884439
3	0x3d4db72f	0.050223526
4	0xbe8cf3d2	-0.2752977
5	0xbe8c3bf7	-0.273895
6	0x3d4e98e3	0.050438773
7	0xbcf02265	-0.029313276
8	0xbe911430	-0.28335714
9	0x3f255b37	0.6459231
10	0xbdac319e	-0.08407901
11	0x3def780a	0.116928175
12	0xbf5409cd	-0.82827455
13	0xbdbb796f	-0.09154021
14	0xbd458503	-0.048222553
15	0x3f099357	0.5374045
16	0xbd46c3ee	-0.048526697
17	0x3e13851b	0.14406244
18	0x3ecb124c	0.39662397
19	0x3d87977a	0.06620689
20	0xbea26c74	-0.31723368
21	0xbe714ffa	-0.23565665
22	0x3dbf013f	0.093264095
23	0xbe882d76	-0.26597184
24	0x3e4c9a11	0.19980647
25	0x3d2d71ad	0.042344738
26	0x3dbbf484	0.09177497
27	0xbdddf787	-0.10838228
28	0xbf394000	-0.7236328
29	0x3ea7dbd9	0.32784918
30	0x3e3928e7	0.1808201
31	0x3b5dfde6	0.003387326
32	0xbf350a58	-0.7071891
33	0x3e8c7b20	0.27437687
34	0x3d32d438	0.04365942
35	0xbe0200d9	-0.12695636
36	0xbe13d7ad	-0.14437743
37	0xbd006883	-0.03134967
38	0xbe9301fa	-0.28712445
39	0xbe554864	-0.20828396
40	0x3e99005e	0.29883093
41	0xbf0a4390	-0.5400934
42	0xbe80877d	-0.2510337
43	0x3d28462e	0.041082554
44	0xbd93ffae	-0.072265014
45	0x3ed8bac6	0.42329997
46	0xbe2b9cea	-0.16759077
47	0x3c701082	0.014652373
48	0x3ea8e3a3	0.32986173
49	0x3ed33de3	0.41258153
50	0xbe937b83	-0.2880517
51	0x3e844774	0.25835764
52	0x3ed5f960	0.4179182
53	0xbdb2d1d0	-0.08731425
54	0xbec781cc	-0.38966215
55	0x3eb4ac19	0.3528755
56	0xbe9ae7a9	-0.30254868
57	0xbea62dfa	-0.32456952
58	0x3e6afdc4	0.22948366
59	0x3f319e46	0.6938213
60	0x3eb3a867	0.35089418
61	0xbe651dad	-0.22374602
62	0xbe7eb062	-0.24871972
63	0xbe75ac2f	-0.23991464

FK_LAYER.joints.21.p_offset f4 [3, 1]
0	0xc0b27119	-5.576306
1	0xc0fbb23d	-7.8655076
2	0x4224b9f6	41.181602

FK_LAYER.joints.21.rpy_offset f4 [3]
0	0x3cc39b83	0.023877865
1	0x3c6ca69f	0.014444022
2	0x3c075197	0.008259199

FK_LAYER.joints.22.p_offset f4 [3, 1]
0	0xc0c77d4a	-6.234044
1	0xc0dabb09	-6.8353314
2	0x422519dd	41.275257

FK_LAYER.joints.22.rpy_offset f4 [3]
0	0x3c2c4928	0.010515489
1	0x3c1a2e54	0.00941046
2	0xbb8124fb	-0.003941176

FK_LAYER.joints.22.axis f4 [3, 1]
0	0xbd1ec953	-0.038766216
1	0x3dc6b380	0.09702206
2	0xba7136be	-0.00092015776
