results/PRIMNET/ABAQUS32/weights/epoch_306.pth (torch, 89861 bytes, 189 tensors)

motor_std f4 [3]
000000 f4 9d 66 3e 82 68 6a 3d a9 df bc 3b
       0.22521192 0.057228573 0.005763967

motor_mean f4 [3]
000000 c2 4d 83 be 80 8e 51 39 94 39 b8 bd
       -0.25645262 0.00019984879 -0.08995357

position_std f4 [3, 1]
000000 00 00 80 3f 00 00 80 3f 00 00 80 3f
       1.0 1.0 1.0

position_mean f4 [3, 1]
000000 00 00 00 00 00 00 00 00 00 00 00 00
       0.0 0.0 0.0

ACT_EMBED.layers.0.weight f4 [32, 3]
000000 1a 6d 0a 40 43 d7 16 c0 e2 f4 87 3f a5 44 3b 40
       2.162909 -2.3568885 1.0621607 2.9260647
000010 ed 9c b8 3f 38 8f 16 40 b7 fb b3 bf 73 86 ac 3f
       1.442289 2.3524914 -1.4061192 1.3478531
000020 4e 53 b6 3e e0 07 a9 bf c4 e2 a6 3f bc df 28 bf
       0.3561043 -1.3205528 1.3037953 -0.6596639
000030 bb b8 4c 3f 54 4a 2c c0 09 5e aa 3f d3 6a b9 bf
       0.79969376 -2.6920366 1.3309947 -1.4485725
000040 ea 4e f4 3f b6 73 05 3f 52 c9 94 be 4c 6b 21 40
       1.9086583 0.52129686 -0.29059845 2.522174
000050 00 7a ba bf 1d 28 57 3f b1 c5 a1 bf 16 ae 29 3e
       -1.4568481 0.84045583 -1.2638456 0.16570315
000060 b6 f8 e7 bf 5d 9c 18 40 79 be 69 be cf 44 fb be
       -1.8122776 2.3845437 -0.22826566 -0.49075934
000070 45 8d 8e 3f ca 17 17 bf bd 5d cf 3f d8 2a 81 bf
       1.1136862 -0.59020674 1.6200482 -1.00912
000080 97 af 05 40 8c 0d 3e 3f cf d3 48 3f 00 6f ff be
       2.0888422 0.7423942 0.78448194 -0.49889374
000090 2f 50 09 40 77 c5 31 c0 de 99 2f bf be b2 91 3d
       2.145519 -2.7776773 -0.6859416 0.071141705
0000a0 c1 9c d0 3f 93 e5 55 bf 3f d2 ef be 67 aa e7 3f
       1.6297837 -0.8355343 -0.46840093 1.8098878
0000b0 73 5e 82 bf 61 65 1f c0 56 5d c6 3f b7 ef 74 bf
       -1.0185074 -2.4905627 1.5497234 -0.95678276
0000c0 bf 8d a7 3f f0 10 e6 bf 08 98 61 be 6b c6 54 bf
       1.3090132 -1.7973919 -0.22030652 -0.8311526
0000d0 29 f5 b7 3f 58 cf 89 be 39 78 2e 3f bc 79 0c c0
       1.4371692 -0.26916003 0.68152195 -2.19493
0000e0 47 fe 00 c0 73 48 a5 bf 31 e0 9c 3f e3 3c 4e bf
       -2.0155199 -1.2912735 1.2255918 -0.80561656
0000f0 43 72 9a bf e3 7f c4 3f c9 40 98 bf 90 47 2b 3f
       -1.206612 1.5351528 -1.1894771 0.6690607
000100 95 13 8f bf c6 8f a1 3e 90 d8 d0 3f 70 a6 3a bf
       -1.1177851 0.31555003 1.631609 -0.72910213
000110 e3 6a ed 3f 4d cc 1f 40 d7 b8 6d bf 44 20 73 3f
       1.8548244 2.4968445 -0.9286017 0.9497111
000120 7d 0b 16 bf fd 6e 09 3f 8f 06 56 bf bd 6a e5 3f
       -0.5861128 0.5368498 -0.8360376 1.7923199
000130 8b 55 af 3f 23 1f 45 3f 04 a5 5f be ff 46 0e 40
       1.3697981 0.77000636 -0.21840292 2.2230833
000140 0e fa 94 3f bb ee e0 bf a4 64 22 40 eb 28 fd bf
       1.1638811 -1.7572855 2.5373926 -1.9778112
000150 32 3a 24 c0 08 5d 32 40 af 18 96 bf f1 b1 ad 3f
       -2.566052 2.7869282 -1.1726283 1.3569928
000160 ad 2d 33 bf 42 d3 ca 3f 6b 7e 06 c0 ad a6 1f 40
       -0.6999157 1.5845721 -2.101466 2.494548
000170 c9 56 51 be 13 25 ea 3f 5a 9c bc 3f 6c 02 83 3f
       -0.20443262 1.8292564 1.4735215 1.0235114

ACT_EMBED.layers.2.weight f4 [32, 32]
000000 c1 89 4d c0 9a 52 30 c0 68 31 dc bf de e7 11 c0
       -3.2115328 -2.7550416 -1.7202578 -2.279777
000010 fd 4b 37 c0 35 c2 30 40 2c b2 24 c0 86 29 2d c0
       -2.864013 2.7618535 -2.5733747 -2.7056594
000020 30 b6 02 c0 69 a1 07 40 d8 e6 13 c0 3a 6d 2f c0
       -2.0423698 2.1192267 -2.3109646 -2.7410417
000030 55 57 45 c0 f6 8b 8b bf 04 e6 17 40 f5 cd d3 bf
       -3.0834553 -1.0902088 2.373414 -1.6547228
000040 6c 8b 23 c0 ed 0d 22 c0 c9 75 2c c0 bf 07 2c 40
       -2.5553846 -2.5321 -2.694689 2.6879728
000050 31 2d 7f bf 92 a4 0a c0 8e 5d 28 c0 36 4a 34 40
       -0.9967833 -2.1662946 -2.6307101 2.8170295
000060 b9 34 eb bf b1 dc 15 c0 6a f8 4b c0 69 8f 1c c0
       -1.8375465 -2.341595 -3.187037 -2.446253
000070 f6 9a 1d c0 8d f6 bd bf f8 2a 1d c0 85 b2 34 40
       -2.462583 -1.4840866 -2.4557476 2.823396
000080 1c 05 e3 bf 45 5a 25 c0 d9 b8 d5 3f f0 28 06 40
       -1.7735934 -2.5836346 1.6697036 2.0962486
000090 60 27 bf bf 56 2e 38 c0 7d 68 28 c0 2a 20 b2 bf
       -1.4933891 -2.8778281 -2.6313775 -1.3916066
0000a0 55 8f 4a c0 09 9a a8 3f 08 de 4b c0 60 b8 42 c0
       -3.1649983 1.3172008 -3.1854267 -3.0425034
0000b0 85 24 35 c0 1e ba 3d c0 9e 5a 3a c0 42 99 2e c0
       -2.830354 -2.9644847 -2.9117808 -2.728104
0000c0 3f 75 2d c0 82 a1 30 c0 d5 19 4a c0 d4 e8 48 c0
       -2.7102811 -2.7598577 -3.1578267 -3.1392107
0000d0 4a a4 25 c0 51 95 3c c0 0f 4c 30 c0 49 5d 30 c0
       -2.5881524 -2.9466136 -2.7546422 -2.7556937
0000e0 f1 40 0a c0 9e 98 1f c0 04 99 e6 bf 1b cf 12 c0
       -2.1602137 -2.49369 -1.8015447 -2.2938907
0000f0 82 ae 3b c0 ac 5c 1e c0 25 62 3e c0 f2 96 47 c0
       -2.932526 -2.4744062 -2.9747403 -3.118588
000100 1d 7e 3f c0 d6 7d 34 c0 ee e5 3d 40 3e 11 2b c0
       -2.9920723 -2.8201804 2.9671588 -2.6729274
000110 b2 f4 45 c0 8f fb 3b c0 79 bb 2c c0 a8 a6 25 c0
       -3.09306 -2.937229 -2.6989424 -2.588297
000120 0f 90 2f c0 a0 fb 28 c0 d6 77 40 c0 7e 9f 46 c0
       -2.7431676 -2.640358 -3.0073142 -3.1034846
000130 d3 e3 24 c0 39 83 2b c0 85 49 32 c0 c7 9f 25 c0
       -2.5764053 -2.6798842 -2.7857373 -2.587877
000140 58 2c 41 40 c1 ad 3e c0 2b ce 34 c0 94 62 37 c0
       3.0183315 -2.979355 -2.8250835 -2.8653917
000150 35 e8 46 40 b6 8a 3c c0 75 16 27 c0 b2 64 44 c0
       3.1079228 -2.9459662 -2.6107457 -3.068646
000160 f7 6f 44 c0 df ec 42 c0 df 91 23 c0 b8 ea 36 c0
       -3.0693338 -3.0457075 -2.5557783 -2.858076
000170 5e 6e 36 c0 54 df 3d c0 ac b2 3e c0 46 69 27 c0
       -2.8504863 -2.9667559 -2.9796553 -2.6158004
000180 25 1f 4a c0 1c 99 3c c0 86 40 2b 40 a6 a4 24 c0
       -3.158151 -2.946845 2.6758132 -2.5725493
000190 23 b9 3b c0 1b 84 34 c0 e1 ee 4a c0 70 5e 40 c0
       -2.9331748 -2.820563 -3.17083 -3.005764
0001a0 54 a0 34 c0 c1 bd 38 c0 2c 12 2f c0 b7 ab 26 c0
       -2.8222857 -2.8865817 -2.7354841 -2.6042306
0001b0 04 63 31 c0 52 47 3b c0 95 d9 2e c0 cc 8a 27 c0
       -2.7716684 -2.926228 -2.7320302 -2.6178465
0001c0 fa 47 36 c0 d4 e8 3b c0 a8 6c 3c c0 73 7d 3a c0
       -2.848143 -2.9360857 -2.9441319 -2.9139068
0001d0 e6 42 2a c0 10 60 43 c0 ea c5 3f c0 0c 1f 3b 40
       -2.6603332 -3.0527382 -2.9964547 2.92377
0001e0 7f 5b 2e 40 3c 40 31 c0 5a 10 41 c0 03 af 3a c0
       2.7243345 -2.7695456 -3.016623 -2.9169319
0001f0 1a 91 20 c0 e9 7e 45 c0 34 80 37 c0 c7 8e 3b c0
       -2.5088563 -3.085871 -2.8672 -2.9305894
000200 ce 41 33 c0 82 aa 32 c0 cf 4e 23 40 33 c0 22 c0
       -2.8008914 -2.791657 2.551685 -2.542981
000210 82 fd 3e c0 19 c5 43 c0 16 e7 31 c0 26 3c 55 c0
       -2.984223 -3.058905 -2.7797294 -3.3317962
000220 58 5e 35 c0 3a 91 2f c0 4e 27 38 40 8b f4 37 c0
       -2.8338833 -2.743239 2.877399 -2.8743007
000230 67 4b 1e c0 f4 83 12 c0 fc 1d 46 c0 12 55 44 c0
       -2.4733522 -2.2893038 -3.09558 -3.0676923
000240 95 49 1d c0 1e ae 1c c0 9b 7b 2d c0 56 9d 35 c0
       -2.457616 -2.4481273 -2.7106693 -2.837728
000250 28 32 14 c0 b3 d2 20 40 97 76 47 c0 ec 7d 2b c0
       -2.3155613 2.51286 -3.1166131 -2.6795607
000260 a3 3d 20 c0 cd 10 4f c0 e5 13 36 c0 46 e3 4e c0
       -2.503762 -3.2354004 -2.8449643 -3.2326217
000270 c2 2d 32 c0 7f 5e 33 c0 73 cb 34 c0 1c 89 3e c0
       -2.7840428 -2.8026426 -2.8249176 -2.9771185
000280 43 18 1c 40 29 29 5f be 9b fb 04 3e 1f 21 cf 3f
       2.4389808 -0.21793045 0.12986605 1.6181983
000290 dd de 9e 3f df 7e f1 bf ef 7b 38 3f 61 68 80 be
       1.2411762 -1.8866843 0.7206411 -0.25079635
0002a0 42 2a 35 c0 44 3f e2 3d 4a 84 a2 3e 44 7f c4 3e
       -2.8307042 0.11047223 0.31741554 0.38378346
0002b0 c7 7f 60 3f 6a 3a 07 bf 59 3c 30 c0 00 57 43 3f
       0.8769497 -0.5282351 -2.7536833 0.76304626
0002c0 bf 31 c7 3f 1c 02 58 3f b9 ca 11 3e 47 59 30 c0
       1.5562056 0.8437822 0.14237489 -2.755449
0002d0 20 f8 23 c0 02 c2 8c bf 32 f0 14 3f cd b2 69 be
       -2.5620193 -1.0996706 0.5817901 -0.22822113
0002e0 0a d4 02 3f 45 aa 35 be fc 0f 5f be 8a d2 b0 3f
       0.51104796 -0.17740734 -0.21783441 1.3814251
0002f0 11 69 b0 bf 29 2b 4c bf c9 23 2e 3e f8 bf c9 3e
       -1.3782064 -0.7975336 0.17005838 0.39404273
000300 cb b5 38 c0 39 f3 23 c0 d5 05 ea bf 34 69 fa 3f
       -2.8860958 -2.5617201 -1.828303 1.9563355
000310 a7 d8 d6 bf d1 e2 23 40 2b 03 40 bf b3 6c 92 bf
       -1.6784867 2.5607188 -0.75004834 -1.1439422
000320 70 81 4f bf ed 2b c5 3d 5b fb 3a 40 0e 3e cc bf
       -0.8105688 0.09627519 2.9215915 -1.5956438
000330 87 30 23 c0 0b 0c 4b bf 8e ac b6 bf ab 43 bc bf
       -2.5498369 -0.7931525 -1.427141 -1.4708151
000340 30 d5 0a c0 0d 20 e8 be cb bd 3e bf 16 1b 05 40
       -2.169262 -0.45336953 -0.7450835 2.0797782
000350 12 47 2c 3f 2c ae a8 be a9 7f 1e c0 b2 93 8d bf
       0.67295945 -0.32945383 -2.4765418 -1.1060698
000360 b4 0b 2a 40 32 c1 88 bf 6e 8b 20 c0 a4 b6 06 c0
       2.6569643 -1.0683959 -2.50851 -2.1048975
000370 73 41 ac bf 9e e8 a6 bf 8a 45 55 bf 4a f1 18 be
       -1.3457474 -1.3039739 -0.83309233 -0.14935794
000380 b3 d8 45 c0 0a c8 31 c0 f9 86 43 40 28 6f 2d c0
       -3.0913513 -2.7778344 3.055113 -2.7099094
000390 ea 53 37 c0 30 76 3c c0 d3 0c 33 c0 d4 9b 30 c0
       -2.8644967 -2.9447136 -2.7976577 -2.759511
0003a0 37 0f 35 c0 16 dc 33 c0 58 43 39 c0 93 40 38 c0
       -2.8290536 -2.810308 -2.8947353 -2.8789413
0003b0 81 a7 3b c0 22 bd 25 c0 b4 f4 43 c0 7d e4 31 c0
       -2.9320986 -2.5896688 -3.0618105 -2.7795708
0003c0 e5 8e 3b c0 17 3e 2e c0 b7 aa 31 c0 bc 93 3a c0
       -2.9305966 -2.7225397 -2.7760446 -2.915267
0003d0 37 af 28 c0 db 6f 38 c0 c7 e2 3f c0 b0 f4 30 c0
       -2.6356943 -2.881827 -2.9982164 -2.7649345
0003e0 ea 07 35 c0 e6 90 37 c0 a4 11 47 c0 b7 2a 4f c0
       -2.828608 -2.868219 -3.1104517 -3.236982
0003f0 99 e9 34 c0 f8 74 32 c0 e2 68 38 c0 bb 78 3a c0
       -2.8267577 -2.7883892 -2.8814015 -2.9136188

ACT_EMBED.layers.4.weight f4 [64, 32]
000000 70 e6 07 40 69 22 0b 40 73 11 29 40 9c dc 33 40
       2.1234398 2.1739752 2.64169 2.81034
000010 1a 02 47 c0 32 b0 ea bf 35 31 3c c0 e4 8a 49 c0
       -3.1095033 -1.833502 -2.9405034 -3.1491022
000020 8d 4c 23 c0 eb e2 45 c0 a8 9e 4d c0 92 31 5c bd
       -2.5515473 -3.091975 -3.2128086 -0.05375821
000030 f3 fb 12 40 69 72 36 c0 a5 bf 1a 40 06 3e 3a c0
       2.2966278 -2.850733 2.417947 -2.9100356
000040 7c 26 46 40 0c 93 43 c0 8c 5f 31 40 2c 2f 3c c0
       3.096099 -3.05585 2.7714567 -2.9403791
000050 3e b5 4d c0 26 4c 86 bc 21 65 2f 40 2c c1 2d c0
       -3.2141871 -0.016393732 2.7405474 -2.7149153
000060 b4 95 44 40 d5 1a 18 3c 1c 19 21 40 f6 06 41 c0
       3.0716372 0.009283741 2.5171576 -3.0160499
000070 96 f2 2a c0 a0 6b 58 bd b4 86 31 c0 ab 18 34 40
       -2.6710563 -0.052837014 -2.7738466 2.8140056
000080 4c 56 3e c0 c3 be 3c bf 40 51 32 c0 88 bf 2f c0
       -2.9740171 -0.7372858 -2.786209 -2.7460651
000090 6c 52 29 c0 8d 13 9b bf 17 b0 23 c0 5d 1e 33 c0
       -2.6456556 -1.2115341 -2.5576227 -2.7987282
0000a0 91 45 37 c0 8d 23 27 c0 9d 5f 41 c0 84 db 41 c0
       -2.863621 -2.6115448 -3.0214608 -3.0290232
0000b0 ba a2 2f c0 68 ed 2e c0 41 7a 4c c0 bd 9f 39 c0
       -2.744307 -2.7332401 -3.1949618 -2.9003747
0000c0 15 9b 31 c0 2e 00 2b c0 35 d4 31 c0 4b 55 31 c0
       -2.7750905 -2.671886 -2.778577 -2.7708309
0000d0 6e aa 42 c0 fb e3 10 be 5f 8e 36 40 58 6f 39 c0
       -3.0416522 -0.14149468 2.8524396 -2.897421
0000e0 59 27 2d c0 28 a3 49 40 f9 58 2e 40 15 f0 32 c0
       -2.7055266 3.1505833 2.7241805 -2.7959034
0000f0 f0 8e 33 c0 41 20 28 c0 40 d1 45 c0 ed d8 36 c0
       -2.8055992 -2.6269686 -3.0908966 -2.85699
000100 88 33 38 c0 7a c2 38 c0 ef 15 26 c0 c3 5c 3d c0
       -2.8781452 -2.88687 -2.5950887 -2.9587867
000110 1d c8 2d c0 1f e3 45 c0 34 c3 37 c0 51 78 35 c0
       -2.715339 -3.0919874 -2.8712893 -2.8354685
000120 84 d2 39 c0 4a f5 27 c0 a7 5b 47 c0 53 67 3e c0
       -2.9034739 -2.6243463 -3.114969 -2.9750564
000130 9b b5 3f c0 b9 36 2f c0 29 c8 2f c0 59 e6 3f c0
       -2.9954593 -2.737715 -2.7465918 -2.9984343
000140 78 ce 34 c0 00 ac 30 c0 b7 eb 36 c0 62 f7 46 c0
       -2.8251019 -2.760498 -2.858137 -3.108849
000150 0f b4 38 c0 8b 21 0b bc 92 29 27 3f c0 52 2f c0
       -2.88599 -0.008491884 0.65297806 -2.7394257
000160 7f f2 30 c0 76 21 37 40 fb d3 3d c0 25 58 2f c0
       -2.7648008 2.8614173 -2.9660633 -2.739755
000170 d5 45 47 c0 7d cf 33 c0 ec 0c 3c c0 69 71 2e c0
       -3.1136372 -2.809539 -2.9382887 -2.725672
000180 67 f7 16 c0 2e 93 09 c0 31 ea 38 40 01 55 38 c0
       -2.3588502 -2.1496081 2.889294 -2.8801882
000190 91 f2 27 c0 74 e7 09 c0 89 ae ed bf 22 5d 2e c0
       -2.62418 -2.1547518 -1.8568889 -2.7244344
0001a0 bc ff 1a c0 c7 ff 16 c0 04 0c 20 c0 02 3c 40 40
       -2.4218588 -2.3593614 -2.5007334 3.0036626
0001b0 8f 59 18 c0 6b f9 31 c0 44 37 12 c0 35 d6 41 40
       -2.3804662 -2.7808483 -2.2846231 3.0286992
0001c0 cc fe 31 c0 40 f5 20 c0 b9 a2 31 c0 0d 78 34 c0
       -2.7811766 -2.5149689 -2.7755568 -2.8198273
0001d0 0f 6b 1a c0 a8 ad 15 c0 b3 1f 41 40 ac 5a 35 c0
       -2.4127843 -2.3387241 3.0175598 -2.8336592
0001e0 e9 a0 3a 40 19 60 41 40 41 c4 26 40 14 ce ef bf
       2.9160712 3.0214903 2.6057284 -1.8734765
0001f0 83 4f 06 c0 03 27 4d 40 75 b7 2a 40 1f 10 1d c0
       -2.098603 3.205506 2.6674473 -2.454109
000200 c5 d5 33 c0 8e 5d 16 40 a6 4a 32 c0 47 e5 34 c0
       -2.8099225 2.3494601 -2.7858062 -2.826494
000210 31 18 33 c0 08 96 36 c0 7d 94 2f c0 da 2d 37 c0
       -2.7983515 -2.8529072 -2.743438 -2.8621736
000220 99 e7 45 c0 f6 69 33 c0 1b 0e 2d c0 fd 54 41 c0
       -3.0922606 -2.8033423 -2.703986 -3.0208123
000230 65 b2 31 c0 d7 e6 3b c0 84 d8 3e c0 26 34 36 c0
       -2.7765133 -2.9359643 -2.981965 -2.846933
000240 6c 63 3b c0 67 67 36 c0 96 a4 41 c0 95 03 40 c0
       -2.9279432 -2.8500612 -3.0256705 -3.0002186
000250 6c 0d 3a c0 3c eb fd bd d0 8f 49 3e 1e 74 45 c0
       -2.9070692 -0.12398383 0.19683766 -3.0852122
000260 07 d8 2a 40 ba b4 0c be 6f bc 3c c0 b0 be 34 c0
       2.6694353 -0.13740817 -2.949001 -2.8241386
000270 f5 cb 40 c0 9b 9a 39 c0 e4 05 33 c0 6b c7 3f c0
       -3.0124485 -2.9000614 -2.7972345 -2.9965465
000280 3b b0 3b c0 8a 7b 37 40 bc 62 23 c0 a3 40 39 40
       -2.9326313 2.8669152 -2.5529013 2.89457
000290 9d 0c 37 c0 cd 1f 9e bf 72 84 35 c0 e4 54 2b 40
       -2.8601449 -1.2353455 -2.8362088 2.6770563
0002a0 ce da 2f c0 3d fc 38 c0 ae 3d 2c c0 8c 54 47 c0
       -2.7477298 -2.8903954 -2.6912646 -3.1145353
0002b0 95 8b 41 c0 e0 c7 39 c0 a5 9d 3b c0 9a ff 21 c0
       -3.0241444 -2.9028244 -2.9314969 -2.5312257
0002c0 29 4c 41 c0 7a ce 24 40 ec 42 45 40 73 cf 2c c0
       -3.0202734 2.5751023 3.0822096 -2.7001617
0002d0 6b d8 3f c0 aa 53 00 bf 83 18 39 be 1f 7c 3f 40
       -2.997584 -0.5012766 -0.18075757 2.9919508
0002e0 4a 0b 34 40 3a a0 2b c0 6c 0e 42 c0 62 77 32 c0
       2.813189 -2.6816545 -3.0321302 -2.7885365
0002f0 82 11 45 c0 ba e4 3c 40 40 4d 35 40 7a 99 31 c0
       -3.0791936 2.9514604 2.83284 -2.7749925
000300 55 ee 38 c0 66 1c 0b c0 62 02 30 c0 2d 44 41 c0
       -2.8895466 -2.1736083 -2.7501454 -3.0197861
000310 41 6a 2f c0 c6 41 19 c0 08 29 3d c0 c2 e8 3b c0
       -2.7408602 -2.3946395 -2.9556293 -2.9360814
000320 75 b8 3c c0 0f d4 35 c0 70 c0 38 c0 4a 30 39 c0
       -2.9487584 -2.841068 -2.8867455 -2.8935723
000330 88 72 40 c0 54 ac 3c c0 ac 79 39 c0 e5 e4 3b c0
       -3.0069904 -2.948018 -2.8980513 -2.9358456
000340 de 9d 37 c0 56 48 22 c0 09 a9 26 c0 99 ec 38 c0
       -2.8690104 -2.535665 -2.604067 -2.8894408
000350 38 83 37 c0 38 83 ff bd 84 16 2f c0 0c 14 48 40
       -2.867384 -0.124762 -2.7357492 3.1262236
000360 e4 1e 2f 40 d5 db 36 c0 b9 f6 35 c0 90 11 3f c0
       2.7362604 -2.8571675 -2.8431838 -2.985447
000370 48 43 47 c0 ab 14 3d c0 b8 2b 46 c0 15 81 38 c0
       -3.1134815 -2.9543865 -3.0964184 -2.8828785
000380 a1 44 46 c0 31 3b 09 c0 f5 19 20 c0 5a d8 38 c0
       -3.0979388 -2.1442378 -2.5015843 -2.888205
000390 5d a1 35 c0 f6 0a ff bf cd a7 38 c0 0c 52 46 c0
       -2.8379738 -1.992522 -2.8852417 -3.0987577
0003a0 db 5c 2b c0 3c 52 39 c0 21 5f 3c c0 3b e0 44 c0
       -2.6775424 -2.8956442 -2.9433062 -3.076186
0003b0 cd 7b 1c c0 59 91 3e c0 26 db 2c c0 11 45 3e c0
       -2.4450562 -2.9776213 -2.7008758 -2.9729655
0003c0 a3 de 3f c0 9b 87 3c c0 8e fc 39 c0 bc 20 3a c0
       -2.9979637 -2.9457767 -2.9060397 -2.908248
0003d0 cc 10 3d c0 74 75 be 3d de ab 3a be e7 c7 31 c0
       -2.9541502 0.09299746 -0.18229625 -2.777826
0003e0 57 a8 3c c0 bd 63 2d c0 17 19 36 c0 2a f3 3b c0
       -2.9477746 -2.7092125 -2.8452814 -2.9367166
0003f0 e7 f1 55 bf 52 73 2c c0 c9 47 3c c0 82 57 43 c0
       -0.8357224 -2.6945386 -2.9418814 -3.052216

FK_LAYER.joints.0.p_offset f4 [3, 1]
000000 99 6e 8d c0 b5 68 b1 c0 8a 9c 0a 3f
       -4.4197507 -5.5440316 0.5414511

FK_LAYER.joints.0.rpy_offset f4 [3]
000000 c4 b9 a5 3b cb ed 33 3c 76 01 a9 bb
       0.0050575454 0.010981987 -0.005157645

FK_LAYER.joints.1.p_offset f4 [3, 1]
000000 40 e2 8c c0 0e aa b1 c0 dc 68 10 3f
       -4.4026184 -5.5520086 0.5641

FK_LAYER.joints.1.rpy_offset f4 [3]
000000 e6 09 98 3b 85 c2 1a bb bb b1 94 3b
       0.004639852 -0.0023614478 0.0045377887

FK_LAYER.joints.1.axis f4 [3, 1]
000000 c8 4a ad be c4 69 6d be 34 9f fa 3e
       -0.33846116 -0.23184878 0.48949587

FK_LAYER.joints.1.q_layer.0.weight f4 [1, 64]
000000 ed 23 40 40 a3 84 2e 40 77 e4 35 40 63 d5 dd bf
       3.0021927 2.7268455 2.8420694 -1.7330745
000010 7c cd 3e c0 5e 33 19 c0 fa 45 33 40 b9 54 79 3f
       -2.9812918 -2.3937602 2.801146 0.973949
000020 67 3d 24 40 c2 4d 07 c0 bf 82 17 40 3a e9 32 40
       2.5662477 -2.114121 2.367355 2.795485
000030 30 ac 3f c0 4c 59 28 40 bc 75 06 40 ff 35 15 c0
       -2.9948845 2.6304502 2.100936 -2.3314207
000040 67 44 27 40 54 22 91 3e 5f 65 36 40 f5 07 24 c0
       2.61355 0.28346503 2.8499372 -2.5629857
000050 fe 6f 07 c0 00 69 1f c0 62 04 ad bf 18 3b 3b c0
       -2.1162105 -2.4907837 -1.3516963 -2.9254818
000060 c7 3a de 3e 3c 04 01 ba ae 44 25 40 ea 57 2d 40
       0.4340422 -0.00049215904 2.5823169 2.7084908
000070 d6 1e 40 c0 53 6d 34 40 3d e1 1a 40 2d 1a 06 c0
       -3.001882 2.8191726 2.4199975 -2.0953476
000080 a0 ba 48 c0 ae 3c 10 40 c6 c3 0f 40 43 e2 25 40
       -3.1363907 2.2537036 2.246324 2.591935
000090 48 7b 35 40 f6 cd 50 c0 56 79 37 c0 55 a6 07 c0
       2.8356495 -3.2625709 -2.8667808 -2.119527
0000a0 e7 c8 3c 40 ed 46 25 c0 f5 d6 87 3e 9f a1 0e c0
       2.949762 -2.582454 0.26531187 -2.2286146
0000b0 c8 fc 19 40 45 eb 2d 40 d9 f2 31 40 5a e7 40 40
       2.4060535 2.7174847 2.7804472 3.0141206
0000c0 f7 84 38 40 c9 af 2f 40 fd 5b 32 40 96 ad 42 40
       2.8831155 2.745104 2.7868645 3.0418448
0000d0 4d 6d 27 c0 72 0c 2c c0 d7 37 2c c0 26 c3 20 c0
       -2.6160462 -2.6882596 -2.6909082 -2.511911
0000e0 e9 b3 00 c0 a7 a8 2e c0 b7 fa 25 40 24 56 2d 40
       -2.0109808 -2.7290437 2.5934274 2.7083826
0000f0 87 52 38 40 84 de 37 c0 92 dd 36 c0 a0 e8 20 c0
       2.880037 -2.8729563 -2.8572736 -2.5141983

FK_LAYER.joints.2.p_offset f4 [3, 1]
000000 80 84 8a c0 f3 0c b0 c0 9a f4 1a 3f
       -4.3286743 -5.5015807 0.6052948

FK_LAYER.joints.2.rpy_offset f4 [3]
000000 0e 60 62 3c 1a c7 29 3c 88 ae 6a 3c
       0.013816847 0.010362411 0.014323838

FK_LAYER.joints.2.axis f4 [3, 1]
000000 8a f9 05 40 4e 14 3f 40 6b 70 34 c0
       2.0933557 2.9856143 -2.8193614

FK_LAYER.joints.2.q_layer.0.weight f4 [1, 64]
000000 2d 8e 24 c0 8d 7a c6 bf 18 47 32 40 43 68 35 40
       -2.5711777 -1.550615 2.7855892 2.8344886
000010 50 36 37 c0 4f 75 3c c0 89 8a 31 c0 ac c9 38 c0
       -2.86269 -2.94466 -2.7740805 -2.887309
000020 97 97 41 40 98 18 3f 40 1b a4 42 40 66 aa 1f c0
       3.0248773 2.985876 3.0412662 -2.4947753
000030 e1 76 33 40 9a f3 34 40 fd 41 54 bf b9 e4 3d 40
       2.8041308 2.8273683 -0.8291319 2.9670851
000040 7e 67 3e 40 71 0c 99 3f df 32 19 c0 1d 07 3e 40
       2.9750667 1.1956922 -2.39373 2.9691842
000050 c1 0b 36 40 91 b9 36 c0 20 bd 2e 40 2b ed 40 c0
       2.8444674 -2.855076 2.7302933 -3.0144756
000060 88 cd 1a 3d cb 2c 3d c0 95 7f 44 40 e7 93 d4 bf
       0.037793666 -2.955859 3.070287 -1.6607636
000070 10 e3 4b 40 04 ff d3 bf c3 a1 55 40 24 c0 42 40
       3.1857338 -1.65622 3.3379982 3.0429773
000080 40 36 43 40 ac 1b 35 c0 14 d9 34 c0 16 77 4f 40
       3.0501862 -2.829814 -2.8257494 3.2416434
000090 dc 27 2d 40 23 01 29 40 b6 0a 29 c0 ed e8 3e 40
       2.7055578 2.6406944 -2.6412787 2.9829667
0000a0 7b 62 44 40 dc 62 26 c0 d1 50 20 c0 a5 e1 49 40
       3.0685108 -2.599784 -2.5049326 3.1543972
0000b0 a7 05 48 c0 78 d2 40 40 0b e9 42 40 d3 42 30 40
       -3.125345 3.012846 3.0454738 2.7540786
0000c0 c3 3b 3e 40 41 d4 20 40 d0 1e 31 40 13 52 31 40
       2.9723976 2.512955 2.7675056 2.7706344
0000d0 f3 94 d9 3f 6b 9f 2d 40 cf af 46 40 66 4c 49 40
       1.6998581 2.712855 3.1044805 3.145288
0000e0 2e 9d fd 3e a6 3b 2a 40 8c 57 41 40 16 e2 30 40
       0.4953398 2.6598907 3.0209684 2.7637992
0000f0 03 46 2d 40 90 64 3d c0 a6 86 38 c0 90 db 41 c0
       2.7073982 -2.9592628 -2.8832183 -3.029026

FK_LAYER.joints.3.p_offset f4 [3, 1]
000000 26 da 8d c0 67 cf ac c0 a2 05 39 3f
       -4.4328794 -5.4003177 0.7227422

FK_LAYER.joints.3.rpy_offset f4 [3]
000000 1b 18 fc bb 60 98 67 ba fb 33 2a bc
       -0.0076933033 -0.00088346563 -0.01038837

FK_LAYER.joints.3.axis f4 [3, 1]
000000 80 7a 32 3f f7 a7 db be 95 40 4a be
       0.6971817 -0.42901585 -0.19751199

FK_LAYER.joints.3.q_layer.0.weight f4 [1, 64]
000000 5c de 1e c0 b8 17 24 c0 ff ad 2a c0 d4 c1 0e c0
       -2.4823217 -2.5639477 -2.6668699 -2.2305803
000010 28 f8 f7 3f ea 72 29 40 a8 5b 38 c0 6d e7 f0 3f
       1.9372606 2.6476388 -2.8805943 1.8820626
000020 4e fb 26 c0 2f 4a 29 c0 d1 c7 df bf 87 04 4b 3f
       -2.6090884 -2.6451528 -1.7482854 0.79303783
000030 ad 87 33 40 3f 0d 1d c0 88 62 25 3e b9 3d 1d c0
       2.805156 -2.4539335 0.16150868 -2.4568923
000040 61 cb 1a c0 d6 64 4f 3f 06 a0 35 c0 c0 e9 26 c0
       -2.4186633 0.8101324 -2.837892 -2.608017
000050 db 96 1b c0 1c f9 35 40 a7 d5 cf bf a4 53 31 40
       -2.4310825 2.8433294 -1.6237077 2.77073
000060 c9 a9 29 bf 1a eb 31 be 61 7f 2c c0 0a dc 1a c0
       -0.66274697 -0.1737484 -2.6952746 -2.41968
000070 da 52 4c 40 a9 a2 2a c0 c7 00 32 c0 52 54 22 c0
       3.1925569 -2.666178 -2.7812974 -2.5363965
000080 f8 fc 2d 40 00 91 b4 3f 2d 5d 0e 40 ab fe 21 c0
       2.718565 1.410675 2.224437 -2.5311687
000090 ea 56 3a 40 7a 46 2d 40 88 bb 26 40 3b 3c 14 c0
       2.9115548 2.7074265 2.605196 -2.3161762
0000a0 2d 76 2f c0 7e a5 33 40 4f 85 b1 bf 8b b4 2d c0
       -2.7415879 2.8069758 -1.3868808 -2.7141445
0000b0 ec dd 93 3f 2e 14 25 c0 9a 1c 17 c0 ca 3b 39 40
       1.15521 -2.5793567 -2.3611207 2.8942742
0000c0 09 27 2b c0 7b 85 37 40 f0 6b 16 c0 39 7a 42 c0
       -2.6742575 2.867522 -2.350338 -3.0387099
0000d0 c0 27 38 40 6e c5 23 c0 82 42 31 40 96 8c 26 c0
       2.8774261 -2.5589252 2.7696843 -2.6023307
0000e0 fc 2d cc bf 51 f1 2d 40 bc 53 1c c0 f9 3b 23 c0
       -1.5951533 2.7178538 -2.4426107 -2.5505354
0000f0 fc 1f 36 40 a5 3b 24 40 2c 69 2c 40 25 a0 25 c0
       2.8457022 2.5661404 2.6939192 -2.5878994

FK_LAYER.joints.4.p_offset f4 [3, 1]
000000 a8 84 c6 c0 6e 3b e3 c0 b6 88 14 bf
       -6.2036934 -7.1010046 -0.58021104

FK_LAYER.joints.4.rpy_offset f4 [3]
000000 66 c7 5f 3b 61 6e 11 bc 9d eb d6 bb
       0.003414595 -0.008876414 -0.006558849

FK_LAYER.joints.4.axis f4 [3, 1]
000000 e6 7c 84 3e 2b 55 68 be cf e3 ac 3f
       0.2587654 -0.22688739 1.3507022

FK_LAYER.joints.4.q_layer.0.weight f4 [1, 64]
000000 d1 9d 34 40 3d a0 ab bf 27 da 3e 40 15 a3 11 c0
       2.8221323 -1.3408276 2.982065 -2.2755787
000010 42 b4 26 c0 f8 f9 11 c0 45 68 49 40 2b 8b b9 be
       -2.604752 -2.280882 3.146989 -0.3623899
000020 3b 0b fb bf 5b 4d 18 40 02 6c 1c 40 48 ef 17 40
       -1.9612802 2.3797214 2.4440923 2.3739796
000030 90 21 44 c0 0c c1 3a 40 38 5d 29 40 8e 44 29 40
       -3.0645485 2.9180326 2.6463146 2.6448092
000040 13 aa dc bf 3c 4b 80 3d 3b 93 26 40 83 9b 23 40
       -1.7239403 0.0626435 2.6027362 2.5563667
000050 1d 84 1d c0 08 91 32 c0 e3 d6 09 40 79 13 36 c0
       -2.4611886 -2.790102 2.1537406 -2.8449385
000060 d8 49 ec be f6 20 b9 3e f6 db 18 40 2d 42 20 40
       -0.46150088 0.3615796 2.3884254 2.504039
000070 7a 58 1c c0 52 03 9a bf 99 a8 2b 40 f3 72 27 c0
       -2.4429002 -1.2032263 2.6821654 -2.616391
000080 ed 79 45 c0 fa 03 cb bf e3 52 13 bf cb f1 2a 40
       -3.0855668 -1.5860589 -0.5754835 2.6710079
000090 12 65 3b c0 1e cc 46 c0 6c ad 2d c0 a1 b1 2d 40
       -2.9280438 -3.1062083 -2.7137098 2.7139666
0000a0 a0 ba 25 40 01 d4 29 c0 f8 d5 2d c0 ec 8d f9 bf
       2.5895157 -2.6535647 -2.7161846 -1.9496436
0000b0 a9 8e 10 40 d8 76 38 40 31 ad 34 40 33 7e 38 c0
       2.2587073 2.8822536 2.8230708 -2.8827026
0000c0 fc 36 2d 40 4b 75 3b c0 6b 84 21 40 1c 20 29 40
       2.706481 -2.929034 2.5237072 2.6425848
0000d0 26 e5 24 c0 a7 7a 18 40 fc 77 34 c0 97 38 07 c0
       -2.576486 2.382486 -2.8198233 -2.112829
0000e0 94 c4 23 c0 68 e6 31 c0 5a 74 32 40 eb 3d 3e 40
       -2.5588732 -2.779688 2.7883515 2.9725292
0000f0 18 cf 3e c0 84 58 2a c0 8c f0 2e c0 ce 5e 3d 40
       -2.98139 -2.6616526 -2.7334318 2.9589114

FK_LAYER.joints.5.p_offset f4 [3, 1]
000000 29 e5 c5 c0 0e 43 ea c0 95 27 57 bf
       -6.1842237 -7.3206854 -0.8404477

FK_LAYER.joints.5.rpy_offset f4 [3]
000000 0a 30 44 bc 7c 39 fa 37 2a 0f d6 3b
       -0.011974344 2.982909e-05 0.0065325694

FK_LAYER.joints.5.axis f4 [3, 1]
000000 83 98 02 bf 8f 83 fe bf 82 58 2f c0
       -0.51013964 -1.9883898 -2.739777

FK_LAYER.joints.5.q_layer.0.weight f4 [1, 64]
000000 8b a5 45 c0 60 9a 3a c0 f8 b4 27 c0 78 77 04 40
       -3.088229 -2.9156723 -2.6204205 2.0697918
000010 5c 98 55 c0 41 17 22 c0 b7 d0 37 c0 4f 75 36 c0
       -3.3374243 -2.5326693 -2.872114 -2.85091
000020 43 1c 22 c0 71 33 43 c0 c1 02 1d 40 f2 60 3f c0
       -2.532975 -3.0500147 2.453293 -2.990292
000030 54 54 2b 40 38 23 31 c0 71 4f 16 c0 1c d4 41 c0
       2.677022 -2.7677746 -2.3485987 -3.0285711
000040 9e 95 25 c0 34 3d ef 3f 5c 36 31 c0 41 8f 2e c0
       -2.587257 1.8690553 -2.7689428 -2.7274935
000050 a6 2b 2e c0 42 7f 1e 40 af cf 1e 40 ce 3f 3c c0
       -2.721414 2.4765172 2.481426 -2.9413943
000060 b1 2d 48 3f a1 f3 c2 bf d2 1b 35 c0 8b 1c 42 c0
       0.7819472 -1.52306 -2.829823 -3.0329921
000070 25 7a 25 40 a2 26 30 c0 9b 0b 41 c0 38 8c 34 c0
       2.58558 -2.752358 -3.0163333 -2.8210583
000080 38 05 3e 40 74 a6 42 c0 a1 93 32 c0 72 1a 38 c0
       2.9690685 -3.0414095 -2.7902606 -2.876614
000090 4e 5c 43 c0 95 58 3d 40 ee 34 29 c0 69 08 2e c0
       -3.0525088 2.9585316 -2.6438556 -2.7192633
0000a0 88 02 24 c0 ee 12 31 c0 6c 79 4e c0 b9 bf 3d c0
       -2.5626545 -2.7667804 -3.226161 -2.9648268
0000b0 a6 97 37 c0 0d 5f 30 c0 2c 22 29 c0 9b 9e 30 40
       -2.868631 -2.7558014 -2.6427107 2.7596805
0000c0 66 56 2b c0 3e 05 33 40 02 df 35 c0 04 e3 2f c0
       -2.6771483 2.797195 -2.8417363 -2.748231
0000d0 e8 b1 07 40 9c 24 3b c0 de da 3c 40 bf 2a 2f c0
       2.1202335 -2.9241095 2.9508586 -2.736984
0000e0 53 35 f8 bf 0a 2a 3b 40 45 1e 3b c0 d9 ff 3d c0
       -1.9391273 2.9244409 -2.9237225 -2.9687407
0000f0 64 5d c5 3e 06 65 4f c0 90 56 2f c0 b7 23 1a c0
       0.38547814 -3.240541 -2.7396584 -2.4084299

FK_LAYER.joints.6.p_offset f4 [3, 1]
000000 7b 78 c7 c0 94 44 e9 c0 cd 57 71 bf
       -6.233457 -7.2896214 -0.942746

FK_LAYER.joints.6.rpy_offset f4 [3]
000000 1d d0 d8 bb 0d 7d 5f ba 32 b2 34 bb
       -0.006616606 -0.0008525409 -0.0027572033

FK_LAYER.joints.6.axis f4 [3, 1]
000000 2c 95 4b 3e f6 fc bb bd f3 7b 86 bf
       0.19881123 -0.09179108 -1.0506576

FK_LAYER.joints.6.q_layer.0.weight f4 [1, 64]
000000 36 61 ed bf 80 dd 1b 40 f2 69 25 40 b2 c0 df 3f
       -1.8545291 2.4353943 2.5845914 1.7480681
000010 c3 3a 2d c0 59 0e ab bf ec 79 1f 40 ae bd d5 be
       -2.7067115 -1.3363754 2.4918165 -0.41746277
000020 c8 8a 3a c0 4a 64 3d 40 cb 1f ed 3f 77 94 02 40
       -2.9147205 2.9592462 1.8525327 2.0403116
000030 16 e1 40 c0 c3 c8 31 40 74 23 38 bd f0 d4 27 40
       -3.0137382 2.7778785 -0.044955686 2.6223717
000040 f2 ce 17 c0 9d ed e9 3d 9b cf 29 40 96 46 31 40
       -2.372006 0.11422274 2.6532962 2.7699332
000050 a3 ff 1b c0 b0 83 2d c0 83 86 08 40 17 46 d8 3f
       -2.4374778 -2.7111626 2.13321 1.689639
000060 16 50 2f 3f 93 4b 71 3c c3 1b 31 40 19 8b 2a c0
       0.68481576 0.014727491 2.7673194 -2.6647398
000070 0d 44 37 c0 a6 b5 29 40 dd a5 2c 40 a5 21 27 c0
       -2.8635285 2.651712 2.6976235 -2.6114285
000080 4e 10 2d c0 a3 30 0e 40 01 52 24 40 e5 42 1d 40
       -2.7041202 2.2217185 2.5675051 2.457208
000090 d2 ff 42 c0 ce 81 48 c0 dd 66 4a c0 e3 72 25 40
       -3.046864 -3.1329226 -3.1625283 2.5851371
0000a0 31 1e 29 40 84 b8 2c c0 19 34 fa bf 51 c0 1b 40
       2.6424677 -2.698762 -1.9547149 2.433613
0000b0 68 19 17 40 42 b4 40 40 0f 5e 3f 40 74 8e 43 c0
       2.3609257 3.011002 2.990116 -3.0555696
0000c0 33 fa 3a 40 df 23 3b c0 64 70 34 40 a9 50 4c 40
       2.921521 -2.9240644 2.8193598 3.192423
0000d0 58 c3 41 c0 a1 23 2d c0 04 a3 3a c0 58 97 33 40
       -3.0275478 -2.7052996 -2.9161997 2.8061123
0000e0 48 38 e0 3f d5 02 3b c0 37 e8 30 40 4e 48 19 40
       1.7517176 -2.9220479 2.7641733 2.3950381
0000f0 68 60 2e c0 d8 85 1e c0 c2 11 33 40 a7 83 3d 40
       -2.7246342 -2.4769192 2.7979589 2.9611604

FK_LAYER.joints.7.p_offset f4 [3, 1]
000000 3d a8 e1 bf 2e 05 ce bf 11 39 28 42
       -1.7629467 -1.6095331 42.05573

FK_LAYER.joints.7.rpy_offset f4 [3]
000000 28 ed 01 bc ac 25 e9 3b 42 e7 a4 bc
       -0.007930078 0.0071150865 -0.020129804

FK_LAYER.joints.8.p_offset f4 [3, 1]
000000 d4 a7 03 c0 20 d4 fa bf 73 54 28 42
       -2.0571184 -1.9595985 42.08247

FK_LAYER.joints.8.rpy_offset f4 [3]
000000 e3 30 89 bc 12 6c c5 bb ba 7e 5b bc
       -0.016746944 -0.006024846 -0.013396913

FK_LAYER.joints.8.axis f4 [3, 1]
000000 ae 9f eb 3e 44 9a 70 3e e9 2a 64 3f
       0.46020263 0.23496348 0.89127976

FK_LAYER.joints.8.q_layer.0.weight f4 [1, 64]
000000 3c 00 1c 40 66 d6 35 40 70 f0 2e 40 45 47 12 40
       2.4375143 2.8412108 2.7334251 2.2856
000010 5d 75 2d c0 bc 93 0b c0 c8 a5 37 40 96 57 aa bf
       -2.7102883 -2.180892 2.8694935 -1.3307979
000020 c3 e8 3f c0 c6 72 2f 40 7a 39 28 40 5f 49 00 40
       -2.9985816 2.7413802 2.628508 2.0044782
000030 3f 8a 32 c0 e9 f4 2b 40 df 50 15 40 b7 a3 30 40
       -2.7896879 2.6868231 2.333061 2.7599924
000040 b1 ae 10 c0 f5 80 8a bd e3 38 25 40 8b 01 32 40
       -2.2606623 -0.06762878 2.581597 2.7813442
000050 38 dc 2a c0 18 d4 3e c0 59 c7 05 40 85 98 da 3f
       -2.669691 -2.9816952 2.0902922 1.7077795
000060 40 01 87 3e 87 85 15 be e5 5e 3d 40 70 16 23 c0
       0.2636814 -0.14601718 2.958917 -2.5482445
000070 7e 46 3a c0 d9 dd 2d 40 40 cc 35 40 3b 29 04 c0
       -2.9105525 2.7166655 2.8405914 -2.0650165
000080 55 05 4a c0 38 4d 12 40 03 5a 21 40 df 24 2c 40
       -3.1565754 2.285963 2.5211189 2.6897504
000090 11 fa 3c c0 ff 64 3e c0 83 48 33 c0 c9 5d 21 40
       -2.9527628 -2.9749143 -2.8013008 2.5213492
0000a0 12 27 37 40 cd 2b 30 c0 12 d1 c4 bf 77 8b 29 40
       2.8617597 -2.7526734 -1.5376303 2.6491373
0000b0 54 43 1b 40 cf be 34 40 3b f8 2c c0 78 be 2f c0
       2.4259844 2.824146 -2.7026508 -2.7460003
0000c0 13 12 41 40 27 53 37 c0 b2 10 31 40 c9 b5 2a 40
       3.0167282 -2.8644502 2.766644 2.6673453
0000d0 c6 68 44 c0 29 58 16 c0 8e f4 31 c0 d3 ff 31 40
       -3.0688949 -2.3491309 -2.7805514 2.7812393
0000e0 b7 5d d2 3f 32 af 39 c0 61 8c 2f 40 d3 a2 37 40
       1.643485 -2.901318 2.742943 2.869313
0000f0 1c be 41 c0 f3 65 2f c0 72 39 1e 40 9f dc 34 c0
       -3.0272284 -2.7405975 2.4722562 -2.8259656

FK_LAYER.joints.9.p_offset f4 [3, 1]
000000 04 ce e5 bf 45 d7 2b c0 e0 b3 27 42
       -1.7953496 -2.685014 41.92566

FK_LAYER.joints.9.rpy_offset f4 [3]
000000 85 84 33 3c 54 e0 1d bb 5e a6 de bb
       0.010956888 -0.0024090009 -0.006794735

FK_LAYER.joints.9.axis f4 [3, 1]
000000 0f f9 34 40 f5 96 36 40 47 5f 3a c0
       2.8277013 2.8529637 -2.9120653

FK_LAYER.joints.9.q_layer.0.weight f4 [1, 64]
000000 79 6d 33 c0 50 6a d6 bf 0e 88 42 40 11 00 4d 40
       -2.8035567 -1.6751194 3.039554 3.203129
000010 c1 52 2c c0 1a 8f 3c c0 4f f4 30 c0 4c 02 2f c0
       -2.692551 -2.9462342 -2.7649114 -2.7345152
000020 41 29 00 40 fa a3 2d 40 27 d7 43 40 89 26 1b c0
       2.002518 2.7131333 3.0600069 -2.424227
000030 27 85 54 bf 53 b1 44 40 47 81 96 bf 86 d7 2f 40
       -0.83015674 3.073323 -1.1758202 2.7475295
000040 40 25 f5 bf 6c 8e 4c 40 7b 60 34 c0 39 8b 4c 40
       -1.9151993 3.1961927 -2.8183887 3.1959975
000050 2b 2a 3e 40 51 ce 27 c0 22 de 29 40 ad 46 43 c0
       2.9713237 -2.6219676 2.654183 -3.0511887
000060 eb f7 bf 3f 90 5b 3e c0 23 36 27 40 91 aa 2b c0
       1.4997534 -2.9743385 2.6126792 -2.6822855
000070 85 99 96 3f 48 86 ea bf 98 2a 25 c0 13 7e 3f 40
       1.17656 -1.8322229 -2.5807247 2.99207
000080 a5 7c c8 bf d4 dc 35 c0 46 e9 2f c0 3c cd 25 40
       -1.5663038 -2.8416033 -2.7486129 2.5906515
000090 e5 ec 38 40 38 bf e4 3f e7 52 42 c0 00 85 30 40
       2.889459 1.7870855 -3.03631 2.7581177
0000a0 6e e1 3c 40 86 cd 46 c0 9c c1 34 c0 7d 41 ad bf
       2.9512591 -3.1062942 -2.824317 -1.353561
0000b0 b3 fc 37 c0 46 e8 2d 40 58 83 3c 40 0a 19 0d 40
       -2.8747985 2.7173018 2.9455166 2.2046533
0000c0 9f 0f 0e c0 8e f9 2d 40 7a 2c 39 40 4d dd 3c 40
       -2.2197034 2.7183566 2.8933396 2.9510071
0000d0 57 03 cd be e7 30 30 40 c7 7f 37 c0 b8 fd 30 40
       -0.4004161 2.7529848 -2.867174 2.7654858
0000e0 de e5 07 bf f1 a7 ca 3f 7a 99 3f 40 36 d6 40 40
       -0.53085124 1.5832502 2.9937425 3.0130744
0000f0 97 a6 22 40 53 39 3b c0 10 52 49 c0 c9 a2 33 c0
       2.5414178 -2.9253738 -3.1456337 -2.8068106

FK_LAYER.joints.10.p_offset f4 [3, 1]
000000 07 d7 d7 bf ae 7b 0e c0 d1 b0 27 42
       -1.6862496 -2.2262988 41.922672

FK_LAYER.joints.10.rpy_offset f4 [3]
000000 01 8a e5 bb 26 af 84 bb d4 ea 52 ba
       -0.0070049767 -0.0040491996 -0.00080458564

FK_LAYER.joints.10.axis f4 [3, 1]
000000 d6 30 c4 3e 96 d3 58 bf 00 d9 68 3e
       0.3831851 -0.84697855 0.22739029

FK_LAYER.joints.10.q_layer.0.weight f4 [1, 64]
000000 af 70 00 c0 e2 ed 25 40 77 b5 3a 40 b7 25 f5 bf
       -2.0068777 2.5926442 2.9173257 -1.9152135
000010 61 cf d9 bf 5a 1a 65 3f 53 b3 27 40 92 4e 10 c0
       -1.7016412 0.89493334 2.62032 -2.2547956
000020 15 61 1d 40 42 93 3f 40 49 52 23 40 b8 3c 13 40
       2.4590504 2.993363 2.5518973 2.300581
000030 57 9a 38 c0 4a 24 22 40 67 c4 42 bd f1 d4 36 40
       -2.8844202 2.533465 -0.047550585 2.856747
000040 eb d9 21 40 fa 1b 0e 3f 8e aa 35 40 14 7c 3c 40
       2.5289257 0.5551144 2.8385348 2.9450731
000050 d6 f9 21 40 83 73 2c c0 83 3b b1 bf 10 5b 18 c0
       2.5308738 -2.6945503 -1.3846287 -2.380558
000060 58 fa 50 bf 16 03 d9 be 10 4d 34 40 71 5b 20 40
       -0.81631994 -0.42385167 2.8172035 2.5055811
000070 90 57 37 c0 ad 57 21 40 33 d9 34 40 7d 24 1e 40
       -2.8647194 2.5209763 2.8257568 2.470977
000080 9e 68 40 c0 20 40 e2 3f 21 a0 10 c0 4a 51 30 40
       -3.0063853 1.7675819 -2.2597735 2.7549615
000090 da ce 3d c0 63 d6 2c c0 64 a1 31 c0 90 80 30 40
       -2.9657502 -2.7005851 -2.7754755 2.7578468
0000a0 22 eb 37 40 65 b0 25 c0 01 ea a2 bf 06 31 51 3f
       2.8737264 -2.5888913 -1.2727662 0.8171543
0000b0 f9 d1 08 40 b4 90 3a 40 c8 8f 29 40 23 0e 31 c0
       2.1378157 2.915082 2.6494007 -2.7664878
0000c0 04 f1 41 40 3b 3a 3f c0 f9 be 24 40 16 3c 36 40
       3.0303354 -2.987929 2.574156 2.8474174
0000d0 42 b1 2d c0 73 41 31 40 e1 a0 39 c0 2e 0b da bf
       -2.713944 2.7696197 -2.9004443 -1.7034662
0000e0 ed cb 28 c0 63 a0 47 c0 b8 9c 24 40 0b a0 14 40
       -2.6374466 -3.1191642 2.5720654 2.3222682
0000f0 05 74 38 c0 12 d6 00 c0 70 31 20 c0 83 e3 32 40
       -2.8820813 -2.0130658 -2.5030174 2.7951362

FK_LAYER.joints.11.p_offset f4 [3, 1]
000000 26 87 c3 bf 20 c8 21 c0 7b f5 26 42
       -1.5275619 -2.5278397 41.739727

FK_LAYER.joints.11.rpy_offset f4 [3]
000000 6b e8 21 3c 6b 79 3d bc d3 59 7f 3c
       0.009882073 -0.011564593 0.015585381

FK_LAYER.joints.11.axis f4 [3, 1]
000000 cc d0 0b bf 90 80 51 bf e7 0d 07 3f
       -0.54615474 -0.81836796 0.5275559

FK_LAYER.joints.11.q_layer.0.weight f4 [1, 64]
000000 aa a5 e1 bf a0 ae 31 40 9d 32 0d 40 c7 a6 0d 40
       -1.7628682 2.7762833 2.2062142 2.2133043
000010 65 83 27 c0 47 40 22 c0 dc 3e 0c c0 99 fd 23 c0
       -2.6173947 -2.5351732 -2.1913366 -2.5623534
000020 3f d3 e2 bf 9a f5 2c 40 ac 88 0b 40 3d 86 b9 3f
       -1.7720717 2.7024903 2.1802168 1.4494091
000030 21 86 2e c0 5e 6c 26 40 97 b9 1a 40 2f 49 14 c0
       -2.7269366 2.6003642 2.4175775 -2.3169668
000040 d4 d5 1f 40 9c b7 5c be 70 5e 35 40 14 4e 2d 40
       2.497426 -0.21554416 2.833889 2.7078905
000050 3d 24 19 40 74 c2 3d c0 5d 8e d5 bf b6 29 23 c0
       2.3928368 -2.9649935 -1.6684071 -2.5494208
000060 d0 f6 eb bc ec ca 1b 3e 91 74 2f 40 d7 6d 2f 40
       -0.028804213 0.15214127 2.7414896 2.741079
000070 29 e0 3b c0 11 04 23 40 a6 9d 1d 40 61 83 10 40
       -2.9355567 2.5471232 2.462747 2.2580187
000080 f2 65 40 c0 d8 35 de bf 82 ed 15 c0 f9 90 25 40
       -3.0062222 -1.7360182 -2.3426213 2.5869734
000090 a2 4e 37 c0 cc 8d 3a c0 5a 54 28 c0 69 18 1e 40
       -2.8641744 -2.9149046 -2.6301484 2.4702399
0000a0 17 d9 15 40 56 6d 31 c0 e7 a8 a7 bf 32 99 9a bf
       2.341375 -2.7722983 -1.309842 -1.2078001
0000b0 da ef ff bf 71 3e 25 40 c0 87 3b 40 07 9f 42 c0
       -1.9995072 2.5819361 2.9301605 -3.0409563
0000c0 fb 27 3c 40 46 6b 39 c0 ee 9a 3b 40 4e 61 2e 40
       2.9399402 -2.8971725 2.9313312 2.724689
0000d0 f3 de 37 c0 26 a4 0c c0 6b 70 3a c0 fe ea f9 bf
       -2.8729827 -2.1975188 -2.9131114 -1.9524839
0000e0 73 c4 48 c0 76 01 4d c0 60 90 1c 40 de b7 35 40
       -3.1369903 -3.2032142 2.446312 2.8393474
0000f0 50 2c 4a c0 be 92 1b c0 5f 60 1f c0 9e e3 30 40
       -3.1589546 -2.4308314 -2.490257 2.7638927

FK_LAYER.joints.12.p_offset f4 [3, 1]
000000 11 16 86 bf 63 69 07 c0 25 69 26 42
       -1.0475484 -2.1158073 41.60268

FK_LAYER.joints.12.rpy_offset f4 [3]
000000 d0 c2 83 bc 27 c6 01 3c b8 39 0b 3b
       -0.016084105 0.007920778 0.002124412

FK_LAYER.joints.12.axis f4 [3, 1]
000000 79 78 1f c0 19 13 2e c0 cc 80 3a 40
       -2.491728 -2.7199156 2.9141111

FK_LAYER.joints.12.q_layer.0.weight f4 [1, 64]
000000 b0 44 4f 40 11 e2 30 40 4f 73 2e 40 2c cd 26 c0
       3.2385674 2.763798 2.7257879 -2.6062727
000010 68 39 16 40 9f 09 27 40 21 9c 2d 40 32 6c 3d 40
       2.3472538 2.6099622 2.7126544 2.9597287
000020 00 4b 2b 40 0c 6e 24 40 73 92 2b c0 7a 64 3b 40
       2.6764526 2.5692167 -2.6808136 2.9280076
000030 21 b3 29 c0 9d c2 1f c0 4e 7d 3b 40 53 39 2e 40
       -2.6515582 -2.4962533 2.929523 2.7222488
000040 9e cf 23 40 42 0d 43 c0 2c f4 26 40 3a d8 45 c0
       2.559547 -3.0476842 2.608653 -3.0913224
000050 da f4 13 c0 fc c4 34 c0 a0 c1 26 c0 48 8f 3c 40
       -2.3118196 -2.824523 -2.605568 2.9462452
000060 35 45 0c c0 e3 ab 2f 40 b1 b1 30 40 52 ca 2b 40
       -2.191724 2.7448661 2.7608454 2.6842237
000070 6c 8d 30 c0 4a dd 41 40 98 42 30 40 d0 94 38 c0
       -2.7586317 3.0291314 2.7540646 -2.8840828
000080 c8 1a 49 c0 eb 15 50 40 e9 28 3a 40 ae a5 29 c0
       -3.1422596 3.2513378 2.908747 -2.6507373
000090 ca 23 25 40 1e 50 4e c0 56 22 b1 3f 7c 1d 2a c0
       2.5803094 -3.22364 1.3838603 -2.6580496
0000a0 01 5a 34 40 fd e6 0e 40 c9 46 2a 40 06 87 dd 3f
       2.8179934 2.2328484 2.6605704 1.7306831
0000b0 1e 9f 43 40 5a 78 30 40 b6 2f 40 40 0b 48 2a c0
       3.0565867 2.7573457 3.002912 -2.6606472
0000c0 cb 26 26 40 b3 a8 20 c0 70 8f 2c c0 d4 7c 24 c0
       2.5961177 -2.5102966 -2.6962547 -2.570119
0000d0 95 09 ea bf 3c 3b 27 40 4b 10 59 c0 b5 89 0e 40
       -1.8284174 2.6129904 -3.3916194 2.227155
0000e0 1d 6a b0 3f e1 b3 2b c0 4c dc 1c 40 cf f4 2a 40
       1.3782383 -2.682854 2.4509459 2.671192
0000f0 71 e0 45 c0 8b dc 30 40 b7 81 2e 40 cc 20 31 40
       -3.0918238 2.7634609 2.7266672 2.7676268

FK_LAYER.joints.13.p_offset f4 [3, 1]
000000 51 f8 b0 bf 54 fc 32 c0 47 12 26 42
       -1.382578 -2.796651 41.51785

FK_LAYER.joints.13.rpy_offset f4 [3]
000000 41 70 90 bc 60 35 98 3c e1 92 57 b9
       -0.017631652 0.018580139 -0.00020558714

FK_LAYER.joints.13.axis f4 [3, 1]
000000 4e 9e 04 3d a8 78 ed 3d 5b a6 78 3e
       0.032377534 0.11595279 0.2428221

FK_LAYER.joints.13.q_layer.0.weight f4 [1, 64]
000000 1f 75 aa bf b2 ff 66 bf 51 60 21 40 a6 35 21 c0
       -1.3316993 -0.9023391 2.5215037 -2.5188994
000010 15 7f 40 c0 7c 11 9b 3f b2 b4 2c 40 72 bc cb 3d
       -3.0077565 1.2114711 2.6985288 0.099480525
000020 b4 f6 13 40 56 86 33 40 e9 4a c4 bf 4f 9e f3 3f
       2.3119326 2.8050742 -1.5335361 1.9032687
000030 44 5f 42 c0 b9 12 2a 40 02 21 22 40 7a 96 24 40
       -3.0370646 2.6573927 2.5332646 2.5716844
000040 41 9f 06 40 02 e2 9f 3e fc 8a 40 40 f0 27 27 40
       2.10347 0.31227118 3.008483 2.6118126
000050 44 09 13 c0 6b 52 3d c0 b1 2d 0a 40 37 ad 08 40
       -2.2974405 -2.9581554 2.1590388 2.1355722
000060 24 d5 d6 be 84 99 8d 3e d6 9f 3f 40 59 7b 22 40
       -0.41959488 0.27656186 2.9941306 2.5387785
000070 2d 7f 39 c0 3d 17 1c 40 3e b4 29 40 16 3c 18 c0
       -2.8983872 2.4389184 2.651626 -2.3786674
000080 b2 40 40 c0 44 5c e4 3f 3d 08 e7 3f 1a f8 27 40
       -3.0039487 1.7840657 1.8049389 2.624518
000090 b4 b0 33 c0 1f c8 2e c0 73 8d 32 c0 ee 2d 30 40
       -2.80766 -2.7309644 -2.7898834 2.7528033
0000a0 2f 87 2e 40 38 15 30 c0 0a fc 1e 3f 4b 81 2e 40
       2.727001 -2.751295 0.6210333 2.7266414
0000b0 bd 44 07 40 55 df 27 40 1f 0b 3e 40 4c af 3f c0
       2.1135705 2.623006 2.9694288 -2.9950743
0000c0 f4 70 31 40 ce 6e 32 c0 4e 95 1c 40 15 f8 39 40
       2.772519 -2.788013 2.4466128 2.9057667
0000d0 89 b2 37 c0 8f 31 30 40 39 6a 34 c0 61 d7 1e 40
       -2.870272 2.7530248 -2.8189833 2.4818957
0000e0 18 7f e1 3f 3e 2d 3b c0 e5 5c 3f 40 f8 9b 2a 40
       1.7616911 -2.9246364 2.9900448 2.6657696
0000f0 25 13 38 c0 91 e6 36 c0 c6 49 1c c0 43 34 33 40
       -2.8761685 -2.8578227 -2.4420028 2.8000648

FK_LAYER.joints.14.p_offset f4 [3, 1]
000000 dd 62 a3 c0 d9 46 cd c0 ce 41 25 42
       -5.1058183 -6.4148984 41.314262

FK_LAYER.joints.14.rpy_offset f4 [3]
000000 3c 61 a1 bb 88 c3 39 3a 67 eb 56 bc
       -0.0049249213 0.00070863264 -0.013117648

FK_LAYER.joints.15.p_offset f4 [3, 1]
000000 71 56 a4 c0 f3 47 d5 c0 bd 4b 25 42
       -5.135552 -6.665033 41.323963

FK_LAYER.joints.15.rpy_offset f4 [3]
000000 99 b3 fc b9 f7 a8 b7 bc 6c b6 ec bb
       -0.00048198996 -0.022419436 -0.007223895

FK_LAYER.joints.15.axis f4 [3, 1]
000000 f5 d2 be bc f8 f9 18 be 94 3d 4a 3f
       -0.023293952 -0.14939106 0.7900021

FK_LAYER.joints.15.q_layer.0.weight f4 [1, 64]
000000 9f 36 0d 40 41 82 32 40 e0 c5 41 40 07 b2 f7 bf
       2.2064588 2.7892 3.0277023 -1.9351205
000010 d8 b4 28 c0 9a e6 1b c0 7a de 28 c0 cd 47 d4 3f
       -2.6360378 -2.4359498 -2.638579 1.6584412
000020 58 d7 24 c0 7c 4f 2b 40 a6 76 f5 bf 63 7f bc 3f
       -2.5756435 2.6767263 -1.9176834 1.4726375
000030 f4 e1 2c c0 e4 77 2f 40 3e c5 bd be 72 1d 35 40
       -2.701291 2.7416925 -0.37064546 2.8299222
000040 9b 3d 30 40 cc 09 09 3f 45 61 1d c0 2d d4 3b 40
       2.75376 0.53530574 -2.4590619 2.9348252
000050 3b 67 3c 40 ad 21 32 c0 a5 77 07 c0 dd 17 3b c0
       2.9438007 -2.7833054 -2.1166775 -2.9233315
000060 a1 be 0b 3f e7 5f c1 be 1f 5c 3d 40 ca 36 25 c0
       0.5458775 -0.3776848 2.9587476 -2.581469
000070 1a 67 35 c0 b9 71 2a 40 78 65 34 40 b8 02 10 40
       -2.8344178 2.663191 2.8186932 2.250166
000080 86 61 40 c0 c5 f5 28 40 80 9b 1e 40 74 b3 3e 40
       -3.0059524 2.6400006 2.478241 2.979703
000090 6b 3d 37 40 be 56 3c c0 0d 9e 41 c0 8a 51 2f 40
       2.8631237 -2.9427943 -3.0252717 2.7393517
0000a0 58 87 42 40 91 35 02 c0 0b 3c 8c bf 06 06 69 bf
       3.0395107 -2.0345194 -1.0955824 -0.91024816
0000b0 19 16 12 40 49 00 3b 40 d8 51 29 40 c2 32 25 c0
       2.2825987 2.9218924 2.6456203 -2.581223
0000c0 73 c4 35 40 a1 ca 44 40 24 4b 33 40 41 38 41 40
       2.8401153 3.0748675 2.8014612 3.0190585
0000d0 31 1a 3f 40 e6 d1 2f c0 b6 db 27 c0 d3 35 0e 40
       2.9859736 -2.7471862 -2.622785 2.2220352
0000e0 de 79 fd 3f ae a5 2b 40 f0 a8 1e 40 c2 05 2c 40
       1.9802816 2.6819873 2.4790611 2.6878514
0000f0 c6 26 4f 3e a5 9e df 3f 04 ab 35 c0 0f 89 30 c0
       0.20229635 1.747029 -2.838563 -2.7583654

FK_LAYER.joints.16.p_offset f4 [3, 1]
000000 45 ba 85 c0 25 ac d6 c0 36 10 26 42
       -4.178988 -6.7085137 41.51583

FK_LAYER.joints.16.rpy_offset f4 [3]
000000 f3 b2 2b 3b d2 8c 66 bc 80 f4 69 bb
       0.0026199191 -0.01407166 -0.0035698712

FK_LAYER.joints.16.axis f4 [3, 1]
000000 cd 56 00 40 52 0f 06 c0 ea 95 38 40
       2.005298 -2.094685 2.88415

FK_LAYER.joints.16.q_layer.0.weight f4 [1, 64]
000000 e9 c5 35 40 84 c5 ce 3f 1f ad 5f bf 9f 0f 2c c0
       2.8402045 1.6154027 -0.87373537 -2.6884534
000010 86 d6 48 40 a6 5e 33 40 5b 56 3d 40 b7 74 2e 40
       3.1380935 2.802652 2.9583957 2.7258737
000020 bb 76 1e 40 fe cf 3a c0 d6 13 31 c0 08 bf 12 40
       2.4759967 -2.9189448 -2.7668357 2.2929096
000030 cd 00 22 c0 f0 9e 34 c0 12 50 ab 3f 1d dc 48 c0
       -2.5312989 -2.8222008 1.338381 -3.1384346
000040 ab 90 27 40 89 e6 10 c0 72 b2 24 40 f5 bf 37 c0
       2.6182048 -2.2640707 2.5733914 -2.8710911
000050 3e 8b 3f c0 6c f8 39 40 30 e7 3b c0 45 08 51 40
       -2.9928737 2.9057875 -2.9359856 3.2661297
000060 06 91 19 c0 8c a7 43 40 52 5a 3a c0 4c a3 3b 40
       -2.3994765 3.0571012 -2.9117627 2.9318419
000070 e4 97 2c c0 39 24 fa 3f ec be 15 40 fc 01 f7 3f
       -2.6967707 1.9542304 2.339778 1.929748
000080 4f 07 2b c0 65 f9 3e 40 af cc 37 40 51 57 3c c0
       -2.672321 2.9839718 2.871868 -2.9428294
000090 42 99 33 c0 b5 6a 2d c0 85 ab 28 40 3f d5 37 c0
       -2.806229 -2.7096379 2.6354687 -2.8723905
0000a0 48 cc 23 c0 74 ea 33 40 02 d2 33 40 8d 02 d5 3f
       -2.5593433 2.811185 2.8096929 1.6641403
0000b0 45 0f 25 40 d7 8f 2f c0 cd a5 2f 40 20 6e 47 c0
       2.579057 -2.7431543 2.7444947 -3.1160965
0000c0 6b 27 34 c0 c1 96 2a c0 9a 79 36 c0 3e 63 41 c0
       -2.814906 -2.6654513 -2.851172 -3.0216823
0000d0 44 34 6e bf de a0 28 c0 5d f2 2c c0 ab 90 c4 3f
       -0.930485 -2.6348186 -2.7022927 1.5356649
0000e0 eb 3f cc 3f 40 04 1e c0 7b fa 2d c0 c6 5f 17 40
       1.5957006 -2.4690094 -2.718413 2.3652205
0000f0 e4 c0 e3 be 2f 72 31 40 6e 8b 36 40 50 1b 43 40
       -0.444831 2.7725942 2.85226 3.048542

FK_LAYER.joints.17.p_offset f4 [3, 1]
000000 42 cd 64 c0 37 6c d3 c0 cc 02 27 42
       -3.575028 -6.60696 41.75273

FK_LAYER.joints.17.rpy_offset f4 [3]
000000 d1 49 73 bb e1 26 2a 3c 5d a9 43 bc
       -0.0037122855 0.010385246 -0.011942235

FK_LAYER.joints.17.axis f4 [3, 1]
000000 d9 83 1b bf 0f 83 e9 3e 69 92 e5 bd
       -0.6074806 0.45607802 -0.11209566

FK_LAYER.joints.17.q_layer.0.weight f4 [1, 64]
000000 53 1d 33 40 1d 32 30 40 90 ac 39 40 f9 d6 c8 3f
       2.7986648 2.7530587 2.9011574 1.5690604
000010 d1 fd 2e 40 ad dd 8d 3f a4 11 02 c0 1b 49 36 3f
       2.7342417 1.1083275 -2.0323267 0.712053
000020 2e db 24 40 6d f2 2e c0 a5 d6 04 40 fc d2 04 40
       2.5758777 -2.7335465 2.0756009 2.0753775
000030 80 e9 30 c0 13 2d 34 40 69 09 12 40 73 69 36 c0
       -2.7642517 2.815251 2.2818244 -2.850186
000040 6c d7 1c 40 63 94 ba be c5 87 44 40 1d 12 34 40
       2.4506483 -0.36441335 3.0707867 2.8136055
000050 23 48 0b 40 fc e3 2e c0 00 93 ca 3f 17 26 1d c0
       2.1762779 -2.732665 1.5826111 -2.4554498
000060 19 2a d9 bf 54 02 5e 3f 8e e3 29 40 d7 9e 35 40
       -1.6965972 0.867223 2.6545138 2.8378198
000070 f9 d0 46 c0 df c5 2a 40 75 4a 1c 40 e8 2c ec 3f
       -3.1065047 2.668327 2.4420445 1.8451204
000080 18 33 38 c0 2e 4a 2b 40 50 6b f0 bf 5e 5a 2d 40
       -2.8781185 2.6764026 -1.8782749 2.7086406
000090 b8 3d 29 c0 13 b7 47 c0 bd 74 26 c0 bb a7 14 40
       -2.644392 -3.120549 -2.6008751 2.3227375
0000a0 ab 4f 12 40 0d c5 dc 3f 13 6e 21 3e 69 82 93 bf
       2.2861125 1.7247635 0.15764646 -1.1524173
0000b0 5d 38 94 bf cc 61 3f 40 97 61 1b 40 43 b8 36 c0
       -1.1579701 2.990344 2.4278314 -2.8549964
0000c0 b0 9e 22 40 00 c1 3c c0 48 b4 1a c0 c9 b3 3e 40
       2.5409355 -2.9492798 -2.4172535 2.9797232
0000d0 ac e4 3b c0 f3 40 27 40 39 2c 41 c0 54 43 ae 3f
       -2.935832 2.6133392 -3.0183241 1.3614297
0000e0 33 35 c9 3f 22 93 30 c0 05 b6 22 40 99 3c 30 40
       1.571936 -2.7589803 2.5423596 2.7536986
0000f0 0f e5 36 c0 3f 0f 13 40 f1 c1 2f c0 26 f0 48 40
       -2.8577306 2.2978055 -2.7462122 3.1396575

FK_LAYER.joints.18.p_offset f4 [3, 1]
000000 a4 e5 86 c0 79 31 db c0 48 ce 25 42
       -4.2155323 -6.849789 41.451447

FK_LAYER.joints.18.rpy_offset f4 [3]
000000 78 d8 ae bb d1 9c 3e 3b 4f 95 a1 bb
       -0.0053358637 0.002908517 -0.004931129

FK_LAYER.joints.18.axis f4 [3, 1]
000000 9d 6a 52 3c 29 45 cb 3d 3e 31 eb 3d
       0.012842801 0.09925301 0.114840016

FK_LAYER.joints.18.q_layer.0.weight f4 [1, 64]
000000 ca 05 39 c0 da 80 8c 3f c3 e3 3f c0 87 cd 16 c0
       -2.8909783 1.0976822 -2.9982765 -2.3562944
000010 7a 32 37 40 6c 08 1c 40 e4 1a 2d c0 af 67 13 40
       2.8624558 2.438014 -2.7047663 2.3032033
000020 f8 56 27 c0 38 72 2c 40 44 ab 1d c0 03 42 21 c0
       -2.6146832 2.6944714 -2.4635782 -2.519654
000030 da 6e 47 40 94 f1 23 c0 1b b8 10 c0 c6 3d 22 40
       3.1161408 -2.5616198 -2.261237 2.5350204
000040 3a 51 13 c0 c3 60 f5 bc 0f 23 21 c0 ae ae 0f c0
       -2.3018327 -0.029953366 -2.5177648 -2.2450366
000050 ed 0d 09 c0 9f 15 3b 40 1f b1 08 c0 c8 ab 1f 40
       -2.141475 2.9231946 -2.1358106 2.4948597
000060 d2 89 25 bf 34 9f 19 3e be df 1f c0 d4 50 26 c0
       -0.6466342 0.15002137 -2.4980311 -2.5986834
000070 91 42 33 40 e9 06 19 c0 f2 db 18 c0 f7 7a 15 c0
       2.800938 -2.3910468 -2.3884244 -2.3356302
000080 c4 83 34 40 93 1b cc 3f 6c 8f fd 3f 99 c9 21 c0
       2.8205423 1.5945915 1.9809394 -2.5279295
000090 84 25 3a 40 87 3c 3d 40 3f fe 4c 40 10 64 2b c0
       2.9085398 2.9568193 3.203018 -2.6779823
0000a0 86 69 2e c0 7f 5e 26 40 0a 7f 1b bf 49 2b 82 bf
       -2.7251906 2.5995176 -0.6074072 -1.016946
0000b0 34 bd 9e 3f 1e e9 2d c0 b9 5b 32 c0 77 27 38 40
       1.240149 -2.7173533 -2.7868483 2.8774087
0000c0 7c 63 23 c0 4d b5 24 40 73 48 31 40 18 8f 2a c0
       -2.552947 2.5735657 2.770047 -2.6649837
0000d0 ee 1e 2c 40 a0 89 2c c0 e2 bd 35 40 3e 8a 38 40
       2.6893878 -2.6959 2.8397145 2.8834376
0000e0 7b 2d f8 bf 20 14 41 40 f5 3d 31 c0 16 7f 3c c0
       -1.938888 3.0168533 -2.7694066 -2.9452567
0000f0 0f 5e 31 40 a8 63 32 40 1f 93 16 40 26 af 31 c0
       2.771366 2.7873325 2.3527296 -2.7763152

FK_LAYER.joints.19.p_offset f4 [3, 1]
000000 d9 31 8b c0 24 b2 e2 c0 5f e4 24 42
       -4.349835 -7.0842457 41.22302

FK_LAYER.joints.19.rpy_offset f4 [3]
000000 08 87 5f bb 9c ab b9 3b 06 f0 01 bb
       -0.0034107585 0.0056662094 -0.0019826903

FK_LAYER.joints.19.axis f4 [3, 1]
000000 8b 07 22 c0 58 77 f5 3f 7d 0d 42 c0
       -2.5317104 1.9177046 -3.0320733

FK_LAYER.joints.19.q_layer.0.weight f4 [1, 64]
000000 51 48 31 c0 82 6d d9 bf b7 cd 22 40 a4 a5 46 40
       -2.7700388 -1.6986544 2.5438058 3.10386
000010 f4 d9 2a c0 44 dd 2f c0 2a 67 3c c0 54 8b 42 c0
       -2.6695528 -2.74788 -2.9437966 -3.039754
000020 9e be 2e c0 38 48 44 40 e8 37 46 40 49 e5 50 c0
       -2.7303843 3.066908 3.0971622 -3.2639945
000030 05 df 32 40 45 29 36 40 c7 06 a7 bf b1 6f 34 40
       2.794862 2.846269 -1.3048943 2.819317
000040 d8 a2 f8 bf fe 7b 2c 40 40 0e 3b c0 01 a4 4b 40
       -1.9424696 2.695068 -2.9227448 3.181885
000050 55 e6 46 40 2d dd 28 40 d7 78 40 40 3d a7 27 c0
       3.1078084 2.6384995 3.0073755 -2.6195824
000060 02 a4 2c 40 c6 85 4a c0 03 be 45 40 28 25 2b c0
       2.6975102 -3.164415 3.0897224 -2.6741428
000070 08 f7 3c 40 20 08 05 c0 a4 d4 10 c0 ee 43 38 40
       2.9525776 -2.078621 -2.2629786 2.879146
000080 fb 8c 27 40 55 4d 38 c0 c8 10 31 c0 9e 0d 3b 40
       2.6179798 -2.87972 -2.7666492 2.9227061
000090 12 d3 36 40 d1 20 31 40 ed 8c f2 bf 80 e2 39 40
       2.8566327 2.767628 -1.8949257 2.9044495
0000a0 83 35 32 40 49 ca 25 c0 63 db 43 c0 31 47 93 3f
       2.784516 -2.5904715 -3.0602653 1.1506101
0000b0 60 df 2e c0 34 e7 39 40 ec 51 13 c0 48 7e 37 40
       -2.7323837 2.9047365 -2.301875 2.8670826
0000c0 22 ea 19 c0 a9 81 27 40 b4 3a 2e 40 03 5c 21 c0
       -2.4049153 2.6172888 2.722333 -2.521241
0000d0 c5 c2 f5 3f f7 7f 32 40 ed 32 3d 40 65 3e 42 40
       1.9200064 2.7890604 2.9562333 3.0350583
0000e0 87 28 ed bf 38 bc 28 40 03 9e 43 40 3a d7 2f 40
       -1.8527993 2.636488 3.0565193 2.7475114
0000f0 b0 1b c3 bd 1c 38 25 c0 e4 ac 18 c0 a1 1e 23 c0
       -0.09526765 -2.5815496 -2.3855524 -2.5487444

FK_LAYER.joints.20.p_offset f4 [3, 1]
000000 63 82 92 c0 91 69 e7 c0 e0 44 24 42
       -4.5784163 -7.2316365 41.06726

FK_LAYER.joints.20.rpy_offset f4 [3]
000000 72 15 25 3c e2 e8 85 3b 5c 1a 7e 3c
       0.010075914 0.0040865997 0.015509214

FK_LAYER.joints.20.axis f4 [3, 1]
000000 8d fd 1d be 45 bb b2 bd dd 30 8f bf
       -0.15428753 -0.08727125 -1.1186787
