results/FC_PRIMNET/FINGER64/weights/epoch_227.pth (torch, 22047 bytes, 10 tensors)

motor_std f4 [4]
000000 06 11 bf 43 31 b2 c0 43 60 60 bb 43 60 57 b9 43
       382.133 385.39212 374.75293 370.68262

motor_mean f4 [4]
000000 2f 7a 0b 44 5e de 0c 44 73 a7 0d 44 a7 3a 0a 44
       557.9091 563.4745 566.6164 552.91644

position_std f4 [3, 1]
000000 00 00 80 3f 00 00 80 3f 00 00 80 3f
       1.0 1.0 1.0

position_mean f4 [3, 1]
000000 00 00 00 00 00 00 00 00 00 00 00 00
       0.0 0.0 0.0

layers.0.weight f4 [64, 4]
000000 a1 aa 34 40 ab 8a 34 40 37 e3 35 c0 4f 73 46 c0
       2.8229144 2.8209636 -2.841993 -3.1007879
000010 17 8a 51 40 df 99 2b c0 b5 d1 2d c0 2e ff 3a 40
       3.2740533 -2.6812665 -2.7159245 2.921825
000020 9d 04 12 40 4d d8 27 c0 02 0a 36 40 d5 87 22 c0
       2.2815316 -2.622577 2.8443608 -2.5395405
000030 ac 3e 46 40 1f 6a 5f c0 0c f9 2a c0 91 af 24 40
       3.0975752 -3.490852 -2.6714506 2.5732157
000040 b8 65 46 40 7a fc 12 c0 06 a2 39 c0 18 27 45 40
       3.0999584 -2.29666 -2.9005141 3.080511
000050 a3 dd 0f c0 77 f9 34 40 12 4e 38 40 77 dd 34 c0
       -2.2479026 2.8277261 2.879765 -2.8260171
000060 9d 57 2d c0 c0 31 37 40 8b a3 19 40 67 ba 0f 40
       -2.7084725 2.8624115 2.4006069 2.245752
000070 81 b9 49 40 2a ea 39 40 39 4e 2b c0 cc 0b 30 40
       3.1519473 2.9049172 -2.6766493 2.75072
000080 60 02 35 40 8a a2 3a 40 2d 73 22 c0 aa 70 1c c0
       2.82827 2.9161706 -2.5382798 -2.4443765
000090 94 55 33 40 4a 5d 26 c0 b8 6e 34 40 f0 3e 28 c0
       2.8020983 -2.599444 2.8192577 -2.6288414
0000a0 9f 0b 3d 40 42 14 3d 40 42 d6 f6 bd f8 04 48 c0
       2.9538343 2.9543614 -0.12052585 -3.1253033
0000b0 b9 f3 33 40 d6 0e 2b 40 01 23 23 c0 ef 1d 05 c0
       2.8117507 2.6727805 -2.5490115 -2.079952
0000c0 18 34 39 c0 ca 5c 45 40 90 64 31 c0 f6 b3 2b c0
       -2.8938046 3.0837884 -2.7717628 -2.682859
0000d0 08 69 3e c0 92 26 3e 40 25 d7 3a c0 1e 84 1f c0
       -2.9751606 2.9711041 -2.9193814 -2.4924388
0000e0 59 6e 41 c0 fb 78 3b 40 ff 4c 35 40 c4 c6 30 40
       -3.02236 2.929259 2.8328245 2.7621317
0000f0 8a 3d 26 be f5 aa 25 c0 71 1e df 3f 46 2d 3f 40
       -0.16234413 -2.5885594 1.7431165 2.9871383
000100 6e a4 3b c0 a0 f6 4f 40 7f ac 3d 40 d5 6f 50 40
       -2.931911 3.2494278 2.9636533 3.2568257
000110 7f a6 39 c0 19 20 32 40 b2 b7 36 40 78 53 36 c0
       -2.900787 2.783209 2.8549619 -2.8488445
000120 9e 2a 48 40 0b 4b 58 40 cc f7 52 40 dc 34 4e c0
       3.1276011 3.3795803 3.2963743 -3.2219763
000130 34 28 25 40 2e 1e 52 40 28 78 32 c0 f3 61 3c 40
       2.5805788 3.283092 -2.7885838 2.9434783
000140 85 b9 32 40 2f 3d 3a c0 bc f6 3a c0 b6 9c 28 40
       2.7925732 -2.9099844 -2.9213095 2.6345649
000150 0d d3 2f c0 e5 77 3a 40 dc b2 2a c0 9f 9d 31 40
       -2.7472565 2.9135678 -2.6671667 2.7752454
000160 2d b1 2a c0 3b fc 31 40 c6 94 26 c0 f6 27 1f c0
       -2.667064 2.78102 -2.6028304 -2.486814
000170 3c 83 37 40 fb 46 35 40 38 08 27 c0 63 f6 4d 40
       2.867385 2.8324573 -2.6098766 3.2181633
000180 d8 94 39 40 45 bb 2d c0 39 07 33 40 57 33 2c c0
       2.8997097 -2.714555 2.7973158 -2.6906335
000190 a2 93 38 40 8f 52 35 40 09 01 31 c0 18 7e 2e 40
       2.8840108 2.833164 -2.7656882 2.7264462
0001a0 73 43 39 40 16 cb 41 c0 3f 74 1d c0 e2 79 1f c0
       2.8947418 -3.0280204 -2.46022 -2.4918141
0001b0 9b 4e 30 c0 d6 25 3c 40 e8 da 34 c0 a9 6e 2f 40
       -2.7547977 2.9398093 -2.825861 2.7411292
0001c0 54 25 27 c0 b9 86 2c c0 b2 f7 3e 40 0c ed 25 40
       -2.6116533 -2.6957228 2.9838681 2.5925932
0001d0 b5 c8 2b c0 e5 a3 37 c0 61 53 3b 40 8a 09 44 c0
       -2.6841252 -2.8693783 2.926964 -3.0630822
0001e0 9b 38 19 c0 aa 4d 46 c0 a1 e8 45 40 55 8a 4d c0
       -2.39408 -3.0984902 3.0923235 -3.211568
0001f0 c9 b4 32 c0 20 8a 3c 40 84 98 2e c0 b2 e2 3c 40
       -2.7922843 2.9459305 -2.7280588 2.9513364
000200 70 f5 30 40 e7 cd 3a 40 e9 5a 29 c0 ef d5 32 40
       2.7649803 2.9188173 -2.6461737 2.7943075
000210 7d 3b 17 c0 08 64 35 40 60 50 35 40 f7 00 2a c0
       -2.3630059 2.8342304 2.8330307 -2.656309
000220 1e 9d 3b 40 91 33 3a 40 4a 62 2d c0 29 fd 24 c0
       2.9314647 2.9093974 -2.709124 -2.5779517
000230 b9 2e 2f c0 b6 f3 23 c0 c0 23 3c 40 a2 e0 2a c0
       -2.7372267 -2.56175 2.939682 -2.6699605
000240 b5 5c 38 c0 cb ab 31 40 8a 62 25 40 94 89 3f c0
       -2.8806584 2.7761104 2.5841393 -2.992772
000250 60 37 36 c0 0b 27 3f 40 6b 8b 3b 40 42 12 0c c0
       -2.8471298 2.986758 2.9303844 -2.1886144
000260 53 ac fc 3f df f8 ed bf 18 99 2b 40 7f 96 33 c0
       1.9740089 -1.8591574 2.681219 -2.8060606
000270 f4 c4 3d c0 33 1b 3b 40 7b 42 31 c0 43 7a 1d 40
       -2.965146 2.923535 -2.7696826 2.4605873
000280 df fb 34 40 77 44 34 c0 26 20 3f c0 8a 87 2f 40
       2.827873 -2.8166788 -2.9863372 2.7426476
000290 be 80 3c 40 9f be 2f c0 c2 71 2b c0 55 04 2b 40
       2.9453578 -2.7460096 -2.6788182 2.6721394
0002a0 4c fc 32 40 b2 ed 36 c0 cc 5f 3c 40 be c9 38 c0
       2.796649 -2.8582578 2.943347 -2.8873134
0002b0 2b 71 2c 40 b5 32 2a c0 7b ba 2f 40 87 7e 26 c0
       2.6944072 -2.659345 2.7457569 -2.6014726
0002c0 46 48 38 c0 6d 53 38 c0 87 0f 2b 40 34 57 32 40
       -2.8794112 -2.880092 2.6728227 2.7865725
0002d0 bd ee 37 c0 e2 75 35 40 b7 ee 34 40 16 84 3b c0
       -2.8739464 2.83532 2.82707 -2.929937
0002e0 1e 53 0e c0 3d 17 b5 bf 46 d2 35 40 96 06 51 c0
       -2.223823 -1.4147717 2.840959 -3.266027
0002f0 c3 35 3b c0 06 c2 2a 40 e4 4d 2f c0 62 03 29 40
       -2.9251564 2.6680923 -2.739129 2.6408315
000300 ad 9a 30 40 7e 05 37 40 53 52 32 40 ea 75 31 c0
       2.7594407 2.8597102 2.7862747 -2.772822
000310 39 0d 41 40 0c e2 3c 40 fc 63 2c c0 25 2d 37 40
       3.016432 2.9512968 -2.6936026 2.8621304
000320 d8 5d 46 40 e9 e0 38 c0 4c 11 27 40 67 a8 2a c0
       3.0994778 -2.8887274 2.6104307 -2.6665285
000330 f5 26 3a c0 3d 56 2c c0 40 84 37 40 7c 8a 33 c0
       -2.9086277 -2.6927636 2.867447 -2.8053274
000340 c6 07 26 40 b7 a1 3f c0 15 58 2b c0 e0 c0 22 40
       2.5942245 -2.9942453 -2.677251 2.5430222
000350 b1 ba 3d c0 84 dc 3d 40 26 6a 2f 40 e3 07 45 40
       -2.9645197 2.9665842 2.7408538 3.0786064
000360 04 a5 45 40 bb 64 47 40 05 1e 1d c0 16 e7 2e 40
       3.0881968 3.115523 -2.4549572 2.7328544
000370 8d f6 44 40 10 3d 4b c0 07 c5 3f c0 19 0f 41 40
       3.0775483 -3.175602 -2.9964006 3.0165465
000380 91 0d 30 c0 37 ee 2f c0 df 6d 8c bf 45 50 33 40
       -2.750828 -2.7489145 -1.097103 2.8017743
000390 04 36 35 40 ce 0a 28 40 48 b8 3c c0 cf bd 1c 40
       2.8314219 2.6256595 -2.9487476 2.449085
0003a0 5d 57 31 40 1d 66 26 c0 90 13 35 40 76 86 43 40
       2.7709572 -2.5999825 2.829319 3.0550818
0003b0 f9 92 30 c0 6e e0 2b c0 13 f4 3a 40 7b 7f 3b 40
       -2.7589705 -2.685573 2.921147 2.9296558
0003c0 9d b9 56 40 7e 01 36 c0 d1 e3 25 3f 56 56 c9 bf
       3.355079 -2.843841 0.64800745 -1.5729473
0003d0 19 69 36 40 05 e4 41 40 e4 82 41 c0 b1 3c 4e 40
       2.8501647 3.0295422 -3.023614 3.2224543
0003e0 87 fa 38 40 48 de 22 c0 9a e2 3a c0 02 9c 27 40
       2.890291 -2.544817 -2.9200807 2.618897
0003f0 4e 83 2d c0 92 64 26 c0 5d 09 e3 3f 8a 2c 39 40
       -2.7111392 -2.5998883 1.7737232 2.8933434

layers.0.bias f4 [64]
000000 e8 41 d0 3f 8f 59 2c c0 82 50 4c c0 82 95 30 40
       1.6270113 -2.6929662 -3.1924138 2.7591252
000010 a7 85 4e c0 43 15 54 40 ce 79 25 c0 ed 54 22 c0
       -3.2269075 3.3137977 -2.5855594 -2.5364335
000020 7e c4 2c c0 25 2b 49 c0 e8 0b 35 40 ef dc 36 c0
       -2.699493 -3.1432583 2.8288517 -2.8572347
000030 bf 71 23 c0 fa a3 35 c0 b9 14 4a c0 b8 2b 53 c0
       -2.5538175 -2.8381333 -3.1575148 -3.2995434
000040 e1 59 26 40 86 5d 3c c0 c3 a4 2a 40 86 f8 46 c0
       2.5992358 -2.9432082 2.6663063 -3.1089187
000050 3f 31 25 c0 f8 a3 53 c0 f9 39 43 c0 28 45 33 c0
       -2.5811307 -3.3068829 -3.0504134 -2.801096
000060 11 d0 40 c0 ac 3b 52 c0 62 91 47 c0 ab 51 26 c0
       -3.0126994 -3.284892 -3.1182485 -2.5987346
000070 8a e7 3a c0 48 88 5a 40 ed 1a 3f 40 dd d2 35 c0
       -2.920382 3.414568 2.9860184 -2.840995
000080 8c 3a 45 c0 19 c1 3c c0 25 22 50 c0 b5 e8 2d c0
       -3.0816984 -2.9492857 -3.252084 -2.7173283
000090 39 0b 32 c0 df ec 34 c0 7f c2 45 c0 af 46 54 c0
       -2.781935 -2.8269575 -3.089996 -3.3168142
0000a0 a4 df 2b c0 4a c7 55 c0 12 57 22 40 56 9a 4b c0
       -2.685525 -3.3402886 2.5365644 -3.181295
0000b0 94 98 49 c0 78 0d 3b c0 60 6a 1b 40 86 fd 35 c0
       -3.1499376 -2.922697 2.4283676 -2.8435988
0000c0 74 85 37 c0 14 ce 57 c0 03 fc 23 40 f4 19 2c c0
       -2.8675203 -3.371953 2.5622566 -2.689084
0000d0 b9 da 32 c0 ef 9e 39 c0 ef 47 5c c0 35 1e 42 40
       -2.7945998 -2.9003255 -3.4418905 3.0330937
0000e0 a6 77 32 c0 bd 50 4e c0 16 97 30 c0 7f 15 2b c0
       -2.7885528 -3.2236779 -2.7592216 -2.673187
0000f0 42 a8 46 c0 db fc 39 40 cc d1 2d c0 d4 d2 3b c0
       -3.1040196 2.906058 -2.71593 -2.934743

layers.2.weight f4 [64, 64]
000000 3d d3 40 40 a0 8e 42 c0 79 61 3c c0 5b 45 3c c0
       3.012893 -3.0399551 -2.9434493 -2.9417331
000010 41 ed 45 c0 8f b0 3f c0 27 28 38 c0 8c 4d 4a c0
       -3.0926058 -2.9951513 -2.8774507 -3.160983
000020 b5 6f 37 c0 a7 33 45 c0 01 bd 35 c0 3b 24 37 c0
       -2.866193 -3.0812776 -2.839661 -2.8615863
000030 80 29 3a c0 0a 45 37 c0 bf ca 36 40 48 c1 40 c0
       -2.908783 -2.8635888 2.8561246 -3.011797
000040 72 75 5b be e3 d0 35 c0 25 f5 34 c0 13 49 2f c0
       -0.2143152 -2.8408744 -2.8274624 -2.738835
000050 91 1a 3e c0 27 47 2f c0 4e 4d 35 c0 38 83 36 c0
       -2.9703715 -2.7387178 -2.8328433 -2.851759
000060 5d 98 40 c0 04 d4 99 bd 44 86 41 c0 b3 fe 34 c0
       -3.0092995 -0.07511142 -3.02382 -2.8280456
000070 e6 aa 34 c0 58 6e 3b c0 4e 7f 11 40 0b bc 43 c0
       -2.8229308 -2.9286098 2.273395 -3.0583522
000080 a0 b1 41 c0 48 18 34 c0 08 a9 2c c0 01 07 40 c0
       -3.0264664 -2.813982 -2.6978168 -3.0004275
000090 56 7b 3f c0 a4 54 42 c0 fe c8 39 c0 e8 13 40 c0
       -2.9919028 -3.036416 -2.9028926 -3.001215
0000a0 c9 b2 41 c0 79 1c 47 c0 50 ba 40 c0 2e 4e 3b c0
       -3.0265372 -3.1111128 -3.0113716 -2.9266467
0000b0 fc 85 45 c0 7c 36 33 c0 c8 2b 41 c0 7f f9 33 c0
       -3.0863028 -2.8002005 -3.0182972 -2.812103
0000c0 62 8c 3d c0 ac 39 48 c0 26 78 48 c0 4a 29 46 c0
       -2.9616933 -3.12852 -3.1323333 -3.09627
0000d0 b9 45 31 c0 b2 5b 2f 40 3e a8 39 c0 ef 15 3c c0
       -2.7698805 2.7399716 -2.9008937 -2.9388387
0000e0 ee 9c 37 c0 d0 c9 3b c0 cc 90 43 c0 fa 73 37 c0
       -2.8689532 -2.9341927 -3.0557127 -2.8664536
0000f0 db c7 36 c0 ce 05 41 c0 8b 99 47 c0 a4 37 30 c0
       -2.8559482 -3.0159793 -3.1187465 -2.753396
000100 af bc b8 3e 3e a9 3c c0 04 f3 34 c0 e6 7e 34 c0
       0.36081454 -2.9478297 -2.8273325 -2.8202453
000110 0c 0c 38 c0 f0 e4 3b c0 be 9b 27 c0 45 5d 27 c0
       -2.8757353 -2.9358482 -2.6188807 -2.6150677
000120 36 f3 43 c0 5a 9d 30 c0 43 a3 12 bf 11 ef 33 c0
       -3.0617194 -2.759604 -0.5728037 -2.8114665
000130 d6 18 3e c0 90 03 41 40 88 54 20 40 f9 33 2c 40
       -2.9702659 3.0158424 2.5051594 2.6906722
000140 cb 93 2e 40 61 5b 2e 40 be db 3c c0 9c ac 40 c0
       2.7277706 2.7243273 -2.950912 -3.0105352
000150 b3 10 36 c0 de 37 29 c0 5e 54 42 c0 cf be 38 c0
       -2.8447692 -2.6440349 -3.0363994 -2.886646
000160 0c a1 37 c0 11 60 48 c0 c1 b4 47 c0 bb d6 11 40
       -2.8692045 -3.1308634 -3.1204073 2.278731
000170 b1 20 33 c0 00 38 2d c0 b1 9e 24 c0 8c ac 21 c0
       -2.7988703 -2.706543 -2.5721858 -2.5261564
000180 ac 30 2a c0 84 b2 32 c0 8d 30 31 c0 75 f7 1e c0
       -2.6592207 -2.7921457 -2.7685883 -2.4838536
000190 37 65 fd bf 3a be 0e 40 59 83 31 c0 ef 7b 3d c0
       -1.9796513 2.2303605 -2.7736418 -2.9606893
0001a0 30 71 3a c0 97 fe 38 c0 85 42 38 c0 4a b3 3d c0
       -2.9131584 -2.890539 -2.87906 -2.964068
0001b0 9d 7f 32 c0 bb 76 2f 40 28 0b 48 c0 e7 c8 1f bf
       -2.789039 2.7416217 -3.125681 -0.6241593
0001c0 8a 0c 3e c0 7b a1 39 c0 38 1f 46 c0 c0 aa 2a c0
       -2.9695153 -2.900481 -3.0956554 -2.6666718
0001d0 c4 af 43 c0 57 53 33 40 bc e3 2a c0 a5 3e 43 c0
       -3.057603 2.8019617 -2.6701498 -3.0506985
0001e0 6c 20 39 c0 99 3f 35 40 43 51 38 c0 77 43 33 c0
       -2.8926039 2.8320067 -2.8799598 -2.8009927
0001f0 86 7a 77 be e5 7d 4c c0 6c 58 41 c0 78 c3 36 c0
       -0.24167833 -3.195184 -3.0210218 -2.8556805
000200 7a 50 cc 3c 90 64 3a c0 79 75 3a c0 1e 3e 43 c0
       0.024940718 -2.9123878 -2.91342 -3.0506663
000210 40 20 3a c0 69 b8 37 c0 40 1d 38 c0 07 71 45 c0
       -2.9082184 -2.8706305 -2.8767853 -3.0850236
000220 93 b1 3c c0 c2 01 3f c0 77 55 43 c0 db a0 42 c0
       -2.9483383 -2.9844823 -3.0520914 -3.0410678
000230 98 9a 4a c0 ed 8e 34 c0 20 c8 3e 40 d8 13 46 c0
       -3.1656857 -2.8212235 2.9809647 -3.0949612
000240 8d 7e 46 c0 69 c3 38 c0 85 f2 36 c0 ce 60 37 c0
       -3.101474 -2.886927 -2.8585522 -2.8652835
000250 9f ab 2b c0 d5 41 3c c0 b3 ee 3e c0 c4 a8 36 c0
       -2.68235 -2.941518 -2.983319 -2.8540506
000260 76 b1 35 c0 c0 d8 33 c0 66 78 3a c0 38 23 39 c0
       -2.8389564 -2.8101044 -2.9135985 -2.8927746
000270 5d f2 32 c0 39 2a 4b c0 22 a3 3a c0 50 7b 44 c0
       -2.7960427 -3.174452 -2.9162068 -3.0700264
000280 69 ae 2f c0 d1 31 3a c0 0c 8c 27 c0 04 74 3a c0
       -2.7450202 -2.9092906 -2.6179228 -2.913331
000290 f2 d8 42 c0 58 8e 45 c0 a9 ef 38 c0 f7 2b 33 c0
       -3.0444913 -3.086813 -2.8896277 -2.7995584
0002a0 73 99 33 c0 21 f1 34 c0 ae f6 33 c0 7d 30 42 c0
       -2.8062408 -2.8272173 -2.8119311 -3.0342095
0002b0 9d 8f 46 c0 14 48 3b c0 cc c6 31 c0 f8 58 3b c0
       -3.1025155 -2.9262743 -2.7777586 -2.9273052
0002c0 aa a3 3f c0 d5 25 3a c0 08 bc 3c c0 0e 77 3c c0
       -2.9943643 -2.908559 -2.9489765 -2.9447665
0002d0 1b be 3a c0 34 06 25 40 f4 42 3e c0 a6 f9 2e c0
       -2.917853 2.5785036 -2.9728365 -2.7339873
0002e0 43 25 43 c0 20 ff 21 c0 9e 8d 3b c0 c5 e2 3b c0
       -3.0491493 -2.5311966 -2.9305186 -2.935716
0002f0 e5 f7 42 c0 76 ba 3a c0 c1 9f 47 c0 dd dd 38 c0
       -3.0463803 -2.9176307 -3.1191256 -2.8885415
000300 68 c3 2d 40 b3 51 43 c0 0d de 46 c0 7d 70 3e c0
       2.7150517 -3.0518615 -3.107303 -2.9756157
000310 44 d8 38 c0 b9 4f 37 c0 70 4b 30 c0 4a e4 36 c0
       -2.8881998 -2.864241 -2.7546043 -2.8576837
000320 d0 62 41 c0 75 51 2f c0 df ab 36 c0 a0 cd 3c c0
       -3.021656 -2.7393467 -2.8542402 -2.9500504
000330 d7 78 35 c0 70 3d 35 c0 d9 f0 2d 40 58 bb 39 c0
       -2.8355005 -2.8318748 2.7178252 -2.9020596
000340 fe 77 49 c0 6a 97 2e c0 cf 5a 40 c0 9d 6e 2f 40
       -3.1479487 -2.7279916 -3.0055425 2.7411263
000350 28 51 38 c0 ac a6 3b c0 8a 5b 30 c0 94 4a 3c c0
       -2.8799534 -2.9320478 -2.755587 -2.942052
000360 d0 a5 39 c0 17 16 25 40 bd d7 2d c0 35 70 37 c0
       -2.9007454 2.5794733 -2.7162926 -2.8662236
000370 07 63 35 c0 a2 26 38 c0 72 62 3a c0 cd 1f 33 c0
       -2.8341691 -2.877358 -2.9122586 -2.798816
000380 cd 08 42 c0 84 36 46 c0 80 86 30 c0 1c f8 38 c0
       -3.0317872 -3.0970774 -2.7582092 -2.8901434
000390 80 0a 2d c0 4f ea 30 c0 12 5b 3f c0 f0 56 41 c0
       -2.7037659 -2.764301 -2.9899335 -3.0209312
0003a0 d0 58 39 c0 1b 7c 40 c0 72 8b 3f c0 49 63 38 c0
       -2.8960457 -3.0075748 -2.992886 -2.88106
0003b0 98 c3 3d c0 eb 49 3a c0 2a 70 3e c0 98 40 36 c0
       -2.965063 -2.9107616 -2.975596 -2.8476925
0003c0 d8 56 36 c0 47 aa 12 40 02 33 3e c0 39 af 38 c0
       -2.8490505 2.291643 -2.9718633 -2.8856947
0003d0 89 a6 48 c0 02 ff 4b 40 74 6b 3b c0 7e 37 44 c0
       -3.1351645 3.1874394 -2.9284334 -3.065887
0003e0 64 42 3b c0 21 bb 3b c0 83 fc 3c c0 db 7f 32 c0
       -2.9259272 -2.9332964 -2.952912 -2.7890537
0003f0 b9 64 43 c0 f0 02 37 c0 6f 0a 40 c0 b9 e9 33 c0
       -3.0530226 -2.8595543 -3.0006368 -2.8111403

layers.2.bias f4 [64]
000000 eb 9c 3b c0 d6 bd 44 c0 7f 33 40 c0 99 d3 36 c0
       -2.9314525 -3.0740867 -3.003143 -2.856665
000010 4f 4a 37 c0 a1 fd 31 c0 95 93 3a c0 f0 dc 39 c0
       -2.8639104 -2.7811053 -2.9152577 -2.90411
000020 90 87 38 c0 6a 2b 3f c0 66 b2 3c c0 c7 8c 3e c0
       -2.883274 -2.9870248 -2.9483886 -2.9773424
000030 58 c4 40 c0 ec f2 3b c0 5f 37 2a c0 03 c3 2e c0
       -3.0119839 -2.9367018 -2.6596296 -2.7306526
000040 22 cf 35 c0 a3 e0 3c c0 5d a8 37 c0 0c 92 38 c0
       -2.8407674 -2.9512107 -2.869651 -2.883914
000050 e2 db 24 c0 5f 4f 3c c0 bb 1d 3d c0 ab bb 3e c0
       -2.5759206 -2.9423444 -2.9549396 -2.9802043
000060 13 89 3b c0 02 9c 41 c0 52 db 40 c0 60 6d 41 c0
       -2.9302413 -3.025147 -3.0133862 -3.0223007
000070 92 a4 34 c0 48 87 41 c0 10 c7 34 c0 b2 26 3b c0
       -2.8225446 -3.023882 -2.8246498 -2.9242368
000080 8a 98 41 c0 b9 53 2e c0 e8 44 2e c0 7a ea 40 c0
       -3.0249352 -2.72386 -2.7229557 -3.0143113
000090 be 0b 3f c0 ce cd 36 c0 57 6a 44 c0 e3 85 3c c0
       -2.9850917 -2.8563113 -3.0689905 -2.9456718
0000a0 e7 f3 35 c0 e1 3d 37 c0 b4 0d 36 c0 16 8f 3f c0
       -2.8430116 -2.8631518 -2.8445864 -2.9931083
0000b0 64 84 41 c0 6a 89 35 c0 39 f7 2e c0 54 70 3a c0
       -3.0237055 -2.836512 -2.7338393 -2.913106
0000c0 9f 07 3a c0 d8 2e 3d c0 e3 83 36 c0 09 38 44 c0
       -2.9067152 -2.955984 -2.8517997 -3.06592
0000d0 e7 46 33 c0 26 ac 35 c0 0b 15 38 c0 b7 d3 42 c0
       -2.8012025 -2.838632 -2.8762844 -3.044172
0000e0 d9 2e 3a c0 ef d9 39 c0 98 f9 3b c0 f2 c2 3e c0
       -2.9091094 -2.9039266 -2.937109 -2.9806485
0000f0 9b 3f 42 c0 2c c3 41 c0 1e 68 3b c0 a7 e8 2e c0
       -3.0351322 -3.0275373 -2.9282298 -2.73295

out.0.weight f4 [3, 64]
000000 97 b6 2f 40 64 78 34 40 b3 7a 2e 40 75 e0 2e 40
       2.7455194 2.819848 2.726239 2.7324498
000010 b5 57 32 c0 64 d2 34 c0 88 c5 2e c0 1e 90 30 40
       -2.7866032 -2.8253412 -2.7308064 2.7587962
000020 14 f4 35 40 44 76 34 c0 ca 11 38 c0 d8 72 34 c0
       2.8430223 -2.8197184 -2.8760858 -2.8195095
000030 a0 50 33 40 66 63 32 c0 c6 bf 31 c0 b2 e7 3a c0
       2.801796 -2.7873168 -2.77733 -2.9203916
000040 14 80 35 c0 77 1a 2d 40 e3 57 30 c0 b8 d0 31 40
       -2.8359423 2.7047403 -2.7553642 2.7783642
000050 43 24 38 c0 e4 ed 33 c0 ff 2c 2d 40 58 5b 30 c0
       -2.8772132 -2.8113947 2.7058713 -2.7555752
000060 23 7d 2b c0 2f 82 2b 40 93 2d 2f 40 fa e3 36 40
       -2.6795127 2.6798208 2.7371566 2.8576646
000070 9f 93 38 40 e0 1d 36 40 07 49 35 c0 d0 00 3a 40
       2.88401 2.8455734 -2.8325822 2.9062996
000080 8f 77 2f 40 e2 f4 26 c0 06 b6 22 40 d4 24 39 40
       2.7416723 -2.6086965 2.5423598 2.8928728
000090 8e 5a 35 40 16 17 23 c0 fb 91 a8 bf 82 e1 3e 40
       2.833652 -2.548284 -1.316955 2.982514
0000a0 85 ed 33 c0 a6 3c 03 40 a6 6e 35 40 df d0 37 40
       -2.811372 2.0505767 2.8348784 2.8721235
0000b0 4a 3a 2d 40 50 5d 2f 40 a8 96 29 c0 74 01 1a c0
       2.7066827 2.7400703 -2.6498203 -2.4063387
0000c0 49 a0 33 40 b2 11 3b 40 ee 47 2e 40 05 5e 39 c0
       2.806658 2.922955 2.7231402 -2.8963635
0000d0 f2 9f 41 40 20 b6 32 c0 d2 3b 2b 40 03 0d 32 c0
       3.0253873 -2.792366 2.6755261 -2.7820442
0000e0 d6 f0 30 c0 9a 0d 32 40 da 20 1c c0 5c 1f 39 40
       -2.7646995 2.7820802 -2.439505 2.892539
0000f0 51 f9 29 c0 f2 4c 2f c0 c2 a9 2c 40 ac d1 2b c0
       -2.655842 -2.7390714 2.6978612 -2.6846724
000100 8d da 37 40 23 a0 48 c0 3c bb 3e c0 92 54 2f c0
       2.8727143 -3.134774 -2.9801779 -2.7395368
000110 b1 e4 34 c0 62 84 40 40 c4 9a 2a 40 3c f6 2c 40
       -2.8264582 3.00808 2.6656961 2.702529
000120 01 1a 2c c0 41 48 23 c0 74 7e 34 40 23 f3 2c 40
       -2.6890872 -2.551285 2.820218 2.70234
000130 22 b1 33 c0 65 6d 22 40 29 84 38 40 43 eb 30 40
       -2.8076863 2.537927 2.8830664 2.7643592
000140 d5 ba 32 c0 94 08 3d 40 a3 6a 40 40 a6 3e 2e c0
       -2.7926533 2.9536486 3.0065086 -2.7225738
000150 f3 3d 34 c0 10 fc 2e c0 67 9e 26 c0 e1 94 3d 40
       -2.816281 -2.7341347 -2.603418 2.9622118
000160 36 86 38 40 0e 90 36 40 b5 4b 17 40 3b 1f 33 c0
       2.8831916 2.8525424 2.3639958 -2.7987812
000170 6c 4d 2c 40 6f d6 21 c0 e5 5c 31 c0 ae 7e 29 c0
       2.6922255 -2.528713 -2.7712948 -2.648357
000180 0c e6 45 c0 98 4a 27 c0 da b9 3d c0 14 1c 3e c0
       -3.092166 -2.6139278 -2.9644685 -2.9704638
000190 a8 3c 36 c0 7d da 3b c0 d4 54 37 40 ee ac 28 c0
       -2.8474522 -2.9352105 2.8645525 -2.6355548
0001a0 4b e1 0a 40 1e cd 27 40 99 1b 31 c0 f5 eb 25 c0
       2.1700008 2.6218944 -2.7673094 -2.5925267
0001b0 43 08 3b c0 07 3a 3c c0 0d fa 15 40 d9 a4 39 c0
       -2.9223793 -2.9410417 2.343387 -2.9006865
0001c0 83 94 30 40 a8 dc 24 40 ef 0b 3a c0 ad 9d 33 40
       2.7590644 2.5759678 -2.9069784 2.8064988
0001d0 f0 3b 1d c0 9d 8c 2a 40 4d 30 33 c0 c5 39 2f c0
       -2.4567833 2.6648324 -2.799823 -2.737901
0001e0 0a 51 41 c0 05 6f 33 c0 2d d4 32 40 77 26 2a c0
       -3.0205712 -2.803651 2.7942002 -2.6585977
0001f0 65 c0 1d c0 e6 0a 2f 40 95 64 35 c0 c1 39 3b c0
       -2.4648678 2.7350402 -2.834264 -2.9254
000200 20 f0 2f 40 f1 44 3f 40 0c 97 48 40 27 7b 37 40
       2.749031 2.9885828 3.1342192 2.8668916
000210 cb 91 2f c0 df 02 40 40 35 95 32 40 2f 21 2c 40
       -2.7432735 3.0001752 2.7903569 2.6895254
000220 50 ff 25 40 a0 83 2d c0 73 89 39 40 b0 0d 32 c0
       2.593708 -2.7111588 2.8990142 -2.7820854
000230 3d 81 31 c0 15 c0 33 c0 8a 98 2d c0 d7 c1 20 c0
       -2.773513 -2.8085988 -2.7124352 -2.511831
000240 e5 1e 30 c0 67 d5 33 40 f0 b8 34 c0 8a 02 35 40
       -2.7518857 2.8099 -2.8237877 2.82828
000250 1d e8 26 c0 b5 71 30 40 48 bd 1f 40 fe 97 28 c0
       -2.607917 2.7569401 2.4959278 -2.6342769
000260 fe c1 2d 40 57 85 38 40 d3 43 41 40 76 f5 33 40
       2.7149653 2.8831384 3.0197647 2.8118567
000270 b2 98 33 40 cb 72 49 40 4f bb 32 c0 ec f5 ff bf
       2.8061948 3.1476314 -2.7926824 -1.9996924
000280 77 56 40 40 14 65 22 40 62 8f 31 c0 a2 38 2e 40
       3.0052774 2.5374193 -2.7743764 2.7222066
000290 70 10 3f 40 56 f3 35 c0 80 5c 35 40 54 3c 1d 40
       2.9853783 -2.842977 2.8337708 2.4568071
0002a0 35 12 27 c0 f6 73 37 40 d9 5d 3c 40 0b 5e 37 40
       -2.6104863 2.8664527 2.943228 2.865115
0002b0 0c 6d 34 40 4e ec 28 c0 7d ab 23 c0 85 b0 33 c0
       2.8191557 -2.639423 -2.5573418 -2.807649
0002c0 9c ee 31 40 e3 4f 2e 40 28 f3 26 c0 77 4c 44 c0
       2.7801886 2.723626 -2.608591 -3.067167
0002d0 2d f1 2b 40 05 d5 38 40 63 f4 99 bf e4 e9 17 c0
       2.6865952 2.8880017 -1.2027706 -2.3736506
0002e0 9e 69 30 40 2b 60 35 40 04 54 26 40 36 da 31 40
       2.7564464 2.8339946 2.598878 2.7789435
0002f0 c6 6a 1a c0 6b 99 3a 40 a4 1a 3b c0 e2 cd 34 c0
       -2.412767 2.915614 -2.923501 -2.825066

out.0.bias f4 [3]
000000 0c 72 63 bd 91 e7 29 3d 16 7a 7e 3d
       -0.055528685 0.041480605 0.06212815
