results/FC_PRIMNET/FINGER64/weights/epoch_394.pth (torch, 22047 bytes, 10 tensors)

motor_std f4 [4]
0	0x43bf1106	382.133
1	0x43c0b231	385.39212
2	0x43bb6060	374.75293
3	0x43b95760	370.68262

motor_mean f4 [4]
0	0x440b7a2f	557.9091
1	0x440cde5e	563.4745
2	0x440da773	566.6164
3	0x440a3aa7	552.91644

position_std f4 [3, 1]
0	0x3f800000	1.0
1	0x3f800000	1.0
2	0x3f800000	1.0

position_mean f4 [3, 1]
0	0x00000000	0.0
1	0x00000000	0.0
2	0x00000000	0.0

layers.0.weight f4 [64, 4]
0	0x403a0dd9	2.9070952
1	0x4039ed7f	2.9051206
2	0xc03b460b	-2.92615
3	0xc04bd687	-3.1849687
4	0x4056ed4f	3.3582342
5	0xc030fd17	-2.7654474
6	0xc03334ed	-2.8001053
7	0x40406266	3.0060058
8	0x4017657d	2.3655694
9	0xc02d3b21	-2.706734
10	0x403b6cd6	2.9285178
11	0xc027eaa9	-2.6236975
12	0x404ba1e4	3.181756
13	0xc064cd57	-3.575033
14	0xc0305be0	-2.7556076
15	0x402a1265	2.6573727
16	0x404bc8f0	3.1841393
17	0xc0185fb2	-2.3808408
18	0xc03f053e	-2.984695
19	0x404a8a50	3.164692
20	0xc0153c67	-2.3318117
21	0x403a5c4b	2.911883
22	0x403db14a	2.9639459
23	0xc03a40af	-2.910198
24	0xc032bad5	-2.7926533
25	0x403c94f8	2.9465923
26	0x401f06c3	2.4847877
27	0x40151d9f	2.329933
28	0x404f1cb9	3.236128
29	0x403f4d62	2.989098
30	0xc030b171	-2.7608302
31	0x40356f04	2.8349009
32	0x403a6598	2.9124508
33	0x404005c2	3.0003514
34	0xc027d665	-2.6224606
35	0xc021d3e2	-2.5285573
36	0x4038b868	2.8862553
37	0xc02bc082	-2.6836247
38	0x4039d060	2.9033432
39	0xc02da1c4	-2.7129984
40	0x40426ef9	3.0380232
41	0x40427716	3.0385184
42	0xbd550044	-0.052002206
43	0xc04d6830	-3.209484
44	0x403956f1	2.8959315
45	0x4030720e	2.7569613
46	0xc02885d5	-2.6331685
47	0xc00a80c3	-2.164109
48	0xc03e9750	-2.9779854
49	0x404ac002	3.1679692
50	0xc036c7c8	-2.8559437
51	0xc031172e	-2.7670398
52	0xc043cc40	-3.0593414
53	0x404389ca	3.055285
54	0xc0403a5d	-3.0035622
55	0xc024e756	-2.5766196
56	0xc046d191	-3.106541
57	0x4040dc33	3.01344
58	0x403ab037	2.9170053
59	0x403629fc	2.8463125
60	0xbe7c7eb6	-0.24657711
61	0xc02b0c9d	-2.6726449
62	0x3fe96768	1.8234682
63	0x4044907e	3.071319
64	0xc04107a6	-3.0160918
65	0x405559d8	3.3336086
66	0x40430f53	3.0478103
67	0x4055d30d	3.3410065
68	0xc03f09b7	-2.984968
69	0x40378351	2.86739
70	0x403c1aea	2.9391427
71	0xc03bb6b0	-2.9330254
72	0x404d8dd8	3.2117825
73	0x405daddf	3.4637372
74	0x40585b04	3.3805552
75	0xc0539814	-3.306157
76	0x402a8b6c	2.6647596
77	0x40578166	3.3672729
78	0xc037db60	-2.8727646
79	0x4041c52b	3.0276592
80	0x40381cbd	2.876754
81	0xc03fa067	-2.9941652
82	0xc04059f4	-3.0054903
83	0x402dffee	2.7187457
84	0xc0353645	-2.8314373
85	0x403fdb1d	2.9977486
86	0xc0301614	-2.7513475
87	0x403700d7	2.8594263
88	0xc0301465	-2.7512448
89	0x40375f73	2.8652008
90	0xc02bf7fe	-2.6870112
91	0xc0248b2e	-2.5709949
92	0x403ce674	2.9515657
93	0x403aaa33	2.9166381
94	0xc02c6b70	-2.6940575
95	0x4053599b	3.302344
96	0x403ef7ac	2.9838667
97	0xc0331e7d	-2.7987359
98	0x40386a71	2.8814967
99	0xc031968f	-2.7748144
100	0x403df6da	2.9681916
101	0x403ab5c7	2.9173448
102	0xc0366441	-2.849869
103	0x4033e150	2.810627
104	0x403ea6ab	2.9789226
105	0xc0472e4e	-3.1122012
106	0xc022d5e7	-2.5443056
107	0xc024dd1a	-2.575995
108	0xc035b1d3	-2.8389785
109	0x4041890e	3.0239902
110	0xc03a3e20	-2.9100418
111	0x4034d1e1	2.82531
112	0xc02c888c	-2.6958342
113	0xc031e9f1	-2.7799037
114	0x40445aea	3.068049
115	0x402b4fe5	2.6767514
116	0xc0312b89	-2.7682822
117	0xc03d071d	-2.9535592
118	0x4040b699	3.0111449
119	0xc0496cc2	-3.147263
120	0xc01e946e	-2.4778094
121	0xc04bb0e2	-3.182671
122	0x404b4bd9	3.1765044
123	0xc052ed8d	-3.295749
124	0xc0381801	-2.876465
125	0x4041ed58	3.0301113
126	0xc033fbbc	-2.8122396
127	0x404245ea	3.0355172
128	0x403658a8	2.8491611
129	0x4040311f	3.002998
130	0xc02ebe21	-2.7303545
131	0x40383927	2.8784883
132	0xc01c9eb5	-2.4471867
133	0x403ac740	2.9184113
134	0x403ab398	2.9172115
135	0xc02f642f	-2.7404897
136	0x40410056	3.0156455
137	0x403f96c9	2.9935782
138	0xc032c582	-2.793305
139	0xc02a6061	-2.6621325
140	0xc03491f1	-2.8214076
141	0xc029568a	-2.645907
142	0x404186f8	3.0238628
143	0xc03043da	-2.7541413
144	0xc03dbfed	-2.9648392
145	0x40370f03	2.8602912
146	0x402ac5c2	2.6683202
147	0xc044eccc	-3.076953
148	0xc03b9a98	-2.9313107
149	0x40448a43	3.0709388
150	0x4040eea3	3.0145652
151	0xc0117516	-2.2727714
152	0x4003b430	2.0578728
153	0xbff8b6d5	-1.9430796
154	0x4030fbec	2.765376
155	0xc038f9b7	-2.8902414
156	0xc043282c	-3.049327
157	0x40407e6b	3.007716
158	0xc036a5b3	-2.8538635
159	0x4022dd7b	2.544768
160	0x403a5f17	2.9120538
161	0xc039a7af	-2.9008596
162	0xc044835e	-3.070518
163	0x4034eac2	2.8268285
164	0x4041e3f6	3.0295386
165	0xc03521d7	-2.8301904
166	0xc030d4fa	-2.762999
167	0x4030678d	2.7563202
168	0x40385f20	2.880806
169	0xc03c50ea	-2.9424386
170	0x4041c304	3.0275278
171	0xc03e2cf6	-2.9714942
172	0x4031d3ff	2.7785642
173	0xc02f95ed	-2.7435257
174	0x40351d4f	2.8299139
175	0xc02be0da	-2.6855989
176	0xc03dab7e	-2.963592
177	0xc03db6a5	-2.9642727
178	0x403072bf	2.7570035
179	0x4037ba6c	2.8707533
180	0xc03d51f5	-2.9581273
181	0x403ad91a	2.9195008
182	0x403a51ef	2.9112508
183	0xc040e74e	-3.0141177
184	0xc013b1a7	-2.307718
185	0xbfbfdffb	-1.4990228
186	0x403b357e	2.92514
187	0xc05669ce	-3.3502078
188	0xc04098fb	-3.0093372
189	0x4030253e	2.752273
190	0xc034b11c	-2.82331
191	0x402e669a	2.7250123
192	0x4035fd81	2.8435977
193	0x403c68b6	2.943891
194	0x4037b58b	2.8704555
195	0xc036d922	-2.8570027
196	0x40467071	3.1006129
197	0x40424544	3.0354776
198	0xc031c734	-2.7777834
199	0x403c905d	2.9463112
200	0x404bc110	3.1836586
201	0xc03e4421	-2.9729083
202	0x402c7484	2.6946115
203	0xc0300b9f	-2.7507093
204	0xc03f8a2d	-2.9928086
205	0xc031b975	-2.7769444
206	0x403ce778	2.9516277
207	0xc038edb4	-2.8895082
208	0x402b6afe	2.6784053
209	0xc04504ef	-3.0784261
210	0xc030bae9	-2.761408
211	0x40282418	2.627203
212	0xc0431de9	-3.0487006
213	0x40433fbc	3.050765
214	0x4034cd5e	2.8250346
215	0x404a6b1b	3.1627872
216	0x404b083c	3.1723776
217	0x404cc7f3	3.199704
218	0xc022813d	-2.539138
219	0x40344a4e	2.8170352
220	0x404a59c5	3.161729
221	0xc050a048	-3.2597828
222	0xc04527db	-3.0805576
223	0x404671ed	3.1007035
224	0xc03570c9	-2.8350089
225	0xc035516f	-2.8330953
226	0xbf972b7d	-1.1810147
227	0x4038b37d	2.885955
228	0x403a993c	2.9156027
229	0x402d6e06	2.7098403
230	0xc0421b80	-3.0329285
231	0x402220a3	2.533242
232	0x4036b978	2.85507
233	0xc02bc955	-2.6841633
234	0x403a7664	2.913476
235	0x4048e9ae	3.1392627
236	0xc035f631	-2.8431513
237	0xc03143a6	-2.769754
238	0x4040574b	3.005328
239	0x4040e2b3	3.0138366
240	0x405c1cd5	3.4392598
241	0xc03b64b6	-2.928022
242	0x3f3b751b	0.73225564
243	0xbfd41f78	-1.6572104
244	0x403bcc51	2.9343455
245	0x4047473d	3.113723
246	0xc046e61c	-3.1077948
247	0x40539fe9	3.3066351
248	0x403e5dbf	2.9744718
249	0xc0284180	-2.6289978
250	0xc04045d2	-3.0042615
251	0x402cff3a	2.7030778
252	0xc032e686	-2.79532
253	0xc02bc7ca	-2.6840692
254	0x3fedceb3	1.8578705
255	0x403e8fc2	2.9775243

layers.0.bias f4 [64]
0	0x3fdb07f4	1.7111802
1	0xc031bcc7	-2.777147
2	0xc051b3ba	-3.2765946
3	0x4035f8ba	2.843306
4	0xc053e8df	-3.3110883
5	0x4059787b	3.3979785
6	0xc02add06	-2.6697402
7	0xc027b825	-2.6206143
8	0xc03227b6	-2.7836738
9	0xc04e8e5d	-3.2274392
10	0x403a6f20	2.9130325
11	0xc03c4027	-2.9414155
12	0xc028d4f7	-2.6379983
13	0xc03b0732	-2.9223142
14	0xc04f77f1	-3.2416956
15	0xc0588ef0	-3.3837242
16	0x402bbd19	2.6834166
17	0xc041c0be	-3.027389
18	0x403007fb	2.750487
19	0xc04c5b5a	-3.1930757
20	0xc02a9477	-2.6653116
21	0xc0590730	-3.3910637
22	0xc0489d31	-3.1345942
23	0xc038a860	-2.8852768
24	0xc0463349	-3.0968802
25	0xc0579ee4	-3.369073
26	0xc04cf3d8	-3.202383
27	0xc02bb4e3	-2.6829154
28	0xc0404ac2	-3.0045629
29	0x405feb80	3.4987488
30	0x40447e25	3.0701993
31	0xc03b3615	-2.925176
32	0xc04a9dc4	-3.1658792
33	0xc0422451	-3.0334666
34	0xc055855d	-3.3362648
35	0xc0334bed	-2.8015091
36	0xc0376e71	-2.8661158
37	0xc03a5017	-2.9111383
38	0xc04b25b7	-3.174177
39	0xc059a9e7	-3.400995
40	0xc03142dc	-2.7697058
41	0xc05b2a82	-3.4244695
42	0x4027b9e6	2.6207213
43	0xc050fd8e	-3.2654757
44	0xc04efbcc	-3.2341185
45	0xc04070b0	-3.006878
46	0x4020cd98	2.5125484
47	0xc03b60be	-2.9277797
48	0xc03ce8ac	-2.9517012
49	0xc05d314c	-3.4561338
50	0x40295f3b	2.6464374
51	0xc0317d2c	-2.773265
52	0xc0383df1	-2.8787806
53	0xc03f0227	-2.9845064
54	0xc061ab27	-3.5260713
55	0x4047816d	3.1172745
56	0xc037dade	-2.8727336
57	0xc053b3f5	-3.3078587
58	0xc035fa4e	-2.8434024
59	0xc03078b7	-2.7573678
60	0xc04c0985	-3.188081
61	0x403f6013	2.990239
62	0xc0333504	-2.8001108
63	0xc041360c	-3.0189238

layers.2.weight f4 [64, 64]
0	0x4046328d	3.0968354
1	0xc047f1d8	-3.124136
2	0xc041c4b1	-3.02763
3	0xc041a893	-3.025914
4	0xc04b5079	-3.1767867
5	0xc04513c7	-3.079332
6	0xc03d8b5f	-2.9616315
7	0xc04fb0c4	-3.245164
8	0xc03cd2ed	-2.950374
9	0xc04a96df	-3.1654584
10	0xc03b2039	-2.9238417
11	0xc03c8773	-2.9457672
12	0xc03f8cb8	-2.9929638
13	0xc03ca842	-2.9477696
14	0x403c2df7	2.9403055
15	0xc046241c	-3.095954
16	0xbe5b7572	-0.2143152
17	0xc03b341b	-2.9250553
18	0xc03a585d	-2.9116433
19	0xc03490a3	-2.821328
20	0xc0437dc9	-3.0545523
21	0xc034aa5f	-2.8228986
22	0xc03ab086	-2.9170241
23	0xc03be670	-2.9359398
24	0xc045fb95	-3.0934803
25	0xbd99d404	-0.07511142
26	0xc046e97c	-3.1080008
27	0xc03a61eb	-2.9122264
28	0xc03a0e1e	-2.9071116
29	0xc040d190	-3.0127907
30	0x4016e286	2.357576
31	0xc0491f43	-3.142533
32	0xc04714d8	-3.1106472
33	0xc0397b80	-2.8981628
34	0xc0320c40	-2.7819977
35	0xc0456a39	-3.0846083
36	0xc044de8e	-3.0760837
37	0xc047b7dc	-3.120597
38	0xc03f2c36	-2.9870734
39	0xc0457720	-3.0853958
40	0xc0471601	-3.110718
41	0xc04c7fb1	-3.1952937
42	0xc0461d88	-3.0955524
43	0xc040b166	-3.0108275
44	0xc04ae934	-3.1704836
45	0xc03899b4	-2.8843813
46	0xc0468f00	-3.102478
47	0xc0395cb7	-2.8962839
48	0xc042ef9a	-3.045874
49	0xc04d9ce4	-3.2127008
50	0xc04ddb5e	-3.216514
51	0xc04b8c82	-3.180451
52	0xc036a8f1	-2.8540614
53	0x4034beea	2.8241525
54	0xc03f0b76	-2.9850745
55	0xc0417927	-3.0230196
56	0xc03d0026	-2.953134
57	0xc0412d08	-3.0183735
58	0xc048f404	-3.1398935
59	0xc03cd732	-2.9506345
60	0xc03c2b13	-2.940129
61	0xc0466906	-3.1001601
62	0xc04cfcc3	-3.2029274
63	0xc0359adc	-2.8375769
64	0x3eb8bcaf	0.36081454
65	0xc0420c76	-3.0320106
66	0xc03a563c	-2.9115133
67	0xc039e21e	-2.904426
68	0xc03d6f44	-2.959916
69	0xc0414828	-3.020029
70	0xc02cfef6	-2.7030616
71	0xc02cc07d	-2.6992486
72	0xc049566e	-3.1459002
73	0xc0360092	-2.8437848
74	0xbf27b170	-0.65505123
75	0xc0395249	-2.8956473
76	0xc0437c0e	-3.0544467
77	0x404666c8	3.1000233
78	0x4025b75c	2.5893164
79	0x40319731	2.774853
80	0x4033f703	2.8119514
81	0x4033be99	2.8085082
82	0xc0423ef6	-3.0350928
83	0xc0460fd4	-3.094716
84	0xc03b73eb	-2.92895
85	0xc02e9b16	-2.7282157
86	0xc047b796	-3.1205802
87	0xc03e2207	-2.9708269
88	0xc03d0444	-2.9533854
89	0xc04dc349	-3.2150443
90	0xc04d17f9	-3.2045882
91	0x4017398f	2.362888
92	0xc03883e9	-2.8830512
93	0xc0329b38	-2.7907238
94	0xc02a01e9	-2.6563666
95	0xc0270f60	-2.6103134
96	0xc02f93e4	-2.7434015
97	0xc03815bc	-2.8763266
98	0xc03693c5	-2.8527691
99	0xc0245aad	-2.5680344
100	0xc004153c	-2.063796
101	0x4014210e	2.3145175
102	0xc036e691	-2.8578227
103	0xc042df27	-3.0448701
104	0xc03fd468	-2.9973392
105	0xc03e61cf	-2.9747198
106	0xc03da5bd	-2.9632409
107	0xc0431682	-3.0482488
108	0xc037e2d5	-2.8732197
109	0x4034d9f3	2.8258026
110	0xc04d6e60	-3.2098618
111	0xbf352efb	-0.7077481
112	0xc0436fc2	-3.0536962
113	0xc03f04b3	-2.9846618
114	0xc04b8270	-3.1798363
115	0xc0300df8	-2.7508526
116	0xc04912fc	-3.1417837
117	0x4038b68f	2.8861425
118	0xc03046f4	-2.7543306
119	0xc048a1dd	-3.1348794
120	0xc03e83a4	-2.9767847
121	0x403aa2d1	2.9161875
122	0xc03db47b	-2.9641407
123	0xc038a6af	-2.8851736
124	0xbea2a342	-0.3176518
125	0xc051e11d	-3.2793648
126	0xc046bba4	-3.1052027
127	0xc03c26b0	-2.9398613
128	0x3ccc507a	0.024940718
129	0xc03fc7c8	-2.9965687
130	0xc03fd8b1	-2.9976008
131	0xc048a156	-3.1348472
132	0xc03f8378	-2.9923992
133	0xc03d1ba1	-2.9548113
134	0xc03d8078	-2.960966
135	0xc04ad43f	-3.1692045
136	0xc04214cb	-3.032519
137	0xc04464fa	-3.0686631
138	0xc048b8af	-3.1362722
139	0xc0480413	-3.1252487
140	0xc04ffdd0	-3.2498665
141	0xc039f225	-2.9054043
142	0x40442b58	3.0651455
143	0xc04b7710	-3.179142
144	0xc04be1c5	-3.1856549
145	0xc03e26a1	-2.9711077
146	0xc03c55bd	-2.942733
147	0xc03cc406	-2.9494643
148	0xc0310ed7	-2.7665308
149	0xc041a50d	-3.025699
150	0xc04451eb	-3.0674999
151	0xc03c0bfc	-2.9382315
152	0xc03b14ae	-2.9231372
153	0xc0393bf8	-2.8942852
154	0xc03fdb9e	-2.9977794
155	0xc03e8670	-2.9769554
156	0xc0385595	-2.8802235
157	0xc0508d71	-3.258633
158	0xc040065a	-3.0003877
159	0xc049de88	-3.1542072
160	0xc03511a1	-2.829201
161	0xc03f9509	-2.9934714
162	0xc02cef44	-2.7021036
163	0xc03fd73c	-2.9975119
164	0xc0483c2a	-3.1286721
165	0xc04af190	-3.1709938
166	0xc03e52e1	-2.9738085
167	0xc0388f2f	-2.8837392
168	0xc038fcab	-2.8904216
169	0xc03a5459	-2.9113982
170	0xc03959e6	-2.896112
171	0xc04793b5	-3.1183903
172	0xc04bf2d5	-3.1866963
173	0xc040ab4c	-3.0104551
174	0xc0372a04	-2.8619394
175	0xc040bc30	-3.011486
176	0xc04506e2	-3.078545
177	0xc03f890d	-2.99274
178	0xc0421f40	-3.0331573
179	0xc041da46	-3.0289474
180	0xc0402153	-3.002034
181	0x402a696c	2.6626844
182	0xc043a62c	-3.0570173
183	0xc0345cde	-2.8181682
184	0xc048887b	-3.13333
185	0xc0276258	-2.6153774
186	0xc040f0d6	-3.0146995
187	0xc04145fd	-3.0198967
188	0xc0485b1d	-3.130561
189	0xc0401dae	-3.0018115
190	0xc04d02f9	-3.2033064
191	0xc03e4115	-2.9727223
192	0x40331a34	2.7984743
193	0xc048b4eb	-3.1360424
194	0xc04c4145	-3.1914837
195	0xc043d3b5	-3.0597966
196	0xc03e3b7c	-2.9723806
197	0xc03cb2f1	-2.9484217
198	0xc035aea8	-2.8387852
199	0xc03c4782	-2.9418645
200	0xc046c608	-3.1058369
201	0xc034b4ad	-2.8235276
202	0xc03c0f17	-2.938421
203	0xc04230d8	-3.0342312
204	0xc03adc0f	-2.9196813
205	0xc03aa0a8	-2.9160557
206	0x40335411	2.802006
207	0xc03f1e90	-2.9862404
208	0xc04edb36	-3.2321296
209	0xc033faa2	-2.8121724
210	0xc045be07	-3.0897233
211	0x4034d1d5	2.8253071
212	0xc03db460	-2.9641342
213	0xc04109e4	-3.0162287
214	0xc035bec2	-2.839768
215	0xc041adcc	-3.0262327
216	0xc03f0908	-2.9849262
217	0x402a794f	2.663654
218	0xc0333af5	-2.8004735
219	0xc03cd36d	-2.9504044
220	0xc03ac63f	-2.91835
221	0xc03d89da	-2.9615388
222	0xc03fc5aa	-2.9964395
223	0xc0388305	-2.8829968
224	0xc0476c05	-3.115968
225	0xc04b99bc	-3.1812582
226	0xc035e9b8	-2.84239
227	0xc03e5b54	-2.9743242
228	0xc0326db8	-2.7879467
229	0xc0364d87	-2.848482
230	0xc044be4a	-3.0741143
231	0xc046ba28	-3.105112
232	0xc03ebc08	-2.9802265
233	0xc045df53	-3.0917556
234	0xc044eeaa	-3.077067
235	0xc03dc681	-2.9652407
236	0xc04326d0	-3.049244
237	0xc03fad23	-2.9949424
238	0xc043d362	-3.0597768
239	0xc03ba3d0	-2.9318733
240	0xc03bba10	-2.9332314
241	0x40180bef	2.3757284
242	0xc043963a	-3.056044
243	0xc03e1271	-2.9698756
244	0xc04e09c1	-3.2193453
245	0x4051623a	3.2716203
246	0xc040ceac	-3.0126143
247	0xc0499ab6	-3.1500678
248	0xc040a59c	-3.010108
249	0xc0411e59	-3.0174773
250	0xc0425fbb	-3.037093
251	0xc037e313	-2.8732345
252	0xc048c7f1	-3.1372035
253	0xc03c6628	-2.9437351
254	0xc0456da7	-3.0848176
255	0xc0394cf1	-2.8953211

layers.2.bias f4 [64]
0	0xc0410023	-3.0156333
1	0xc04a210e	-3.1582675
2	0xc04596b7	-3.087324
3	0xc03c36d1	-2.9408457
4	0xc03cad87	-2.9480913
5	0xc03760d9	-2.865286
6	0xc03ff6cd	-2.9994385
7	0xc03f4028	-2.9882908
8	0xc03deac8	-2.967455
9	0xc0448ea2	-3.0712056
10	0xc042159e	-3.0325694
11	0xc043efff	-3.0615232
12	0xc0462790	-3.0961647
13	0xc0415624	-3.0208826
14	0xc02f9a97	-2.7438104
15	0xc034263b	-2.8148334
16	0xc03b325a	-2.9249482
17	0xc04243db	-3.0353916
18	0xc03d0b95	-2.953832
19	0xc03df544	-2.9680948
20	0xc02a3f1a	-2.6601014
21	0xc041b297	-3.0265253
22	0xc04280f3	-3.0391204
23	0xc0441ee3	-3.0643852
24	0xc040ec4b	-3.0144222
25	0xc046ff3a	-3.1093278
26	0xc0463e8a	-3.097567
27	0xc046d098	-3.1064816
28	0xc03a07ca	-2.9067254
29	0xc046ea80	-3.1080627
30	0xc03a2a48	-2.9088306
31	0xc04089ea	-3.0084176
32	0xc046fbc2	-3.109116
33	0xc033b6f1	-2.8080409
34	0xc033a820	-2.8071365
35	0xc0464db2	-3.0984921
36	0xc0446ef6	-3.0692725
37	0xc03c3106	-2.9404922
38	0xc049cd8f	-3.1531713
39	0xc041e91b	-3.0298526
40	0xc03b571f	-2.9271924
41	0xc03ca119	-2.9473326
42	0xc03b70ec	-2.9287672
43	0xc044f24e	-3.077289
44	0xc046e79c	-3.1078863
45	0xc03aeca2	-2.920693
46	0xc0345a71	-2.81802
47	0xc03fd38c	-2.9972868
48	0xc03f6ad7	-2.990896
49	0xc0429210	-3.040165
50	0xc03be71b	-2.9359806
51	0xc0499b41	-3.150101
52	0xc038aa1f	-2.8853834
53	0xc03b0f5e	-2.922813
54	0xc03d7843	-2.9604652
55	0xc04836ef	-3.1283529
56	0xc03f9211	-2.9932902
57	0xc03f3d27	-2.9881074
58	0xc0415c6c	-3.021266
59	0xc044262a	-3.0648293
60	0xc047a2d3	-3.119313
61	0xc0472664	-3.1117182
62	0xc040cb56	-3.0124106
63	0xc0344bdf	-2.8171308

out.0.weight f4 [3, 64]
0	0x403519cf	2.8297002
1	0x4039db9c	2.904029
2	0x4033ddeb	2.8104198
3	0x403443ad	2.8166306
4	0xc037baed	-2.870784
5	0xc03a359c	-2.909522
6	0xc0342410	-2.814701
7	0x4035f356	2.842977
8	0x403b574c	2.9272032
9	0xc039d97c	-2.9038992
10	0xc03d7502	-2.9602666
11	0xc039d610	-2.9036903
12	0x4038b3d8	2.8859768
13	0xc037c69e	-2.8714976
14	0xc03722fe	-2.8615108
15	0xc0404aea	-3.0045724
16	0xc03ae34c	-2.920123
17	0x40327daf	2.788921
18	0xc035bb1b	-2.839545
19	0x403733f0	2.862545
20	0xc03d877b	-2.961394
21	0xc039511c	-2.8955755
22	0x40329037	2.7900522
23	0xc035be90	-2.839756
24	0xc030e05b	-2.7636936
25	0x4030e567	2.7640016
26	0x403490cb	2.8213375
27	0x403c4732	2.9418454
28	0x403df6d7	2.968191
29	0x403b7d94	2.9295397
30	0xc03aac3f	-2.916763
31	0x403f6408	2.9904804
32	0x4034dac7	2.825853
33	0xc02c581a	-2.6928773
34	0x4028193e	2.6265407
35	0x403e87a8	2.9770298
36	0x403abdc6	2.9178329
37	0xc0287a4e	-2.632465
38	0xbfb3536b	-1.4009832
39	0x404444ba	3.0666947
40	0xc03950bd	-2.8955529
41	0x40089e4e	2.1346622
42	0x403ad1de	2.9190593
43	0x403d3417	2.9563043
44	0x40329d82	2.7908635
45	0x4034c088	2.8242512
46	0xc02ef9e0	-2.7340012
47	0xc01f6448	-2.4904957
48	0x40390381	2.8908389
49	0x404074ea	3.0071359
50	0x4033ab26	2.807321
51	0xc03ec13d	-2.9805443
52	0x4047032a	3.109568
53	0xc0381958	-2.8765469
54	0x40309f0a	2.759707
55	0xc037703b	-2.866225
56	0xc036527e	-2.848785
57	0x403770d2	2.866261
58	0xc0211ab8	-2.5172558
59	0x403e8294	2.9767199
60	0xc02f5c89	-2.740023
61	0xc034b02a	-2.8232522
62	0x40320cfa	2.782042
63	0xc03134e4	-2.7688532
64	0x403d3dc5	2.956895
65	0xc04e035b	-3.2189548
66	0xc0441e74	-3.0643587
67	0xc034b7ca	-2.8237176
68	0xc03a47e9	-2.910639
69	0x4045e79a	3.0922608
70	0x402ff1f4	2.7491426
71	0x40325974	2.7867098
72	0xc0317d39	-2.773268
73	0xc028ab79	-2.6354659
74	0x4039e1ac	2.904399
75	0x4032565b	2.7865207
76	0xc039145a	-2.8918672
77	0x4027d09d	2.6221077
78	0x403de761	2.9672472
79	0x40364e7b	2.84854
80	0xc0381e0d	-2.8768342
81	0x40426bcc	3.0378294
82	0x4045cddb	3.0906894
83	0xc033a1de	-2.8067546
84	0xc039a12b	-2.900462
85	0xc0345f48	-2.8183155
86	0xc02c019f	-2.687599
87	0x4042f819	3.0463927
88	0x403de96e	2.9673724
89	0x403bf346	2.9367232
90	0x401cae89	2.4481528
91	0xc0388273	-2.882962
92	0x4031b0a4	2.7764063
93	0xc0273623	-2.6126792
94	0xc036c01d	-2.8554757
95	0xc02ee1e6	-2.7325377
96	0xc04b4944	-3.1763468
97	0xc02cadd0	-2.6981087
98	0xc0431d12	-3.0486493
99	0xc0437ee8	-3.0546207
100	0xc03b9fe0	-2.931633
101	0xc0413db5	-3.0193913
102	0x403cb80c	2.9487333
103	0xc02e1026	-2.7197356
104	0x4010441f	2.2541578
105	0x402d3056	2.7060752
106	0xc0367ed1	-2.8514903
107	0xc02b4f2d	-2.6767075
108	0xc0406b7b	-3.00656
109	0xc0419d3f	-3.0252225
110	0x401b5ce1	2.4275439
111	0xc03f0811	-2.9848673
112	0x4035f7bb	2.8432453
113	0x402a3fe0	2.6601486
114	0xc03f6f27	-2.9911592
115	0x403900e5	2.8906796
116	0xc0229f28	-2.5409641
117	0x402fefd5	2.7490132
118	0xc0389385	-2.8840039
119	0xc0349cfd	-2.8220818
120	0xc046b1ea	-3.104609
121	0xc038d23d	-2.887832
122	0x40382775	2.8774083
123	0xc02f89af	-2.7427785
124	0xc023239d	-2.5490487
125	0x40346e1e	2.819221
126	0xc03ac7cd	-2.9184449
127	0xc0409cf9	-3.0095809
128	0x40355358	2.833212
129	0x4044a829	3.0727637
130	0x404dfa44	3.2184
131	0x403cde5f	2.9510725
132	0xc034f503	-2.8274543
133	0x40456617	3.084356
134	0x4037f359	2.8742278
135	0x40318467	2.7737062
136	0x402b6288	2.6778889
137	0xc032e6d8	-2.7953396
138	0x403eecab	2.983195
139	0xc03770e8	-2.8662663
140	0xc036e475	-2.857694
141	0xc039234d	-2.8927796
142	0xc032fbc2	-2.796616
143	0xc026250f	-2.5960119
144	0xc035821d	-2.8360665
145	0x4039389f	2.8940809
146	0xc03a1c28	-2.9079685
147	0x403a65c2	2.9124608
148	0xc02c4b55	-2.692098
149	0x4035d4ed	2.841121
150	0x40252080	2.5801086
151	0xc02dfb36	-2.7184577
152	0x40332536	2.7991462
153	0x403de88f	2.9673193
154	0x4046a70b	3.1039455
155	0x403958ae	2.8960376
156	0x4038fbea	2.8903756
157	0x404ecc49	3.2312186
158	0xc0381e87	-2.8768632
159	0xc0055dca	-2.0838494
160	0x4045b9af	3.0894582
161	0x4027c84c	2.6216002
162	0xc036f29a	-2.8585572
163	0x40339b76	2.8063636
164	0x404473a8	3.069559
165	0xc03b568e	-2.9271579
166	0x403abfb8	2.9179516
167	0x40229f8c	2.540988
168	0xc02c756d	-2.694667
169	0x403cd72e	2.9506335
170	0x4041c111	3.0274088
171	0x403cc143	2.9492958
172	0x4039d044	2.9033365
173	0xc02e4f86	-2.7236037
174	0xc0290eb5	-2.6415226
175	0xc03913bd	-2.8918297
176	0x403751d4	2.8643694
177	0x4033b31b	2.8078067
178	0xc02c5660	-2.692772
179	0xc049afaf	-3.1513479
180	0x40315465	2.770776
181	0x403e383d	2.9721825
182	0xbfa4adc6	-1.2865531
183	0xc01d4cb8	-2.4578075
184	0x4035c18c	2.8399382
185	0x403ac363	2.9181755
186	0x402b63a4	2.6779566
187	0x40373d6e	2.8631244
188	0xc01fcdfe	-2.4969478
189	0x403ffca3	2.9997947
190	0xc0407ddc	-3.0076818
191	0xc03a311a	-2.909247

out.0.bias f4 [3]
0	0x3ca4ab23	0.020101136
1	0xbd1a7a34	-0.0377142
2	0x3df0a72a	0.11750634
