results/FC_PRIMNET/FINGER64/weights/epoch_152.pth (torch, 22047 bytes, 10 tensors)

motor_std f4 [4]
00000000: 0611 bf43 31b2 c043 6060 bb43 6057 b943
382.133 385.39212 374.75293 370.68262

motor_mean f4 [4]
00000000: 2f7a 0b44 5ede 0c44 73a7 0d44 a73a 0a44
557.9091 563.4745 566.6164 552.91644

position_std f4 [3, 1]
00000000: 0000 803f 0000 803f 0000 803f
1.0 1.0 1.0

position_mean f4 [3, 1]
00000000: 0000 0000 0000 0000 0000 0000
0.0 0.0 0.0

layers.0.weight f4 [64, 4]
00000000: 21f7 2740 a2eb 2740 173f 29c0 d9c1 39c0
00000010: 1ed5 4440 8be6 1ec0 1925 21c0 2e52 2e40
00000020: 6989 0540 d330 1bc0 3b66 2940 ffe4 15c0
00000030: ab89 3940 e9b4 52c0 7654 1ec0 5410 1840
00000040: 64b7 3940 264e 06c0 c8f1 2cc0 fc77 3840
00000050: 2aa2 03c0 e456 2840 3e9d 2b40 5b2e 28c0
00000060: 81a8 20c0 a482 2a40 0af7 0c40 c10f 0340
00000070: 650a 3d40 0e3b 2d40 1d9f 1ec0 785d 2340
00000080: c455 2840 36f4 2d40 91c6 15c0 aac3 0fc0
00000090: 9fb5 2640 2cb3 19c0 81dd 2740 009c 1bc0
000000a0: bb4c 3040 876f 3040 8e90 47be 8854 3bc0
000000b0: 9d44 2740 3a62 1e40 017b 16c0 5aec f0bf
000000c0: fc84 2cc0 aead 3840 e9b5 24c0 a205 1fc0
000000d0: ecb9 31c0 7677 3140 0928 2ec0 a6d7 12c0
000000e0: 1fbf 34c0 dfc9 2e40 ff9f 2840 a817 2440
000000f0: d653 113d 1313 19c0 f7bd cd3f 8077 3240
00000100: 52f5 2ec0 4c43 4340 7f04 3140 81bc 4340
00000110: 2bf8 2cc0 9471 2540 9608 2a40 72a4 29c0
00000120: 1c6c 3b40 b7a7 4b40 0246 4640 c085 41c0
00000130: e77d 1840 7d6d 4540 0cc9 25c0 e7b1 2f40
00000140: 690a 2640 db8e 2dc0 cc48 2ec0 c1ed 1b40
00000150: b924 23c0 91c9 2d40 8804 1ec0 4bef 2440
00000160: d902 1ec0 e74d 2540 2ae8 19c0 a279 12c0
00000170: e8d4 2a40 a798 2840 e459 1ac0 4747 4140
00000180: edec 2c40 a90e 21c0 9d5a 2640 bb86 1fc0
00000190: a0e4 2b40 8fa5 2840 b653 24c0 7cd1 2140
000001a0: 098a 2c40 e30e 35c0 55ed 10c0 f8c3 12c0
000001b0: 7f9f 23c0 ba76 2f40 cc2b 28c0 55c0 2240
000001c0: 0077 1ac0 65d8 1fc0 9648 3240 b743 1940
000001d0: b520 1fc0 58f4 2ac0 1fa4 2e40 7e59 37c0
000001e0: 0842 0dc0 f790 39c0 8a32 3940 01d7 40c0
000001f0: 7506 26c0 0fdb 2f40 d0e9 21c0 5e34 3040
00000200: 1c47 2440 931f 2e40 95ac 1cc0 9b27 2640
00000210: 298d 0ac0 b4b5 2840 0ca2 2840 a352 1dc0
00000220: caee 2e40 7584 2d40 ddb3 20c0 c54f 18c0
00000230: 0671 22c0 f44b 17c0 2477 2f40 0634 1ec0
00000240: 99ad 2bc0 affc 2440 8ab5 1840 78da 32c0
00000250: e688 29c0 ef77 3240 17dd 2e40 8adb febf
00000260: 4558 e43f 8eb1 d5bf 42f1 1e40 fdeb 26c0
00000270: d815 31c0 176c 2e40 b793 24c0 efcb 1040
00000280: c34c 2840 7797 27c0 d271 32c0 36d9 2240
00000290: 6ad2 2f40 830f 23c0 6ec3 1ec0 0156 1e40
000002a0: 5b54 2640 1641 2ac0 34b4 2f40 221d 2cc0
000002b0: f9c9 1f40 f986 1dc0 1813 2340 7be1 19c0
000002c0: f299 2bc0 19a5 2bc0 3361 1e40 e0a8 2540
000002d0: 5e41 2bc0 8ec7 2840 6340 2840 95d5 2ec0
000002e0: 4627 02c0 35a1 9bbf 8d1a 2940 6e53 44c0
000002f0: a786 2ec0 b213 1e40 909f 22c0 7255 1c40
00000300: fff4 2340 2f55 2a40 b7a5 2540 2dc8 24c0
00000310: 1d5e 3440 0235 3040 a8b5 1fc0 d17e 2a40
00000320: 71a6 3940 ff2b 2cc0 be59 1a40 08f8 1dc0
00000330: 986f 2dc0 67ab 1fc0 a4d7 2a40 e0dd 26c0
00000340: aa58 1940 9bf2 32c0 50b3 1ec0 3912 1640
00000350: 950b 31c0 682d 3140 8abd 2240 9c57 3840
00000360: e8f5 3840 38b7 3a40 b16f 10c0 c238 2240
00000370: 3943 3840 da84 3ec0 c31f 33c0 896b 3440
00000380: 3d5f 23c0 e33f 23c0 0464 68bf 29a1 2640
00000390: e886 2840 7a5c 1b40 e40a 30c0 cf15 1040
000003a0: 0aba 2440 1db9 19c0 d56a 2840 6ad6 3640
000003b0: 95e5 23c0 1a32 1fc0 bf45 2e40 a2d0 2e40
000003c0: d0fb 4940 f143 29c0 3a79 e63e 5fdb afbf
000003d0: fdb9 2940 b135 3540 90d4 34c0 958d 4140
000003e0: f74b 2c40 7e33 16c0 3635 2ec0 aeed 1a40
000003f0: 47d6 20c0 3eb6 19c0 e2fb c93f 367e 2c40
2.6244586 2.623757 -2.6444757 -2.9024565 3.0755076 -2.4828212 -2.5178893 2.7237659
2.0865119 -2.424855 2.6468647 -2.3421018 2.8990276 -3.2922919 -2.473905 2.3759966
2.9018183 -2.0985198 -2.7022572 2.8823233 -2.0567727 2.6303034 2.6814723 -2.6278293
-2.5102847 2.6642237 2.202578 2.0478365 2.9537594 2.7067294 -2.4784615 2.5525799
2.6302347 2.7180305 -2.3402445 -2.2463174 2.6048353 -2.4015608 2.6228945 -2.4313965
2.7546833 2.756807 -0.19488737 -2.9270344 2.6135628 2.4747453 -2.3512576 -1.8822129
-2.6956167 2.8856006 -2.573603 -2.4847188 -2.7769728 2.7729163 -2.7211936 -2.2944121
-2.824165 2.7310712 2.6347654 2.5639439 0.035480343 -2.3917892 1.6073598 2.7885437
-2.7337232 3.0509825 2.7658994 3.0583804 -2.702647 2.5850573 2.656774 -2.650662
2.9284735 3.1821115 3.098023 -3.0237885 2.3826845 3.0848076 -2.590396 2.7452333
2.5943854 -2.7118442 -2.7231932 2.4363863 -2.5491164 2.7154276 -2.4690266 2.5771053
-2.4689238 2.5828798 -2.4047952 -2.2886739 2.6692448 2.6343172 -2.4117365 3.0199754
2.7019608 -2.5165198 2.5992806 -2.4925983 2.6858292 2.635105 -2.5676093 2.528411
2.695925 -2.8290336 -2.2644856 -2.293211 -2.5566099 2.7416215 -2.6276731 2.542989
-2.4135132 -2.4975827 2.7856803 2.394758 -2.4863713 -2.6711636 2.7287672 -2.8648372
-2.2071552 -2.899473 2.8937097 -3.0131228 -2.594144 2.7477453 -2.5298958 2.7531962
2.5668402 2.7206771 -2.4480336 2.5961673 -2.1648657 2.6360903 2.6348906 -2.4581687
2.7333245 2.7112095 -2.510978 -2.3798687 -2.5381484 -2.3640108 2.7416468 -2.4719253
-2.6824706 2.5779226 2.3860803 -2.7945843 -2.6489806 2.7885702 2.7322443 -1.9910748
1.7839438 -1.669481 2.4834752 -2.6081536 -2.7669582 2.7253473 -2.5715158 2.262447
2.6296852 -2.6186197 -2.788197 2.5445075 2.7472177 -2.5478218 -2.480678 2.4739993
2.5988986 -2.6602225 2.7453737 -2.6892781 2.4967024 -2.461363 2.5480404 -2.4043872
-2.681271 -2.6819518 2.4746826 2.5884323 -2.6758647 2.6371799 2.6289299 -2.731786
-2.033647 -1.2158571 2.6422455 -3.0675921 -2.7269685 2.469952 -2.540989 2.4427152
2.5618284 2.6614492 2.5882394 -2.5747178 2.8182442 2.7532353 -2.4954624 2.6639903
2.9007838 -2.6901853 2.4117274 -2.4682636 -2.7099361 -2.4948366 2.6694117 -2.6072922
2.3960366 -2.7960575 -2.4796944 2.3448622 -2.766332 2.7683964 2.5428185 2.8803473
2.890009 2.9174328 -2.256817 2.5347142 2.879103 -2.9768586 -2.7988136 2.8190634
-2.552688 -2.5507743 -0.9077761 2.6035864 2.633234 2.4275193 -2.7506647 2.251331
2.573855 -2.4019234 2.6315205 2.8568368 -2.5608876 -2.487433 2.723007 2.731484
3.1559944 -2.6447718 0.45014364 -1.3738822 2.6519768 2.831402 -2.8254738 3.0242665
2.6921365 -2.3468928 -2.7219977 2.4207568 -2.5130785 -2.4017482 1.5779994 2.6952033

layers.0.bias f4 [64]
00000000: d011 b73f f3ac 1fc0 959c 3fc0 66de 2340
00000010: 53d7 41c0 dd64 4740 32cd 18c0 99a6 15c0
00000020: 2a16 20c0 f379 3cc0 8858 2840 d32d 2ac0
00000030: 6bc3 16c0 a6f5 28c0 5a67 3dc0 bc72 46c0
00000040: d5a9 1940 17af 2fc0 f7f4 1d40 8650 3ac0
00000050: af82 18c0 95f5 46c0 a58b 36c0 d496 26c0
00000060: f520 34c0 908c 45c0 80f3 3ac0 57a3 19c0
00000070: 3639 2ec0 e9d6 4d40 ea64 3240 8924 29c0
00000080: 388c 38c0 c512 30c0 d173 43c0 4c36 21c0
00000090: 495d 25c0 df3f 28c0 2b0f 39c0 5b98 47c0
000000a0: a330 1fc0 f618 49c0 40b5 1540 4aea 3ec0
000000b0: 40ea 3cc0 245f 2ec0 c5b2 0e40 324f 29c0
000000c0: 58d6 2ac0 f81e 4bc0 e74c 1740 d86a 1fc0
000000d0: 9d2b 26c0 53f2 2cc0 d398 4fc0 e16a 3540
000000e0: 52c9 25c0 a1a1 41c0 fae7 23c0 2b67 1ec0
000000f0: 2f29 3ac0 874e 2d40 7823 21c0 8024 2fc0
1.4302311 -2.494931 -2.993932 2.5604491 -3.0287673 3.1155312 -2.3875241 -2.3382933
-2.5013528 -2.9449432 2.6304035 -2.659047 -2.3556774 -2.6399932 -2.959433 -3.1007528
2.4009907 -2.7450616 2.4680765 -2.9111648 -2.3829763 -3.1087391 -2.8522732 -2.6029558
-2.8145115 -3.0867043 -2.921112 -2.4005945 -2.7222419 3.216242 2.7874093 -2.642855
-2.8835583 -2.7511456 -3.0539439 -2.518939 -2.5838187 -2.6288984 -2.8915508 -3.118674
-2.4873435 -3.1421485 2.3391876 -2.9830499 -2.9517975 -2.724557 2.2296612 -2.6454587
-2.6693325 -3.1737652 2.3640687 -2.4908962 -2.596412 -2.7022903 -3.2437027 2.8346484
-2.5904126 -3.02549 -2.5610337 -2.4750469 -2.9087636 2.707918 -2.5177898 -2.7366028

layers.2.weight f4 [64, 64]
00000000: 992e 3440 4ce0 35c0 89b3 2fc0 0797 2fc0
00000010: ed3e 39c0 3b02 33c0 d379 2bc0 389f 3dc0
00000020: 61c1 2ac0 5385 38c0 ad0e 29c0 e775 2ac0
00000030: 2c7b 2dc0 b696 2ac0 231e 2a40 1015 34c0
00000040: 7275 5bbe 8f22 29c0 d146 28c0 7fdf 22c0
00000050: 3d6c 31c0 d398 22c0 fa9e 28c0 e4d4 29c0
00000060: 09ea 33c0 04d4 99bd f0d7 34c0 5f50 28c0
00000070: 92fc 27c0 04c0 2ec0 ded3 0440 b70d 37c0
00000080: 4c03 35c0 f469 27c0 b4fa 1fc0 ad58 33c0
00000090: 02cd 32c0 50a6 35c0 aa1a 2dc0 9465 33c0
000000a0: 7504 35c0 256e 3ac0 fc0b 34c0 3ea0 2ec0
000000b0: a8d7 38c0 2888 26c0 747d 34c0 2b4b 27c0
000000c0: 0ede 30c0 588b 3bc0 d2c9 3bc0 f67a 39c0
000000d0: 6597 24c0 5ead 2240 eaf9 2cc0 9b67 2fc0
000000e0: 9aee 2ac0 7c1b 2fc0 78e2 36c0 a6c5 2ac0
000000f0: eb19 2ac0 7a57 34c0 37eb 3ac0 5089 23c0
00000100: afbc b83e 64fa 2fc0 b044 28c0 82d1 27c0
00000110: b85d 2bc0 db35 2fc0 6aed 1ac0 a9b0 1ac0
00000120: e244 37c0 06ef 23c0 695a d4be bd40 27c0
00000130: 826a 31c0 3c55 3440 65aa 1340 cc86 1f40
00000140: dbe5 2140 c5ae 2140 6a2d 30c0 48fe 33c0
00000150: 5f62 29c0 ee89 1cc0 0aa6 35c0 7b10 2cc0
00000160: b8f2 2ac0 bdb1 3bc0 6d06 3bc0 652e 0540
00000170: 5d72 26c0 e488 20c0 15f2 17c0 5903 15c0
00000180: 6983 1dc0 3004 26c0 8d83 24c0 2149 12c0
00000190: 9722 e4bf ab15 0240 05d5 24c0 efce 30c0
000001a0: dcc2 2dc0 4350 2cc0 6993 2bc0 f604 31c0
000001b0: 49d1 25c0 bbc9 2240 d45c 3bc0 d67e e2be
000001c0: 365e 31c0 27f3 2cc0 d370 39c0 63fc 1dc0
000001d0: 6e01 37c0 03a5 2640 bc36 1ec0 898f 36c0
000001e0: 1872 2cc0 4591 2840 efa2 2bc0 2395 26c0
000001f0: b1e5 09be 91cf 3fc0 b6a9 34c0 2415 2ac0
00000200: 7a50 cc3c 3cb6 2dc0 25c7 2dc0 ca8f 36c0
00000210: ec71 2dc0 150a 2bc0 ec6e 2bc0 b3c2 38c0
00000220: 3f03 30c0 6e53 32c0 23a7 36c0 87f2 35c0
00000230: 44ec 3dc0 99e0 27c0 301a 3240 8465 39c0
00000240: 39d0 39c0 1515 2cc0 3144 2ac0 7ab2 2ac0
00000250: 4bfd 1ec0 8193 2fc0 5f40 32c0 70fa 29c0
00000260: 2203 29c0 d02a 27c0 12ca 2dc0 e474 2cc0
00000270: 0944 26c0 e57b 3ec0 cef4 2dc0 fccc 37c0
00000280: 1500 23c0 7d83 2dc0 70df 1ac0 b0c5 2dc0
00000290: 9e2a 36c0 04e0 38c0 5541 2cc0 a37d 26c0
000002a0: 1feb 26c0 cd42 28c0 5a48 27c0 2982 35c0
000002b0: 49e1 39c0 c099 2ec0 7818 25c0 a4aa 2ec0
000002c0: 56f5 32c0 8177 2dc0 b40d 30c0 bac8 2fc0
000002d0: c70f 2ec0 9859 1840 a094 31c0 524b 22c0
000002e0: ef76 36c0 8452 15c0 4adf 2ec0 7134 2fc0
000002f0: 9149 36c0 220c 2ec0 6df1 3ac0 892f 2cc0
00000300: ac36 2140 5fa3 36c0 b92f 3ac0 29c2 31c0
00000310: f029 2cc0 65a1 2ac0 1c9d 23c0 f635 2ac0
00000320: 7cb4 34c0 21a3 22c0 8bfd 29c0 4c1f 30c0
00000330: 83ca 28c0 1c8f 28c0 e942 2140 040d 2dc0
00000340: 27c9 3cc0 16e9 21c0 7bac 33c0 01c2 2240
00000350: d4a2 2bc0 58f8 2ec0 36ad 23c0 409c 2fc0
00000360: 7cf7 2cc0 1769 1840 6929 21c0 e1c1 2ac0
00000370: b3b4 28c0 4e78 2bc0 f9b3 2dc0 7971 26c0
00000380: 795a 35c0 3088 39c0 1cd9 23c0 c849 2cc0
00000390: 2c5c 20c0 fb3b 24c0 beac 32c0 9ca8 34c0
000003a0: 7caa 2cc0 c7cd 33c0 1edd 32c0 f5b4 2bc0
000003b0: 4415 31c0 979b 2dc0 d6c1 31c0 4492 29c0
000003c0: 84a8 29c0 3411 0640 ae84 31c0 e500 2cc0
000003d0: 35f8 3bc0 ae50 3f40 20bd 2ec0 2a89 37c0
000003e0: 1094 2ec0 cd0c 2fc0 2f4e 30c0 87d1 25c0
000003f0: 65b6 36c0 9c54 2ac0 1b5c 33c0 653b 27c0
2.815344 -2.841815 -2.745333 -2.743593 -2.8944657 -2.7970111 -2.6793106 -2.962843
-2.668053 -2.8831375 -2.6415207 -2.6634462 -2.7106428 -2.6654487 2.6580894 -2.8137856
-0.2143152 -2.6427343 -2.6293223 -2.544891 -2.7722313 -2.5405777 -2.6347032 -2.6536188
-2.8111594 -0.07511142 -2.8256798 -2.6299055 -2.6247907 -2.7304697 2.0754313 -2.860212
-2.8283262 -2.6158419 -2.4996767 -2.8022873 -2.7937627 -2.838276 -2.7047524 -2.8030748
-2.828397 -2.9129727 -2.8132315 -2.7285304 -2.8881626 -2.6020603 -2.820157 -2.613963
-2.7635531 -2.9303799 -2.9341931 -2.89813 -2.5717404 2.5418315 -2.7027535 -2.7406986
-2.670813 -2.7360525 -2.8575726 -2.6683135 -2.657832 -2.8178391 -2.9206064 -2.555256
0.36081454 -2.7496576 -2.6291924 -2.6221623 -2.6775951 -2.737662 -2.4207406 -2.4170325
-2.8635793 -2.5614638 -0.41475227 -2.6133263 -2.7721257 2.8177023 2.307275 2.4926023
2.5296543 2.526292 -2.7527719 -2.812395 -2.646629 -2.4459186 -2.8382592 -2.688506
-2.6710644 -2.9327233 -2.9222672 2.0809567 -2.6007302 -2.5083551 -2.3741505 -2.3283293
-2.4611456 -2.5940056 -2.5705292 -2.2857134 -1.7823056 2.0325725 -2.5755017 -2.7626302
-2.7150183 -2.6923988 -2.6808722 -2.7659278 -2.5908988 2.5435627 -2.9275408 -0.44237393
-2.7713752 -2.7023408 -2.8975112 -2.4685295 -2.8594623 2.6038215 -2.4720907 -2.8525107
-2.6944637 2.6338665 -2.6818197 -2.6028526 -0.13466527 -2.9970438 -2.8228583 -2.6575403
0.024940718 -2.7142477 -2.7152798 -2.8525262 -2.7100782 -2.6724904 -2.6786451 -2.8868835
-2.7501981 -2.7863421 -2.8539512 -2.8429277 -2.9675455 -2.6230834 2.7828484 -2.896821
-2.903334 -2.6887867 -2.660412 -2.6671433 -2.4842098 -2.743378 -2.785179 -2.6559105
-2.6408162 -2.611988 -2.7154584 -2.6946344 -2.5979025 -2.976312 -2.7180667 -2.8718863
-2.54688 -2.7111504 -2.4198875 -2.715191 -2.8463511 -2.8886728 -2.6914876 -2.6014183
-2.6081007 -2.6290772 -2.613791 -2.8360693 -2.9043753 -2.7281342 -2.5796185 -2.729165
-2.796224 -2.710419 -2.7508364 -2.7466264 -2.719713 2.3804684 -2.7746964 -2.5358472
-2.8510091 -2.3331614 -2.7323785 -2.7375758 -2.8482401 -2.7194905 -2.9209855 -2.6904013
2.518962 -2.8537214 -2.9091628 -2.7774756 -2.6900597 -2.6661007 -2.5564642 -2.6595435
-2.823516 -2.5412066 -2.6561 -2.7519102 -2.6373603 -2.6337347 2.5197089 -2.7039194
-2.9497774 -2.5298514 -2.8074024 2.543091 -2.6818132 -2.7339077 -2.557447 -2.7439117
-2.7026052 2.3814142 -2.5181525 -2.6680834 -2.636029 -2.6792178 -2.7141097 -2.6006758
-2.833647 -2.8989372 -2.5601263 -2.6920033 -2.5056257 -2.566161 -2.7917933 -2.822791
-2.6979055 -2.8094347 -2.794746 -2.6829197 -2.766923 -2.7126215 -2.7774558 -2.6495523
-2.6509104 2.0948 -2.7737231 -2.6875546 -2.9370244 2.9892993 -2.7302933 -2.8677468
-2.727787 -2.7351563 -2.754772 -2.5909135 -2.8548825 -2.6614141 -2.8024967 -2.6130002

layers.2.bias f4 [64]
00000000: 97ee 2ec0 e90e 38c0 2b85 33c0 4525 2ac0
00000010: 339b 2ac0 a150 25c0 41e5 2dc0 9c2e 2dc0
00000020: 3cd9 2bc0 167d 32c0 1204 30c0 cbdd 31c0
00000030: 0416 34c0 9844 2fc0 c38a 1dc0 5012 22c0
00000040: ce20 29c0 4f32 30c0 09fa 2ac0 b8e3 2bc0
00000050: 0e30 18c0 0ba1 2fc0 676f 30c0 bb0d 32c0
00000060: bfda 2ec0 aeed 34c0 fe2c 34c0 0cbf 34c0
00000070: 3ef6 27c0 f4d8 34c0 bc18 28c0 b177 2ec0
00000080: 36ea 34c0 65a5 21c0 4c98 21c0 8a3c 34c0
00000090: 6a5d 32c0 7a1f 2ac0 03bc 37c0 8fd7 2fc0
000000a0: 9345 29c0 f18f 2ac0 605f 29c0 c2e0 32c0
000000b0: 10d6 34c0 64da 28c0 e548 22c0 00c2 2dc0
000000c0: 4b59 2dc0 8480 30c0 c7d4 29c0 ed88 37c0
000000d0: 9398 26c0 d2fd 28c0 b766 2bc0 6325 36c0
000000e0: e980 2dc0 9b2b 2dc0 6e49 2fc0 9e14 32c0
000000f0: 4791 35c0 d814 35c0 cab9 2ec0 533a 22c0
-2.7333124 -2.87591 -2.805003 -2.6585248 -2.6657226 -2.5830462 -2.7171175 -2.7059698
-2.685134 -2.7888846 -2.7502484 -2.7791622 -2.8138437 -2.7385616 -2.4615943 -2.5323677
-2.6426272 -2.7530706 -2.671511 -2.6857738 -2.377933 -2.7442043 -2.7567995 -2.782088
-2.7321012 -2.8270068 -2.815246 -2.8241606 -2.6244044 -2.8257418 -2.6265097 -2.7260554
-2.826795 -2.52572 -2.5249205 -2.816195 -2.7869515 -2.6581712 -2.8708503 -2.7475317
-2.6448715 -2.6650355 -2.6464462 -2.7949681 -2.8255653 -2.6383295 -2.5356991 -2.7149658
-2.708575 -2.757844 -2.653612 -2.8677323 -2.6030624 -2.640492 -2.6781442 -2.846032
-2.710993 -2.7057865 -2.7388568 -2.7825084 -2.836992 -2.8293972 -2.7300897 -2.5348098

out.0.weight f4 [3, 64]
00000000: 4308 2340 10ca 2740 5fcc 2140 2132 2240
00000010: 99a8 25c0 1024 28c0 0023 22c0 cae1 2340
00000020: 2446 2940 f0c7 27c0 7663 2bc0 bcc3 27c0
00000030: 4ca2 2640 12b5 25c0 7211 25c0 5e39 2ec0
00000040: c0d1 28c0 236c 2040 8fa9 23c0 6422 2540
00000050: ef75 2bc0 903f 27c0 ab7e 2040 04ad 23c0
00000060: cfce 1ec0 dbd3 1e40 3f7f 2240 a635 2a40
00000070: 4be5 2b40 4877 2940 a39b 28c0 7c52 2d40
00000080: 3bc9 2240 8e46 1ac0 0609 1640 9c78 2c40
00000090: 3aac 2840 c268 16c0 46f4 8fbf 9233 3240
000000a0: 313f 27c0 e147 ed3f 52c0 2840 8b22 2b40
000000b0: f68b 2040 fcae 2240 54e8 1cc0 7459 0dc0
000000c0: f5f1 2640 5e63 2e40 ee9a 2140 e9ae 2cc0
000000d0: 9ef1 3440 cc07 26c0 368f 1e40 cd5f 25c0
000000e0: 0a45 24c0 465f 2540 6469 10c0 0871 2c40
000000f0: 614b 1dc0 9e9e 22c0 6efb 1f40 1025 1fc0
00000100: f12d 2b40 cff1 3bc0 e80c 32c0 3ea6 22c0
00000110: 9535 28c0 0ed6 3340 ec0b 1e40 e847 2040
00000120: ad6b 1fc0 a59b 16c0 20d0 2740 9944 2040
00000130: ce02 27c0 c9c0 1540 39d6 2b40 433e 2440
00000140: 810c 26c0 a45a 3040 b3bc 3340 5290 21c0
00000150: a28f 27c0 204e 22c0 cbf1 19c0 8de6 3040
00000160: e2d7 2b40 bae1 2940 11a4 0a40 e770 26c0
00000170: 189f 1f40 0331 15c0 91ae 24c0 22d0 1cc0
00000180: b837 39c0 fc9d 1ac0 860b 31c0 dc6f 31c0
00000190: 548e 29c0 8d2c 2fc0 80a6 2a40 9afe 1bc0
000001a0: 7179 fc3f ca1e 1b40 fd6e 24c0 593f 19c0
000001b0: ef59 2ec0 658b 2fc0 5156 0940 85f6 2cc0
000001c0: 2fe6 2340 542e 1840 045d 2dc0 91ee 2640
000001d0: 8991 10c0 49de 1d40 f981 26c0 718b 22c0
000001e0: 7ea8 34c0 b1c0 26c0 154e 2640 2378 1dc0
000001f0: 1112 11c0 925c 2240 41b6 28c0 6d8b 2ec0
00000200: cc41 2340 9d96 3240 b8e8 3b40 d3cc 2a40
00000210: afe2 22c0 8b54 3340 d9f3 2540 db72 1f40
00000220: 5052 1940 4cd5 20c0 1fdb 2c40 c75e 25c0
00000230: e9d2 24c0 2512 27c0 36ea 20c0 6a17 14c0
00000240: 9170 23c0 1327 2740 9c0a 28c0 3654 2840
00000250: c939 1ac0 61c3 2340 f40e 1340 aae9 1bc0
00000260: aa13 2140 03d7 2b40 7f95 3440 2247 2740
00000270: 5eea 2640 1ddd 3c40 5f0d 26c0 aab0 e6bf
00000280: 23a8 3340 78b8 1540 0ee1 24c0 6a8c 2140
00000290: 1c62 3240 0d45 29c0 2cae 2840 008e 1040
000002a0: 9763 1ac0 a2c5 2a40 85af 2f40 b7af 2a40
000002b0: b8be 2740 fa3d 1cc0 4700 17c0 9502 27c0
000002c0: 4840 2540 8fa1 2140 2944 1ac0 5b9d 37c0
000002d0: d942 1f40 b126 2c40 fd2a 82bf e441 0bc0
000002e0: 64d8 2340 d7b1 2840 436c 1a40 e22b 2540
000002f0: 44c0 0dc0 17eb 2d40 506c 2ec0 8e1f 28c0
2.5473793 2.621708 2.5280988 2.5343096 -2.5884154 -2.627201 -2.5333862 2.560656
2.644906 -2.6215782 -2.6779456 -2.6213217 2.6036558 -2.5891767 -2.5791898 -2.7222514
-2.6378021 2.5066001 -2.557224 2.580224 -2.679073 -2.6132545 2.5077312 -2.557435
-2.4813726 2.4816806 2.5390165 2.6595244 2.68587 2.6479053 -2.6344993 2.7081594
2.5435321 -2.4105563 2.3443007 2.6948614 2.6355119 -2.350144 -1.1246421 2.7843976
-2.613232 1.8537561 2.6367383 2.6739833 2.5085425 2.5419302 -2.4516802 -2.2085848
2.608518 2.724815 2.5250812 -2.6981757 2.8272471 -2.594226 2.477491 -2.5839722
-2.5667138 2.58394 -2.2564325 2.6943989 -2.4577258 -2.5409312 2.499721 -2.486637
2.674679 -2.9366338 -2.7820377 -2.5413966 -2.6282704 2.8099399 2.4694777 2.5043888
-2.490947 -2.3532498 2.622078 2.5041869 -2.6095462 2.3398917 2.68495 2.5663002
-2.5945132 2.7555323 2.8083923 -2.5244336 -2.6181417 -2.5360184 -2.4053829 2.7640717
2.6850514 2.6544023 2.1662638 -2.600641 2.4940853 -2.3311164 -2.5731547 -2.4502034
-2.8940258 -2.4158926 -2.7663283 -2.7724524 -2.649312 -2.7370942 2.6664124 -2.4374146
1.9724561 2.4237542 -2.5692742 -2.3944914 -2.724239 -2.742883 2.1458933 -2.7025464
2.5609243 2.3778276 -2.7088022 2.608311 -2.2588828 2.4666922 -2.601683 -2.5397608
-2.822784 -2.605511 2.5985157 -2.4604576 -2.2667277 2.5369 -2.636124 -2.7272599
2.550891 2.7904427 2.936079 2.6687515 -2.5450857 2.802035 2.5930083 2.4913852
2.395649 -2.5130186 2.700874 -2.5839097 -2.575373 -2.6104825 -2.514295 -2.313929
-2.5537455 2.61176 -2.6256475 2.6301398 -2.409777 2.5588 2.2977877 -2.4361367
2.5168252 2.6849983 2.8216245 2.6137166 2.6080546 2.9509957 -2.594566 -1.8022664
2.8071373 2.339384 -2.5762362 2.5241952 2.7872381 -2.6448395 2.6356306 2.258667
-2.4123285 2.6683125 2.7450879 2.6669748 2.6210155 -2.4412827 -2.359392 -2.6095326
2.5820484 2.5254858 -2.4104102 -2.8689792 2.488455 2.6898615 -1.0169369 -2.1758966
2.5600824 2.6358545 2.4128578 2.5808034 -2.21486 2.7174737 -2.7253609 -2.626926

out.0.bias f4 [3]
00000000: 37b4 0c3d 7916 20bd 94f8 383e
0.034351554 -0.03908393 0.18063575
