results/PRIMNET/FINGER/weights/epoch_387.pth (torch, 12610 bytes, 33 tensors)

motor_std f4 [4]
000000 06 11 bf 43 31 b2 c0 43 60 60 bb 43 60 57 b9 43
       382.133 385.39212 374.75293 370.68262

motor_mean f4 [4]
000000 2f 7a 0b 44 5e de 0c 44 73 a7 0d 44 a7 3a 0a 44
       557.9091 563.4745 566.6164 552.91644

position_std f4 [3, 1]
000000 00 00 80 3f 00 00 80 3f 00 00 80 3f
       1.0 1.0 1.0

position_mean f4 [3, 1]
000000 00 00 00 00 00 00 00 00 00 00 00 00
       0.0 0.0 0.0

ACT_EMBED.layers.0.weight f4 [16, 4]
000000 0d 20 ae bf d4 c5 95 bf 36 08 52 3f 4b f0 83 be
       -1.3603531 -1.1700997 0.8204378 -0.25769266
000010 9a 15 2c be a4 73 ea be 18 dd d2 3d 31 97 6f 3f
       -0.16805115 -0.45791352 0.102960765 0.93590075
000020 4b 7d 94 3d 40 9b 8d bf 44 fa 9d 3f 16 e1 b4 bf
       0.0725046 -1.1063004 1.2342 -1.4131191
000030 d8 dc a5 bf 92 e8 54 3e d5 fd c4 3f 52 cf 8f bf
       -1.2958021 0.20791844 1.5389963 -1.1235144
000040 1d db fd bf c9 cc 25 3f 42 2b 06 bf 9f aa 31 be
       -1.9832493 0.647656 -0.52409756 -0.17350243
000050 3b c5 0b 40 5f 27 c5 bf a8 55 f1 be 2b 6c 32 be
       2.183913 -1.540264 -0.47135663 -0.17424075
000060 81 4c dd bf de 11 27 3f da 23 a9 be 51 b0 ec 3f
       -1.7288972 0.6526164 -0.33035165 1.8491307
000070 09 cb 35 bf 56 0a 8f 3f fa ae d8 3e 74 9e b0 bf
       -0.7101293 1.1175029 0.42320997 -1.3798356
000080 25 72 3a bf a8 26 bb 3f ed 85 fe 3f b6 c4 a1 bf
       -0.7283042 1.4621172 1.9884621 -1.2638156
000090 e9 f4 cd bf b0 ba be 3f 05 63 38 3f ab 4e 2f be
       -1.6090366 1.4900723 0.7202609 -0.17119853
0000a0 82 23 0c c0 00 53 82 3f 3c 47 54 3f fb 1b db bd
       -2.1896672 1.018158 0.82921195 -0.10698696
0000b0 9a 03 5f bf 43 e8 14 be f7 bb 12 3f c9 06 82 3f
       -0.8711487 -0.14541726 0.5731806 1.0158321
0000c0 b5 49 5e bf 4b b7 46 be 2b 62 93 3f bd 99 cc 3e
       -0.8683122 -0.19405858 1.1514333 0.39961043
0000d0 bf 25 d8 bf ab f9 ba 3f c9 11 43 bf 24 fa b2 3f
       -1.6886519 1.4607443 -0.76199013 1.3982587
0000e0 67 ce 25 be 55 50 84 3f 43 79 44 bf bf 6e 9f 3f
       -0.16192017 1.0337015 -0.7674753 1.2455672
0000f0 0c 5d 83 bf 86 76 02 bf 45 d4 8b bf 7f ed 8b bf
       -1.0262771 -0.509621 -1.0924155 -1.0931853

ACT_EMBED.layers.2.weight f4 [16, 16]
000000 d7 0b 05 c0 ef ec 28 c0 5f 00 0e c0 fa c0 1b c0
       -2.0788476 -2.6394613 -2.2187726 -2.4336534
000010 de a0 20 c0 3f ac 24 c0 5d 4f 31 c0 f7 58 15 c0
       -2.5098186 -2.573013 -2.770469 -2.333555
000020 7d 76 ed bf fe 11 5a bf fc 0a 4e bf 3a c5 a4 bf
       -1.8551785 -0.85183704 -0.8048551 -1.2872689
000030 36 ee 03 bf 61 66 05 bf 4c 40 73 bf 87 ac f8 bf
       -0.51535356 -0.5210934 -0.95019984 -1.9427651
000040 b7 b8 06 c0 4c a7 1a c0 e7 c5 0b c0 7e 7b 1a c0
       -2.105024 -2.416461 -2.183954 -2.4137874
000050 df d7 cf bf 76 f8 2c c0 09 5d 08 c0 f6 fd 00 c0
       -1.6237754 -2.7026649 -2.1306784 -2.0155005
000060 b6 c3 f7 bf a9 17 06 c0 43 91 07 c0 eb 8d e3 bf
       -1.9356601 -2.095194 -2.118241 -1.7777685
000070 c3 69 6f bf 30 7f 20 c0 a5 07 02 c0 4d d2 f0 bf
       -0.93520755 -2.507763 -2.0317166 -1.8814179
000080 5d d6 1b c0 a9 20 19 c0 c1 b8 db bf c0 ac f3 bf
       -2.4349587 -2.3926184 -1.7165757 -1.9037094
000090 5b ff 08 c0 8b ee 0d c0 0e cd 1a c0 4a e1 16 bf
       -2.1405857 -2.2176845 -2.4187655 -0.58937514
0000a0 03 8b 66 bf 41 ce 8e bf e1 84 2a bf 83 e5 04 c0
       -0.90055865 -1.1156694 -0.6660901 -2.0765083
0000b0 2d a6 b5 bf 14 06 0f c0 23 56 1d c0 8c 50 30 c0
       -1.4191338 -2.234746 -2.4583824 -2.7549162
0000c0 74 e7 d6 bf 67 20 5a bf 6c c0 e7 bf c5 9d d9 bf
       -1.6789384 -0.8520569 -1.8105597 -1.7001272
0000d0 1a b4 c5 bf c7 2f 25 c0 bb 34 e6 3f 71 71 02 c0
       -1.5445588 -2.581041 1.7984842 -2.038174
0000e0 a4 36 2a c0 a2 43 18 c0 a2 b9 dc 3f fa 91 28 c0
       -2.659585 -2.379128 1.7244151 -2.6339097
0000f0 20 b9 9a 3f 54 10 1a c0 ab 4c 12 c0 d6 60 0c c0
       1.2087746 -2.4072466 -2.2859294 -2.1934104
000100 76 c2 21 c0 8b e0 0f c0 0d c8 b1 bf 9d c8 1c c0
       -2.527494 -2.24808 -1.3889176 -2.4497445
000110 be ea a8 bf 1f 79 2a c0 20 3e 9a 3c 49 b5 c1 bf
       -1.3196638 -2.6636426 0.018828452 -1.5133449
000120 23 04 34 c0 e4 1b 51 bf 47 45 9e bf 76 fb c1 bf
       -2.8127525 -0.8168318 -1.2364892 -1.5154865
000130 ca 16 04 c0 d3 37 a9 bf 09 3a f1 be 30 79 db bf
       -2.063891 -1.3220161 -0.4711459 -1.7146358
000140 63 3b b5 bf 9c 72 22 3d 1a ca a9 3b 93 58 67 3e
       -1.4158748 0.03966008 0.005181563 0.22592382
000150 a2 33 b6 3d 91 c0 15 c0 8e 69 fd 3e 01 f4 62 3f
       0.08896567 -2.3398783 0.49494594 0.8865357
000160 7a 51 16 c0 8a 85 5c be 04 5c 84 bf e9 aa 1f c0
       -2.348723 -0.21535316 -1.0340581 -2.4948065
000170 65 f8 f2 bf 06 0d 85 be 4d 10 0f c0 89 1e d4 bf
       -1.8982054 -0.259865 -2.23537 -1.6571819
000180 03 17 a2 3f 04 57 35 c0 74 4c 0a be d7 1a 98 bf
       1.2663273 -2.833436 -0.13505727 -1.1883191
000190 2a 49 23 bf 99 8f a3 3e 5c ed 4b 3f 3e bd c1 bf
       -0.63783514 0.31945494 0.79659057 -1.5135877
0001a0 6a 84 d4 3f c9 f8 c2 bf e0 10 12 c0 a4 78 16 bf
       1.660291 -1.5232173 -2.28228 -0.58777833
0001b0 4f b9 4a bf d1 fb d3 bf 6b 73 87 bf 2c 93 63 3e
       -0.7918901 -1.6561223 -1.0582098 0.2222411
0001c0 4a 3b 85 bf 48 2e 62 3d 3b d2 9e bf 1e 26 81 be
       -1.0408719 0.05521992 -1.2407907 -0.25224394
0001d0 ea 50 0d bd 57 e9 a4 bf 5c ac 72 be a5 b0 a7 bf
       -0.034500994 -1.288371 -0.23698562 -1.3100783
0001e0 0a 6a 8a bf 3c 68 d7 bf c5 bf 74 bf ed 78 c6 bf
       -1.081361 -1.6828685 -0.9560512 -1.5505654
0001f0 50 6a cc bf 67 0b 03 bf ed 9d b5 bf 05 bb 88 bf
       -1.5969944 -0.51189274 -1.418882 -1.0682074
000200 d5 8b c7 bf d5 6e e9 bf e0 f9 ac 3d a9 dc ae bf
       -1.5589548 -1.8236948 0.084460974 -1.366109
000210 ba 54 1b bf e1 3a 1f c0 31 24 d4 bf 95 e2 2f 3f
       -0.6067616 -2.4879687 -1.6573545 0.6870511
000220 bc c7 32 c0 81 fe f9 3f 4d 60 ae 3f 86 c6 d7 3f
       -2.7934408 1.9530793 1.3623139 1.685746
000230 ae 98 44 3f e6 4a bd bf 6b e1 ad bf e1 6a 24 bf
       0.7679547 -1.4788482 -1.3584417 -0.64225584
000240 40 44 07 c0 bc 53 bf bf 16 0b 0c c0 8c 28 17 c0
       -2.1135406 -1.4947429 -2.1881766 -2.3618498
000250 8c 31 fe 3e 3a 4a 11 c0 3b 99 c1 bf 89 ee f9 bf
       0.49647176 -2.2701554 -1.5124887 -1.952592
000260 be e0 f6 bf 9a d5 c0 bf 06 38 b2 bf 82 a9 e0 3f
       -1.9287336 -1.5065186 -1.3923347 1.755173
000270 12 65 89 bf 47 1e 04 c0 8e 9d 8e bf bd 80 a0 bf
       -1.0733969 -2.064348 -1.1141832 -1.2539288
000280 a6 0e 02 c0 b3 8d ce bf 57 13 f4 bf 01 27 0a c0
       -2.032144 -1.6136993 -1.9068402 -2.1586306
000290 6b 97 05 c0 45 17 40 c0 2d 1a 16 40 e3 88 11 c0
       -2.0873668 -3.0014203 2.3453476 -2.27398
0002a0 01 92 31 c0 98 8d ff bf 38 78 f5 bf 7f 86 19 c0
       -2.7745364 -1.9965086 -1.9177313 -2.398834
0002b0 27 94 23 c0 82 60 0d c0 9f 9f eb bf 2e 3f f3 bf
       -2.5559175 -2.2090154 -1.8408087 -1.9003656
0002c0 47 c4 d3 3e 5f ca 11 bf cc 00 51 3f 8c f3 95 be
       0.41360685 -0.5694942 0.8164184 -0.29287374
0002d0 e0 f4 22 be 90 cd b0 3f 11 fc 39 3f 88 7d 29 3f
       -0.15913725 1.3812733 0.7265025 0.6620717
0002e0 b1 d6 df be e2 e5 68 be f8 81 b1 bd 6c c5 88 3e
       -0.43718484 -0.22743943 -0.08667368 0.2671312
0002f0 f8 bd ed 3e a5 1c a9 bf ab dc d8 be df c3 13 3e
       0.46433997 -1.3211867 -0.42355856 0.14430188
000300 81 74 c0 bf 9d ca 3e bf 14 13 4f bf 64 8d ca bf
       -1.5035554 -0.74527913 -0.80888486 -1.5824399
000310 ee f6 8c be b1 64 a6 bf 5d 10 94 bf f4 ec 5a bd
       -0.27532142 -1.2999479 -1.1567494 -0.053448632
000320 f3 0f 83 bf 94 ac 4d bf b6 71 68 bf ec 0f d8 bf
       -1.0239242 -0.8034146 -0.9079851 -1.6879859
000330 e7 f1 6c bf 1c 68 82 bf ba 27 ad bf 58 ff 3e be
       -0.92556614 -1.0188022 -1.3527749 -0.18652093
000340 9e a2 0f c0 4f 0d 0c c0 9e 08 01 c0 5a 0a e0 bf
       -2.2443004 -2.1883123 -2.016151 -1.7503159
000350 9f ae fb bf 6a 5c 1d c0 98 d1 05 40 cc c8 fc bf
       -1.9662665 -2.4587655 2.0909176 -1.9748778
000360 d6 d8 27 c0 9b 70 e1 bf 4e e4 d7 bf 37 a6 01 c0
       -2.6226096 -1.761249 -1.6866548 -2.02577
000370 09 ee 05 c0 55 4b fb bf 96 26 9a be f5 97 db bf
       -2.0926535 -1.9632365 -0.30107564 -1.7155749
000380 53 df ea bf 68 b4 b7 bf db d7 14 c0 a7 2e e1 bf
       -1.8349403 -1.4351931 -2.3256748 -1.7592362
000390 02 8c dd bf 76 6a 0e c0 21 bd 41 3f 7e 3a ff bf
       -1.7308352 -2.2252479 0.7567921 -1.9939725
0003a0 2e 6b 21 c0 86 19 30 c0 b7 50 24 c0 c7 49 ec bf
       -2.5221667 -2.7515578 -2.5674264 -1.8460015
0003b0 52 12 f5 be cf 65 10 c0 12 b1 29 c0 42 c4 0f c0
       -0.4786554 -2.256214 -2.6514325 -2.2463536
0003c0 68 99 e4 3e 1e 42 ce 3e cd 1a c6 be 92 9c 61 be
       0.4464829 0.40284818 -0.38692322 -0.22032383
0003d0 f9 31 35 be 65 12 a2 3f 94 af e3 3b e6 8e d2 be
       -0.17694844 1.2661864 0.006948421 -0.41124648
0003e0 91 4f 02 3f ad 0f f3 3d 9b 31 45 bf e7 6b 0b 3f
       0.5090266 0.11868224 -0.77028817 0.5446152
0003f0 a0 37 59 3d 0b a1 a4 3e 65 c6 2e 3f e4 30 71 3f
       0.053031564 0.32154116 0.68271476 0.94215226

ACT_EMBED.layers.4.weight f4 [4, 16]
000000 a3 94 0a 40 40 1a 14 c0 1a de 0e c0 2a bd 45 c0
       2.165322 -2.3141022 -2.232306 -3.0896707
000010 d0 dd 0a c0 96 1b a3 bf 74 f3 08 c0 2d 6e 4c 3e
       -2.1697884 -1.2742794 -2.1398592 0.19963904
000020 df af 29 c0 81 e7 ed bf 2c cc 0b c0 90 e1 ba bf
       -2.6513593 -1.8586274 -2.1843367 -1.4600086
000030 00 6f a1 bd a5 88 33 c0 0a 9b 24 c0 c2 88 19 c0
       -0.078825 -2.8052151 -2.5719628 -2.398972
000040 16 ad eb bf 46 4b 1d 40 da fc f8 bf a0 74 f6 bf
       -1.8412197 2.4577193 -1.9452164 -1.9254341
000050 d2 98 26 c0 77 fd 00 c0 06 ba 4c ba 2f 9d a0 bf
       -2.6030774 -2.0154703 -0.0007809702 -1.2547969
000060 bd 55 fe bf 6a 12 00 c0 f5 b9 0f c0 32 66 6e 3d
       -1.9869915 -2.001124 -2.245725 0.05820293
000070 a8 c6 d2 bf a7 2e 75 bf cb 8a f8 bf d6 25 3c 3c
       -1.6466875 -0.9577431 -1.9417356 0.01148363
000080 f5 ee df 3f 10 0d 0f c0 82 01 1d c0 c3 2c 24 c0
       1.7494799 -2.2351723 -2.453217 -2.565232
000090 a5 d1 99 bd b0 9b 12 3f 5d da 86 bd ee 03 01 3f
       -0.0751069 0.5726881 -0.06584618 0.5039662
0000a0 77 bd 26 c0 c1 db 11 c0 42 9a 1e c0 c4 0e 44 bd
       -2.605314 -2.2790377 -2.4781651 -0.047865644
0000b0 24 db 4e 3f c7 ce ed bf f3 ef e1 bf 3a b7 0f 3e
       0.8080313 -1.8578728 -1.7651352 0.14034739
0000c0 53 90 99 bf 25 62 28 c0 7b 92 15 c0 0a 8a e6 bf
       -1.1997169 -2.6309903 -2.3370655 -1.8010876
0000d0 9b 64 10 c0 7f 28 0f c0 c7 2d d5 bf a8 45 74 bd
       -2.2561405 -2.2368467 -1.6654595 -0.059636742
0000e0 80 86 d2 be a4 d6 16 c0 2f be 0c c0 84 28 b8 bd
       -0.4111824 -2.3568506 -2.199108 -0.08992103
0000f0 9f 99 98 bf 76 d2 04 c0 32 61 e2 bf 0b 18 33 c0
       -1.1921881 -2.0753455 -1.7685912 -2.7983425

FK_LAYER.joints.0.p_offset f4 [3, 1]
000000 8e 4f aa 37 1c ce 47 ba d1 85 d6 3b
       2.0302625e-05 -0.000762196 0.006546714

FK_LAYER.joints.0.rpy_offset f4 [3]
000000 89 9b 2f 3c 06 11 01 3d 99 3f 50 bb
       0.010718235 0.031510375 -0.0031776188

FK_LAYER.joints.1.p_offset f4 [3, 1]
000000 20 aa 90 b9 8e 74 26 ba bd 51 bd 3b
       -0.00027592573 -0.00063497655 0.005777566

FK_LAYER.joints.1.rpy_offset f4 [3]
000000 52 9f 96 bc ab 8f 10 3c 0b 57 05 3d
       -0.018386517 0.008823316 0.032553714

FK_LAYER.joints.1.axis f4 [3, 1]
000000 8d bf 16 c0 49 0f 06 c0 41 82 36 c0
       -2.3554413 -2.094683 -2.8517

FK_LAYER.joints.1.q_layer.0.weight f4 [1, 4]
000000 60 a0 aa bf ed d6 fb 3f fa f2 0d 40 ce 6d 26 c0
       -1.3330193 1.9674965 2.217955 -2.600452

FK_LAYER.joints.2.p_offset f4 [3, 1]
000000 3b 11 c3 39 44 a0 aa ba af 37 ac 3b
       0.00037206136 -0.0013017734 0.0052556614

FK_LAYER.joints.2.rpy_offset f4 [3]
000000 1c 86 6d bc ca e1 f6 3b 50 66 c4 3b
       -0.014497306 0.0075342404 0.005993642

FK_LAYER.joints.2.axis f4 [3, 1]
000000 f4 0f 93 3e d7 18 a0 3e 91 a6 2a be
       0.2872311 0.3126895 -0.16665103

FK_LAYER.joints.2.q_layer.0.weight f4 [1, 4]
000000 cc f6 04 40 8b d1 32 3e 01 2e fd bd bd 40 5c bf
       2.0775633 0.17462747 -0.1236229 -0.8603628

FK_LAYER.joints.3.p_offset f4 [3, 1]
000000 ca 86 4d 3a 27 57 55 bb b5 03 45 3c
       0.00078402145 -0.0032553168 0.01202481

FK_LAYER.joints.3.rpy_offset f4 [3]
000000 88 8d 84 bc d4 d4 13 3b 3d 1e a8 3b
       -0.016180769 0.0022557275 0.005130558

FK_LAYER.joints.3.axis f4 [3, 1]
000000 c9 65 3d c0 35 e5 14 40 7e 1a 30 3f
       -2.9593375 2.3264897 0.68790424

FK_LAYER.joints.3.q_layer.0.weight f4 [1, 4]
000000 f1 fa 29 40 77 41 23 40 15 9f e7 bf ae e6 60 c0
       2.6559412 2.5508707 -1.8095423 -3.5140796

FK_LAYER.joints.4.p_offset f4 [3, 1]
000000 e3 66 b9 3a cd 27 d4 bb a8 05 ba 3c
       0.0014145043 -0.006474471 0.022707775

FK_LAYER.joints.4.rpy_offset f4 [3]
000000 a1 22 53 3c b1 bc b6 3b 09 8f 62 bb
       0.012886674 0.005576693 -0.003457012

FK_LAYER.joints.4.axis f4 [3, 1]
000000 23 50 9b bf 78 e4 1d 40 fb 40 69 be
       -1.2133831 2.4670696 -0.22778694

FK_LAYER.joints.4.q_layer.0.weight f4 [1, 4]
000000 6e c8 fb 3f 62 c0 d3 3f 41 96 96 bf e0 89 75 3f
       1.9670541 1.6543086 -1.1764604 0.95913506

FK_LAYER.joints.5.p_offset f4 [3, 1]
000000 ec f6 1c 39 2f 1b cf ba 42 9c a2 3b
       0.00014969305 -0.0015800948 0.004962475

FK_LAYER.joints.5.rpy_offset f4 [3]
000000 5a 11 a1 bc 29 18 3c bb a3 65 79 ba
       -0.019661594 -0.0028700924 -0.0009513741

FK_LAYER.joints.5.axis f4 [3, 1]
000000 7d 56 21 be 2e 1a cc bf c8 ba 14 40
       -0.15755649 -1.594549 2.3239002

FK_LAYER.joints.5.q_layer.0.weight f4 [1, 4]
000000 df 87 ea bf f0 88 e4 bb 8f 99 84 bc aa 3f 80 3f
       -1.8322715 -0.006974332 -0.016186504 1.0019429

FK_LAYER.joints.6.p_offset f4 [3, 1]
000000 06 62 34 3b b6 3a 4b bc 18 c7 31 3d
       0.0027524247 -0.0124041345 0.04340276

FK_LAYER.joints.6.rpy_offset f4 [3]
000000 16 be 3b bc 6b 87 92 bc b2 56 04 3c
       -0.011458894 -0.017886838 0.00807731

FK_LAYER.joints.6.axis f4 [3, 1]
000000 89 a6 82 bd 5f 82 7b bd c7 49 f7 3c
       -0.0637942 -0.06140363 0.030186547

FK_LAYER.joints.6.q_layer.0.weight f4 [1, 4]
000000 fc 8e a4 bd 20 9a 20 bf a2 0b 0e bf dd ab ed bd
       -0.080350846 -0.62735176 -0.554865 -0.11605046
