results/PRIMNET/FINGER/weights/epoch_230.pth (torch, 12872 bytes, 33 tensors)

motor_std f4 [4]
0	0x43bf1106	382.133
1	0x43c0b231	385.39212
2	0x43bb6060	374.75293
3	0x43b95760	370.68262

motor_mean f4 [4]
0	0x440b7a2f	557.9091
1	0x440cde5e	563.4745
2	0x440da773	566.6164
3	0x440a3aa7	552.91644

position_std f4 [3, 1]
0	0x3f800000	1.0
1	0x3f800000	1.0
2	0x3f800000	1.0

position_mean f4 [3, 1]
0	0x00000000	0.0
1	0x00000000	0.0
2	0x00000000	0.0

ACT_EMBED.layers.0.weight f4 [16, 4]
0	0xbfd37868	-1.652112
1	0x3fa3fd98	1.2811766
2	0x3e953e32	0.29149014
3	0xbf940be5	-1.156613
4	0xbfcecfc8	-1.615716
5	0x3fcb3eef	1.5878581
6	0x3f6bdae0	0.9213085
7	0xbee16b9e	-0.44027418
8	0xbfa8b355	-1.3179728
9	0xbfba4db2	-1.4554961
10	0x3ecc6acc	0.3992523
11	0x3f598e82	0.84983075
12	0xbfad5790	-1.3542347
13	0x3faa86f6	1.3322437
14	0x3fb3392d	1.4001824
15	0xbf545cf0	-0.8295431
16	0xbf7ce1e5	-0.9878219
17	0xbfa7ddf8	-1.3114614
18	0xbe953447	-0.29141447
19	0x3fd27f02	1.644501
20	0x3ff3b702	1.9040225
21	0xbfdd6a93	-1.7298149
22	0xbd68d995	-0.056848127
23	0x3e29ae79	0.16570462
24	0xbfcbac87	-1.5912026
25	0xbf9ffe47	-1.2499474
26	0x3fa00194	1.2500482
27	0x3fdb051d	1.7110935
28	0xbf90c136	-1.1308963
29	0xbef8e837	-0.48614666
30	0x3de34973	0.11097994
31	0x3fec194a	1.8445218
32	0xbf6003fb	-0.87506074
33	0xbf07072b	-0.5274531
34	0x3f044055	0.5166066
35	0x3fa36b0e	1.2767045
36	0xbfea2e27	-1.8295335
37	0x3cf15b48	0.029462472
38	0x3f04664e	0.51718605
39	0xbd96ecd9	-0.07369394
40	0xbfb2437e	-1.3926847
41	0x3e936a6a	0.28792125
42	0x3f73edd2	0.9528476
43	0xbf89923f	-1.0747756
44	0xc002bde7	-2.0428407
45	0xbfca37d9	-1.5798293
46	0x400bad70	2.1824608
47	0x3fe09f90	1.7548695
48	0xbfa6a897	-1.30202
49	0xbf094889	-0.53626305
50	0x3f564193	0.8369381
51	0xbe7dd657	-0.24788795
52	0xbf41e8ba	-0.7574574
53	0xbfdf4e30	-1.7445736
54	0x3df8217d	0.121157624
55	0x3f98d6ac	1.1940513
56	0xbfe6321e	-1.7984045
57	0xbefec053	-0.49756107
58	0x3e043728	0.12911665
59	0x3e8879f3	0.2665554
60	0xbf882750	-1.0636997
61	0xbf719b05	-0.94377166
62	0xbe165cd0	-0.14683843
63	0x3ecf8fe5	0.4053947

ACT_EMBED.layers.2.weight f4 [16, 16]
0	0xbfeee684	-1.8664098
1	0xc01be024	-2.4355555
2	0xbfc04c50	-1.5023289
3	0xc00239d1	-2.0347788
4	0xc0080b36	-2.1256843
5	0xc004ad30	-2.0730705
6	0xc01eac25	-2.4792569
7	0xbeae448b	-0.3403667
8	0xbf6b92bf	-0.9202079
9	0x3f123570	0.5711279
10	0x3ef4b954	0.47797644
11	0xbfb159fa	-1.3855584
12	0x3fe7d4c0	1.8111801
13	0x3f948082	1.1601717
14	0xbfa2d766	-1.2721984
15	0xbfd285b6	-1.6447055
16	0xbfb79388	-1.4341898
17	0xbfaee83b	-1.3664621
18	0xbf7af7a5	-0.98034126
19	0xbfc881ef	-1.5664653
20	0xbf3ca6e4	-0.73692155
21	0xbff68ccf	-1.9261721
22	0xbfd2514f	-1.6431063
23	0xbfcc31e9	-1.5952731
24	0xbfa597c7	-1.2936944
25	0xbfc55027	-1.5415086
26	0xbf890639	-1.0705024
27	0xbde13d87	-0.109980635
28	0xbfa8c89e	-1.3186224
29	0xc0029f3c	-2.040969
30	0xbf7ea178	-0.9946513
31	0xbf8a1307	-1.0787057
32	0xbfdfcc36	-1.7484195
33	0xbd72eb51	-0.059306446
34	0xbfac6289	-1.346757
35	0xbfa95b95	-1.3231074
36	0xbec827dd	-0.39092913
37	0xbf9a6d07	-1.2064523
38	0x3e8f973f	0.2804508
39	0xbff95bc3	-1.9481128
40	0xbfa3a31a	-1.278415
41	0xbfffed35	-1.9994265
42	0xbf9fff80	-1.2499847
43	0xbf845ac2	-1.0340197
44	0xbfdfbcc7	-1.7479485
45	0xbfcd6b32	-1.6048338
46	0xbfa79d09	-1.3094798
47	0xbfd42bdc	-1.6575885
48	0x3f37ca14	0.7179272
49	0x400d6b93	2.2096908
50	0x3e79ac08	0.24382031
51	0x3fd124ee	1.6339395
52	0xbf445c4d	-0.7670334
53	0xbfee6435	-1.8624331
54	0x3fc5c94b	1.5452055
55	0xbe122bc1	-0.14274503
56	0xc00e424d	-2.2227967
57	0xbf844245	-1.0332724
58	0x3f96dfbb	1.1787027
59	0x3c17ea68	0.009272195
60	0x3f034254	0.51273084
61	0xbfdd8872	-1.7307265
62	0xbfb2e349	-1.3975612
63	0x3ec6e9d4	0.38850272
64	0xbfa40871	-1.2815076
65	0xbfab23d9	-1.3370315
66	0x3f3cb5f1	0.7371512
67	0xbfe51c01	-1.7899171
68	0x3f00d538	0.50325346
69	0xbf7158de	-0.94276226
70	0x3e19037b	0.14942734
71	0x3fb7d0ec	1.4360633
72	0xbfc57e9b	-1.5429262
73	0x3f82f3ea	1.0230687
74	0xbf1eb215	-0.6199048
75	0xbf02e03f	-0.5112342
76	0xbeaa0446	-0.33206385
77	0xbe8840b0	-0.26611853
78	0x3f7fb818	0.9989028
79	0xbaa91f2c	-0.0012902967
80	0xbee878cb	-0.45404658
81	0xbeae1ed6	-0.340079
82	0x3f20fd52	0.62886536
83	0xbf35c45b	-0.7100274
84	0x3deb7ff1	0.11499012
85	0xbf7378fb	-0.95106477
86	0xbca4563b	-0.02006065
87	0x3e8a350d	0.269936
88	0xbf996b79	-1.1985923
89	0x3f8f2ef4	1.1186204
90	0xbf11b8af	-0.5692243
91	0xbecbd6e5	-0.3981239
92	0xbf443bd0	-0.76653767
93	0xbe942488	-0.2893412
94	0x3ec5cd9d	0.38633433
95	0xbf59f456	-0.8513845
96	0xbfb36006	-1.4013679
97	0xc01e2517	-2.4710138
98	0x3fa3cee2	1.2797511
99	0xbfbb0edc	-1.461391
100	0xbf8a0849	-1.0783778
101	0x3f9ed260	1.2407951
102	0xbfc22d74	-1.5170121
103	0x3eaa39ad	0.33247128
104	0x3f039c4c	0.51410365
105	0x3ed03f44	0.40673268
106	0xbf5e2c12	-0.86785996
107	0x3f330a47	0.69937557
108	0xbe8d06c4	-0.27544224
109	0xbe062495	-0.13099892
110	0xbf8b24ba	-1.0870583
111	0x3ecd02de	0.4004125
112	0xbe27868a	-0.16359916
113	0x3d1167e8	0.035499483
114	0xbe76a5ae	-0.2408664
115	0xbe121e37	-0.14269339
116	0xbc7b5f28	-0.015342511
117	0xbee35800	-0.44403076
118	0xbe66117a	-0.22467604
119	0xbd5369c9	-0.051614556
120	0xbe9bb3dc	-0.3041066
121	0xbe0ffe96	-0.1406196
122	0xbf11f8b5	-0.5702012
123	0xbf6926fd	-0.91075116
124	0xbe3fe691	-0.18740298
125	0xbee2bac6	-0.44283122
126	0xbe80343f	-0.2503986
127	0xbf03fa9d	-0.5155428
128	0xbf1945ec	-0.5987232
129	0xbff321a7	-1.8994645
130	0x3e9ab49e	0.30215925
131	0xbea1b344	-0.3158208
132	0xbf8f9b29	-1.1219226
133	0xbff25ee7	-1.8935212
134	0xbf8b2e6d	-1.0873543
135	0xbe9a29e0	-0.30110073
136	0xc021f042	-2.5302892
137	0x4012cffc	2.2939444
138	0x3eed37ba	0.46331578
139	0x3f956d3a	1.1673958
140	0x3fc34f45	1.5258566
141	0xbebd35a1	-0.36954978
142	0x3febe9a9	1.8430682
143	0xbf3a3d3a	-0.72749674
144	0xbeeeece1	-0.466651
145	0xbfb18d37	-1.387122
146	0xbfca66aa	-1.581258
147	0xbf8a7d3a	-1.0819466
148	0xbefef959	-0.49799612
149	0xbfdd8c76	-1.730849
150	0xbf900613	-1.1251854
151	0xbf80e7cc	-1.0070739
152	0xbf67b1d2	-0.9050571
153	0xbfae19fd	-1.3601681
154	0xbe94d721	-0.2907038
155	0xbdd7ce30	-0.10537374
156	0xbe7bce81	-0.24590494
157	0xbfb9cf9b	-1.4516481
158	0xbf67286b	-0.9029605
159	0x3ea5664c	0.3230461
160	0xbfb92c5a	-1.446666
161	0xbfa0af8b	-1.2553571
162	0x3d6c75b9	0.057729457
163	0xbfd2cb17	-1.6468228
164	0xbf786f84	-0.9704516
165	0xbff7699f	-1.9329108
166	0x3f9f69f0	1.2454205
167	0xbed2536b	-0.41079268
168	0xc0094950	-2.1450996
169	0xbf2e20d3	-0.68018836
170	0xbf127849	-0.5721479
171	0xbff270d9	-1.8940688
172	0xbfe1218f	-1.7588366
173	0xbf917f40	-1.1366959
174	0xbfd08ccb	-1.6292967
175	0xbfaacd59	-1.3343917
176	0xbf6c71e6	-0.92361295
177	0xbf99fac5	-1.2029654
178	0xbf6aef76	-0.9177164
179	0xbe27a9dd	-0.16373391
180	0xbf3363d6	-0.7007421
181	0xbfa242bc	-1.2676616
182	0xc0032459	-2.0490935
183	0xbfbd744f	-1.480112
184	0xbf9589bf	-1.1682662
185	0xbff0986a	-1.8796513
186	0xbfb6768e	-1.425493
187	0x3fdb6ecf	1.7143191
188	0x3e5740c2	0.21020797
189	0xbfaabbfd	-1.333862
190	0x3f869038	1.0512762
191	0xbf8dc69f	-1.1076239
192	0xbf955210	-1.1665668
193	0xbf463839	-0.7742954
194	0xbe915fe4	-0.2839347
195	0xbf420f52	-0.75804627
196	0x3e2a91fd	0.16657253
197	0xbed076b4	-0.40715563
198	0x3d109d66	0.035306357
199	0x3ebb1fe4	0.36547768
200	0x3ec54a47	0.38533232
201	0x3f3cc395	0.73735934
202	0xbf82bf77	-1.021468
203	0xbf865985	-1.0496069
204	0xbf34b1ac	-0.70583606
205	0xbf852c84	-1.040421
206	0x3f43fb5a	0.7655541
207	0xbdd258d9	-0.102708526
208	0xbfe5d51d	-1.7955662
209	0x3ff152a1	1.8853341
210	0xbf3e3b0c	-0.7430885
211	0xbf898a19	-1.0745269
212	0x3f970f36	1.1801517
213	0xbfbbd222	-1.4673502
214	0x400d4532	2.2073483
215	0xbff718df	-1.9304465
216	0xbfec2c4b	-1.8451017
217	0xbfcaa261	-1.5830804
218	0xbf9a80c8	-1.2070551
219	0xbfd327a5	-1.6496474
220	0xc0067adf	-2.1012495
221	0xbf9d5fc0	-1.2294846
222	0xbfe53345	-1.7906271
223	0xbf8f228d	-1.1182419
224	0xbf81d67a	-1.0143578
225	0xbf02ba9f	-0.5106601
226	0xbf6a8fbe	-0.91625583
227	0xbf9bf7b9	-1.2184974
228	0xbf00abfd	-0.50262433
229	0xbf51f1bc	-0.8200948
230	0x3d8f5cd5	0.07000128
231	0x3f9af29f	1.2105292
232	0x3fc8f3f5	1.569945
233	0xc01b2407	-2.424074
234	0xbf8f6d2f	-1.1205195
235	0xbff78bd5	-1.9339548
236	0xbf038559	-0.5137535
237	0xbfb791f9	-1.4341422
238	0xbff469b2	-1.9094756
239	0xbfb5e3c2	-1.4210131
240	0xbfaa6d25	-1.3314558
241	0xbfd152ee	-1.6353433
242	0xbeae2505	-0.3401262
243	0xbfdcf841	-1.7263261
244	0xbe6b761a	-0.22994271
245	0xbf8e0f21	-1.1098367
246	0xbf359446	-0.7092937
247	0x3f480f7e	0.7814864
248	0xbfde6de9	-1.7377292
249	0x3f837e22	1.0272868
250	0xbfe96937	-1.8235234
251	0xbed325ad	-0.41239682
252	0x3dd3ff67	0.103514485
253	0xbf41ac18	-0.7565322
254	0x3f833689	1.0251018
255	0xbeb10997	-0.3457763

ACT_EMBED.layers.4.weight f4 [4, 16]
0	0xbff8fed5	-1.9452769
1	0xbfb6dfc8	-1.4287043
2	0xbfbb403c	-1.4628978
3	0xc0156f77	-2.3349283
4	0xbfdb61c2	-1.7139208
5	0xbf1be2fd	-0.6089323
6	0xc0067d5a	-2.1014009
7	0x3e5dc4fa	0.21657172
8	0xbfe5b885	-1.7946936
9	0xbfc8e731	-1.5695554
10	0xbfc56842	-1.5422442
11	0xbfd42f42	-1.6576922
12	0xbf0001ba	-0.50002635
13	0xc00d237d	-2.205291
14	0xbff2e5eb	-1.8976415
15	0x3f133071	0.5749579
16	0xbebfd470	-0.37466764
17	0xbec9bebe	-0.39403337
18	0xbff57767	-1.9177064
19	0xc0092556	-2.1429038
20	0xc00f342c	-2.2375593
21	0xbf8ba907	-1.0910958
22	0x3c8b22cd	0.016984368
23	0xbe993523	-0.29923353
24	0xc0266eda	-2.6005158
25	0xbfb8efc8	-1.4448175
26	0xc00a30fc	-2.1592398
27	0xbf3bb05b	-0.7331597
28	0xbf86cd51	-1.0531408
29	0x3f5e5ecc	0.868634
30	0xbedb77a1	-0.42864707
31	0xbfcdb2a0	-1.6070137
32	0xc01c82b2	-2.445477
33	0xbd690332	-0.056887813
34	0xbfef4c02	-1.8695071
35	0xc0124467	-2.285425
36	0xbfca7cd4	-1.5819345
37	0xbea88596	-0.32914418
38	0xbfad8f9e	-1.3559453
39	0xbecdb160	-0.4017439
40	0xc0157961	-2.3355334
41	0xbf5f8b99	-0.87322384
42	0xc01cf83c	-2.452651
43	0xbfdaa0b6	-1.7080295
44	0xbf0eeb90	-0.5582819
45	0xbff34660	-1.9005852
46	0xbfce4bee	-1.6116922
47	0x3fc3ee6a	1.5307133
48	0x3f4b361a	0.7937943
49	0xbffec780	-1.9904633
50	0xbfb2ea2f	-1.3977717
51	0x3db06481	0.086129196
52	0xbe4659f6	-0.19370255
53	0xbf8d4bb9	-1.1038734
54	0xbfa41b89	-1.2820903
55	0xbe86e0fb	-0.2634352
56	0x3e2ddc56	0.16978583
57	0xbfe6fb63	-1.8045467
58	0xbe54f714	-0.20797378
59	0xc0042f77	-2.065397
60	0xbf987ef3	-1.1913742
61	0xbffa3973	-1.9548782
62	0xbfe70afc	-1.8050227
63	0xc0094708	-2.1449604

FK_LAYER.joints.0.p_offset f4 [3, 1]
0	0xbdcaf1ea	-0.09909423
1	0xbedb227c	-0.42799747
2	0x3fb46c06	1.4095466

FK_LAYER.joints.0.rpy_offset f4 [3]
0	0x3c2f9b89	0.010718235
1	0x3d011106	0.031510375
2	0xbb503f99	-0.0031776188

FK_LAYER.joints.1.p_offset f4 [3, 1]
0	0xbd9289c7	-0.07155185
1	0xbdfc7ed6	-0.123288795
2	0x3f52bd83	0.8232042

FK_LAYER.joints.1.rpy_offset f4 [3]
0	0xbc969f52	-0.018386517
1	0x3c108fab	0.008823316
2	0x3d05570b	0.032553714

FK_LAYER.joints.1.axis f4 [3, 1]
0	0x3e97a0e1	0.29614928
1	0xbf4f81d3	-0.8105747
2	0x3f8b5297	1.088458

FK_LAYER.joints.1.q_layer.0.weight f4 [1, 4]
0	0xbf419286	-0.756142
1	0xbe9796c3	-0.2960721
2	0xbf6348ee	-0.88783157
3	0xbddc2785	-0.10749725

FK_LAYER.joints.2.p_offset f4 [3, 1]
0	0x3cce7158	0.02520053
1	0x3a88e930	0.0010445472
2	0xbc04ace8	-0.008097865

FK_LAYER.joints.2.rpy_offset f4 [3]
0	0xbc6d861c	-0.014497306
1	0x3bf6e1ca	0.0075342404
2	0x3bc46650	0.005993642

FK_LAYER.joints.2.axis f4 [3, 1]
0	0x3ee59052	0.4483667
1	0x3fa9ec85	1.3275305
2	0x3ddaae21	0.10677744

FK_LAYER.joints.2.q_layer.0.weight f4 [1, 4]
0	0x3fd0abd2	1.6302435
1	0x3fb37d17	1.4022549
2	0x3fae8ace	1.363611
3	0xbf1529e9	-0.58267075

FK_LAYER.joints.3.p_offset f4 [3, 1]
0	0x3ba552bd	0.0050452636
1	0x3d817e54	0.06322923
2	0x3dd746fc	0.10511586

FK_LAYER.joints.3.rpy_offset f4 [3]
0	0xbc848d88	-0.016180769
1	0x3b13d4d4	0.0022557275
2	0x3ba81e3d	0.005130558

FK_LAYER.joints.3.axis f4 [3, 1]
0	0x3e906c2e	0.28207535
1	0xbf97de39	-1.1864692
2	0x3fc6d912	1.5534995

FK_LAYER.joints.3.q_layer.0.weight f4 [1, 4]
0	0x3f3babe3	0.73309153
1	0x3dd512a2	0.104039446
2	0x3e62954b	0.22127263
3	0x3e375d30	0.17906642

FK_LAYER.joints.4.p_offset f4 [3, 1]
0	0x3cc96a38	0.024586782
1	0x3e446dc1	0.19182493
2	0xbf271012	-0.65258896

FK_LAYER.joints.4.rpy_offset f4 [3]
0	0x3c5322a1	0.012886674
1	0x3bb6bcb1	0.005576693
2	0xbb628f09	-0.003457012

FK_LAYER.joints.4.axis f4 [3, 1]
0	0x3f59ad75	0.850303
1	0xbd103499	-0.03520641
2	0x3e368ac5	0.17826374

FK_LAYER.joints.4.q_layer.0.weight f4 [1, 4]
0	0x3ed468ca	0.41486198
1	0xbf336665	-0.70078117
2	0xbea90ac0	-0.33016014
3	0xbd6900b3	-0.056885432

FK_LAYER.joints.5.p_offset f4 [3, 1]
0	0x3df5fa89	0.120106764
1	0x3e2bc317	0.1677364
2	0xbf4300e7	-0.7617325

FK_LAYER.joints.5.rpy_offset f4 [3]
0	0xbca1115a	-0.019661594
1	0xbb3c1829	-0.0028700924
2	0xba7965a3	-0.0009513741

FK_LAYER.joints.5.axis f4 [3, 1]
0	0xbf91899b	-1.1370119
1	0xc018e78f	-2.3891332
2	0xbdfd0dc4	-0.12356141

FK_LAYER.joints.5.q_layer.0.weight f4 [1, 4]
0	0xbffa4671	-1.9552747
1	0xbfd6557c	-1.6744838
2	0x3fa940cd	1.3222901
3	0xbe8de19a	-0.27711183

FK_LAYER.joints.6.p_offset f4 [3, 1]
0	0x3dbe1658	0.092816055
1	0x3e415185	0.18878753
2	0xbf485ca5	-0.78266364

FK_LAYER.joints.6.rpy_offset f4 [3]
0	0xbc3bbe16	-0.011458894
1	0xbc92876b	-0.017886838
2	0x3c0456b2	0.00807731

FK_LAYER.joints.6.axis f4 [3, 1]
0	0xbd82a689	-0.0637942
1	0xbd7b825f	-0.06140363
2	0x3cf749c7	0.030186547

FK_LAYER.joints.6.q_layer.0.weight f4 [1, 4]
0	0xbda48efc	-0.080350846
1	0xbf209a20	-0.62735176
2	0xbf0e0ba2	-0.554865
3	0xbdedabdd	-0.11605046
