results/PRIMNET/FINGER/weights/epoch_288.pth (torch, 12610 bytes, 33 tensors)

motor_std f4 [4]
00000000: 0611 bf43 31b2 c043 6060 bb43 6057 b943
382.133 385.39212 374.75293 370.68262

motor_mean f4 [4]
00000000: 2f7a 0b44 5ede 0c44 73a7 0d44 a73a 0a44
557.9091 563.4745 566.6164 552.91644

position_std f4 [3, 1]
00000000: 0000 803f 0000 803f 0000 803f
1.0 1.0 1.0

position_mean f4 [3, 1]
00000000: 0000 0000 0000 0000 0000 0000
0.0 0.0 0.0

ACT_EMBED.layers.0.weight f4 [16, 4]
00000000: 14e7 abbf 853a 92bf 4308 513f dfb9 6bbe
00000010: 73a3 23be d47c f6be 5c35 d23d 74b6 763f
00000020: ba45 913d 9d29 91bf 3a24 9b3f 9352 b1bf
00000030: 0dcd a2bf b4d0 383e c47f c83f 7c59 8cbf
00000040: 536a fcbf c1d9 1e3f 9e1b ffbe f911 16be
00000050: 4105 0a40 6ab7 c8bf f833 e3be 00e7 4ebe
00000060: 4df8 d9bf bf99 2d3f ba27 9bbe fc26 e93f
00000070: b6ca 3cbf d195 923f c88c ca3e 5812 adbf
00000080: baac 33bf ac9c b73f fdc9 fe3f 29f8 9fbf
00000090: 8978 cabf ffae bb3f eb73 3f3f 2570 4bbe
000000a0: 6d8e 0ac0 208c 7d3f d466 5b3f 7e0b 07be
000000b0: 391b 5ebf a718 31be 7ec9 193f aace 7e3f
000000c0: 97e3 57bf 4a44 60be 278b 913f 9a6a be3e
000000d0: 08ab dbbf 106b b73f c80f 47bf 5e87 b63f
000000e0: 0ee7 41be 77bf 803f e886 3dbf 06fb a23f
000000f0: b19d 7fbf 73ae f6be f700 8abf fb7c 8fbf
-1.3429894 -1.1424109 0.8165323 -0.23020123 -0.1598032 -0.4814211 0.10264084 0.9637215
0.070933774 -1.1340824 1.212043 -1.3853325 -1.2718827 0.18048364 1.5663991 -1.0964808
-1.9719948 0.62051016 -0.49825758 -0.14655294 2.1565707 -1.5680974 -0.44375587 -0.20205307
-1.70289 0.6781272 -0.30303746 1.8215022 -0.7374681 1.145197 0.39560533 -1.3521223
-0.70185435 1.4344687 1.9905392 -1.2497607 -1.5818034 1.466278 0.7478625 -0.19866998
-2.164943 0.9904194 0.8570378 -0.13187978 -0.8676029 -0.1729456 0.6007308 0.99534094
-0.8433165 -0.2190105 1.1370591 0.37190706 -1.716157 1.4329548 -0.77758455 1.4260061
-0.18935797 1.005843 -0.74033976 1.2732856 -0.99849993 -0.4817997 -1.0781544 -1.1210016

ACT_EMBED.layers.2.weight f4 [16, 16]
00000000: dd75 03c0 1b36 27c0 a34f 0cc0 341f 1ac0
00000010: c006 1fc0 23ed 22c0 2598 2fc0 b9bb 13c0
00000020: 05fc e9bf d6b8 53bf 4e11 4bbf 54d6 a1bf
00000030: 71e0 ffbe 939b fdbe 6489 6cbf 698c f5bf
00000040: 8d93 05c0 7c2d 19c0 f95f 0ac0 d25f 19c0
00000050: 5776 cdbf 804a 2bc0 d1d7 06c0 63ab ffbf
00000060: cc65 f4bf 99fb 04c0 6f0c 06c0 5d0a e1bf
00000070: 6731 6dbf e6e3 1ec0 f17b 00c0 39fd edbf
00000080: 3d57 1ac0 2b87 17c0 1bde d9bf 2ec4 f0bf
00000090: bbb9 07c0 f3a5 0cc0 a63b 19c0 7a64 13bf
000000a0: bb1b 64bf 6f24 8dbf b3f6 27bf 1361 03c0
000000b0: d16d b3bf f8c3 0dc0 d9ba 1bc0 0ade 2ec0
000000c0: c495 d3bf 458e 54bf b8e0 e4bf 0566 d6bf
000000d0: 004a c2bf ed92 23c0 9160 e43f 711d 01c0
000000e0: de94 28c0 92b4 16c0 2c8d d93f 3823 27c0
000000f0: 00b4 973f 9661 18c0 49ab 10c0 bcc7 0ac0
00000100: 5c29 20c0 1d37 0ec0 33a5 aebf 4135 1bc0
00000110: 98cd a5bf 6dd2 28c0 64a2 ab3c 838d bebf
00000120: 9d54 32c0 cce1 4dbf d32f 9bbf 78ab bfbf
00000130: cecd 02c0 8712 a7bf a9dc e5be ba4c d8bf
00000140: ed6c b3bf 2a64 113d f6c0 863b 7dd3 663e
00000150: b26e b63d f35f 14c0 f266 fb3e 7dcf 603f
00000160: 8420 15c0 4038 58be e076 83bf c92b 1ec0
00000170: 9d9a f0bf 1ce3 84be e57e 0dc0 5913 d3bf
00000180: f2c8 9e3f ac85 35c0 f3b3 dbbd 7a9f 9bbf
00000190: 0824 28bf 09d6 b13e ca05 453f 02df c4bf
000001a0: 3505 d13f 9b9d bfbf e85f 10c0 bcf5 0fbf
000001b0: 61d4 43bf e1c0 d0bf 6ff5 83bf 7be5 483e
000001c0: a2df 83bf 64eb 603d afb9 9dbf fcca 80be
000001d0: ce94 0dbd 9da9 a3bf c4df 72be a1ed a5bf
000001e0: 482d 89bf ec2d d5bf 39a7 73bf fd55 c5bf
000001f0: 5071 cabf a7d5 02bf d387 b3bf 37f3 87bf
00000200: d917 c4bf 1d2a e6bf 7ca2 e53d c956 abbf
00000210: a48c 21bf 0979 1dc0 9725 d1bf ddd9 363f
00000220: b804 31c0 a333 fd3f 617d af3f 3028 db3f
00000230: 74a3 4b3f 6ed0 b9bf f366 aabf c79a 1dbf
00000240: a2e3 05c0 28ea bcbf a8de 0ac0 eef9 15c0
00000250: 1c59 fb3e cca0 0fc0 8b73 bfbf c190 f7bf
00000260: ca91 f3bf a4cd bebf 721f afbf bc26 de3f
00000270: ba05 87bf 279f 02c0 7afa 8bbf e159 9ebf
00000280: 0a57 00c0 0922 cbbf e960 f1bf 377a 08c0
00000290: ade8 03c0 fba3 3ec0 7dc1 1440 f518 10c0
000002a0: 8beb 2fc0 f669 fcbf 84e3 f2bf c307 18c0
000002b0: ddf8 21c0 58b4 0bc0 718e e9bf ec42 f0bf
000002c0: e988 c53e ffec 18bf 04cd 573f 0c40 a4be
000002d0: e884 07be c03d ad3f d7dd 323f 5eeb 233f
000002e0: 0725 eebe a030 4fbe 95c1 dcbd aa0c 753e
000002f0: 427b df3e 4a9d acbf 330c e7be 2ea3 ee3d
00000300: 9bad bdbf d308 39bf 6619 4cbf 16de c7bf
00000310: 80e8 81be c9b8 a3bf 4bee 90bf 2c19 47bd
00000320: 2d64 81bf 1e61 4bbf 2c5d 66bf c6c9 d5bf
00000330: c303 6bbf 9bd5 7ebf 3c3a aabf 7aee 37be
00000340: beed 0dc0 935c 0ac0 89d7 febf 44ab dcbf
00000350: a952 f8bf 62e3 1bc0 96a2 0440 20b4 f9bf
00000360: 8c3d 26c0 c328 debf 523d d5bf 1d67 00c0
00000370: 9991 04c0 07ed f7bf 384c 91be 1d50 d8bf
00000380: 1bab e8bf 603b b6bf e344 13c0 7b34 dfbf
00000390: 7a5c dbbf 3ab2 0cc0 53ca 3e3f c81b fcbf
000003a0: 62b1 1fc0 2a86 2ec0 6dab 22c0 21fc e9bf
000003b0: bae1 eabe f1bd 0ec0 c83d 28c0 8055 0ec0
000003c0: e45f d93e e8a9 c03e 1965 c6be 7a97 45be
000003d0: 4b8f 1fbe 6ca0 a53f 6aff 1e3c e3d4 dbbe
000003e0: 0866 093f 8934 0c3e e11a 43bf ae89 0f3f
000003f0: adf3 7d3d 18c6 ad3e f7ad 273f d24c 713f
-2.0540688 -2.6126773 -2.1923606 -2.4081545 -2.484787 -2.5457237 -2.7436612 -2.3083327
-1.8280035 -0.8270391 -0.7932328 -1.2643533 -0.49975923 -0.49532756 -0.9239714 -1.9183475
-2.0871308 -2.3934011 -2.1621077 -2.3964734 -1.605174 -2.676422 -2.1069224 -1.9974178
-1.9093566 -2.0778563 -2.094509 -1.7581288 -0.92653507 -2.4826598 -2.0075648 -1.8592902
-2.4115746 -2.367625 -1.7020906 -1.8809869 -2.120711 -2.1976287 -2.3942657 -0.5757519
-0.89104813 -1.1026744 -0.6561081 -2.0528 -1.4017888 -2.215086 -2.4332793 -2.7323022
-1.653008 -0.83029586 -1.7881079 -1.6749884 -1.5178833 -2.5558426 1.784197 -2.017422
-2.6340861 -2.3547711 1.6996207 -2.6115246 1.1851807 -2.3809562 -2.2604544 -2.1684408
-2.5025244 -2.2221138 -1.3644165 -2.4251254 -1.2953367 -2.6378434 0.020951457 -1.4886936
-2.7864144 -0.80422664 -1.212397 -1.4974203 -2.0438113 -1.3052529 -0.44894913 -1.6898415
-1.4017617 0.035495915 0.004112358 0.22541614 0.08907832 -2.3183563 0.4910198 0.878166
-2.3301096 -0.21115208 -1.0270653 -2.4714224 -1.8797184 -0.2595452 -2.21087 -1.649028
1.2405074 -2.8362837 -0.10727682 -1.2158043 -0.6567998 0.34733608 0.7696196 -1.5380557
1.6329714 -1.4969972 -2.2558537 -0.56234336 -0.7649594 -1.6308862 -1.0309275 0.1961879
-1.0302622 0.054911986 -1.2322291 -0.25154865 -0.03456574 -1.2786137 -0.23718172 -1.2963144
-1.0716944 -1.6654639 -0.95177037 -1.5416867 -1.581583 -0.5110726 -1.4025825 -1.0621098
-1.5319778 -1.7981602 0.11212632 -1.338586 -0.63105226 -2.4605124 -1.6339597 0.71426183
-2.765913 1.9781383 1.3710138 1.7121639 0.79546285 -1.4516733 -1.3312668 -0.61564296
-2.0920186 -1.4758959 -2.1698399 -2.3433795 0.49091423 -2.2441893 -1.4957136 -1.934105
-1.9028866 -1.4906507 -1.3681471 1.7355571 -1.0548623 -2.040964 -1.0935814 -1.2371179
-2.0053124 -1.5869762 -1.88577 -2.1324594 -2.0610764 -2.9787586 2.3243096 -2.2515233
-2.7487514 -1.9719837 -1.8975682 -2.3754737 -2.5308144 -2.1828823 -1.8246595 -1.8770423
0.38581017 -0.5973663 0.84297204 -0.32080114 -0.13234293 1.353447 0.6986975 0.64031017
-0.46512625 -0.20233393 -0.1077911 0.23930612 0.43648726 -1.3485501 -0.45126495 0.11652218
-1.4818605 -0.7227909 -0.79726255 -1.561465 -0.25372696 -1.2790767 -1.1322721 -0.04860799
-1.0108696 -0.79445064 -0.8998592 -1.6702201 -0.91802615 -0.99544686 -1.3299022 -0.17962065
-2.2176356 -2.1619003 -1.9909526 -1.7239766 -1.9400226 -2.4357533 2.0724235 -1.9508095
-2.5975065 -1.735619 -1.6659338 -2.0062935 -2.0713866 -1.936921 -0.28378463 -1.6899449
-1.8177217 -1.423687 -2.3010795 -1.7437891 -1.7137597 -2.198378 0.7452747 -1.9695978
-2.4952016 -2.7269387 -2.541713 -1.8280069 -0.4587534 -2.230343 -2.6287708 -2.2239685
0.4245597 0.37629628 -0.38749006 -0.19296065 -0.15582006 1.2939582 0.00970445 -0.42935857
0.5367131 0.13691916 -0.7621289 0.5606946 0.061999965 0.33940196 0.65499824 0.94257843

ACT_EMBED.layers.4.weight f4 [4, 16]
00000000: d5f5 0840 f674 12c0 5a4a 0dc0 ce33 44c0
00000010: 26a7 09c0 160b a2bf 0c30 07c0 5da2 4c3e
00000020: 7903 28c0 391e ebbf a081 0ac0 c857 b7bf
00000030: a65f a1bd e909 32c0 5cff 22c0 ae07 18c0
00000040: ba42 e9bf 42c4 1b40 0a06 f7bf 6af3 f3bf
00000050: 5823 25c0 2109 00c0 ca0a df3c 89f4 9ebf
00000060: 45d1 fabf c2e3 fcbf ab46 0ec0 db65 5b3d
00000070: aa6d cfbf 4f01 73bf 895c f5bf 30b1 113d
00000080: cff9 dc3f ce64 0dc0 6868 1bc0 c3a6 22c0
00000090: 45c4 b1bd 4ec8 103f a1b7 96bd 402f fe3e
000000a0: 2d4a 25c0 7f33 10c0 c257 1dc0 88e6 54bd
000000b0: de8f 493f dd15 ebbf 7b9d debf b7c8 173e
000000c0: 85f1 97bf c9b0 26c0 b5f0 13c0 ee44 e3bf
000000d0: 39b9 0ec0 7b97 0dc0 c734 d3bf 7a77 6bbd
000000e0: e052 c4be 2ad4 15c0 97f8 0ac0 07bc 7fbd
000000f0: 992d 97bf 160c 03c0 8a06 e0bf 897d 31c0
2.1400044 -2.2883887 -2.207663 -3.065662 -2.150827 -1.2659633 -2.1123075 0.19983812
-2.625212 -1.8368598 -2.1641617 -1.4323664 -0.078795716 -2.7818549 -2.546836 -2.3754687
-1.8223488 2.4338536 -1.9298718 -1.9058659 -2.5802822 -2.0005572 0.027226824 -1.2418376
-1.9595114 -1.9757006 -2.2230632 0.053563934 -1.6205342 -0.9492387 -1.9168864 0.03556937
1.7263736 -2.2092776 -2.4282475 -2.5414283 -0.086800136 0.5655564 -0.07359243 0.49645424
-2.5826523 -2.253143 -2.4584813 -0.051977664 0.7873515 -1.8366047 -1.7391809 0.1482266
-1.1870581 -2.60454 -2.3115666 -1.7755411 -2.230055 -2.2123706 -1.6500481 -0.05748699
-0.3834448 -2.3410745 -2.1714227 -0.062435176 -1.181079 -2.0476127 -1.7501996 -2.773287

FK_LAYER.joints.0.p_offset f4 [3, 1]
00000000: ac7f 50b9 aed4 b1ba a23f 2b3c
-0.00019883987 -0.0013567412 0.010452183

FK_LAYER.joints.0.rpy_offset f4 [3]
00000000: 899b 2f3c 0611 013d 993f 50bb
0.010718235 0.031510375 -0.0031776188

FK_LAYER.joints.1.p_offset f4 [3, 1]
00000000: 7d16 49ba e5b4 7cbb fd35 0b3d
-0.00076708925 -0.003855997 0.033987034

FK_LAYER.joints.1.rpy_offset f4 [3]
00000000: 529f 96bc ab8f 103c 0b57 053d
-0.018386517 0.008823316 0.032553714

FK_LAYER.joints.1.axis f4 [3, 1]
00000000: a384 18c0 d9bb 06c0 6ec8 34c0
-2.3830955 -2.1052153 -2.8247333

FK_LAYER.joints.1.q_layer.0.weight f4 [1, 4]
00000000: 3e43 a7bf c967 ff3f 8980 0d40 f6ab 24c0
-1.3067396 1.9953548 2.2109702 -2.5729957

FK_LAYER.joints.2.p_offset f4 [3, 1]
00000000: ada2 453a 2ca8 caba 6356 c63b
0.0007539194 -0.0015461496 0.0060527786

FK_LAYER.joints.2.rpy_offset f4 [3]
00000000: 1c86 6dbc cae1 f63b 5066 c43b
-0.014497306 0.0075342404 0.005993642

FK_LAYER.joints.2.axis f4 [3, 1]
00000000: 6d57 a13e 93c8 913e d435 47be
0.31512013 0.28473338 -0.19454128

FK_LAYER.joints.2.q_layer.0.weight f4 [1, 4]
00000000: 9831 0340 07aa 283e 4173 1bbe 2544 55bf
2.049902 0.1647111 -0.15180685 -0.83307105

FK_LAYER.joints.3.p_offset f4 [3, 1]
00000000: f002 8d3a cf9c 52bb 6633 3f3c
0.0010758322 -0.0032136922 0.011669969

FK_LAYER.joints.3.rpy_offset f4 [3]
00000000: 888d 84bc d4d4 133b 3d1e a83b
-0.016180769 0.0022557275 0.005130558

FK_LAYER.joints.3.axis f4 [3, 1]
00000000: 63a0 3bc0 a91d 1340 0803 293f
-2.9316642 2.2986853 0.6602025

FK_LAYER.joints.3.q_layer.0.weight f4 [1, 4]
00000000: ff89 2840 7b7a 2140 d00d e4bf 3228 5fc0
2.6334226 2.5231006 -1.7816715 -3.4868283

FK_LAYER.joints.4.p_offset f4 [3, 1]
00000000: 9a9e 273a d942 f8ba 1f2e cb3b
0.0006394178 -0.0018940821 0.0062005664

FK_LAYER.joints.4.rpy_offset f4 [3]
00000000: a122 533c b1bc b63b 098f 62bb
0.012886674 0.005576693 -0.003457012

FK_LAYER.joints.4.axis f4 [3, 1]
00000000: 3dee 97bf e52d 1c40 8d11 4ebe
-1.186958 2.4403012 -0.20123883

FK_LAYER.joints.4.q_layer.0.weight f4 [1, 4]
00000000: f05d f83f 8038 d03f ec20 9abf 30f8 7a3f
1.9403667 1.6267242 -1.2041297 0.98034954

FK_LAYER.joints.5.p_offset f4 [3, 1]
00000000: f49d ab3a 7b02 e2bb 2bf3 a43c
0.0013093338 -0.0068972684 0.020135483

FK_LAYER.joints.5.rpy_offset f4 [3]
00000000: 5a11 a1bc 2918 3cbb a365 79ba
-0.019661594 -0.0028700924 -0.0009513741

FK_LAYER.joints.5.axis f4 [3, 1]
00000000: 62d3 3dbe f7ac cfbf 3cf3 1240
-0.18537667 -1.622466 2.2960958

FK_LAYER.joints.5.q_layer.0.weight f4 [1, 4]
00000000: b1fa e6bf 99c5 9fbc c28e edbc 8899 7b3f
-1.8045255 -0.019503402 -0.028998736 0.98281145

FK_LAYER.joints.6.p_offset f4 [3, 1]
00000000: b127 fb3a b664 f3bb 38a3 c13c
0.0019161609 -0.007427777 0.0236374

FK_LAYER.joints.6.rpy_offset f4 [3]
00000000: 16be 3bbc 6b87 92bc b256 043c
-0.011458894 -0.017886838 0.00807731

FK_LAYER.joints.6.axis f4 [3, 1]
00000000: 89a6 82bd 5f82 7bbd c749 f73c
-0.0637942 -0.06140363 0.030186547

FK_LAYER.joints.6.q_layer.0.weight f4 [1, 4]
00000000: fc8e a4bd 209a 20bf a20b 0ebf ddab edbd
-0.080350846 -0.62735176 -0.554865 -0.11605046
