results/PRIMNET/FINGER/weights/epoch_417.pth (torch, 12872 bytes, 33 tensors)

motor_std f4 [4]
000000 06 11 bf 43 31 b2 c0 43 60 60 bb 43 60 57 b9 43
       382.133 385.39212 374.75293 370.68262

motor_mean f4 [4]
000000 2f 7a 0b 44 5e de 0c 44 73 a7 0d 44 a7 3a 0a 44
       557.9091 563.4745 566.6164 552.91644

position_std f4 [3, 1]
000000 00 00 80 3f 00 00 80 3f 00 00 80 3f
       1.0 1.0 1.0

position_mean f4 [3, 1]
000000 00 00 00 00 00 00 00 00 00 00 00 00
       0.0 0.0 0.0

ACT_EMBED.layers.0.weight f4 [16, 4]
000000 6f 0a d5 bf e3 4e a8 3f db b7 bc 3e c3 cb 9d bf
       -1.6643809 1.3149074 0.3685902 -1.2327808
000010 15 18 c5 bf bb 2e c9 3f eb 08 80 3f 78 3f 05 bf
       -1.5397974 1.5717386 1.0002722 -0.5204997
000020 49 00 a9 bf b5 10 c2 bf e5 bc ec 3e bf 2d 4e 3f
       -1.3203212 -1.5161349 0.46237865 0.80538553
000030 51 68 b7 bf f5 c4 ab 3f eb 10 bd 3f f4 8a 67 bf
       -1.432871 1.3419482 1.4770788 -0.904464
000040 5c f5 69 bf a5 db a3 bf b9 49 bd be 4f 32 dc 3f
       -0.91390014 -1.2801405 -0.36970308 1.7202853
000050 03 b2 fd 3f 55 c9 d3 bf b2 3b 0b be 3b 14 b4 3d
       1.981995 -1.6545817 -0.1359699 0.08792921
000060 90 ea d4 bf 8e dd a0 bf 35 eb a0 3f f5 a9 dd 3f
       -1.6634083 -1.2567613 1.257178 1.7317492
000070 e6 d1 99 bf 30 a6 d4 be a7 de d3 3d 64 93 e4 3f
       -1.2017181 -0.4153304 0.10345202 1.785748
000080 e5 92 74 bf 74 97 e8 be c4 79 15 3f 3f 91 99 3f
       -0.95536643 -0.4542805 0.58388925 1.199745
000090 9d 39 e1 bf 29 2a bf 3d 33 4f 18 3f dd fb 06 be
       -1.7595707 0.09334213 0.5949585 -0.13182016
0000a0 5d 67 a9 bf cb f0 64 3e be 17 84 3f 38 55 93 bf
       -1.3234669 0.2235748 1.0319746 -1.1510382
0000b0 6f 41 fc bf 7f 33 d4 bf c2 b2 10 40 ca 14 e4 3f
       -1.9707469 -1.6578215 2.2609105 1.7818844
0000c0 0e 5a 9d bf ff 18 1c bf 08 d1 6a 3f 7b 33 a6 be
       -1.2293108 -0.6097564 0.91725206 -0.3246115
0000d0 cd 15 40 bf 7b eb e7 bf 5f d0 33 3d 90 2f a2 3f
       -0.75033265 -1.8118738 0.04389989 1.2670765
0000e0 28 a7 e9 bf 26 0b d7 be f2 5d 4a 3e 23 79 4e 3e
       -1.8254137 -0.42000693 0.197624 0.20163397
0000f0 74 76 91 bf 96 e7 74 bf 6f fd 59 be 4f 36 b1 3e
       -1.1364274 -0.9566587 -0.21288083 0.34611747

ACT_EMBED.layers.2.weight f4 [16, 16]
000000 ee 51 f6 bf 50 c3 20 c0 4e c9 c7 bf 6d 8a 06 c0
       -1.9243753 -2.511921 -1.5608308 -2.1021988
000010 82 47 0c c0 7a 04 09 c0 d3 67 23 c0 c5 1d c8 be
       -2.1918645 -2.1408982 -2.553212 -0.39085212
000020 9f 00 7d bf bc 35 07 3f ba 80 f9 3e 6c d4 b5 bf
       -0.9882907 0.5281637 0.48731023 -1.4205451
000030 a2 45 ef 3f ee 5b 98 3f 20 94 a9 bf 56 6c d8 bf
       1.8693125 1.1903055 -1.3248329 -1.6908062
000040 72 45 bc bf 13 24 b4 bf b2 65 81 bf c1 42 cc bf
       -1.4708693 -1.4073509 -1.010916 -1.5957872
000050 34 ae 44 bf 09 4b fe bf a1 f2 d9 bf f5 75 d1 bf
       -0.7682831 -1.9866649 -1.702717 -1.6364123
000060 85 40 ad bf d9 02 ca bf 7d 17 8e bf 8d 4b fa bd
       -1.3535315 -1.5782119 -1.1100918 -0.122214414
000070 e0 7c ad bf 8c a0 06 c0 7c 01 85 bf 7d dd 8f bf
       -1.3553734 -2.103549 -1.0391078 -1.1239468
000080 f4 74 e7 bf 2e b9 ad bd 31 4d b0 bf 75 64 b1 bf
       -1.8082566 -0.08482586 -1.3773557 -1.3858782
000090 e3 01 cf be df 9a 9e bf db 99 91 3e 2b 1d 00 c0
       -0.40431127 -1.2391013 0.28437695 -2.0017803
0000a0 be 7d a7 bf 82 d5 03 c0 ee 6c a6 bf 06 61 8a bf
       -1.3085248 -2.0599065 -1.3001993 -1.0810859
0000b0 85 97 e7 bf 28 f7 d2 bf 1f 45 ad bf 70 1f d9 bf
       -1.8093115 -1.6481676 -1.3536719 -1.6962719
0000c0 d6 59 25 3f 9f da 08 40 ef 90 9e 3e 25 4c db 3f
       0.64590204 2.1383436 0.3096995 1.7132612
0000d0 c6 ce 51 bf 6b 78 e5 bf 0a 88 ce 3f 33 ae cc bd
       -0.81956136 -1.7927374 1.6135266 -0.09994163
0000e0 dc 39 12 c0 28 d4 8c bf 3d cc a0 3f e4 60 b3 3d
       -2.2847815 -1.1002245 1.2562329 0.08758715
0000f0 c6 b1 16 3f 95 a9 d8 bf ca 58 bc bf f6 e7 c8 3e
       0.5886501 -1.6926752 -1.4714596 0.39239472
000100 b3 22 ac bf d5 39 b3 bf 5a 23 2a 3f de 84 ee bf
       -1.3448089 -1.4002024 0.6646019 -1.8634298
000110 cc 1a e2 3e e0 16 82 bf f8 f6 ac 3d 3c 64 b5 3f
       0.4416107 -1.0163231 0.08445543 1.4171214
000120 37 17 cb bf ba dc 82 3f 72 c1 30 bf 79 73 16 bf
       -1.586646 1.022361 -0.69045174 -0.5876995
000130 ec 96 be be 95 89 ae be 70 05 84 3f 17 26 85 bd
       -0.3722452 -0.34089342 1.0314159 -0.06501406
000140 6d 59 fc be ca 56 b9 be d4 7a 26 3f f3 1b 41 bf
       -0.49286976 -0.36199027 0.6503117 -0.7543327
000150 5b 2d ed 3d b7 60 7a bf 5d 3a e9 bc 8f 8d 87 3e
       0.115809165 -0.97803825 -0.028470213 0.26475188
000160 45 8d 9c bf 68 67 92 3f 0b b8 15 bf 0d f0 d5 be
       -1.2230612 1.1437807 -0.5848395 -0.41784707
000170 56 a5 4a bf 0e e1 97 be 8f 69 bf 3e c8 a8 5b bf
       -0.7915853 -0.2966389 0.37385222 -0.85804415
000180 60 27 b9 bf 85 8f 22 c0 b3 de a5 3f 24 09 b5 bf
       -1.4465141 -2.5400097 1.2958587 -1.4143414
000190 23 99 8b bf bf dc a8 3f 47 db be bf 43 59 9a 3e
       -1.0906109 1.3192366 -1.4910668 0.30146226
0001a0 a4 4b f2 3e f8 de b0 3e d5 f9 62 bf 54 aa 38 3f
       0.47323334 0.34545112 -0.88662463 0.721349
0001b0 c1 ba 8d be c5 17 1e be b4 a8 8f bf ea 7f ed 3e
       -0.27681544 -0.15438755 -1.1223359 0.46386653
0001c0 74 17 2f be 1e cd 11 3d 40 25 74 be a7 0e 11 be
       -0.1709879 0.035596006 -0.23842335 -0.14165746
0001d0 04 21 6f bc 3c 46 e6 be 22 1a 65 be 13 43 6c bd
       -0.014595274 -0.4497546 -0.2237325 -0.057681154
0001e0 12 5c 9f be 4c a3 19 be 37 7b 12 bf 6b 75 6b bf
       -0.31124932 -0.15003699 -0.5721926 -0.9197604
0001f0 4d ce 46 be 9c fd e2 be 6d d0 88 be 53 b7 04 bf
       -0.19414635 -0.44334114 -0.26721516 -0.5184223
000200 95 b9 2c bf 48 c7 fc bf cb 60 b4 3e 48 c0 76 be
       -0.67470676 -1.9748316 0.35230097 -0.24096787
000210 14 73 8f bf c7 16 ec bf ca 0e 84 bf 05 07 8d be
       -1.1206994 -1.8444451 -1.0317013 -0.27544418
000220 62 7d 24 c0 1b b5 0f 40 b8 6f 09 3f e2 7d 9f 3f
       -2.5701528 2.2454288 0.53686094 1.2460291
000230 50 4e cc 3f c5 b8 9c be 8b ba e2 3f 4b a1 46 bf
       1.5961399 -0.30609718 1.7713178 -0.77589864
000240 6f a8 f5 be f7 c1 b7 bf c4 10 cf bf f8 df 8c bf
       -0.47980067 -1.4356068 -1.6176991 -1.100585
000250 85 e6 03 bf f0 69 e5 bf bd 7f 94 bf e8 e0 84 bf
       -0.5152362 -1.7922955 -1.1601483 -1.0381136
000260 aa b9 73 bf 09 3a b4 bf 2f bf a8 be 28 73 d1 bd
       -0.95205176 -1.4080211 -0.32958362 -0.102270424
000270 b3 83 88 be 35 70 c0 bf 31 9b 6f bf e2 9f a3 3e
       -0.2666298 -1.5034243 -0.9359618 0.31957918
000280 bc db c0 bf fb 0f a8 bf 4f e5 75 3d 51 62 d9 bf
       -1.5067058 -1.3129877 0.06003314 -1.6983129
000290 89 4f 80 bf 27 5f fc bf 24 46 a3 3f b3 90 d9 be
       -1.0024272 -1.9716538 1.275578 -0.4249321
0002a0 40 28 0d c0 31 0e 38 bf c1 9c 16 bf 55 cf f9 bf
       -2.2055817 -0.71896654 -0.5883294 -1.9516398
0002b0 cb 15 e8 bf 44 b1 97 bf cf be d6 bf cf 97 b0 bf
       -1.8131651 -1.1850972 -1.677698 -1.3796328
0002c0 f6 c8 73 bf 03 94 9f bf 00 d3 75 bf 89 b9 57 be
       -0.9522852 -1.2467045 -0.96025085 -0.2106687
0002d0 dc ef 37 bf 40 79 ab bf 83 ce 06 c0 99 32 c4 bf
       -0.7185037 -1.3396378 -2.1063545 -1.5327941
0002e0 91 05 9d bf 42 8c f7 bf f4 dc bc bf 8d f0 e1 3f
       -1.2267324 -1.9339678 -1.475493 1.7651535
0002f0 48 c4 4d 3e f1 14 b3 bf 24 78 8a 3f d9 4c 91 bf
       0.20094407 -1.3990766 1.0817914 -1.1351577
000300 24 4a 9d bf b5 bb 55 bf c6 34 99 be 1c b6 49 bf
       -1.2288251 -0.83489543 -0.29923075 -0.787935
000310 2f b7 23 3e fa 70 e0 be 60 c5 e1 3b e0 a4 ad 3e
       0.15987848 -0.43836194 0.006889984 0.33914852
000320 7f b5 db 3e c7 9e 43 3f 9f eb 88 bf c5 5a 8b bf
       0.42911908 0.7641415 -1.0696906 -1.0887076
000330 f8 f3 3c bf b8 0b 8b bf 56 3a 4f 3f 29 12 f6 bd
       -0.73809767 -1.0862951 0.8094839 -0.120151825
000340 d1 6d ee bf 24 bf f5 3f 5c 98 45 bf 97 5d 92 bf
       -1.8627263 1.9198956 -0.77185607 -1.1434811
000350 52 fa 99 3f e2 f8 c0 bf 56 5e 11 40 df 2f fe bf
       1.2029517 -1.5075953 2.2713828 -1.9858359
000360 2b 27 f3 bf d9 e5 d2 bf 92 32 a1 bf 85 78 d9 bf
       -1.8996328 -1.6476394 -1.2593558 -1.6989905
000370 53 a8 0a c0 24 77 a4 bf e5 7a e9 bf 5f f4 95 bf
       -2.1665237 -1.2848859 -1.824063 -1.1715201
000380 b4 6a 83 bf 1e e5 f8 be 14 01 71 bf 29 10 a0 bf
       -1.0266938 -0.48612303 -0.9414227 -1.2504932
000390 c0 9e 0f bf f8 85 65 bf 86 60 7f 3d 72 21 a3 3f
       -0.5610161 -0.89657545 0.06234791 1.2744582
0003a0 03 14 d1 3f e9 83 1f c0 a7 91 93 bf 49 ca fe bf
       1.6334232 -2.4924262 -1.1528825 -1.9905483
0003b0 fb 3f 06 bf d3 46 bf bf aa 5a f7 bf 6a 1c bc bf
       -0.52441376 -1.4943489 -1.9324543 -1.4696171
0003c0 37 ef b1 bf 0c 05 d9 bf 41 d0 cb be 95 1d e6 bf
       -1.3901128 -1.6954665 -0.39807323 -1.7977778
0003d0 33 61 90 be ff 88 95 bf 88 70 44 bf d8 d0 4f 3f
       -0.28199157 -1.1682433 -0.7673421 0.81178045
0003e0 e7 27 e5 bf 24 ca 80 3f 35 e6 f0 bf 15 9b f5 be
       -1.7902802 1.0061688 -1.8820254 -0.4796988
0003f0 eb 7a 84 3d 98 e9 51 bf ef 38 7a 3f 23 aa ca be
       0.06468757 -0.8199706 0.97743124 -0.3958293

ACT_EMBED.layers.4.weight f4 [4, 16]
000000 4b 86 00 c0 38 c3 bd bf ba 06 c2 bf 39 be 18 c0
       -2.0081966 -1.4825201 -1.5158303 -2.3866103
000010 cc 24 e1 bf 13 9e 1d bf 68 10 0b c0 c6 a3 5d 3e
       -1.7589355 -0.6156933 -2.1728764 0.21644506
000020 d7 96 ec bf 0f 61 d0 bf ac 02 cb bf 76 51 dd bf
       -1.8483533 -1.627962 -1.586019 -1.7290485
000030 24 59 02 bf 4f 99 10 c0 37 cf f9 bf d7 9b 14 3f
       -0.5091727 -2.2593572 -1.9516362 0.5805029
000040 4e 01 b5 be 30 58 d2 be 59 33 fc bf 98 d9 0d c0
       -0.35352558 -0.41082907 -1.970317 -2.2164059
000050 bc 54 13 c0 ad 41 8e bf 1e b0 87 3c 79 d8 9f be
       -2.3020468 -1.1113793 0.016563471 -0.31219843
000060 c6 6f 2a c0 86 66 c0 bf 02 ef 0e c0 ef af 48 bf
       -2.663072 -1.5031288 -2.2333379 -0.78393453
000070 d5 35 90 bf 68 4b 62 3f e3 ef cd be 82 6b d3 bf
       -1.1266428 0.8839631 -0.40222082 -1.6517184
000080 f4 04 21 c0 9b a7 88 bd 4c e6 f6 bf a3 72 16 c0
       -2.5159273 -0.06672593 -1.9289031 -2.3507469
000090 04 7e d0 bf 3a 76 aa be 12 b8 b6 bf 92 5f cf be
       -1.6288457 -0.33293325 -1.4274924 -0.40502602
0000a0 63 19 19 c0 41 a3 68 bf 3c cc 20 c0 e4 87 e3 bf
       -2.3921745 -0.90874106 -2.5124655 -1.7775846
0000b0 e8 cf 13 bf 12 cd fb bf c2 4b d7 bf 68 b3 c9 3f
       -0.57739115 -1.9671957 -1.6819994 1.5757875
0000c0 ee 40 53 3f bc 7a 03 c0 bd a5 b9 bf 55 32 6e 3d
       0.8252095 -2.054366 -1.4503704 0.05815347
0000d0 37 9b f2 bd 49 61 92 bf 9a f3 9f bf 61 47 8d be
       -0.11846011 -1.1435939 -1.2496216 -0.2759352
0000e0 fc 7b b5 3d 9b 19 eb bf 8e 81 5f be a5 b7 07 c0
       0.08861539 -1.8367189 -0.21826765 -2.1205838
0000f0 7f 92 9e bf 0d ea 01 c0 2c 4c ee bf dc 19 0d c0
       -1.2388457 -2.0299103 -1.8616996 -2.2047033

FK_LAYER.joints.0.p_offset f4 [3, 1]
000000 16 10 50 bd dc 00 b1 be e6 f0 be 3f
       -0.05079659 -0.34570968 1.4917266

FK_LAYER.joints.0.rpy_offset f4 [3]
000000 89 9b 2f 3c 06 11 01 3d 99 3f 50 bb
       0.010718235 0.031510375 -0.0031776188

FK_LAYER.joints.1.p_offset f4 [3, 1]
000000 02 cf ba bc dd de d8 bd d6 c2 67 3f
       -0.022803787 -0.10589383 0.9053167

FK_LAYER.joints.1.rpy_offset f4 [3]
000000 52 9f 96 bc ab 8f 10 3c 0b 57 05 3d
       -0.018386517 0.008823316 0.032553714

FK_LAYER.joints.1.axis f4 [3, 1]
000000 c2 72 bf 3e 6d 3d 63 bf 23 13 85 3f
       0.3739224 -0.88765603 1.0396465

FK_LAYER.joints.1.q_layer.0.weight f4 [1, 4]
000000 7c 08 49 bf 9d bf c0 be 3c b6 6b bf cb f6 02 be
       -0.7852857 -0.3764619 -0.9207494 -0.12789457

FK_LAYER.joints.2.p_offset f4 [3, 1]
000000 ad e2 c8 bb 16 15 1f bc bf d7 8f 3d
       -0.0061305375 -0.009709617 0.07023572

FK_LAYER.joints.2.rpy_offset f4 [3]
000000 1c 86 6d bc ca e1 f6 3b 50 66 c4 3b
       -0.014497306 0.0075342404 0.005993642

FK_LAYER.joints.2.axis f4 [3, 1]
000000 b6 ec e5 3e c4 83 ad 3f 8c 5e 2b 3e
       0.4490716 1.3555837 0.16735286

FK_LAYER.joints.2.q_layer.0.weight f4 [1, 4]
000000 22 f3 d9 3f 55 bf bd 3f 42 81 b7 3f 17 c8 08 bf
       1.7027323 1.4824015 1.4336321 -0.5343031

FK_LAYER.joints.3.p_offset f4 [3, 1]
000000 39 28 3c bd 0d eb 67 bc 8c 4e d1 3d
       -0.045936797 -0.014155162 0.1022006

FK_LAYER.joints.3.rpy_offset f4 [3]
000000 88 8d 84 bc d4 d4 13 3b 3d 1e a8 3b
       -0.016180769 0.0022557275 0.005130558

FK_LAYER.joints.3.axis f4 [3, 1]
000000 69 2a 71 3e c9 f4 a1 bf e4 b7 ca 3f
       0.23551334 -1.2652828 1.5837369

FK_LAYER.joints.3.q_layer.0.weight f4 [1, 4]
000000 ef 88 3e 3f d1 80 ec 3c b5 74 7d 3e 71 12 85 3e
       0.74427694 0.028870018 0.24751551 0.25990632

FK_LAYER.joints.4.p_offset f4 [3, 1]
000000 f9 0c da 3d c1 22 60 3e 94 ba 3b bf
       0.106470056 0.21888258 -0.7333157

FK_LAYER.joints.4.rpy_offset f4 [3]
000000 a1 22 53 3c b1 bc b6 3b 09 8f 62 bb
       0.012886674 0.005576693 -0.003457012

FK_LAYER.joints.4.axis f4 [3, 1]
000000 cf 83 6c 3f d9 40 15 3d fa bc 40 3e
       0.92388624 0.036438797 0.18822089

FK_LAYER.joints.4.q_layer.0.weight f4 [1, 4]
000000 08 04 d3 3e 1a d5 46 bf 96 68 a2 be 05 e9 30 bc
       0.41214013 -0.7766892 -0.31720418 -0.010797744

FK_LAYER.joints.5.p_offset f4 [3, 1]
000000 fc bb 35 3d 52 2f 1d 3e 07 ff 57 bf
       0.04436873 0.15350083 -0.84373516

FK_LAYER.joints.5.rpy_offset f4 [3]
000000 5a 11 a1 bc 29 18 3c bb a3 65 79 ba
       -0.019661594 -0.0028700924 -0.0009513741

FK_LAYER.joints.5.axis f4 [3, 1]
000000 26 f6 9b bf 23 ae 1d c0 21 d7 32 bd
       -1.2184494 -2.4637535 -0.043662194

FK_LAYER.joints.5.q_layer.0.weight f4 [1, 4]
000000 41 fe 00 c0 2d ae e0 bf 8d 54 b2 3f 66 f3 48 be
       -2.0155184 -1.7553154 1.3932053 -0.19624099

FK_LAYER.joints.6.p_offset f4 [3, 1]
000000 db f8 9a 3d af ad 35 3e ef 64 5d bf
       0.07566997 0.17742036 -0.8648214

FK_LAYER.joints.6.rpy_offset f4 [3]
000000 16 be 3b bc 6b 87 92 bc b2 56 04 3c
       -0.011458894 -0.017886838 0.00807731

FK_LAYER.joints.6.axis f4 [3, 1]
000000 89 a6 82 bd 5f 82 7b bd c7 49 f7 3c
       -0.0637942 -0.06140363 0.030186547

FK_LAYER.joints.6.q_layer.0.weight f4 [1, 4]
000000 fc 8e a4 bd 20 9a 20 bf a2 0b 0e bf dd ab ed bd
       -0.080350846 -0.62735176 -0.554865 -0.11605046
