results/PRIMNET/FINGER/weights/epoch_3.pth (torch, 12610 bytes, 33 tensors)

motor_std f4 [4]
0	0x43bf1106	382.133
1	0x43c0b231	385.39212
2	0x43bb6060	374.75293
3	0x43b95760	370.68262

motor_mean f4 [4]
0	0x440b7a2f	557.9091
1	0x440cde5e	563.4745
2	0x440da773	566.6164
3	0x440a3aa7	552.91644

position_std f4 [3, 1]
0	0x3f800000	1.0
1	0x3f800000	1.0
2	0x3f800000	1.0

position_mean f4 [3, 1]
0	0x00000000	0.0
1	0x00000000	0.0
2	0x00000000	0.0

ACT_EMBED.layers.0.weight f4 [16, 4]
0	0xbe7dcabc	-0.24784368
1	0x3ed4f5bd	0.41593733
2	0x3e62aad5	0.2213548
3	0x3ee3a52f	0.44461963
4	0xbf03be5b	-0.51462334
5	0x3f6523f5	0.8950799
6	0xbe70f468	-0.23530734
7	0x3dde5cab	0.10857519
8	0xbee671da	-0.45008737
9	0xbe82f7f3	-0.25579795
10	0xbd131dbd	-0.035917033
11	0xbe8aded6	-0.27123135
12	0xbed507ad	-0.4160742
13	0x3ed1ad87	0.40952703
14	0xbe07e973	-0.13272648
15	0x3e8ba82d	0.27276745
16	0xbdf26916	-0.1183645
17	0x3ea5a717	0.32354042
18	0xbea1940b	-0.3155826
19	0xbdbc0025	-0.09179715
20	0x3eca4709	0.3950732
21	0xbe81027b	-0.25197205
22	0x3e5afe9c	0.21386188
23	0x3d078386	0.033084415
24	0x3c3ba383	0.011452558
25	0x3f197340	0.5994148
26	0xbef7c788	-0.48394418
27	0x3dbfef19	0.09371776
28	0xbe6f70fd	-0.23382945
29	0xbe51bb24	-0.20481545
30	0x3dec0378	0.11524099
31	0x3de3f7b3	0.11131229
32	0x3f239a73	0.63907546
33	0xbf07ba21	-0.53018385
34	0x3e45887b	0.19290344
35	0x3d2c7bd1	0.042110268
36	0xbf4f4930	-0.8097105
37	0xbf088f8f	-0.53344053
38	0x3d555d57	0.05209097
39	0xbd0e4225	-0.03473105
40	0x3e3a8f96	0.18218836
41	0xbda1be9a	-0.078976825
42	0x3e4afc02	0.19822696
43	0x3d2cf0f9	0.042221997
44	0x3c0cb9da	0.008589232
45	0xbe1a2c24	-0.15055901
46	0x3e7319ce	0.23740312
47	0xbe274787	-0.1633588
48	0xbe3854df	-0.18001126
49	0xbf297093	-0.661874
50	0xbd099793	-0.033591818
51	0x3da98231	0.08276785
52	0x3ebfe118	0.3747642
53	0x3e3b6a3f	0.18302248
54	0xbeb2bd86	-0.3491022
55	0xbdf361ea	-0.1188391
56	0xbe847f7d	-0.25878516
57	0xbd2e456a	-0.042546667
58	0x3ef5a1f8	0.47975135
59	0xbb3f94e4	-0.0029233033
60	0xbcd9c8d2	-0.026585016
61	0x3ed6aea4	0.41930115
62	0x3ecc8b1d	0.39949885
63	0x3eb02b1e	0.34407896

ACT_EMBED.layers.2.weight f4 [16, 16]
0	0x3d2fa6e2	0.04288376
1	0x3daf3fd0	0.08557093
2	0x3e73cccc	0.23808593
3	0x3e0b35f1	0.13594796
4	0x3d0ad3c9	0.03389338
5	0xbe8f2cbf	-0.27963826
6	0xbd308bf2	-0.043102212
7	0x3dcaf0ed	0.09909234
8	0x3ef1654c	0.47147596
9	0x3f73b5cc	0.95199275
10	0x3e906217	0.28199837
11	0xbe8c1a78	-0.27363944
12	0xbdb6e8cb	-0.089311205
13	0x3e27e9bd	0.16397758
14	0x3edbede8	0.42954946
15	0xbe45bb26	-0.19309673
16	0xbe8ba177	-0.27271625
17	0xbd5d17e8	-0.053977877
18	0xbca368b8	-0.019947395
19	0xbf258770	-0.64659786
20	0x3e861550	0.26188135
21	0xbe1c328f	-0.15253662
22	0x3e9bded1	0.30443433
23	0xbe7e37bc	-0.24825948
24	0x3efebea4	0.49754822
25	0xbeb0cbda	-0.34530526
26	0x3e3fb2fe	0.18720624
27	0x3e623262	0.22089532
28	0xbe0af342	-0.13569358
29	0x3c560005	0.013061528
30	0x3edfd325	0.43715778
31	0x3ebbbadb	0.36665997
32	0xbd6b3904	-0.05742742
33	0x3e106a5d	0.14103074
34	0xbe88c86b	-0.26715407
35	0x3ec6e7f1	0.38848832
36	0xbe140198	-0.14453733
37	0xbe2a07bb	-0.16604511
38	0x3d9da579	0.07697577
39	0xbda01caf	-0.07817971
40	0xbe8e5535	-0.27799383
41	0x3e1742bf	0.14771555
42	0x3e1f3d21	0.15550663
43	0x3eb25296	0.34828633
44	0x3e97be86	0.29637545
45	0xbe6d0491	-0.23146273
46	0x3df34387	0.11878114
47	0xbee3895d	-0.44440737
48	0x3f11f553	0.5701496
49	0x3edd112c	0.43177164
50	0xbd607943	-0.054803144
51	0x3e5f01ef	0.21778081
52	0x3ee5b1d6	0.4486224
53	0xbc58047e	-0.013184665
54	0xbabb82a1	-0.0014305898
55	0xbd8ac104	-0.06775096
56	0xbd65ceb8	-0.056105345
57	0xbc9b7ac5	-0.01897944
58	0x3cf14fe2	0.029457036
59	0xbea0c9e4	-0.3140403
60	0xbd80f476	-0.06296627
61	0xbd4d1423	-0.050068032
62	0x3e88c815	0.2671515
63	0xbd0a3068	-0.03373757
64	0xbe7abc66	-0.24485931
65	0x3dc664b9	0.0968718
66	0x3f058169	0.5215059
67	0xbe4644ea	-0.19362226
68	0x3f6cb35f	0.924612
69	0xbe35ff18	-0.17773092
70	0xbc269f9e	-0.010169892
71	0x3ef02f51	0.469111
72	0xbe18e956	-0.1493276
73	0xbbc965e7	-0.006146181
74	0x3e9e6ce8	0.30942464
75	0x3eaace07	0.3336031
76	0xbc0198fe	-0.007910011
77	0x3eac6f0e	0.33678478
78	0x3b4a7008	0.003088953
79	0x3ed12687	0.40849707
80	0x3cdd9f00	0.027053356
81	0xbec421ff	-0.38307187
82	0xbde392b5	-0.111119665
83	0x3e2b0a0f	0.16703056
84	0x3dee25f3	0.11628332
85	0xbe037f19	-0.12841453
86	0x3dbfa707	0.0935803
87	0xbbee2ec3	-0.007268758
88	0xbee2c7d2	-0.44293076
89	0x3e3dfa8a	0.18552604
90	0xbea53084	-0.32263577
91	0xbdd7dbe6	-0.10539989
92	0xbc7eca9a	-0.015551234
93	0xbe674d1d	-0.2258801
94	0x3e89d88e	0.2692303
95	0xbf53017a	-0.8242413
96	0xbe60977d	-0.21932788
97	0xbe72b80d	-0.23703022
98	0xbe2674bb	-0.16255467
99	0xbf00cef0	-0.5031576
100	0xbdf23826	-0.11827116
101	0x3ed1e35c	0.40993774
102	0x3e89d400	0.26919556
103	0xbed1bb30	-0.40963125
104	0x3de80602	0.11329271
105	0x3e127498	0.1430229
106	0x3dc8219f	0.09772038
107	0xbd7a3d2f	-0.061093505
108	0xbe24b592	-0.16084889
109	0x3ef7ebf1	0.48422197
110	0xbe571c71	-0.21006943
111	0x3d601507	0.054707553
112	0x3d311a87	0.04323819
113	0x3cc2a01c	0.023757987
114	0xbebbe131	-0.36695245
115	0xbe395cfd	-0.18101878
116	0xbd28683a	-0.041115023
117	0xbe930f55	-0.28722635
118	0xbe83ab88	-0.25716805
119	0x3dc92582	0.09821607
120	0xbdb9cc65	-0.09072188
121	0x3dca6928	0.09883338
122	0xbf04e385	-0.5190967
123	0xbf24baa1	-0.64347273
124	0xbc81c52e	-0.015841093
125	0xbedb30c6	-0.4281065
126	0x3e806ff6	0.2508542
127	0xbee2bf8d	-0.44286767
128	0xbd4a7600	-0.04942894
129	0xbde8f414	-0.11374679
130	0xbd7f71c2	-0.062364347
131	0x3e934e10	0.28770494
132	0x3d98620b	0.07440575
133	0x3d2fa17a	0.042878605
134	0x3ef5bf19	0.47997358
135	0xbdb366ce	-0.08759843
136	0xbe7409c5	-0.23831852
137	0x3e87eb08	0.26546502
138	0xbe9acdd9	-0.30235174
139	0x3ec6a0d3	0.38794574
140	0x3e80cfe7	0.25158617
141	0x3e859d1f	0.26096436
142	0x3c4b2692	0.012399333
143	0x3e902f87	0.2816126
144	0xbe7c52e7	-0.24641
145	0x3da0f80c	0.07859811
146	0xbedaa435	-0.42703405
147	0xbf2a3302	-0.6648408
148	0x3bc33a55	0.0059578815
149	0x3c6ccaa7	0.014452613
150	0xbdd9142c	-0.105995506
151	0xbdb3e26a	-0.087834194
152	0x3ea6a671	0.3254886
153	0x3dbf2148	0.0933252
154	0x3f5e4e72	0.8683845
155	0xbe9dc671	-0.3081546
156	0x3e5b13c0	0.21394253
157	0x3c0c00cb	0.008545111
158	0x3e35acb0	0.17741656
159	0x3e8639ca	0.26215965
160	0x3ec0d91f	0.3766565
161	0x3eb2592c	0.34833658
162	0xbdbbaa09	-0.09163291
163	0xbe3a3c6c	-0.18187112
164	0xbd892853	-0.06697144
165	0xbf2f5ac1	-0.68497854
166	0x3e17a15c	0.14807647
167	0xbddab45c	-0.10678932
168	0xbe0f309b	-0.13983385
169	0x3ede55b1	0.43424752
170	0xbdede672	-0.116162196
171	0xbcdbc75a	-0.026828457
172	0x3c6ffbd5	0.014647444
173	0x3ed443cf	0.41457984
174	0xbe0d6ec4	-0.13811785
175	0x3d86c7a8	0.0658105
176	0x3d331694	0.043722704
177	0xbd235f04	-0.039885536
178	0x3e774826	0.24148616
179	0x3d883e9c	0.06652567
180	0xbdad3734	-0.08457795
181	0x3edd8b84	0.43270504
182	0xbe89291f	-0.26789185
183	0x3e89870f	0.26860854
184	0x3dc945ed	0.098277904
185	0xbddd219d	-0.10797427
186	0xbd6d8e97	-0.057997312
187	0xbe939453	-0.288241
188	0x3e7bc504	0.24586874
189	0x3f2f86e3	0.68565196
190	0x3e156942	0.14590934
191	0xbe0c54c0	-0.13704205
192	0xbe7a0345	-0.2441531
193	0x3a789f60	0.0009484198
194	0xbea48973	-0.32136115
195	0xbe928216	-0.28614873
196	0x3e3f78de	0.18698451
197	0x3d872533	0.06598892
198	0xbd8f30e1	-0.06991745
199	0x3e951e21	0.2912455
200	0x3ccc8102	0.02496386
201	0x3cf35da5	0.02970774
202	0xbe79f27c	-0.24408907
203	0xbf2f0977	-0.6837382
204	0xbe3226f3	-0.1739767
205	0xbd90a09d	-0.070618846
206	0x3cd9657d	0.026537651
207	0x3dd5465e	0.10413812
208	0x3dad06ef	0.08448588
209	0xbe20e609	-0.15712751
210	0x3e96d69a	0.29460603
211	0x3ee8d551	0.45475248
212	0x3d835232	0.06412162
213	0xbdffb5da	-0.12485857
214	0x3e1f449b	0.15553515
215	0x3be2c0aa	0.00691994
216	0xbd3b8cb1	-0.04578847
217	0x3f2d4689	0.67685753
218	0x3eb477c6	0.3524763
219	0xbe16d1b9	-0.1472844
220	0x3dbdad32	0.0926155
221	0x3f1802be	0.59379184
222	0xbf25a265	-0.6470092
223	0x3f1ceaf8	0.61296034
224	0xbd9f8a38	-0.07790035
225	0xbe9223d6	-0.28542966
226	0x3e1e03f7	0.154312
227	0xbe360af4	-0.17777616
228	0xbdac18e8	-0.08403188
229	0x3e466dad	0.19377775
230	0xbe9b46e2	-0.30327517
231	0x3ef69a77	0.48164722
232	0xbe1fb73a	-0.15597239
233	0xbe700e6b	-0.23443
234	0xbe140814	-0.14456207
235	0xbda1f09d	-0.079072215
236	0x3ef8ca0d	0.48591653
237	0x3cac1f74	0.021011092
238	0xbeb3e6e6	-0.351371
239	0xbc808db2	-0.015692566
240	0xbdd2af47	-0.10287338
241	0xbdf108e0	-0.11769271
242	0xbe4e0ad0	-0.20121312
243	0xbe3df75d	-0.18551393
244	0xbc426bb7	-0.0118665015
245	0x3ea4dd22	0.3219996
246	0x3ebb05f0	0.36527967
247	0xbd6391ac	-0.055558845
248	0xbe4a8a7c	-0.1977939
249	0xbadb178b	-0.001671539
250	0xbf098112	-0.5371257
251	0x3e82602a	0.25463992
252	0x3dece567	0.115671925
253	0x3d60e800	0.054908752
254	0x3ed3123b	0.41224846
255	0xbea7b436	-0.32754678

ACT_EMBED.layers.4.weight f4 [4, 16]
0	0x3d9af305	0.075658835
1	0x3e86a501	0.26297763
2	0x3e93285d	0.28741732
3	0xbf20ad42	-0.6276437
4	0xbe85ae08	-0.26109338
5	0xbed5dd31	-0.41770318
6	0x3dca83ab	0.09888395
7	0x3e61625b	0.22010176
8	0xbcee7c8c	-0.029112123
9	0x3e16424f	0.14673732
10	0xbdf8541b	-0.12125417
11	0x3f18d0d0	0.5969362
12	0xbd1d2a32	-0.03837032
13	0xbed7ef6e	-0.42174858
14	0xbe635b00	-0.22202682
15	0xbe25cdc7	-0.16191779
16	0x3dcf0f99	0.10110397
17	0x38b04cc0	8.40663e-05
18	0xbeaff4f1	-0.34366563
19	0x3daae53c	0.08344504
20	0xbe8a5375	-0.27016798
21	0xbefa96be	-0.48943132
22	0x3f048dac	0.51778674
23	0x3d8e2776	0.0694112
24	0xbf332eba	-0.69993174
25	0x3de801fe	0.11328505
26	0x3da8003d	0.082031704
27	0xbe2a2f58	-0.16619623
28	0x3dfda45d	0.123848654
29	0xbe6513b2	-0.22370794
30	0x3f10c79a	0.5655457
31	0xbdd94772	-0.1060933
32	0xbdfc5967	-0.1232174
33	0x3e31108f	0.17291473
34	0x3dd41940	0.103563786
35	0xbdd3a37e	-0.10333918
36	0xbdab8799	-0.083754726
37	0xbe2e9c02	-0.170517
38	0x3efb3cd7	0.49069855
39	0xbe86cfe4	-0.26330483
40	0xbee077e9	-0.43841484
41	0x3cdf11d9	0.02723019
42	0xbeecbe5b	-0.4623898
43	0x3e90e50e	0.28299755
44	0x3d876900	0.06611824
45	0x3ea99c6e	0.3312716
46	0x3efc8d5b	0.49326596
47	0x3d256003	0.040374767
48	0xbef5c3e8	-0.48001027
49	0x3daebd08	0.085321486
50	0x3e898d19	0.2686546
51	0x3ec4169b	0.38298497
52	0xbe127487	-0.14302264
53	0x3e871e96	0.26390523
54	0xbe2b4d0a	-0.16728607
55	0x3e243525	0.16035898
56	0xbe81ad04	-0.25327313
57	0xbf3bde8e	-0.73386467
58	0x3e23e7f2	0.16006449
59	0xbe64446c	-0.22291726
60	0xbe6d25aa	-0.23158899
61	0x3f0eb202	0.5574037
62	0x3de37fa6	0.111083314
63	0xbe4ed631	-0.20198895

FK_LAYER.joints.0.p_offset f4 [3, 1]
0	0xbc83444a	-0.016023774
1	0x3c2f2baa	0.010691563
2	0x3d421a5f	0.04738843

FK_LAYER.joints.0.rpy_offset f4 [3]
0	0x3c2f9b89	0.010718235
1	0x3d011106	0.031510375
2	0xbb503f99	-0.0031776188

FK_LAYER.joints.1.p_offset f4 [3, 1]
0	0xbc97867d	-0.018496746
1	0x3c29cfea	0.010364512
2	0x3d3c98b0	0.04604405

FK_LAYER.joints.1.rpy_offset f4 [3]
0	0xbc969f52	-0.018386517
1	0x3c108fab	0.008823316
2	0x3d05570b	0.032553714

FK_LAYER.joints.1.axis f4 [3, 1]
0	0xbd648b18	-0.055796713
1	0xbe63833b	-0.22218029
2	0xbe0957e1	-0.1341243

FK_LAYER.joints.1.q_layer.0.weight f4 [1, 4]
0	0x3e36f597	0.17867123
1	0x3fe2bb31	1.7713376
2	0x3e1d0613	0.15334348
3	0xbd0bd8f3	-0.034142446

FK_LAYER.joints.2.p_offset f4 [3, 1]
0	0xbc232890	-0.009958401
1	0x3bb1c787	0.005425397
2	0x3cabc6a7	0.020968748

FK_LAYER.joints.2.rpy_offset f4 [3]
0	0xbc6d861c	-0.014497306
1	0x3bf6e1ca	0.0075342404
2	0x3bc46650	0.005993642

FK_LAYER.joints.2.axis f4 [3, 1]
0	0xbca0e408	-0.019639984
1	0xbe5fbc90	-0.21849275
2	0x3d839ea5	0.064267434

FK_LAYER.joints.2.q_layer.0.weight f4 [1, 4]
0	0xbf2feaa0	-0.68717384
1	0x3edbe5f8	0.4294889
2	0xbf6d5e0c	-0.9272163
3	0x3d75c697	0.060003843

FK_LAYER.joints.3.p_offset f4 [3, 1]
0	0xbcaddf8c	-0.02122476
1	0x3c412e98	0.011790894
2	0x3d49cd94	0.04926832

FK_LAYER.joints.3.rpy_offset f4 [3]
0	0xbc848d88	-0.016180769
1	0x3b13d4d4	0.0022557275
2	0x3ba81e3d	0.005130558

FK_LAYER.joints.3.axis f4 [3, 1]
0	0xbe077384	-0.1322766
1	0x3e35bbbd	0.17747398
2	0x3e0a669c	0.13515705

FK_LAYER.joints.3.q_layer.0.weight f4 [1, 4]
0	0x3ec96f0c	0.39342535
1	0x3f5adfd3	0.8549778
2	0xbeb925ae	-0.3616156
3	0xbf459611	-0.7718211

FK_LAYER.joints.4.p_offset f4 [3, 1]
0	0xbcb04aaf	-0.021519987
1	0x3c476967	0.012171126
2	0x3d4c6611	0.049902026

FK_LAYER.joints.4.rpy_offset f4 [3]
0	0x3c5322a1	0.012886674
1	0x3bb6bcb1	0.005576693
2	0xbb628f09	-0.003457012

FK_LAYER.joints.4.axis f4 [3, 1]
0	0x3dbb1c42	0.09136249
1	0x3ccbf26c	0.02489587
2	0x3d9cf411	0.076637395

FK_LAYER.joints.4.q_layer.0.weight f4 [1, 4]
0	0x3ef5d74f	0.4801583
1	0x3e2cd78e	0.16879103
2	0xbf0f1757	-0.5589499
3	0x3e2e2261	0.17005302

FK_LAYER.joints.5.p_offset f4 [3, 1]
0	0xbb806b01	-0.003919006
1	0x3ad94f42	0.0016579407
2	0x3c447d52	0.011992769

FK_LAYER.joints.5.rpy_offset f4 [3]
0	0xbca1115a	-0.019661594
1	0xbb3c1829	-0.0028700924
2	0xba7965a3	-0.0009513741

FK_LAYER.joints.5.axis f4 [3, 1]
0	0xbd1a866a	-0.037725843
1	0xbdc7808e	-0.09741317
2	0xbcc26268	-0.023728564

FK_LAYER.joints.5.q_layer.0.weight f4 [1, 4]
0	0xbd115aca	-0.035486974
1	0xbf1b1064	-0.60571885
2	0xbeb1e7d2	-0.34747177
3	0x3fb632db	1.423427

FK_LAYER.joints.6.p_offset f4 [3, 1]
0	0xbcb1df3f	-0.021712897
1	0x3c43b592	0.011945145
2	0x3d4c2ca2	0.049847253

FK_LAYER.joints.6.rpy_offset f4 [3]
0	0xbc3bbe16	-0.011458894
1	0xbc92876b	-0.017886838
2	0x3c0456b2	0.00807731

FK_LAYER.joints.6.axis f4 [3, 1]
0	0xbd82a689	-0.0637942
1	0xbd7b825f	-0.06140363
2	0x3cf749c7	0.030186547

FK_LAYER.joints.6.q_layer.0.weight f4 [1, 4]
0	0xbda48efc	-0.080350846
1	0xbf209a20	-0.62735176
2	0xbf0e0ba2	-0.554865
3	0xbdedabdd	-0.11605046
