results/PRIMNET/FINGER/weights/epoch_122.pth (torch, 12610 bytes, 33 tensors)

motor_std f4 [4]
382.133 385.39212 374.75293 370.68262
00000000: 0611 bf43 31b2 c043 6060 bb43 6057 b943

motor_mean f4 [4]
557.9091 563.4745 566.6164 552.91644
00000000: 2f7a 0b44 5ede 0c44 73a7 0d44 a73a 0a44

position_std f4 [3, 1]
1.0 1.0 1.0
00000000: 0000 803f 0000 803f 0000 803f

position_mean f4 [3, 1]
0.0 0.0 0.0
00000000: 0000 0000 0000 0000 0000 0000

ACT_EMBED.layers.0.weight f4 [16, 4]
0.12967359 0.2309198 -0.84275347 0.38992736 0.03551893 -0.013500069 0.41633785 0.20344418
-0.404291 -0.2642217 -0.13599339 -0.2579641 -0.28704613 0.42767468 -0.28140748 1.1514244
0.32252067 -1.3136948 1.3008914 -0.2819745 1.1309737 -0.8312141 -1.7711004 -0.0412792
1.0857636 -0.08307297 0.06380087 0.07670097 0.7912491 0.84045213 1.3213929 0.14324194
-0.6144242 -0.44145215 0.26519045 -1.4411002 -0.3775583 1.4242043 -0.7273005 0.39542887
-1.1013851 0.5433568 0.09896711 0.6310627 -1.2193242 0.28499708 0.13601936 0.29531556
-0.3907827 -0.8228403 -0.85064644 0.7191337 0.8644316 1.0933444 0.87981045 1.2349879
-1.0208058 1.1423858 0.85295635 -0.45102182 0.45946246 -1.168671 -0.3523256 0.24200729
00000000: 27c9 043e 3d76 6c3e b1be 57bf 8fa4 c73e
00000010: 4c7c 113d 652f 5dbc 3c2a d53e ac53 503e
00000020: 3bff cebe 1148 87be da41 0bbe df13 84be
00000030: b6f7 92be 2df8 da3e a414 90be e061 933f
00000040: 6e21 a53e 2727 a8bf 9c83 a63f f65e 90be
00000050: bfc3 903f 72ca 54bf 6bb3 e2bf 6114 29bd
00000060: 4dfa 8a3f 2922 aabd 08aa 823d 6615 9d3d
00000070: 4d8f 4a3f df27 573f 6723 a93f 04ae 123e
00000080: e84a 1dbf 0406 e2be 0bc7 873e f975 b8bf
00000090: 524f c1be 544c b63f 5e30 3abf a775 ca3e
000000a0: 30fa 8cbf 6e19 0b3f 45af ca3d 538d 213f
000000b0: d112 9cbf 23eb 913e a948 0b3e 9a33 973e
000000c0: ac14 c8be a9a5 52bf f7c3 59bf 2519 383f
000000d0: 644b 5d3f b6f2 8b3f 423b 613f 1514 9e3f
000000e0: c4a9 82bf b339 923f 595b 5a3f 55ec e6be
000000f0: aa3e eb3e 0397 95bf 0564 b4be c2d0 773e

ACT_EMBED.layers.2.weight f4 [16, 16]
-2.066227 -2.338948 -1.9829843 -2.286705 -2.3840427 -2.1543531 -2.4606676 -2.0828848
-1.4543716 -1.2157928 -1.870199 0.9355289 -1.5536715 -2.0225945 1.2427526 -2.4205594
-2.5217624 -2.4325314 1.6789188 -2.9522288 -2.0671842 -2.3207827 -2.0880225 1.5531944
-1.3196906 -2.2317827 -1.9862683 -2.0706732 -2.1172554 -2.218844 -1.9522341 -0.57791984
-2.331986 -2.22904 0.7763747 -1.9044937 -2.4520094 -2.5660021 -2.3158388 0.93935776
-1.062845 2.5333254 -0.26255503 -2.0356302 -1.871119 -2.5443316 -2.271451 -2.6899695
-1.4603763 -0.97138035 -0.16241466 -1.3064296 -1.3496466 -2.4187627 2.2913346 -2.3510427
-2.4656084 -2.2456036 -2.3115685 -2.714714 -2.4094417 -1.9543947 -2.1349356 -2.1563983
-2.24672 -1.4222845 -1.0232837 -2.0399399 -0.5834409 -2.5914237 -1.3998121 -1.2639973
-2.514157 -1.7775011 -1.4527416 0.8239394 -2.4643779 -2.1022375 -0.6540234 -1.4712002
-2.3120668 -1.8103478 -1.847986 -1.362719 -0.8002502 -2.5134435 -1.4331367 1.1626753
-2.7913811 -1.0500205 -2.4259508 -2.5014381 -2.393901 -1.9234947 -2.1295726 -2.9898486
-0.9726618 -2.6393325 -1.4284662 -1.552408 -2.5091295 -0.46029434 -1.5988957 -1.924392
-0.72653836 -1.9972575 -1.7834918 0.734177 -0.7955677 1.1065108 -2.4858017 -1.3405732
-2.1437147 -0.88672376 -2.5710063 -1.8470504 -0.37212598 -2.3765798 -0.38232785 -2.2023647
-2.1927605 -2.259304 -2.1643846 -2.736578 -2.3373725 -0.90796816 -2.0543232 -2.376711
-1.4458463 -0.26873913 -0.56060004 -1.9533546 -1.9295381 -2.3240762 -1.8172741 -0.098989174
-1.6211234 1.0219818 -0.9029939 1.3254625 -2.1810446 -1.1221381 1.7803384 -0.027188772
-2.659651 0.40967235 0.4506564 -2.4562361 -0.23849787 -1.3724356 -0.7673902 0.20138773
0.3738091 -2.0338836 -0.8556209 -0.09322649 -1.1992853 0.43616527 0.5116527 -0.4286717
-1.6106629 -1.3416553 -2.1174867 -1.8905497 -1.8523442 -3.0906017 2.531389 -2.509988
-2.5441942 -1.9833479 -2.4069636 -2.4317875 -2.393585 -2.0049078 -2.488607 -1.9044641
0.3989303 0.3304269 0.9436613 -0.5208613 1.1727082 0.6140204 0.6362936 1.34671
1.3217111 -0.40499476 0.21623552 -0.19628547 -0.058609653 0.19038233 0.17549253 0.34265253
-1.731678 -0.2583623 -0.9539519 -1.1989229 -0.05893297 -1.1432962 -0.059767615 -1.4555938
-1.6688182 -1.7738268 -1.2620864 -0.736336 -1.9562218 -0.49670404 -0.8395483 -1.3062046
-1.8451859 -1.9366518 -1.8354756 -0.39061183 -1.769023 -1.6295749 0.61797595 -2.1117547
-2.471815 -1.4443399 -1.1328061 -2.5479424 -0.29062513 -1.5260556 -2.8632393 -1.5668492
-0.3699374 -0.42559412 0.15875648 0.94475305 0.6349687 0.62399805 1.03731 -0.3346503
-0.19983539 -0.29492763 0.19706862 -0.73722404 0.6597514 0.4593501 -0.40125245 0.46005067
-2.1343331 -2.404873 -2.125271 -2.5259626 -2.2068095 -1.6047102 -1.9061903 -2.1350358
-2.570999 -2.1167586 -2.5797484 -0.7684682 -2.1798143 -2.279367 2.4589267 -2.2692227
00000000: 103d 04c0 53b1 15c0 6ed2 fdbf 6059 12c0
00000010: 2894 18c0 ece0 09c0 947b 1dc0 fc4d 05c0
00000020: d928 babf 199f 9bbf ae62 efbf d27e 6f3f
00000030: b5de c6bf 3072 01c0 8412 9f3f 72ea 1ac0
00000040: 8e64 21c0 98ae 1bc0 d0e6 d63f 51f1 3cc0
00000050: bf4c 04c0 b487 14c0 29a2 05c0 13cf c63f
00000060: 9feb a8bf 87d5 0ec0 0a3e febf e985 04c0
00000070: 1d81 07c0 8a01 0ec0 cfe2 f9bf 8ef2 13bf
00000080: 423f 15c0 97a8 0ec0 7ec0 463f 73c6 f3bf
00000090: b9ed 1cc0 6139 24c0 b436 14c0 c079 703f
000000a0: 4e0b 88bf 0122 2240 9d6d 86be c447 02c0
000000b0: d480 efbf 54d6 22c0 745f 11c0 7628 2cc0
000000c0: 9ced babf 62ac 78bf 0750 26be 1639 a7bf
000000d0: 38c1 acbf 02cd 1ac0 3aa5 1240 7c77 16c0
000000e0: 87cc 1dc0 f8b7 0fc0 bdf0 13c0 e0bd 2dc0
000000f0: 4b34 1ac0 9b29 fabf c9a2 08c0 6e02 0ac0
00000100: 43ca 0fc0 6b0d b6bf f6fa 82bf 608e 02c0
00000110: 625c 15bf e3d9 25c0 0b2d b3bf aaca a1bf
00000120: f3e7 20c0 2885 e3bf 70f3 b9bf b1ed 523f
00000130: 5eb8 1dc0 0f8b 06c0 146e 27bf 4a50 bcbf
00000140: e7f8 13c0 7ab9 e7bf ce8a ecbf 946d aebf
00000150: 32dd 4cbf 42dc 20c0 0671 b7bf 8bd2 943f
00000160: fda5 32c0 1267 86bf c742 1bc0 9017 20c0
00000170: ad35 19c0 1335 f6bf eb4a 08c0 ae59 3fc0
00000180: 5d00 79bf d3ea 28c0 fbd7 b6bf 4eb5 c6bf
00000190: 9495 20c0 b3ab ebbe 9da8 ccbf 7a52 f6bf
000001a0: 6bfe 39bf 22a6 ffbf 7649 e4bf 06f3 3b3f
000001b0: 53aa 4bbf 25a2 8d3f 6017 1fc0 e797 abbf
000001c0: 9f32 09c0 5400 63bf 5e8b 24c0 266c ecbf
000001d0: 4c87 bebe e219 18c0 7ac0 c3be 8bf3 0cc0
000001e0: 3056 0cc0 7098 10c0 4785 0ac0 1824 2fc0
000001f0: 8397 15c0 9a70 68bf 087a 03c0 081c 18c0
00000200: 7e11 b9bf 2d98 89be 7c83 0fbf 8607 fabf
00000210: 1bfb f6bf aabd 14c0 709c e8bf d6ba cabd
00000220: f980 cfbf 4dd0 823f 9c2a 67bf c1a8 a93f
00000230: 3c96 0bc0 39a2 8fbf 21e2 e33f fdba debc
00000240: b937 2ac0 93c0 d13e 70bc e63e f932 1dc0
00000250: c938 74be f8ab afbf af73 44bf 9638 4e3e
00000260: e863 bf3e 262b 02c0 f909 5bbf 88ed bebd
00000270: 2e82 99bf 0e51 df3e acfb 023f db7a dbbe
00000280: 342a cebf 5cbb abbf e784 07c0 88fd f1bf
00000290: 9d19 edbf 6bcc 45c0 4702 2240 a5a3 20c0
000002a0: 14d4 22c0 58de fdbf b10b 1ac0 68a2 1bc0
000002b0: 7f30 19c0 6950 00c0 5645 1fc0 7bc5 f3bf
000002c0: 9840 cc3e b72d a93e c993 713f 2b57 05bf
000002d0: 4d1b 963f 7130 1d3f 23e4 223f fe60 ac3f
000002e0: d42d a93f 795b cfbe d86c 5d3e 0fff 48be
000002f0: ad10 70bd 96f3 423e 50b4 333e 2770 af3e
00000300: a0a7 ddbf 1048 84be 3136 74bf 4e76 99bf
00000310: b363 71bd 8857 92bf e3ce 74bd e650 babf
00000320: d69b d5bf c20c e3bf 0c8c a1bf 8480 3cbf
00000330: 7a65 fabf fe4f febe a3ec 56bf b631 a7bf
00000340: 0d2f ecbf 35e4 f7bf ddf0 eabf 46fe c7be
00000350: 586f e2bf e995 d0bf ac33 1e3f fd26 07c0
00000360: 3832 1ec0 21e0 b8bf caff 90bf 7d11 23c0
00000370: d1cc 94be ca55 c3bf 503f 37c0 848e c8bf
00000380: 6f68 bdbe 79e7 d9be 0f91 223e 56db 713f
00000390: 4f8d 223f 56be 1f3f 93c6 843f 4957 abbe
000003a0: a6a1 4cbe c100 97be 5bcc 493e b7ba 3cbf
000003b0: 78e5 283f f02f eb3e f670 cdbe c38b eb3e
000003c0: ea98 08c0 70e9 19c0 7104 08c0 5fa9 21c0
000003d0: 5e3c 0dc0 2567 cdbf 0bfe f3bf 6da4 08c0
000003e0: 3f8b 24c0 f978 07c0 991a 25c0 55ba 44bf
000003f0: 1482 0bc0 26e1 11c0 0e5f 1d40 f23a 11c0

ACT_EMBED.layers.4.weight f4 [4, 16]
-1.3529603 -1.9328662 -2.081591 -3.0190794 -1.4855975 -2.3890204 0.69850713 -0.20320928
0.03843851 -0.03711742 -2.4885547 0.1626857 0.0124042025 -0.5351257 -0.0065399804 2.0853415
-1.9562763 2.3518085 1.5498793 1.8517607 -2.0480237 -2.6924114 -1.0823976 -2.1410856
-0.055226065 -0.34391373 1.6458471 0.15753183 -1.4422721 -0.7608817 0.114682525 -2.1595576
-2.1907656 -2.1234531 -2.304295 -2.5010111 -1.8251976 1.9431552 -1.3648775 1.7124192
-2.8192163 -1.8404778 0.84207356 -1.5150684 1.5483252 -1.8345455 -1.1452518 2.1643765
1.9579357 -2.311509 -2.0065825 -1.664663 -2.1440284 -2.128472 0.99238664 -0.5368792
-1.9489526 0.08768946 -1.8188112 -0.062912405 -0.12965381 0.6651074 0.10433177 -2.5992243
00000000: ce2d adbf 2968 f7bf c938 05c0 9938 41c0
00000010: 0f28 bebf b6e5 18c0 5dd1 323f 1816 50be
00000020: b371 1d3d 7008 18bd 7b44 1fc0 1597 263e
00000030: ff3a 4b3c fffd 08bf 554d d6bb 3c76 0540
00000040: 4367 fabf 0884 1640 7262 c63f 7f06 ed3f
00000050: d212 03c0 7850 2cc0 018c 8abf 8c07 09c0
00000060: ba34 62bd 7615 b0be 1eab d23f 0650 213e
00000070: 5f9c b8bf 25c9 42bf acde ea3d 3136 0ac0
00000080: 8135 0cc0 a8e6 07c0 9279 13c0 9110 20c0
00000090: 13a0 e9bf 4fb9 f83f 4eb4 aebf 8d30 db3f
000000a0: 0a6e 34c0 c794 ebbf 2292 573f c3ed c1bf
000000b0: 852f c63f 63d2 eabf 9c97 92bf 2585 0a40
000000c0: a39d fa3f c3ef 13c0 d96b 00c0 ad13 d5bf
000000d0: c337 09c0 e338 08c0 0d0d 7e3f ea70 09bf
000000e0: 4777 f9bf 8896 b33d cece e8bf 38d8 80bd
000000f0: f8c3 04be 7b44 2a3f e5ab d53d b159 26c0

FK_LAYER.joints.0.p_offset f4 [3, 1]
-0.0032496357 -0.0054989546 0.04326731
00000000: d7f7 54bb 9330 b4bb 1039 313d

FK_LAYER.joints.0.rpy_offset f4 [3]
0.010718235 0.031510375 -0.0031776188
00000000: 899b 2f3c 0611 013d 993f 50bb

FK_LAYER.joints.1.p_offset f4 [3, 1]
6.8365334e-05 -0.0022913893 0.013926734
00000000: 5c5f 8f38 222b 16bb f52c 643c

FK_LAYER.joints.1.rpy_offset f4 [3]
-0.018386517 0.008823316 0.032553714
00000000: 529f 96bc ab8f 103c 0b57 053d

FK_LAYER.joints.1.axis f4 [3, 1]
-2.4899855 -1.5692112 -1.7868314
00000000: ec5b 1fc0 eadb c8bf e4b6 e4bf

FK_LAYER.joints.1.q_layer.0.weight f4 [1, 4]
-1.9092792 2.0927572 -0.8583717 0.4579453
00000000: 4363 f4bf bcef 0540 3fbe 5bbf ce77 ea3e

FK_LAYER.joints.2.p_offset f4 [3, 1]
-0.0069702026 -0.0058422135 0.03316857
00000000: 4c66 e4bb 0a70 bfbb c4db 073d

FK_LAYER.joints.2.rpy_offset f4 [3]
-0.014497306 0.0075342404 0.005993642
00000000: 1c86 6dbc cae1 f63b 5066 c43b

FK_LAYER.joints.2.axis f4 [3, 1]
-0.2389429 -0.18916626 0.11153217
00000000: 73ad 74be cdb4 41be fa6a e43d

FK_LAYER.joints.2.q_layer.0.weight f4 [1, 4]
-0.34549406 -0.07120444 1.2808576 0.5452949
00000000: 99e4 b0be a2d3 91bd 24f3 a33f 7298 0b3f

FK_LAYER.joints.3.p_offset f4 [3, 1]
-0.0012878189 -0.008948157 0.049615238
00000000: 08cc a8ba 4a9b 12bc 5939 4b3d

FK_LAYER.joints.3.rpy_offset f4 [3]
-0.016180769 0.0022557275 0.005130558
00000000: 888d 84bc d4d4 133b 3d1e a83b

FK_LAYER.joints.3.axis f4 [3, 1]
-1.2780423 2.06551 -0.025375217
00000000: e496 a3bf 5131 0440 b0df cfbc

FK_LAYER.joints.3.q_layer.0.weight f4 [1, 4]
1.3561883 0.9544665 0.43033364 -3.2220876
00000000: 9497 ad3f eb57 743f b154 dc3e af36 4ec0

FK_LAYER.joints.4.p_offset f4 [3, 1]
-0.0050540008 -0.018939346 0.050219174
00000000: 089c a5bb b026 9bbc 9fb2 4d3d

FK_LAYER.joints.4.rpy_offset f4 [3]
0.012886674 0.005576693 -0.003457012
00000000: a122 533c b1bc b63b 098f 62bb

FK_LAYER.joints.4.axis f4 [3, 1]
-0.7997077 0.72482806 0.032388248
00000000: a5b9 4cbf 558e 393f 8aa9 043d

FK_LAYER.joints.4.q_layer.0.weight f4 [1, 4]
-0.7228281 0.91307956 0.75220245 -1.3761361
00000000: 430b 39bf 95bf 693f 5790 403f 3a25 b0bf

FK_LAYER.joints.5.p_offset f4 [3, 1]
-0.013226127 -0.011610063 0.05056148
00000000: 66b2 58bc 2238 3ebc 8e19 4f3d

FK_LAYER.joints.5.rpy_offset f4 [3]
-0.019661594 -0.0028700924 -0.0009513741
00000000: 5a11 a1bc 2918 3cbb a365 79ba

FK_LAYER.joints.5.axis f4 [3, 1]
-0.045145266 0.10496574 -0.0025860164
00000000: 3eea 38bd 47f8 d63d 287a 29bb

FK_LAYER.joints.5.q_layer.0.weight f4 [1, 4]
-0.19020362 -0.053104393 -0.8802503 -0.035079945
00000000: bdc4 42be fe83 59bd 1558 61bf fdaf 0fbd

FK_LAYER.joints.6.p_offset f4 [3, 1]
-0.01626057 -0.030915622 0.100724846
00000000: e334 85bc c242 fdbc d448 ce3d

FK_LAYER.joints.6.rpy_offset f4 [3]
-0.011458894 -0.017886838 0.00807731
00000000: 16be 3bbc 6b87 92bc b256 043c

FK_LAYER.joints.6.axis f4 [3, 1]
-0.0637942 -0.06140363 0.030186547
00000000: 89a6 82bd 5f82 7bbd c749 f73c

FK_LAYER.joints.6.q_layer.0.weight f4 [1, 4]
-0.080350846 -0.62735176 -0.554865 -0.11605046
00000000: fc8e a4bd 209a 20bf a20b 0ebf ddab edbd
