results/PRIMNET/FINGER/weights/epoch_16.pth (torch, 12610 bytes, 33 tensors)

motor_std f4 [4]
382.133 385.39212 374.75293 370.68262
00000000: 0611 bf43 31b2 c043 6060 bb43 6057 b943

motor_mean f4 [4]
557.9091 563.4745 566.6164 552.91644
00000000: 2f7a 0b44 5ede 0c44 73a7 0d44 a73a 0a44

position_std f4 [3, 1]
1.0 1.0 1.0
00000000: 0000 803f 0000 803f 0000 803f

position_mean f4 [3, 1]
0.0 0.0 0.0
00000000: 0000 0000 0000 0000 0000 0000

ACT_EMBED.layers.0.weight f4 [16, 4]
-0.47343332 0.54266924 -0.024353003 0.3761392 -0.5647752 0.8701417 -0.30741248 0.121394336
0.092477635 -0.68301314 0.4996812 -0.7903999 -0.76770115 0.2867279 -0.23652528 0.6772992
-0.1457366 0.35695532 0.095402576 0.01213105 0.6071554 -0.71944994 -0.21963656 0.18854518
0.21847707 0.06465787 0.054278497 0.6346276 0.29689708 -0.21424964 0.6633524 -0.4417512
0.6293368 -0.7714138 0.4971996 -0.43855524 -0.24419917 -0.037752736 0.46662012 -0.3761909
-0.043342184 -0.113884166 0.2767079 0.23224519 -0.51740444 0.38991845 0.64142424 -0.06188459
-0.5206715 -0.540385 -0.49899107 0.29069206 0.1188824 0.29653075 -0.15180442 0.16797614
-0.1426586 0.022429926 0.6394358 -0.32352683 0.20362547 0.464296 0.5375443 -0.05774428
00000000: da65 f2be 5fec 0a3f f37f c7bc 5195 c03e
00000010: 1c95 10bf 9bc1 5e3f 2b65 9dbe 989d f83d
00000020: ea64 bd3d f3d9 2ebf 37d6 ff3e a657 4abf
00000030: 1088 44bf 00ce 923e af33 72be 7b63 2d3f
00000040: fa3b 15be d9c2 b63e 6d62 c33d 50c1 463c
00000050: 896e 1b3f df2d 38bf 68e8 60be fd11 413e
00000060: 74b8 5f3e 586b 843d 2153 5e3d f476 223f
00000070: e502 983e 4264 5bbe 76d1 293f 372d e2be
00000080: 371c 213f 607b 45bf f290 fe3e 508a e0be
00000090: 590f 7abe 9da2 1abd d5e8 ee3e 189c c0be
000000a0: 9387 31bd 1a3c e9bd a8ac 8d3e afd1 6d3e
000000b0: 9e74 04bf 64a3 c73e 6134 243f b27a 7dbd
000000c0: ba4a 05bf ac56 0abf c27b ffbe 97d5 943e
000000d0: 9e78 f33d e1d2 973e 9e72 1bbe f001 2c3e
000000e0: 1915 12be f7be b73c 11b2 233f 4fa5 a5be
000000f0: 3283 503e 35b8 ed3e 819c 093f 4485 6cbd

ACT_EMBED.layers.2.weight f4 [16, 16]
-0.42067415 -0.46033216 -0.17723453 -0.41726935 -0.5169605 -0.2796071 -0.5822847 -0.27958685
0.42235783 0.57641965 -0.009917904 0.26006225 0.09322502 -0.18155213 0.96072304 -0.6253193
-0.7869703 -0.57700545 -0.11494729 -1.1684936 -0.26667726 -0.45008665 -0.22283953 -0.09263683
0.47583714 -0.6608081 -0.13776845 -0.30265316 -0.28063047 -0.35462 -0.09216254 0.024538672
-0.50300664 -0.36544174 0.24208727 -0.06297866 -0.64848167 -0.712626 -0.44918847 0.4676178
-0.76918316 0.68315566 -0.14557987 -0.18096471 -0.028364662 -0.7551692 -0.40510684 -0.87710565
0.40557685 0.5869106 0.4649326 0.38775688 0.52793425 -0.5472193 0.5222605 -0.5275164
-0.5879514 -0.42235166 -0.533057 -0.8443935 -0.57664657 -0.1163233 -0.2600731 -0.27772328
-0.37880635 0.455883 0.6771882 -0.1655934 1.158203 -0.7217808 0.45324886 0.24813896
-0.6635761 -0.33618307 -0.06705977 -0.013937266 -0.5848984 -0.22594345 0.5168016 0.34050658
-0.4933005 -0.0788564 -0.25802588 0.41531038 0.17469719 -0.6678167 0.276365 0.35547513
-0.9862697 0.1903348 -0.83084863 -0.6406724 -0.56698936 -0.4324648 -0.26154777 -1.352881
-0.513536 -0.7611444 -0.5151157 -1.0091482 -0.6523329 0.6999975 -0.24033275 -0.6595933
0.5526417 -0.20239012 0.057025082 0.4754749 0.37054092 0.95235294 -0.66808045 -0.4856328
-0.4855358 -0.21046561 -0.90532 -0.6043089 -0.12651983 -0.7933028 -0.28992575 -0.44845423
-0.6006277 -0.45108917 -0.9274484 -1.1528803 -0.563111 -0.5482124 -0.28804037 -0.9194893
-0.051749974 -0.19036601 0.019676378 -0.08010847 -0.22488958 -0.45713574 0.060091984 0.20634459
-0.7968395 0.5102675 -0.78881884 0.88091624 -0.29646808 -0.30323827 0.541796 0.41768008
-0.7999505 0.3103039 -0.19537286 -1.1965115 0.47532386 0.07451084 0.097665116 -0.37327418
0.4717016 -0.22836576 0.71961415 0.22791226 0.34689662 0.22263014 0.7179594 0.22384897
0.2622505 0.5136573 -0.36439362 -0.025827087 0.010149555 -1.2335577 0.66668373 -0.67241126
-0.67189485 -0.1237971 -0.6382328 -0.5716143 -0.5227328 -0.13545506 -0.664034 -0.03851745
-0.19137524 -0.4233846 0.80739564 -0.3916481 0.12982799 0.39923355 -0.702725 0.84795624
0.46384767 0.4635077 -0.09949988 0.25717378 0.06469003 0.31844246 0.7075174 0.429221
-0.60661405 -0.020049741 -0.47647992 -0.5073695 0.15846911 -0.23261133 -0.06972005 -0.13189244
-0.38939238 -0.40597168 -0.49531114 -0.6967895 -0.6079446 -0.15987265 -0.18875311 -0.23879342
0.017213179 -0.060223028 0.03402182 0.70319253 0.106056735 -0.5364131 0.7017715 -0.25265676
-0.59558296 0.42854837 -0.06773865 -0.7144422 0.59842694 0.2059583 -1.0014945 0.31233448
-0.08937221 -0.29348353 -0.08060031 0.12975307 -0.2904142 0.48017794 0.14222771 0.05352387
0.13792363 -0.7142275 -0.11780776 -0.24226178 1.0698133 0.44223794 -0.90088695 -0.47224972
-0.39891762 -0.64155036 -0.33614734 -0.7199179 -0.50255257 -0.027122147 -0.14212857 -0.34432516
-0.74562675 -0.29822093 -0.9798214 0.4682754 -0.34220114 -0.5043668 0.88750416 -0.5903826
00000000: 9a62 d7be a8b0 ebbe f87c 35be 54a4 d5be
00000010: 8657 04bf a928 8fbe 9c10 15bf 0226 8fbe
00000020: 493f d83e 3d90 133f b47e 22bc e126 853e
00000030: c2ec be3d cde8 39be f2f1 753f ed14 20bf
00000040: e376 49bf a1b6 13bf 7c69 ebbd 3391 95bf
00000050: ec89 88be c271 e6be 0c30 64be 61b8 bdbd
00000060: eda0 f33e b82a 29bf 2c13 0dbe 5bf5 9abe
00000070: ccae 8fbe c190 b5be b7bf bcbd 5305 c93c
00000080: 0bc5 00bf 2e1b bbbe bae5 773e f5fa 80bd
00000090: e502 26bf a86e 36bf 08fc e5be 9a6b ef3e
000000a0: 30e9 44bf 4ae3 2e3f e412 15be d04e 39be
000000b0: 025d e8bc c552 41bf 2a6a cfbe ff89 60bf
000000c0: c5a7 cf3e c63f 163f a50b ee3e 1288 c63e
000000d0: b326 073f 9016 0cbf ddb2 053f 510b 07bf
000000e0: fc83 16bf 7a3e d8be 6c76 08bf 2c2a 58bf
000000f0: 1c9f 13bf e93a eebd 4d28 85be bf31 8ebe
00000100: e8f2 c1be 7f69 e93e 355c 2d3f 5191 29be
00000110: ff3f 943f a0c6 38bf 3c10 e83e 2418 7e3e
00000120: 20e0 29bf 3020 acbe a256 89bd 2159 64bc
00000130: e7bb 15bf b85d 67be 1c4d 043f e156 ae3e
00000140: e291 fcbe 777f a1bd f81b 84be 90a3 d43e
00000150: d2e3 323e 09f6 2abf b77f 8d3e d600 b63e
00000160: 2c7c 7cbf 20e7 423e 7fb2 54bf 1b03 24bf
00000170: 3726 11bf 076c ddbe 97e9 85be 342b adbf
00000180: 1877 03bf 5cda 42bf 9fde 03bf c52b 81bf
00000190: 4aff 26bf 0933 333f ca19 76be 1bdb 28bf
000001a0: ed79 0d3f 5b3f 4fbe 2293 693d 7271 f33e
000001b0: 8ab7 bd3e 67cd 733f 5207 2bbf dda4 f8be
000001c0: 2698 f8be 4c84 57be 0dc3 67bf fdb3 1abf
000001d0: 6a8e 01be e415 4bbf 2671 94be cb9b e5be
000001e0: bdc2 19bf 29f5 e6be 426d 6dbf 9591 93bf
000001f0: 0b28 10bf a657 0cbf 077a 93be a763 6bbf
00000200: c8f7 53bd 4fef 42be 5b30 a13c e90f a4bd
00000210: 7449 66be b20d eabe 0323 763d ff4b 533e
00000220: acfd 4bbf e4a0 023f 08f0 49bf ba83 613f
00000230: aaca 97be 0c42 9bbe 25b3 0a3f 2ada d53e
00000240: 8ec9 4cbf 27e0 9e3e d30f 48be 4a27 99bf
00000250: a65d f33e 2499 983d a604 c83d cb1d bfbe
00000260: df82 f13e b7d8 69be a238 383f d561 693e
00000270: 6f9c b13e 28f9 633e 30cc 373f aa38 653e
00000280: b345 863e 0b7f 033f cd91 babe 5493 d3bc
00000290: 524a 263c 38e5 9dbf c9ab 2a3f 2523 2cbf
000002a0: 4d01 2cbf 5589 fdbd 3a63 23bf 5155 12bf
000002b0: d1d1 05bf bbb4 0abe 22fe 29bf 79c4 1dbd
000002c0: dff7 43be dec5 d8be 7bb1 4e3f 1a86 c8be
000002d0: a1f1 043e 5768 cc3e c9e5 33bf a913 593f
000002e0: 717d ed3e e250 ed3e 98c6 cbbd 48ac 833e
000002f0: 357c 843d e40a a33e dc1f 353f dbc2 db3e
00000300: 0f4b 1bbf 5b3f a4bc 2df5 f3be f8e2 01bf
00000310: ba45 223e aa31 6ebe 63c9 8ebd d00e 07be
00000320: 705e c7be 85db cfbe 6c99 fdbe cc60 32bf
00000330: 42a2 1bbf a8b5 23be 7f48 41be 4386 74be
00000340: a702 8d3c 6cac 76bd 775a 0b3d 6d04 343f
00000350: 4634 d93d 5e52 09bf 4ca7 333f 3a5c 81be
00000360: 2078 18bf b16a db3e 90ba 8abd afe5 36bf
00000370: 8232 193f bce6 523e f930 80bf 4eea 9f3e
00000380: c708 b7bd 7943 96be c611 a5bd fddd 043e
00000390: 2cb1 94be e2d9 f53e 24a4 113e d83b 5b3d
000003a0: da3b 0d3e 9dd7 36bf 3245 f1bd 7913 78be
000003b0: a4ef 883f 036d e23e 87a0 66bf b7ca f1be
000003c0: ee3e ccbe a53c 24bf 811b acbe 8a4c 38bf
000003d0: 49a7 00bf 442f debc 278a 11be 634b b0be
000003e0: 65e1 3ebf 6ab0 98be 93d5 7abf cbc1 ef3e
000003f0: fd34 afbe 2f1e 01bf 7933 633f 5023 17bf

ACT_EMBED.layers.4.weight f4 [4, 16]
0.31538823 -0.11067982 -0.23718332 -1.1592587 0.28369105 -0.90323526 -0.27608362 0.11194947
-0.12022719 0.06098195 -0.6614931 0.90505856 -0.025675023 -0.25631425 -0.5415129 0.25805062
-0.07663446 0.5060082 -0.32108912 -0.010042086 -0.81294036 -1.0069041 0.7586044 -0.45665482
-0.35646537 0.2705149 -0.21021564 0.18599038 -0.2637481 0.30507815 0.7913676 -0.602544
-0.31466287 -0.2570429 -0.42797306 -0.63168514 0.04602079 0.3396275 0.17734084 0.21816733
-0.94605374 -0.15752634 -0.4332559 0.09892385 0.43275994 0.050361335 0.49671346 0.5287529
0.08185728 -0.43387383 -0.19528106 0.21850824 -0.26285115 -0.26667732 0.34524485 -0.015817232
-0.09728144 -1.1921972 0.06525007 -0.70923334 -0.20880222 0.40433282 0.43630815 -0.7260261
00000000: 917a a13e 1aac e2bd 2fe0 72be 9762 94bf
00000010: f43f 913e 6d3a 67bf d55a 8dbe c445 e53d
00000020: ac39 f6bd 36c8 793d 9d57 29bf ebb1 673f
00000030: 6d54 d2bc 9f3b 83be 97a0 0abf 361f 843e
00000040: 87f2 9cbd c189 013f cb65 a4be 9087 24bc
00000050: dc1c 50bf 3ce2 80bf e633 423f a9ce e9be
00000060: a182 b6be ee80 8a3e c542 57be 4374 3e3e
00000070: fe09 87be 3433 9c3e 1197 4a3f 5340 1abf
00000080: 7e1b a1be 219b 83be 491f dbbe 1eb6 21bf
00000090: 4c80 3c3d a8e3 ad3e d698 353e 4267 5f3e
000000a0: 9430 72bf 964e 21be b8d3 ddbe 9698 ca3d
000000b0: b692 dd3e b047 4e3d 3a51 fe3e 5a5c 073f
000000c0: caa4 a73d b624 debe c2f7 47be a0c0 5f3e
000000d0: 6d94 86be ee89 88be efc3 b03e 2493 81bc
000000e0: 7e3b c7bd eb99 98bf d4a1 853d 5190 35bf
000000f0: 40d0 55be b604 cf3e c863 df3e d9dc 39bf

FK_LAYER.joints.0.p_offset f4 [3, 1]
-0.02279997 -0.03262122 0.11340529
00000000: 01c7 babc d49d 05bd 0841 e83d

FK_LAYER.joints.0.rpy_offset f4 [3]
0.010718235 0.031510375 -0.0031776188
00000000: 899b 2f3c 0611 013d 993f 50bb

FK_LAYER.joints.1.p_offset f4 [3, 1]
-0.008157188 -0.026882928 0.07104127
00000000: baa5 05bc 9639 dcbc 167e 913d

FK_LAYER.joints.1.rpy_offset f4 [3]
-0.018386517 0.008823316 0.032553714
00000000: 529f 96bc ab8f 103c 0b57 053d

FK_LAYER.joints.1.axis f4 [3, 1]
-0.6443247 -0.30948234 -0.6958855
00000000: 77f2 24bf 7874 9ebe 8d25 32bf

FK_LAYER.joints.1.q_layer.0.weight f4 [1, 4]
-0.027915487 2.313667 0.70564646 -0.32399485
00000000: 05af e4bc 1f13 1440 3fa5 343f a7e2 a5be

FK_LAYER.joints.2.p_offset f4 [3, 1]
-0.020246586 0.0051640808 0.0716557
00000000: 2bdc a5bc 7337 a93b 39c0 923d

FK_LAYER.joints.2.rpy_offset f4 [3]
-0.014497306 0.0075342404 0.005993642
00000000: 1c86 6dbc cae1 f63b 5066 c43b

FK_LAYER.joints.2.axis f4 [3, 1]
-0.27219945 0.0061582327 -0.038863063
00000000: ba5d 8bbe 00cb c93b e02e 1fbd

FK_LAYER.joints.2.q_layer.0.weight f4 [1, 4]
-0.36419553 0.31864148 -0.51185477 0.28744164
00000000: d677 babe fa24 a33e ea08 03bf 8d2b 933e

FK_LAYER.joints.3.p_offset f4 [3, 1]
-0.014872598 -0.045821115 0.096794605
00000000: 33ac 73bc ecae 3bbd 403c c63d

FK_LAYER.joints.3.rpy_offset f4 [3]
-0.016180769 0.0022557275 0.005130558
00000000: 888d 84bc d4d4 133b 3d1e a83b

FK_LAYER.joints.3.axis f4 [3, 1]
-0.7106643 0.6552507 0.20354581
00000000: 18ee 35bf 83be 273f 506e 503e

FK_LAYER.joints.3.q_layer.0.weight f4 [1, 4]
1.0223364 0.787263 -0.13766564 -1.3631681
00000000: ebdb 823f 118a 493f 39f8 0cbe 4b7c aebf

FK_LAYER.joints.4.p_offset f4 [3, 1]
-0.026882684 -0.006387856 0.07976097
00000000: 1339 dcbc 3851 d1bb b859 a33d

FK_LAYER.joints.4.rpy_offset f4 [3]
0.012886674 0.005576693 -0.003457012
00000000: a122 533c b1bc b63b 098f 62bb

FK_LAYER.joints.4.axis f4 [3, 1]
0.34249705 0.24937609 0.54132706
00000000: c65b af3e 725c 7f3e 6994 0a3f

FK_LAYER.joints.4.q_layer.0.weight f4 [1, 4]
0.26221174 0.08290577 -1.0049356 0.3832861
00000000: 9e40 863e 80ca a93d bba1 80bf 133e c43e

FK_LAYER.joints.5.p_offset f4 [3, 1]
-0.01847155 -0.013908498 0.052111406
00000000: a651 97bc 78e0 63bc c572 553d

FK_LAYER.joints.5.rpy_offset f4 [3]
-0.019661594 -0.0028700924 -0.0009513741
00000000: 5a11 a1bc 2918 3cbb a365 79ba

FK_LAYER.joints.5.axis f4 [3, 1]
-0.124090016 -0.09412072 0.1727327
00000000: e822 febd 5dc2 c0bd d7e0 303e

FK_LAYER.joints.5.q_layer.0.weight f4 [1, 4]
-0.061724164 -0.121746905 -0.122631416 0.89394695
00000000: 7ad2 7cbd 7156 f9bd 2e26 fbbd b5d9 643f

FK_LAYER.joints.6.p_offset f4 [3, 1]
-0.02649809 -0.030427502 0.0691588
00000000: 8612 d9bc 1943 f9bc 21a3 8d3d

FK_LAYER.joints.6.rpy_offset f4 [3]
-0.011458894 -0.017886838 0.00807731
00000000: 16be 3bbc 6b87 92bc b256 043c

FK_LAYER.joints.6.axis f4 [3, 1]
-0.0637942 -0.06140363 0.030186547
00000000: 89a6 82bd 5f82 7bbd c749 f73c

FK_LAYER.joints.6.q_layer.0.weight f4 [1, 4]
-0.080350846 -0.62735176 -0.554865 -0.11605046
00000000: fc8e a4bd 209a 20bf a20b 0ebf ddab edbd
