results/PRIMNET/FINGER64/weights/epoch_287.pth (torch, 29768 bytes, 33 tensors)

motor_std f4 [4]
00000000: 0611 bf43 31b2 c043 6060 bb43 6057 b943
382.133 385.39212 374.75293 370.68262

motor_mean f4 [4]
00000000: 2f7a 0b44 5ede 0c44 73a7 0d44 a73a 0a44
557.9091 563.4745 566.6164 552.91644

position_std f4 [3, 1]
00000000: 0000 803f 0000 803f 0000 803f
1.0 1.0 1.0

position_mean f4 [3, 1]
00000000: 0000 0000 0000 0000 0000 0000
0.0 0.0 0.0

ACT_EMBED.layers.0.weight f4 [64, 4]
00000000: 022e 513f 9d61 5bbf 324c 44be 7d89 e4bc
00000010: 59af 6bbf 7deb 793e 08ce bbbd 3f97 ca3e
00000020: e66c e53e 7bcd 78bf 1431 ab3f 2701 6cbf
00000030: 2c00 253f c3d4 adbf 7b29 ac3f 18de 88be
00000040: 8dc4 d33f ad2a 5fbf 4d2d 0d3e 1a40 75bf
00000050: 762b 123f e129 00bf 8a10 9abf b6a1 443f
00000060: 6e77 60bf 1bda 013e d89b a7be c5f9 803f
00000070: 92e3 d7bd 974b 8abf c4e7 4b3f 2ef3 4dbf
00000080: 251d dd3d 3aa2 f53a 9b2c a33e 559d 03bf
00000090: 5a98 0c3c 5597 96be 0f47 733f 0fe0 3abf
000000a0: ad01 c03e 61cd 373f b5bf 73bf 29fb 7fbd
000000b0: 0721 01be 2b55 2dbe 603d 903f 4c73 9ebf
000000c0: 0acb 883e c983 933c ea4c aabe b04d c8be
000000d0: 7952 d23f 7838 aebf 1de1 ee3e 19bc 4bbf
000000e0: a6f5 05bf 208d 0abf c1e8 373f bb50 e4be
000000f0: e5b6 c6bf 534e 413f 5ef3 9cbd 17bc 873f
00000100: b7e0 04bd 2395 4ebe e8b2 ed3e 22fe 6e3c
00000110: 676a 99bf 6259 343f 16c5 c33e 8aca 2e3f
00000120: 378d 55bf b4bd 883d 0daf 573e d83c ebbe
00000130: 98e3 2b3f f011 72be 4761 343f 14e4 76bf
00000140: fe95 773e b312 2f3e 9787 6ebd a8e8 843f
00000150: d28f 45bf b778 36bf d667 713f 6569 1c3f
00000160: dcf5 a53f 94ac 37bf 5a2b 2cbf 2863 4cbf
00000170: 076b 8fbf c482 92be 6ad9 a73f e7ef 2a3d
00000180: b511 cb3f 2d9d 78bf 59ab d5bb 7b91 23bf
00000190: ef42 b33f 528f 443e dd1f 28bf 3a50 a4bf
000001a0: 9631 0cbf 6223 d1be 3455 7d3f d898 963e
000001b0: ddb6 933f 15d9 d3be 5bec 93be 78e5 07bf
000001c0: c1c5 e93e cbd1 79bf b839 8d3f 226c 2bbf
000001d0: de65 eb3f bd5f abbf 6b84 823e c121 61bf
000001e0: 68e2 92bf ca66 a5be e91a 683e 6289 be3e
000001f0: 0038 813d a57f d8be 4c67 593f 7fcf 8dbe
00000200: 543e 0340 06dc 89bf 09fb babb dc14 95bf
00000210: 0cea a13d 9335 003f 58d1 55bf 5847 88be
00000220: 5c32 293f 7092 4ebf 37c8 653f 5304 56bf
00000230: e2e9 5c3f f139 1bbf 2b58 043f 1947 16bf
00000240: a7d8 19bf 0969 6d3d e6d9 65be ede3 683f
00000250: 0fb4 e9be 590f fb3d dba2 993e 76dd a2be
00000260: 218b 323f a0f5 f0be e7f8 bf3e 6874 3dbf
00000270: 0b5d 183e e85f 8abe 7644 393f f4ec 08bf
00000280: f791 813e baf2 b6be 9a47 8a3f eeb6 eebe
00000290: 0b66 6bbe 6842 e0bc a2f8 863f 84be 59bf
000002a0: eabc 5abf 2a13 023f 0c97 b1bf 65fc 133f
000002b0: 560d 843f fdec 32be 266f d7bd 5482 9fbe
000002c0: ce22 5a3f b690 28bf 1786 2dbf 4c95 76be
000002d0: cd06 753f 12cd 5cbf 9116 bbbe 388f 30bf
000002e0: c083 f8bd c122 0cbf bb11 513f 7f4d 20be
000002f0: 657a dd3f f8b7 40bf ee9b 7d3d 3e14 6cbf
00000300: ec69 493e 6128 5dbe f5ea 30bf 3c2e fc3e
00000310: e91c f03f 228b a1bf 65e2 c23e 44fd 21bf
00000320: 85ce 01bf 8b2d 18be e4f1 733f c129 36bf
00000330: 07bd 013f d356 64bf 52e4 913e 192f c83e
00000340: cf71 98be b4cb 0f3f 65c1 abbc 5159 f13e
00000350: 9e59 52be 1d28 f8be fb51 623f eb93 b6be
00000360: 7899 3c3e adc0 65bf 303e 1b3f 51d2 0d3e
00000370: dfd5 7d3d 221e 40be 0b08 1bbd 1fd5 12bf
00000380: 8117 2f3f 5b01 b2bf 3e8b 8e3d 3514 8f3e
00000390: d82e 2bbf 4654 dcbd 4df3 193f 4387 2e3f
000003a0: cf48 143f e50f 903d 3bb8 393f e336 a4bf
000003b0: 1c9c db3f e210 94bf 3028 033f 8122 94bf
000003c0: 290e 853f 404d 203e b0e4 43bf 8dbb 8e3e
000003d0: 41d1 5a3f 7fd7 6cbf 09d4 99bd 0c27 113f
000003e0: 7ddf 1dbf 8b58 62be ea9b 05be b8e6 fbbe
000003f0: 7b73 153f 9668 debe 5d94 cf3e 9899 3bbf
0.8171083 -0.8569582 -0.19169691 -0.02789759 -0.92064434 0.24406238 -0.09170157 0.39568517
0.44809645 -0.9718854 1.3374352 -0.9218926 0.6445339 -1.3580555 1.3450159 -0.26731944
1.6544358 -0.87174493 0.13786812 -0.95800936 0.57097566 -0.500639 -1.2036297 0.7680925
-0.87682235 0.12680857 -0.32736087 1.0076224 -0.105414525 -1.0804318 0.7965052 -0.8044919
0.107965745 0.0018740364 0.3186997 -0.51411945 0.008581245 -0.29412332 0.950303 -0.72998136
0.3750128 0.7179776 -0.95214397 -0.062495384 -0.12610255 -0.1692702 1.126873 -1.2378936
0.26717407 0.018007176 -0.33261806 -0.3912177 1.6431419 -1.3610983 0.46656123 -0.7958389
-0.52327955 -0.5412159 0.7183953 -0.44592842 -1.5524565 0.7551014 -0.07663606 1.0604275
-0.032440867 -0.20174079 0.46425557 0.014586957 -1.1985596 0.7044889 0.38236302 0.682778
-0.834186 0.06676808 0.2106287 -0.45944858 0.67144156 -0.23639655 0.70460933 -0.9644177
0.24178311 0.17096977 -0.058234777 1.0383501 -0.7717258 -0.71277946 0.94299066 0.6109832
1.2965655 -0.7174771 -0.6725365 -0.798388 -1.1204537 -0.2861539 1.3113225 0.041732695
1.5864779 -0.9711483 -0.0065206704 -0.6389386 1.4004802 0.19195297 -0.6567362 -1.2836983
-0.5476316 -0.40847307 0.98958135 0.29413486 1.154018 -0.41376558 -0.28891262 -0.53084517
0.45658687 -0.97585744 1.1033239 -0.6696187 1.8390462 -1.3388592 0.25491652 -0.8794213
-1.1475344 -0.32304984 0.22666515 0.3721419 0.06309509 -0.42284885 0.84923244 -0.2769737
2.0506792 -1.0770271 -0.0057061953 -1.1646991 0.07905969 0.5008175 -0.8352256 -0.2661693
0.6609247 -0.80692196 0.8975863 -0.8360035 0.86294377 -0.60635287 0.51697034 -0.58702236
-0.6009621 0.057961497 -0.22446403 0.9097279 -0.45645186 0.12258787 0.3000706 -0.31809586
0.69743544 -0.47062397 0.37494585 -0.74005747 0.14879243 -0.27026296 0.7237009 -0.5348656
0.25306675 -0.3573206 1.0803101 -0.4662394 -0.22988145 -0.027375415 1.0544627 -0.8505633
-0.8544451 0.5081049 -1.3874221 0.57807 1.031657 -0.17473216 -0.10519247 -0.3115412
0.8520936 -0.6584581 -0.6778273 -0.2408039 0.957135 -0.8625041 -0.36540654 -0.68968534
-0.12134504 -0.5474053 0.8166768 -0.15654562 1.7302977 -0.75280714 0.061916284 -0.9221839
0.19669312 -0.21597435 -0.69108516 0.49254024 1.8758823 -1.2620585 0.3806335 -0.6327708
-0.5070575 -0.14861123 0.9529097 -0.7115746 0.5067906 -0.89194983 0.28494507 0.39098433
-0.2977433 0.561702 -0.020966241 0.47138456 -0.20541999 -0.48468104 0.8840634 -0.35659727
0.18417919 -0.89747125 0.60641766 0.1384976 0.06197154 -0.18761495 -0.037849467 -0.57356447
0.6839524 -1.3906664 0.06960152 0.27945104 -0.6686835 -0.107582614 0.6013687 0.68175143
0.579236 0.07034282 0.7254674 -1.282925 1.7157016 -1.1567652 0.51233196 -1.157303
1.0394946 0.15654469 -0.76520824 0.27877465 0.85475546 -0.9251632 -0.075111456 0.56700206
-0.6166914 -0.22104089 -0.13047758 -0.49199462 0.58379334 -0.43439168 0.4054288 -0.7328124

ACT_EMBED.layers.2.weight f4 [64, 64]
00000000: d3d0 e63d 2a1f 493c 7eb9 06be 7646 dbbd
00000010: bc9d 033d ff5e 9b3d 02cf 28be 952d 4a3c
00000020: b9ab 83be ef8d 02bd c697 553e c62d 32be
00000030: e592 14be 3cad 9d3d 6087 403d 1fcd 2abe
00000040: 6333 11be c599 bebe b0ca 6bbe ab49 7fbd
00000050: f48a 44be 8db8 e1bd 3f38 1ebe 2396 813d
00000060: fa46 42be 96e6 bdbe 5a77 063e 0a76 81be
00000070: 451b 723e a98b e0be f09e 5ebe 6b31 33be
00000080: 7302 ccbd 1c6c a5bd 5a40 79be fc26 52be
00000090: f599 ef3c e94d 0ebd 9a78 fe3d e79e 10be
000000a0: 4969 423b a077 af3b 66e9 94be bd14 b63d
000000b0: ed4f 91be 94e9 74bd 0c3e e53d 420d 85be
000000c0: ddd9 0cbe 5706 a7be f085 92be da4a 083e
000000d0: a394 8bbe 091e c3bd 6929 e0bc bfe2 08be
000000e0: c60f d93d 811d edba fdb3 04be e848 77be
000000f0: c462 a23d 347d bebe 5f95 3bbe d95a b3bd
00000100: 7752 bcbd 70df 8f3e 3d52 c8bd 4855 5c3d
00000110: 3f49 01bf a201 673e 7d71 aa3c 752f b8be
00000120: 9a91 ccbe c852 00be c9fc fd3d d888 3b3f
00000130: e518 11bf 5c03 8bbb a6a4 dcbd 743f 16be
00000140: 413b 0abe a506 cb3b c57f e03d 146f 5bbe
00000150: 09c9 bdbe f4a0 fdbe a592 783e ab64 12be
00000160: ec70 0abf cbcc f3be 04c7 03bf ec2d 0b3d
00000170: 685c 79be 6d61 3cbf 4fb8 853d 68f4 3abe
00000180: 3ee2 dabe 8564 f3bd 6e9c f4bd 76f2 2bbe
00000190: d3d6 6abe 990c a7be 1214 fcbc 4e3d c2bd
000001a0: f585 5f3e a46b 28bf 8128 2bbf 5468 5fbd
000001b0: 83ef 92be b706 683e 4b6a 40bd 7ca7 d4be
000001c0: bcf9 61bd d793 efbe af63 6ebf 8ad5 333e
000001d0: c118 1dbe 70a7 c0be 3460 ca3d 90a5 1bbf
000001e0: 3334 23be 762e 953e 445c 40be af6c 21bf
000001f0: 6850 89be 62dd 10bf a951 ffbe 0fed 89be
00000200: 1cf0 57bf 73a3 5cbf 75c0 70bf 4b83 8bbe
00000210: e4d9 00bf dc5f ebbe af28 fabe e830 b5bd
00000220: 7247 fcbc 64aa 1ebf 21ba 8dbe 73c1 85bf
00000230: f5b6 48bf e687 5b3e 6755 3ebf abfd 4fbf
00000240: 3814 d1be 95b4 39bf 622e febe ebe2 3cbf
00000250: b265 e9be b677 b5be a7c6 06bf 314a b2be
00000260: 3ee9 66be cf12 c9be cb60 10bf a1e2 8cbf
00000270: a48c 113c 7a43 76be 5eb9 28bf dd4e 1fbf
00000280: a7ed 0dbd b9dd 9fbe a127 56bf ab73 9d3d
00000290: f9f1 05bf 156d 6abe aed9 a5be a0a0 9abe
000002a0: 439c 10bf b2ec 45bf 0c37 e1be 3826 77bf
000002b0: 5885 403e bb26 07bf 8afc f8be f593 5cbe
000002c0: 25b1 b2be 6635 513e 08a7 46bf ef89 84be
000002d0: eef5 e1be 0782 bfbe 71b1 73be a86c 20bf
000002e0: 4786 b7be 8df7 f7be f53e 93bf 4684 8a3e
000002f0: ac0a 44bf 2710 febe d8c1 98be ea89 60be
00000300: 0f12 ef3b 4b56 793d 5e22 e7be 661c 56bf
00000310: d156 bdbe 3f50 61be f8cb bcba dff9 2dbf
00000320: 5308 afbe bcb3 3abe cd2a a0be cb03 20bd
00000330: d2e2 69be 2c92 14bf 742d 243c 240c 243c
00000340: 4319 48bc 9b61 88be c362 17be df0d 0ebe
00000350: fc5b c1be 1ee8 c0be 9ef5 a2bd 1eac 8dbe
00000360: 6956 f3be ceb2 d5be d0c2 c73c a911 9cbe
00000370: 9f2c 32bf 644c 50bf b995 80be 833a 93be
00000380: 0bc6 f1be 90aa e4be 875c 0bbf 7f4a b6bd
00000390: e7c1 71be ed80 50bd 6c0d 0ebf e48e eabc
000003a0: 921c 6bbe b9e1 403e 8ed2 8fbe 7004 5abe
000003b0: 9679 14bf 956c 25bc f36e 813e a8fe 0fbf
000003c0: 1a46 7bbe e1aa 2bbf 1661 cbbe bb63 49bf
000003d0: 0a4e ecbe 0b8b 18be 6f1f b9bd 1b08 d8bc
000003e0: 5794 28be 6171 07be da42 22be 296c 6ebf
000003f0: 53e1 64be ea14 bebe 2014 43be 2c1a d0be
0.11270299 0.0122754965 -0.13156697 -0.10706799 0.03213285 0.075864784 -0.16485217 0.012339969
-0.2571695 -0.03187364 0.20858678 -0.17400274 -0.14509161 0.076990575 0.047004104 -0.1667981
-0.14179759 -0.37226692 -0.23026538 -0.062326115 -0.19193631 -0.110215284 -0.15451144 0.063274644
-0.18972388 -0.37089986 0.13131467 -0.2528537 0.23643215 -0.43856552 -0.21740317 -0.1749932
-0.09961405 -0.08077261 -0.24340954 -0.20522684 0.029248217 -0.03474227 0.12425347 -0.14123116
0.0029664806 0.0053548366 -0.2908432 0.08890674 -0.2838129 -0.05979307 0.11193475 -0.25986677
-0.13754983 -0.32622024 -0.2861781 0.13309804 -0.27261838 -0.09527213 -0.027363496 -0.13367747
0.10598712 -0.0018090458 -0.12959285 -0.24148905 0.07928994 -0.37204897 -0.183187 -0.08757562
-0.091954164 0.28100157 -0.09781311 0.053792268 -0.5050239 0.22559217 0.020806069 -0.35973707
-0.39954835 -0.12531579 0.124017306 0.7325568 -0.5667861 -0.004242344 -0.10773592 -0.14672643
-0.13499166 0.0061958604 0.1096187 -0.21429092 -0.3706744 -0.4953686 0.2427469 -0.14296214
-0.54078555 -0.47617182 -0.5147555 0.03397934 -0.24351656 -0.7358616 0.06529295 -0.18257296
-0.42750734 -0.11884407 -0.11943899 -0.1679171 -0.22933511 -0.326268 -0.030771289 -0.09484349
0.21828444 -0.65789247 -0.6685868 -0.054542854 -0.28698358 0.22658812 -0.04697637 -0.4153403
-0.055169806 -0.4679248 -0.93120855 0.17561927 -0.15341474 -0.37627745 0.098816305 -0.60799503
-0.15937881 0.2913701 -0.18785197 -0.63056463 -0.26819158 -0.56587803 -0.4986699 -0.26938674
-0.8435075 -0.86186904 -0.94043666 -0.27248606 -0.50332475 -0.45971572 -0.48859164 -0.08847219
-0.030795787 -0.61978745 -0.27681068 -1.0449661 -0.7840417 0.2143856 -0.74349064 -0.8124644
-0.40835738 -0.7254117 -0.49644762 -0.7378375 -0.455854 -0.35442895 -0.5264687 -0.3482223
-0.22549912 -0.39272162 -0.56397694 -1.1006662 0.008883629 -0.24049178 -0.6590785 -0.6222971
-0.03465047 -0.31223848 -0.8365422 0.076880775 -0.52322346 -0.22893174 -0.3239264 -0.30200672
-0.56488436 -0.77314293 -0.4398731 -0.9654269 0.18800867 -0.52793473 -0.48630172 -0.21540816
-0.34900776 0.20430526 -0.7759862 -0.25886485 -0.44132942 -0.3740389 -0.23798157 -0.62665796
-0.35844633 -0.48431054 -1.1503588 0.27054042 -0.76578784 -0.49621698 -0.2983539 -0.2192761
0.007295854 0.06087331 -0.45143408 -0.8363708 -0.36980298 -0.22003268 -0.0014404049 -0.679594
-0.34186038 -0.18232626 -0.31282654 -0.039066117 -0.22840431 -0.5803554 0.0100206025 0.01001266
-0.012213054 -0.26636967 -0.14783768 -0.13872479 -0.3776549 -0.3767709 -0.07957004 -0.27670377
-0.47526863 -0.4173798 0.024384886 -0.30482224 -0.69599336 -0.8136656 -0.2511423 -0.28755578
-0.47221407 -0.4466138 -0.5443806 -0.08900928 -0.23609124 -0.050904203 -0.5548923 -0.028632589
-0.22960117 0.18836106 -0.28090328 -0.21290755 -0.57998025 -0.010096689 0.2527996 -0.5624795
-0.2453846 -0.67057616 -0.39722508 -0.786678 -0.4615329 -0.1489679 -0.090391986 -0.026371052
-0.16462837 -0.13226844 -0.15845814 -0.9313379 -0.2235158 -0.3712533 -0.19050646 -0.40644968

ACT_EMBED.layers.4.weight f4 [4, 64]
00000000: 6a88 20be 1707 8bbe 1b11 09bf aac6 8fbe
00000010: 56a0 22bf 8808 0fbf 7f69 1cbe 943e 32bf
00000020: 7702 be3e 437e 0bbf 6473 a73e 9710 fbbe
00000030: 12f0 d2bd 3dd0 2cbf da07 84bf 1591 69bf
00000040: 2475 28bf a177 80bf fda2 49bf e668 1fbf
00000050: 6bc4 e5bf e2d3 6fbf e7e6 d43c cc91 15bf
00000060: bd4d 67bf 9363 60bf 715b 1dbe d495 793d
00000070: 490d 90be f98a 99be ad2b 98bf 1ce4 8fbf
00000080: b7ae bcbf fd6c abbe f284 c7ba 0c5c 3cbe
00000090: bbde 77be 69c0 05bf 9ce8 20bf 133e eebe
000000a0: 5e74 7abe a5e7 b1bf dcba 87bf db68 ccbf
000000b0: bae3 29bf f0f2 9fbf a442 c63a dde4 8fbf
000000c0: 764b f9bd ac00 55bf 8dae c7bf 8673 1abf
000000d0: b825 0cbf d4fd 28bf d360 79bf 6e3e 8ebf
000000e0: ed1e 61be bf8e 98bf 4843 89bd f4c2 82bf
000000f0: a292 babf cdc3 0dbf 2089 6abf d542 1e3e
00000100: 166e 29be 8c85 6e3e 4cb1 84bf a3cb 26bf
00000110: e489 803f dcda 83bf 494b 893d e813 a9bf
00000120: d4d4 e5bf 67cd 8d3f ca88 4cbe 2320 61bf
00000130: faf4 773d 7b30 e7be 2f3e 88bf 4041 d2bf
00000140: 619c e5bf 6b24 a93f 91fd ccbc 3b69 d0bf
00000150: 0438 3dbf 8c7a cdbf fa20 103e fa93 56bf
00000160: 3211 52be ea0d bfbf 5e6e 0c3e b7a9 053e
00000170: d4f0 82be 5e76 17be f8d5 a3bf ad78 c3bf
00000180: 596c cebf 1804 5b3f b484 d0bf db0d 3dbf
00000190: c2cc 95bc 4b35 1dbf 73c3 33bf bc18 bfbf
000001a0: fe8a 14be 12ca e1bf e7a4 ccbf 97ca c0bf
000001b0: 5cd8 4abf 4d0a 5ebf 5e7c 4c3e cd3c 24bf
000001c0: 521a e5bf 7ee6 243f 4e4d e0bf eecb b1bf
000001d0: b466 ccbf f548 57bf d5c6 a03d e3b2 563f
000001e0: 5779 90bf da75 0cbe 990f e1bf c2ba a5bf
000001f0: e2eb 06bf d2a7 8b3e 2df7 c5bf ebd6 c1be
00000200: 4750 903e 9711 d63c 6909 34bd bbaa 89be
00000210: f5a8 a7bd e33f 3cbf fc5c 25bd 1488 20bf
00000220: 4598 a3be 168e 14be 2590 07bd b18e 25bf
00000230: e5a9 28bd ceb7 6ebc 99c7 11bf fdce dcbd
00000240: aabf 1cbf 33ca 21bd 7044 4fbe d4cb ebbc
00000250: 0014 fbbe 5901 bfbd cc6c 9bbe 6b91 3abd
00000260: 7ecc ce3d d9aa 18be 53fb c33c 821a f53c
00000270: 1b29 62be 10e2 7f3d 4cfc 60be 85ad c6be
00000280: e5a4 16bf f87a 10bd 191e d3be 98a0 09bd
00000290: 75da db3d 8d4e 4cbe ec00 9cbd 04da a4be
000002a0: 063c 38bd e097 30bf f8c9 0abf d205 d0be
000002b0: ee8c 3cbe 49c3 b7be f37d 0bbd a5c5 9fbd
000002c0: b654 903d 9708 b5bd 0c63 fdbe b72b 10bf
000002d0: 7126 48bf 3ee8 aabd 6ebd 7b3d 2523 75be
000002e0: 4198 8c3d b689 47be 6011 773c 9753 acbd
000002f0: e5d1 bdbe 60ff bf3b e4b7 41be 3f61 843e
00000300: a00a c6bd 5bd3 85be 6e38 bfbe b45c 81bf
00000310: ad14 0fbf e43c debd ab91 acbe 311c 383f
00000320: f50d 76be 53cd 2fbf 87dd 33be 54c0 a23f
00000330: 606e a1be e96e 90bf 7dde b4bf d5e1 bbbf
00000340: b7b9 2abf 786c 9cbf 38a3 9abf c29f e8be
00000350: a79d c83d 12f4 85bf 8f8d 65bd 6dcc 12bf
00000360: 15a7 adbf 1b26 71bf 42d7 d63c 3a47 32bf
00000370: a8e3 393d 1532 4dbf fee4 cdbf 7f72 b8bf
00000380: 6b6a bbbf de85 5fbf 1d38 873c 7f1d acbe
00000390: 40bd 393e a77d 91bf e00d b0bf e98e 5ebf
000003a0: 3d3b 373e 5e17 8abf 60f7 99bf 59ad a63f
000003b0: 4bea 53bf 57aa 9bbf c534 a53e 6d48 a1bf
000003c0: ad8d 00bd 53f1 a4bf ae66 323d 614a 1ebf
000003d0: a083 853f e947 2bbf 7bfa 5cbf fec2 64bf
000003e0: 8ae1 fdbe 3046 07bf 734d 03bf f819 bcbf
000003f0: 1ca0 8a3f 574d 70bf d143 8ebf 616f 39bd
-0.15677038 -0.27153847 -0.53541726 -0.28081256 -0.63525903 -0.5587239 -0.15274619 -0.69626737
0.37111256 -0.54489535 0.32705224 -0.49036095 -0.10299696 -0.67505246 -1.0314896 -0.91237
-0.6580374 -1.0036508 -0.78764325 -0.6226944 -1.7950567 -0.9368268 0.025989009 -0.58425593
-0.90352994 -0.8765194 -0.15366913 0.060933903 -0.28135136 -0.2998884 -1.1888329 -1.1241488
-1.4740819 -0.3348159 -0.0015222116 -0.18394488 -0.24206059 -0.5224672 -0.62854934 -0.46531734
-0.24458453 -1.3898817 -1.06039 -1.5969499 -0.6636311 -1.2496014 0.0015126062 -1.1241719
-0.12172596 -0.8320415 -1.5600144 -0.60332525 -0.54745054 -0.6601231 -0.9741337 -1.1112802
-0.21984453 -1.1918563 -0.06702286 -1.0215745 -1.4575999 -0.55376893 -0.91615486 0.15455182
-0.165459 0.23293132 -1.0366607 -0.65154475 1.0042081 -1.0301166 0.06703813 -1.32092
-1.7955575 1.1078309 -0.19974056 -0.8793966 0.060536362 -0.45154175 -1.0643977 -1.6426163
-1.7938348 1.3214239 -0.025023254 -1.6282114 -0.739136 -1.6053023 0.1407508 -0.83819544
-0.20514372 -1.4926121 0.13713977 0.13053022 -0.25574362 -0.14791247 -1.2799673 -1.5271202
-1.6126815 0.8555312 -1.6290498 -0.73849267 -0.018286113 -0.61409444 -0.70220107 -1.4929423
-0.14506146 -1.7639792 -1.5987824 -1.5061826 -0.7923639 -0.8673447 0.19969317 -0.64155275
-1.7898657 0.64414203 -1.7523592 -1.3890359 -1.5968843 -0.840957 0.07850424 0.8386671
-1.128703 -0.13716832 -1.7582885 -1.2947619 -0.5270368 0.27276474 -1.5466057 -0.37859282
0.28186247 0.026131434 -0.043954287 -0.2688807 -0.08186523 -0.73534983 -0.04037188 -0.6270764
-0.3195211 -0.14507326 -0.03309645 -0.64670855 -0.04117765 -0.01457019 -0.56945187 -0.107816674
-0.61229956 -0.039499473 -0.2024095 -0.028783716 -0.49038696 -0.09326429 -0.30356443 -0.045548838
0.100975975 -0.14908923 0.023923552 0.029919866 -0.22085993 0.06247145 -0.21971244 -0.3880426
-0.5884536 -0.035273522 -0.412339 -0.03360042 0.10735027 -0.1995184 -0.07617363 -0.32197583
-0.044979118 -0.6898174 -0.5421443 -0.4062944 -0.18413135 -0.35891178 -0.03405566 -0.078013696
0.07047407 -0.08839529 -0.4948963 -0.56316704 -0.78183657 -0.08345078 0.06145995 -0.23939188
0.06864978 -0.19486126 0.015079826 -0.08414381 -0.370742 0.0058593005 -0.18917805 0.25855443
-0.09669995 -0.26137814 -0.3734774 -1.0106416 -0.55890924 -0.10851458 -0.33704886 0.71918017
-0.24028762 -0.68672675 -0.17564975 1.2714944 -0.31529522 -1.1283847 -1.4130398 -1.4678293
-0.6668963 -1.2220602 -1.208106 -0.45434386 0.09795695 -1.0465109 -0.056043204 -0.5734318
-1.3566614 -0.9419877 0.02622569 -0.69639933 0.045383126 -0.80154544 -1.6085508 -1.4409941
-1.4641851 -0.8731364 0.01650625 -0.33616254 0.181386 -1.1366471 -1.3754234 -0.86936814
0.17893691 -1.0788381 -1.2028618 1.3021652 -0.8277938 -1.2161359 0.32266822 -1.2600228
-0.031385113 -1.2886146 0.043554954 -0.61832243 1.0430794 -0.669066 -0.863197 -0.89360034
-0.49586135 -0.5284147 -0.51290053 -1.4695425 1.0830112 -0.9386801 -1.1114446 -0.045272235

FK_LAYER.joints.0.p_offset f4 [3, 1]
00000000: b5ac 123e d992 c5be 7cc7 ed3f
0.14323695 -0.38588598 1.8576503

FK_LAYER.joints.0.rpy_offset f4 [3]
00000000: 1a37 963c 38cf 333b 8ec7 7e3b
0.018336821 0.0027436744 0.0038876268

FK_LAYER.joints.1.p_offset f4 [3, 1]
00000000: 14ea 873d a671 80be b0e6 af3f
0.06636444 -0.25086707 1.3742275

FK_LAYER.joints.1.rpy_offset f4 [3]
00000000: 71a4 b9bb 92ad 04bc c6dc efbb
-0.005665355 -0.008098023 -0.0073200194

FK_LAYER.joints.1.axis f4 [3, 1]
00000000: f2a3 143e 8fcb acbd 40bf 663e
0.14515665 -0.08437263 0.22533894

FK_LAYER.joints.1.q_layer.0.weight f4 [1, 4]
00000000: 06a8 e93f 9a53 ba3f f0f3 6cbf eb57 5b3e
1.8254402 1.4556763 -0.9255972 0.21420257

FK_LAYER.joints.2.p_offset f4 [3, 1]
00000000: d629 533c d16d 21be 2692 553f
0.012888392 -0.15764548 0.8342613

FK_LAYER.joints.2.rpy_offset f4 [3]
00000000: de62 023c 4742 c6bb 56a0 9a3c
0.007958142 -0.0060503813 0.018875282

FK_LAYER.joints.2.axis f4 [3, 1]
00000000: 1209 a03f c0c3 16c0 e0ed 733b
1.2502768 -2.3556976 0.0037220642

FK_LAYER.joints.2.q_layer.0.weight f4 [1, 4]
00000000: a257 edbf 7774 b0bf 2176 34bf 41f0 24be
-1.8542368 -1.3785542 -0.7049275 -0.16107275

FK_LAYER.joints.3.p_offset f4 [3, 1]
00000000: 0fcd 12be 4dfb ec3d b7a9 c4be
-0.14336036 0.11571369 -0.38410732

FK_LAYER.joints.3.rpy_offset f4 [3]
00000000: 7c67 193c 4c3f c3bc 0702 3abc
0.0093630515 -0.023833893 -0.011353022

FK_LAYER.joints.3.axis f4 [3, 1]
00000000: 46c0 383f 3e81 47bf 670b b13f
0.72168386 -0.7793158 1.3831605

FK_LAYER.joints.3.q_layer.0.weight f4 [1, 4]
00000000: 1092 abbe 1cfc bbbf 0cca d03e 100f bebe
-0.33509874 -1.4686313 0.4077915 -0.37120867

FK_LAYER.joints.4.p_offset f4 [3, 1]
00000000: 63c7 3b3d c103 693e 519b 43bf
0.045844447 0.22755338 -0.7640887

FK_LAYER.joints.4.rpy_offset f4 [3]
00000000: e42a 14bc 7cc3 d73a 484d c7bb
-0.009043429 0.0016461457 -0.0060822107

FK_LAYER.joints.4.axis f4 [3, 1]
00000000: 4bc4 67be 6c42 4dbd 5b16 8fbf
-0.22633474 -0.050112173 -1.1178697

FK_LAYER.joints.4.q_layer.0.weight f4 [1, 4]
00000000: 3b50 213f 0b7d 953f 39c0 aa3f 93a4 66be
0.63013047 1.1678785 1.3339912 -0.22523718

FK_LAYER.joints.5.p_offset f4 [3, 1]
00000000: e930 88bd d743 5c3e af9d b0bf
-0.06649954 0.21510254 -1.3798121

FK_LAYER.joints.5.rpy_offset f4 [3]
00000000: eefc 093c 1338 3dbc 4261 0539
0.00842212 -0.011549014 0.000127201

FK_LAYER.joints.5.axis f4 [3, 1]
00000000: 6458 ad3f 0526 05c0 91e1 f4bf
1.35426 -2.0804455 -1.9131337

FK_LAYER.joints.5.q_layer.0.weight f4 [1, 4]
00000000: 1ac4 f0bf 8be9 fb3f fd88 f3be 0d16 dabc
-1.8809845 1.9680647 -0.4756545 -0.026621843

FK_LAYER.joints.6.p_offset f4 [3, 1]
00000000: 1ea2 3dbe 080e 243e a05e b8bf
-0.18518874 0.16020977 -1.4403877

FK_LAYER.joints.6.rpy_offset f4 [3]
00000000: 2790 923a 229a 36bc b084 a13a
0.0011181877 -0.011145147 0.0012322869

FK_LAYER.joints.6.axis f4 [3, 1]
00000000: a278 423c b061 8c3d 1fea 85bd
0.011869581 0.0685457 -0.06538796

FK_LAYER.joints.6.q_layer.0.weight f4 [1, 4]
00000000: 37c9 28bc 1c5c 18bf 103b 7bbf 8ae9 86bf
-0.01030188 -0.5951555 -0.98137 -1.054002
