results/FC_PRIMNET/FINGER32/weights/epoch_394.pth (torch, 8607 bytes, 10 tensors)

motor_std f4 [4]
0	0x43bf1106	382.133
1	0x43c0b231	385.39212
2	0x43bb6060	374.75293
3	0x43b95760	370.68262

motor_mean f4 [4]
0	0x440b7a2f	557.9091
1	0x440cde5e	563.4745
2	0x440da773	566.6164
3	0x440a3aa7	552.91644

position_std f4 [3, 1]
0	0x3f800000	1.0
1	0x3f800000	1.0
2	0x3f800000	1.0

position_mean f4 [3, 1]
0	0x00000000	0.0
1	0x00000000	0.0
2	0x00000000	0.0

layers.0.weight f4 [32, 4]
0	0xc03d11e4	-2.954217
1	0x40214062	2.5195546
2	0x40545c27	3.3181245
3	0xc045c12a	-3.0899148
4	0xc02f2b1c	-2.7370062
5	0x4034376d	2.815883
6	0xc031262a	-2.7679543
7	0xc014b209	-2.3233664
8	0x3ebd1ba4	0.3693515
9	0x402fa4c9	2.7444327
10	0x402a4680	2.660553
11	0xc037cc70	-2.8718529
12	0xc026ebb3	-2.608136
13	0x401c12e2	2.4386525
14	0xc0063473	-2.0969512
15	0x402ccab6	2.6998725
16	0xc04099ec	-3.0093946
17	0x403e6486	2.9748855
18	0x40296cf6	2.6472754
19	0x4019e097	2.4043329
20	0xc034fcdf	-2.827934
21	0x403e3c88	2.9724445
22	0x405523a4	3.3303003
23	0x4006039d	2.0939705
24	0x402f2134	2.7364016
25	0x4035b68b	2.8392665
26	0xc02abd6b	-2.6678112
27	0xc03186b6	-2.773847
28	0xc02494a1	-2.5715716
29	0xc04ac931	-3.1685297
30	0xc0052c0e	-2.080814
31	0xc041eb53	-3.029988
32	0xc035b5dc	-2.8392248
33	0x4046e342	3.1076207
34	0x4006f345	2.108598
35	0x3f4f5c5d	0.8100031
36	0xbffa5c2b	-1.9559377
37	0xc002d7d5	-2.0444233
38	0x402ce383	2.7013862
39	0xbf99cd63	-1.2015804
40	0x4023b4ee	2.557918
41	0x4036a943	2.854081
42	0xc03470bb	-2.8193805
43	0xc03e5c2e	-2.9743762
44	0x401eb497	2.4797723
45	0x402c8fad	2.6962693
46	0xc036bc13	-2.8552291
47	0x40421559	3.032553
48	0xc026a231	-2.6036494
49	0xc044792c	-3.0698957
50	0xc0302366	-2.7521605
51	0xc019478d	-2.394992
52	0x402de4f1	2.7170985
53	0xc03a6cca	-2.91289
54	0x4035907a	2.8369431
55	0x402e09b8	2.7193432
56	0xc029184f	-2.6421087
57	0xc0347714	-2.819768
58	0xc02384a4	-2.5549707
59	0xbfbe5882	-1.487076
60	0xc032afdc	-2.7919836
61	0x4025f8e0	2.5933151
62	0x401a5257	2.4112756
63	0xc006da3e	-2.1070704
64	0x4026fc04	2.6091318
65	0xc00e72ba	-2.2257524
66	0xc0427443	-3.038346
67	0x4060ba00	3.5113525
68	0x401c0ac0	2.4381561
69	0xc01c55a8	-2.442728
70	0x401dd4bb	2.466109
71	0x4030984f	2.7592962
72	0x403ab79f	2.9174573
73	0x4040d180	3.0127869
74	0x40204f56	2.5048423
75	0xc0368b81	-2.8522646
76	0x40319f5e	2.775352
77	0xc037bf1c	-2.8710394
78	0xc0305cda	-2.7556672
79	0x4029cef3	2.6532562
80	0x402e5617	2.7240045
81	0x4029b7f5	2.6518528
82	0xc0406a68	-3.0064945
83	0x402fbc90	2.745884
84	0xbfc1bf9a	-1.5136597
85	0x400d816b	2.211024
86	0x4036329e	2.8468394
87	0xc0111af6	-2.2672706
88	0xbe35b668	-0.17745364
89	0x3fa3d515	1.2799402
90	0x3fdf048c	1.7423263
91	0xbfb382ce	-1.4024293
92	0x3fe9e9e5	1.8274504
93	0xc030c6ef	-2.762142
94	0xc01870e8	-2.3818913
95	0xbeec9726	-0.46209067
96	0x403beaed	2.9362137
97	0x40367d68	2.8514042
98	0xc041888e	-3.0239596
99	0x402d0908	2.7036762
100	0xc036d54d	-2.8567688
101	0x40160357	2.3439538
102	0x403f7178	2.9913006
103	0xc02f3c0b	-2.7380397
104	0x4022b83e	2.5424953
105	0xc03402e9	-2.8126776
106	0xc029e7fa	-2.6547837
107	0xc0125e5f	-2.28701
108	0x403c8b7a	2.946013
109	0x40324a60	2.7857895
110	0xc02c2423	-2.6897056
111	0xc026de16	-2.607305
112	0x403dd790	2.966282
113	0x3fe596f6	1.7936695
114	0x40329e68	2.7909184
115	0xc0386c7f	-2.881622
116	0x40264caf	2.5984304
117	0xc035a116	-2.837957
118	0xbf8f9edb	-1.1220354
119	0x3ffaf6a0	1.9606514
120	0xc03d299b	-2.9556644
121	0xc01eef87	-2.4833696
122	0x40395efb	2.8964221
123	0xc028a382	-2.6349797
124	0x403059a4	2.7554712
125	0x40385151	2.8799632
126	0xc0331768	-2.7983036
127	0x4030eb6c	2.764369

layers.0.bias f4 [32]
0	0xc0336391	-2.802952
1	0xc05c6353	-3.4435623
2	0xc011f7f1	-2.2807581
3	0xc038b7f8	-2.8862286
4	0xc055fa66	-3.343408
5	0xbfd202fd	-1.6407162
6	0xc0361da8	-2.84556
7	0x403d4115	2.9570973
8	0x40393a93	2.8942
9	0xc0265fb6	-2.5995917
10	0xc03f0507	-2.9846818
11	0xc02cba92	-2.6988873
12	0xc0272289	-2.6114829
13	0xc0323a46	-2.7848067
14	0xc02a7c5a	-2.6638398
15	0xc0423d8d	-3.0350068
16	0x40198e64	2.3993158
17	0xc05d292f	-3.4556386
18	0xc02e1d7e	-2.72055
19	0xc041b7fa	-3.026854
20	0xc0542e1c	-3.3153143
21	0x3ff80624	1.9376874
22	0xc06ddd4e	-3.7166324
23	0xc049a504	-3.1506968
24	0xc041c472	-3.027615
25	0xbee533fe	-0.4476623
26	0xc0359481	-2.837189
27	0xc061670b	-3.5219142
28	0xc02b03ec	-2.6721144
29	0xc0622236	-3.533338
30	0xc0276589	-2.6155722
31	0xc0506092	-3.2558942

layers.2.weight f4 [32, 32]
0	0xc0355d5d	-2.8338234
1	0x3e2a49e5	0.16629751
2	0xc05c0216	-3.4376273
3	0xc02fdb1d	-2.7477486
4	0xc02a32c6	-2.659349
5	0xc0527b8a	-3.2887902
6	0xc043b595	-3.057958
7	0xc053c0c0	-3.3086395
8	0xc04b1156	-3.172933
9	0xc0460309	-3.0939353
10	0x40361e3a	2.845595
11	0xc01b42dc	-2.4259558
12	0xc0331708	-2.7982807
13	0xc025cff5	-2.5908177
14	0xc04840c2	-3.1289525
15	0xc04b369d	-3.1752083
16	0xc0401be2	-3.0017018
17	0x3f4cc3c3	0.7998621
18	0xc040e012	-3.0136762
19	0xc034d8ee	-2.8257403
20	0x40448652	3.0706983
21	0xc0525f1e	-3.2870555
22	0xc04cc00d	-3.1992218
23	0xc048393f	-3.128494
24	0xbf78c1f2	-0.9717094
25	0xc04e16de	-3.2201457
26	0xc03b69fa	-2.9283433
27	0xc05414df	-3.3137739
28	0xc0409083	-3.0088203
29	0xc03db4c6	-2.9641585
30	0xc03b1fc1	-2.923813
31	0x400585e7	2.0862978
32	0xc02b4507	-2.676088
33	0xc030b735	-2.761182
34	0xc0482a8e	-3.1275973
35	0xc0177e8a	-2.3670983
36	0xc030e231	-2.7638056
37	0xc03f6725	-2.9906704
38	0x400b628d	2.17789
39	0xc03538b6	-2.8315864
40	0xc04adaae	-3.1695971
41	0xc04c2033	-3.1894653
42	0x400c406c	2.191432
43	0xc02bfa09	-2.687136
44	0xc02052f3	-2.5050628
45	0xc04150ef	-3.0205648
46	0xc04047c6	-3.0043807
47	0xc047132f	-3.1105459
48	0xc0567794	-3.3510485
49	0xc02e843f	-2.7268217
50	0xc0142e27	-2.315317
51	0xbfd74f06	-1.6820991
52	0x40326273	2.7872589
53	0xc04894e4	-3.1340876
54	0xc0362c48	-2.8464527
55	0xc04926f5	-3.1430027
56	0x40232d23	2.54963
57	0xc028786d	-2.6323502
58	0xc03b8d38	-2.9304943
59	0xc044242a	-3.0647073
60	0xbe38d209	-0.18048872
61	0xc0468d4b	-3.1023738
62	0xc0376887	-2.8657548
63	0xc0229467	-2.5403078
64	0xc0361832	-2.8452268
65	0xc0377aa2	-2.86686
66	0xc03a71db	-2.9131992
67	0xc03e41ef	-2.9727743
68	0xc0537a91	-3.3043559
69	0xc032acf8	-2.7918072
70	0xc035b9a4	-2.8394556
71	0xc045e954	-3.0923662
72	0xc052f7a0	-3.2963638
73	0xc041166a	-3.016993
74	0x4032665a	2.787497
75	0xc0484f2d	-3.1298325
76	0xc044adcb	-3.0731075
77	0xc02db026	-2.7138762
78	0xc0284f9f	-2.6298597
79	0xc0384a68	-2.8795414
80	0xc045ad07	-3.0886858
81	0xc02fd590	-2.7474098
82	0xc016426e	-2.3478045
83	0xc03eef25	-2.9833462
84	0x402bbb11	2.6832926
85	0xc041be82	-3.0272527
86	0x3ff1b606	1.8883674
87	0xc036953d	-2.8528588
88	0x402aef87	2.6708696
89	0xc03571bf	-2.8350675
90	0xc02cd5e0	-2.700554
91	0xc02c279a	-2.689917
92	0xc03489b9	-2.820906
93	0xc03fcd81	-2.996918
94	0xc0340c91	-2.813267
95	0xbf429276	-0.7600473
96	0xc0486882	-3.1313787
97	0xc03477f9	-2.8198225
98	0xc03c136e	-2.938686
99	0xc03aca6c	-2.9186049
100	0xc0391005	-2.8916028
101	0xc050cab4	-3.262372
102	0xc02fd55e	-2.747398
103	0xc03a7950	-2.9136543
104	0xc0466a00	-3.1002197
105	0xc0402473	-3.0022247
106	0x402c87bf	2.6957853
107	0xc04543aa	-3.082255
108	0xc04ef11c	-3.2334661
109	0xc0377bf7	-2.8669412
110	0xc04a7c41	-3.1638339
111	0xc03ed376	-2.9816566
112	0xc04a234c	-3.1584044
113	0xc033e71c	-2.8109808
114	0xc00d25f0	-2.2054405
115	0xc03f11b7	-2.9854562
116	0x3fe27ae4	1.7693753
117	0xc04b6df9	-3.1785872
118	0xc03906db	-2.8910434
119	0xc043d5a7	-3.0599153
120	0xc032ac74	-2.7917757
121	0xc0409948	-3.0093555
122	0xc04ff841	-3.2495272
123	0xc0518456	-3.2737021
124	0xc0401217	-3.001104
125	0xc03be8c0	-2.936081
126	0xc043cc7c	-3.0593557
127	0xbfb1ae43	-1.3881305
128	0xbff3f8d6	-1.9060314
129	0x40521fd2	3.2831922
130	0xc047930a	-3.1183496
131	0xc03de286	-2.966951
132	0xc03b5f68	-2.9276981
133	0xc036f607	-2.8587663
134	0xc04565e4	-3.084344
135	0xc03b1b31	-2.9235346
136	0xc045a082	-3.0879216
137	0xc05466a9	-3.3187659
138	0xc03f8d89	-2.9930136
139	0xc03a687d	-2.9126275
140	0xc03e0b76	-2.9694495
141	0xc04656ad	-3.0990403
142	0xc054a302	-3.3224492
143	0xc02d1c47	-2.704851
144	0xbe98185b	-0.29706082
145	0xc031eea1	-2.7801898
146	0xc02ad2d1	-2.6691172
147	0xc0527b42	-3.288773
148	0xc030f09c	-2.7646856
149	0xc0395e63	-2.896386
150	0xbd718bda	-0.058971263
151	0xc04871a8	-3.131937
152	0xc0310be5	-2.766351
153	0xc0386b44	-2.881547
154	0xc04553bd	-3.083236
155	0xc03f0add	-2.985038
156	0xc04a6b8a	-3.1628137
157	0xc03eb5c3	-2.9798439
158	0xc048580f	-3.1303747
159	0xc02d91f2	-2.7120328
160	0xc03d387d	-2.9565728
161	0xc0355d58	-2.8338223
162	0xc0421413	-3.0324752
163	0xc0030e05	-2.0477307
164	0xc04d43e7	-3.2072694
165	0xc060059a	-3.500342
166	0x402b5488	2.6770344
167	0xc039c3c4	-2.9025736
168	0xc03c449f	-2.9416883
169	0xc05a0e84	-3.407136
170	0xbfc119c9	-1.5085994
171	0xc038bf05	-2.886659
172	0xc03d37ec	-2.9565382
173	0xbfaf5ada	-1.3699601
174	0xc0409ed4	-3.009694
175	0xc0365389	-2.8488486
176	0xc0865582	-4.197938
177	0xc04f660f	-3.2406042
178	0xc025f62b	-2.59315
179	0x4033f2d4	2.811696
180	0x404fd401	3.2473147
181	0xc05a3189	-3.4092734
182	0xc05b3010	-3.4248085
183	0xc02d157d	-2.7044365
184	0x40254338	2.5822277
185	0xc03289ad	-2.789653
186	0xc0430e1f	-3.047737
187	0xc03ee22b	-2.9825542
188	0xc0438793	-3.0551498
189	0xbf8d64be	-1.1046369
190	0xc0506fe5	-3.2568295
191	0x4036513b	2.848708
192	0xc04a0f6b	-3.157191
193	0xc03218c1	-2.7827609
194	0xc058da0a	-3.388308
195	0xc02ab5f0	-2.6673546
196	0xc03a1ccf	-2.9080083
197	0xc04ac756	-3.1684165
198	0xc0417dc8	-3.023302
199	0xc059fc46	-3.4060225
200	0xc03f3bde	-2.988029
201	0xc04f04c5	-3.234666
202	0xbfe4c88f	-1.7873706
203	0xc03ada52	-2.9195752
204	0xc028cabe	-2.6373744
205	0xc0482a2f	-3.1275747
206	0xc03616c6	-2.84514
207	0xc058ddc2	-3.388535
208	0xc05fbdba	-3.495955
209	0xc04fa98a	-3.2447228
210	0xc0338cc0	-2.8054657
211	0xc035b972	-2.8394437
212	0x403002f9	2.7501814
213	0xc045e2d3	-3.0919693
214	0xc044c92a	-3.074778
215	0xc0437f34	-3.0546389
216	0x402933ea	2.6437936
217	0xc04cc631	-3.1995966
218	0xc03bca4c	-2.9342222
219	0xc040758d	-3.0071747
220	0xc04b87d8	-3.1801662
221	0xc02f04db	-2.7346714
222	0xc0446468	-3.0686283
223	0xc037d272	-2.8722196
224	0x401ce8ce	2.4517093
225	0x4047af42	3.120072
226	0xc0441b7a	-3.064177
227	0xc04289d1	-3.0396616
228	0x4027e513	2.6233566
229	0xc0185aa8	-2.3805332
230	0xc038eb74	-2.889371
231	0xc021e8aa	-2.5298257
232	0xc045812a	-3.0860085
233	0xc02b50cf	-2.6768072
234	0xc03fd8e9	-2.9976141
235	0xc0456fc7	-3.0849473
236	0xc035bf3a	-2.8397965
237	0xc044d9c3	-3.0757911
238	0xc0342b6d	-2.8151505
239	0x40303b63	2.7536247
240	0xc045541f	-3.0832593
241	0xc046c8f7	-3.106016
242	0xc03919ee	-2.8922076
243	0xc05259d0	-3.2867317
244	0xc030313a	-2.7530046
245	0xc044c274	-3.0743685
246	0xc03fd24f	-2.9972112
247	0xc046eaaa	-3.1080728
248	0xc02f6709	-2.7406638
249	0xc039bc3d	-2.9021142
250	0xc03fc7ac	-2.996562
251	0xc01b90b2	-2.4307065
252	0xc033a0e8	-2.806696
253	0xc03dc0d4	-2.9648943
254	0xc052f26f	-3.296047
255	0xc0323b6b	-2.7848766

layers.2.bias f4 [32]
0	0xc0424ece	-3.0360599
1	0xc044718c	-3.0694304
2	0xc03a97b1	-2.9155085
3	0xc03cfc13	-2.9528854
4	0xc04a6185	-3.1622021
5	0xc04e8348	-3.2267628
6	0xc03ae67c	-2.9203176
7	0xc03bf25c	-2.9366674
8	0xc0417063	-3.0224845
9	0xc04d0776	-3.2035804
10	0xc046d3de	-3.1066813
11	0xc039bc20	-2.9021072
12	0xc04aa1f7	-3.1661355
13	0xc03dac0a	-2.9636254
14	0xc0447f0d	-3.0702546
15	0xc04497c0	-3.071762
16	0xc0428bf7	-3.0397928
17	0xc036ff9f	-2.8593519
18	0xc0446ff3	-3.0693328
19	0xc0514b42	-3.2702184
20	0xc034fe92	-2.8280377
21	0xc03dcfe5	-2.9658139
22	0xc048ff92	-3.1405988
23	0xc042ebf9	-3.0456526
24	0xc03a0e9f	-2.9071424
25	0xc0436110	-3.0527992
26	0xc042d85b	-3.0444553
27	0xc041d8db	-3.0288608
28	0xc014205d	-2.3144753
29	0xc041ef5c	-3.0302343
30	0xc03e388b	-2.972201
31	0xc03351ab	-2.8018596

out.0.weight f4 [3, 32]
0	0xc0423919	-3.034735
1	0xc03ab042	-2.917008
2	0xc04360fd	-3.0527947
3	0xc02e4a6c	-2.7232924
4	0x4038bd4f	2.8865545
5	0xc03d15e9	-2.9544623
6	0x4028c688	2.6371174
7	0x402e5699	2.7240355
8	0xc0131351	-2.298054
9	0xc01dab8e	-2.4635959
10	0xc02599c9	-2.5875113
11	0xc034509c	-2.81742
12	0xc0470ff2	-3.1103482
13	0xc009fe18	-2.1561337
14	0x403ccbb6	2.9499335
15	0xc0287739	-2.6322768
16	0x4030eb3b	2.7643573
17	0x40433c21	3.050545
18	0x4044269a	3.064856
19	0xc01242d6	-2.2853293
20	0x402cde92	2.7010846
21	0x403b96c3	2.9310768
22	0xc03123aa	-2.7678018
23	0xc03d2b35	-2.9557621
24	0x402fd04a	2.747088
25	0x4039f3d6	2.9055076
26	0x402824b5	2.6272404
27	0xc01a7edc	-2.413993
28	0x40328bae	2.7897754
29	0x40360578	2.8440838
30	0xc044c2a4	-3.07438
31	0x40432f6b	3.0497692
32	0xc0328ff6	-2.7900367
33	0xc03b6b00	-2.9284058
34	0xc03c3145	-2.9405072
35	0x402ef4f2	2.7337003
36	0x402e56b0	2.724041
37	0xc00921d3	-2.1426895
38	0x40373477	2.8625772
39	0x404ac563	3.1682975
40	0x3ee376ef	0.44426677
41	0xbff5a930	-1.9192257
42	0x40257e6f	2.585842
43	0xc03cf28c	-2.952304
44	0x40263839	2.5971816
45	0x40329729	2.790476
46	0x4033cb0b	2.8092678
47	0xc035e6d3	-2.8422134
48	0x403d4273	2.9571807
49	0x4040e36f	3.0138814
50	0xc031f047	-2.7802904
51	0xc02f2dec	-2.7371778
52	0x403e7f7f	2.9765317
53	0x403075d1	2.757191
54	0xc0545764	-3.317834
55	0xc0426eb3	-3.0380065
56	0x40417201	3.0225832
57	0x402c4c36	2.6921515
58	0x403419c1	2.814072
59	0x402bb0fe	2.6826777
60	0x402d3d26	2.7068572
61	0x403d9a21	2.9625323
62	0xc04d4efe	-3.2079463
63	0x40360df0	2.8446007
64	0xc03b8faa	-2.9306436
65	0xc031a3a2	-2.7756124
66	0xc02e54db	-2.7239292
67	0xc01c86e9	-2.4457343
68	0x403eae0b	2.9793727
69	0xc01d97d8	-2.4623928
70	0xc029d5f3	-2.6536834
71	0x402e2d58	2.7215176
72	0xc01ba6bf	-2.4320524
73	0xc0075390	-2.1144753
74	0xc03c1998	-2.939062
75	0xc0228709	-2.539492
76	0xc0382135	-2.8770268
77	0xc0334f51	-2.801716
78	0xc0342de2	-2.8153005
79	0xc0441bc1	-3.064194
80	0x403d4d4e	2.9578433
81	0x404ef16f	3.233486
82	0x402f5b7c	2.7399588
83	0x3fdb61a4	1.7139173
84	0x403255b7	2.7864816
85	0x40411429	3.0168555
86	0x403cbc42	2.9489903
87	0xc02bbee2	-2.6835256
88	0x402afa4d	2.6715271
89	0x403d3a64	2.956689
90	0xc027061c	-2.609748
91	0x403d4460	2.9572983
92	0xc032a361	-2.7912219
93	0x40470ed0	3.110279
94	0xc030a0a9	-2.759806
95	0x401cc991	2.4498026

out.0.bias f4 [3]
0	0xbcbd393d	-0.023098582
1	0xbd04d106	-0.032425903
2	0x3dc37dd6	0.09545486
