results/FC_PRIMNET/ABAQUS64/weights/epoch_265.pth (torch, 26463 bytes, 10 tensors)

motor_std f4 [3]
000000 f4 9d 66 3e 82 68 6a 3d a9 df bc 3b
       0.22521192 0.057228573 0.005763967

motor_mean f4 [3]
000000 c2 4d 83 be 80 8e 51 39 94 39 b8 bd
       -0.25645262 0.00019984879 -0.08995357

position_std f4 [3, 1]
000000 00 00 80 3f 00 00 80 3f 00 00 80 3f
       1.0 1.0 1.0

position_mean f4 [3, 1]
000000 00 00 00 00 00 00 00 00 00 00 00 00
       0.0 0.0 0.0

layers.0.weight f4 [64, 3]
000000 d6 e7 de bb f2 cb 0d be fa 57 af bd 92 29 b9 3b
       -0.0068025393 -0.1384733 -0.08561702 0.0056507075
000010 42 af de be a6 89 c2 be c8 e9 ca bc 71 d0 09 bd
       -0.43493086 -0.37995642 -0.024769679 -0.03364605
000020 d7 34 72 bc 78 ec be be aa 77 11 3f 6a 67 1c 3f
       -0.014783106 -0.37289786 0.5682322 0.610953
000030 9e d2 2d be ee 47 14 3f 62 d2 a3 be 22 d7 c4 be
       -0.16974875 0.57922256 -0.31996447 -0.38445383
000040 2d bc 46 3e 65 ff 81 bf 6b 2e 50 3e 97 51 f7 3e
       0.19407721 -1.0156065 0.20330207 0.48304436
000050 64 07 89 3e 17 d8 73 3f 3f 22 1a bf 85 ab 1a 3e
       0.2676345 0.952516 -0.60208505 0.15104492
000060 94 23 cf be 65 28 e5 be 22 28 b9 bd a2 2a 6f 3f
       -0.4045683 -0.4475738 -0.09040858 0.9342443
000070 fe 90 79 bf 6d 50 13 be 82 8a aa bc 87 ed 9c 3d
       -0.97486866 -0.14386149 -0.020817999 0.07662492
000080 d1 79 9b 3e c5 3b 34 3f 57 0c 1f bf bb 78 c8 be
       0.30366376 0.704037 -0.62128204 -0.3915461
000090 a7 4d 64 bc 82 64 2d be 13 3c 2b 3c ef ea 0e be
       -0.013934529 -0.16932872 0.0104513345 -0.13956808
0000a0 3c 8d d1 3e 7c 5f 80 bf e9 ff 68 3f 36 6d 46 bf
       0.40928066 -1.002914 0.9101549 -0.7751039
0000b0 9f f7 83 bf a5 14 1e 3d 0e 25 e2 3e 85 b0 c2 bf
       -1.0309943 0.038593907 0.44168895 -1.521012
0000c0 35 24 a7 3c 60 f9 b4 be 62 eb 37 be 71 a3 a5 be
       0.020403007 -0.35346508 -0.17960885 -0.32351258
0000d0 71 b6 3d 3f 1c 67 c8 3e 2d 6c d9 be ff fa 8f 3f
       0.7410651 0.39141166 -0.42465344 1.1248473
0000e0 5e 72 35 3e f0 31 a3 3e 7d a1 2e be e1 4a 3b 3f
       0.17719409 0.31874037 -0.1705379 0.7316113
0000f0 d3 ee 10 bf ed 24 1c 3f 91 ff 56 3f 86 e1 34 bd
       -0.56614417 0.60993844 0.83983713 -0.04416039
000100 68 e8 b6 bc ee 8a 1a bc b7 a3 07 be 51 12 d2 be
       -0.022327617 -0.0094325375 -0.13246046 -0.410296
000110 55 9e 31 3e 2f 73 f0 be 5e 11 a2 3f 89 b6 b4 bd
       0.17345555 -0.46962878 1.266155 -0.08823878
000120 0b d7 00 be 54 53 0d 3f 46 91 86 be 56 d0 1e 3e
       -0.12582032 0.55205274 -0.2628271 0.15509161
000130 ce 6d ee bc 51 2c 8c 3e 08 5e 42 be 47 63 e9 3e
       -0.029105093 0.2737756 -0.18981183 0.45583555
000140 a7 89 5e be 30 21 92 bf 33 06 a9 3f 3d e7 94 bf
       -0.21732198 -1.1416378 1.3205017 -1.1633068
000150 44 f8 3f bf 50 53 86 3f 86 12 8f 3e f1 4d fd be
       -0.749882 1.0494175 0.2794382 -0.49473527
000160 6a 26 0d 3f 2f f1 11 3f 87 9f 7b 3f 11 5b 86 bf
       0.5513674 0.5700864 0.98290294 -1.0496541
000170 40 19 0a be 16 70 9c 3e ef 58 0d bf 7e 4b 94 3d
       -0.13486195 0.30554265 -0.55213827 0.072409615
000180 e1 b0 3c 3f 46 19 06 bf 0f ab 56 3f ed b3 45 bf
       0.73707396 -0.52382314 0.83854765 -0.7722767
000190 cf e3 5c 3f d0 4c 10 3c 56 79 06 3f 49 05 81 bf
       0.8628511 0.008807376 0.52528894 -1.0079738
0001a0 00 33 07 3f 39 88 e3 be 57 fe 14 bf af 55 43 bf
       0.52812195 -0.44439867 -0.5820059 -0.7630262
0001b0 98 d5 c2 3e 70 96 b6 be ab 2a 06 3d 5e 6b 2f 3f
       0.38053584 -0.3566165 0.032755535 0.68523204
0001c0 3e 27 c6 3e f4 98 c5 3e 5f b3 86 bf 92 a4 a1 3f
       0.38701814 0.38593256 -1.052349 1.2628348
0001d0 85 cc 01 bd 8b 8a a9 3d 19 e2 a2 be 34 db 43 3d
       -0.031689186 0.08278378 -0.31813124 0.04781647
0001e0 7e f7 fd 3e 73 2a 17 be 7c fa 62 bf 1f 32 c6 3e
       0.49602884 -0.14762287 -0.8866346 0.38710114
0001f0 a3 18 a3 bf 53 d9 20 3f 5f d7 56 3e a5 d7 8d be
       -1.2741894 0.6283161 0.20980595 -0.27703586
000200 0e 3e 9b 3d 04 54 d5 3e 45 c7 ff be c0 b6 37 3f
       0.07580195 0.4166566 -0.49956718 0.7176323
000210 a0 4c e9 be bd 88 3c 3f 70 8f 90 be e4 e7 d8 3d
       -0.45566273 0.73646146 -0.28234434 0.105911046
000220 5e ff 0f 3f a0 6b 22 3e d4 87 1c bf 20 ba 2c bf
       0.56249034 0.15861368 -0.6114476 -0.67471504
000230 c9 f9 68 3f 89 af 6f bf 1c a6 41 3f 6a 2a a8 3e
       0.9100614 -0.9362722 0.7564409 0.3284486
000240 bc d5 57 3f 59 a7 89 bf 95 13 1e bf da de 34 3f
       0.8431051 -1.0754195 -0.6174863 0.70652544
000250 c5 40 ae bf 5c 79 2d bd 48 33 b6 3e 12 bf 21 3f
       -1.3613516 -0.042352065 0.35586 0.63182175
000260 43 19 47 bf fa 8b 10 3f c6 c4 75 3f 93 e9 1f 3f
       -0.7777292 0.5646359 0.9600338 0.6246578
000270 df 87 fd 3e 34 2e 3c bf 8f eb b5 3f 5d 02 37 be
       0.49517724 -0.73508 1.4212512 -0.17871995
000280 33 d0 6e be ce b2 62 3e fc 13 85 3e ef d4 0a bf
       -0.23321609 0.22138521 0.2599181 -0.5423116
000290 54 b9 99 3e 38 f5 43 bd 05 80 04 3e 35 ae e3 bd
       0.30024207 -0.04784128 0.1293946 -0.11117212
0002a0 23 ef 2f 3f 0b 33 0b 3e eb c3 de 3d cf 34 9b bf
       0.6872427 0.1359369 0.10877212 -1.2125491
0002b0 b0 b2 2a bf 3e 4e 7b bf 35 aa 0c 3f 2e f6 74 bf
       -0.66678905 -0.98166263 0.54947215 -0.9568814
0002c0 7c 32 31 be b2 90 46 bf 49 08 51 3f c7 2e 1a bd
       -0.17304415 -0.7756454 0.8165327 -0.037642267
0002d0 51 7c 2f bd 0e 15 87 3e 68 9f e3 3e cd a5 03 bd
       -0.042843167 0.2638325 0.44457555 -0.03214054
0002e0 fb 13 43 3d 81 40 9b 3c f4 e9 9c 3f 25 9a 1b bf
       0.047626477 0.018951656 1.2258897 -0.6078208
0002f0 dc c5 58 3f 2c f6 11 be 20 b9 34 3d be a6 a1 3f
       0.8467691 -0.14254063 0.04412186 1.2629011

layers.0.bias f4 [64]
000000 1e 83 d0 be 6d 5d b9 bf 81 61 d0 be cb 56 19 c0
       -0.40725034 -1.4481636 -0.4069939 -2.3959224
000010 ff 8e 1a c0 aa d3 6a be e0 cd 1f c0 c6 28 2d c0
       -2.4149778 -0.22932306 -2.4969406 -2.7056136
000020 1e 16 8e bf be a6 52 3f 13 08 3c c0 2e 39 3c c0
       -1.11005 0.8228568 -2.9379928 -2.94099
000030 3e a5 ab be bf 89 f2 3f bb 21 02 c0 e3 1d 30 40
       -0.33524507 1.8948287 -2.0333087 2.7518241
000040 cb 1c c8 bf b5 f6 46 be e2 10 f1 bf 7b 45 0d c0
       -1.5633787 -0.19430049 -1.8833277 -2.2073658
000050 26 d1 e5 be b8 ff 06 be ac fe d7 bf ed d1 c0 bf
       -0.4488613 -0.13183486 -1.6874595 -1.5064064
000060 4c f3 3c c0 2a a1 1d c0 14 bf 35 40 a1 99 0d c0
       -2.9523497 -2.4629617 2.8397875 -2.2125018
000070 a2 b6 b9 bf 12 c4 05 40 d4 de 86 bf 63 a1 af bf
       -1.450886 2.0900922 -1.0536752 -1.3721126
000080 ee 16 39 c0 a2 6d d5 3f 0e d1 2a c0 16 90 30 c0
       -2.8920245 1.6674082 -2.6690097 -2.7587943
000090 8c 58 1c c0 49 82 11 c0 27 fe dc be 5b eb 0d 40
       -2.4429045 -2.273577 -0.43162653 2.21749
0000a0 aa c7 a2 bf 44 1d 22 40 d8 97 ca 3f de e9 1a c0
       -1.2717183 2.5330362 1.5827589 -2.4205241
0000b0 1a 0e c1 3f 5d a2 18 c0 83 c5 e2 bf 53 cf 45 3f
       1.5082428 -2.3849099 -1.7716526 0.77269477
0000c0 3a a9 b1 bf 5c 5a 09 bf d4 90 e8 bf 0f 0c 24 c0
       -1.3879769 -0.536535 -1.8169198 -2.563236
0000d0 1a b9 b9 3f 4b b0 8f c0 f1 88 26 40 e7 70 f4 be
       1.4509614 -4.49027 2.6021082 -0.47742388
0000e0 64 fe ab bf 6c 0b 11 c0 01 43 01 c0 22 c7 95 be
       -1.3437009 -2.2663221 -2.0197146 -0.2925349
0000f0 c5 0f 38 40 3e d2 2c be 13 87 44 c0 00 d3 1c c0
       2.8759625 -0.16877076 -3.0707443 -2.4503784

layers.2.weight f4 [64, 64]
000000 29 ae 3d 3e af 1a 9e bf 29 83 03 3e 25 49 01 c0
       0.18523468 -1.2351893 0.12843002 -2.0200894
000010 77 dd 7e bf eb a6 d6 bf ae 83 06 c0 73 e1 1a be
       -0.9955668 -1.6769689 -2.101787 -0.15125065
000020 43 5e ea bf de c3 bd bf 07 35 2c c0 14 37 38 c0
       -1.8310016 -1.4825399 -2.6907365 -2.8783617
000030 a5 82 a6 bd 1d 67 bc bf 07 f8 90 3e fb 78 a5 bf
       -0.08130387 -1.4718968 0.2831423 -1.2927545
000040 11 0e b6 bf ef 30 07 c0 57 32 88 3f 43 ec f8 bf
       -1.4223043 -2.1123617 1.0640363 -1.9447101
000050 17 2b 08 c0 54 57 d6 3d fb 11 11 c0 6a f3 11 c0
       -2.12763 0.10465875 -2.2667224 -2.2804818
000060 5b 4e 18 c0 ed de 09 c0 cc da 87 bf 4e ea 04 c0
       -2.3797824 -2.1542313 -1.0613647 -2.0768008
000070 f1 d2 14 c0 4c b0 d4 bf 33 45 c6 bf cd 94 e7 bf
       -2.3253748 -1.6616302 -1.5489868 -1.8092285
000080 1c f1 0e c0 44 1e bf bf ac 1e 1a c0 f3 08 15 c0
       -2.2334661 -1.4931111 -2.408122 -2.3286712
000090 2c bd 8b bf a5 34 d6 bf 5b d4 0f c0 a8 fb a7 bf
       -1.0917106 -1.6734816 -2.2473361 -1.3123674
0000a0 dc b6 06 c0 44 2c 9a bf 2f b2 dd bf 96 da 04 c0
       -2.1049109 -1.2044759 -1.7320002 -2.0758414
0000b0 d6 32 ce bf 1c 9c df bf ac cc 00 c0 11 d7 00 c0
       -1.6109264 -1.7469516 -2.0124922 -2.0131266
0000c0 61 7f e7 bf e6 00 d2 bf cc 7c 10 c0 e2 97 20 3f
       -1.8085748 -1.6406524 -2.257617 0.62731755
0000d0 a0 e5 a8 bf e1 69 29 40 ab ce aa bf e4 13 b5 bd
       -1.3195076 2.6470873 -1.334432 -0.088416845
0000e0 38 ca cf bf 99 e1 f7 bf 07 f7 00 c0 79 36 03 c0
       -1.6233587 -1.9365722 -2.0150774 -2.0501997
0000f0 d2 c8 95 bf 1d a3 2b 3e b7 3b 1a bf 9f bb e3 bf
       -1.170191 0.16761442 -0.6024737 -1.7791632
000100 3b 38 01 be b2 4a 60 be 3f 9e 40 bd 73 5e 6f bf
       -0.12619106 -0.21903494 -0.047025915 -0.93503493
000110 b2 ee c8 3e 31 6f e1 bc 83 59 54 bf a6 49 f3 3e
       0.3924461 -0.02751884 -0.82949084 0.47517127
000120 24 a4 2a be 75 65 6e 3e 45 05 8d bf a9 b8 ed bf
       -0.16664177 0.2328089 -1.1017233 -1.8571979
000130 40 32 00 3e 04 28 a6 3e 62 f6 43 3e a7 1a 32 3f
       0.12519169 0.32452404 0.19136956 0.6957192
000140 bf ad 81 be e3 6a 8a 3d ef df 6b be d4 bb 8f 3f
       -0.2532787 0.06758668 -0.23034643 1.1229196
000150 77 62 6b 3d 72 89 fd 3d 30 b9 3b 3f 7d 58 c6 be
       0.05746695 0.12379731 0.7332945 -0.38739386
000160 12 7e f6 3d 2d 15 05 3f c9 b1 72 3f 26 3c c5 be
       0.12035765 0.51985437 0.9480253 -0.38522452
000170 a4 13 9a be 94 9b fe 3e 98 eb ad 3d a8 dc 96 3e
       -0.3009311 0.49728072 0.084922016 0.29465222
000180 ca 4a c4 bd 89 1a 31 3e a6 e8 68 3f a7 46 16 3f
       -0.095845774 0.17295279 0.90979993 0.58701557
000190 dd 3c 34 3f 57 10 dd 3f d0 96 0d be 80 dc 62 3e
       0.7040537 1.7270612 -0.13827062 0.22154427
0001a0 d7 48 fd be 14 93 46 3f e9 f3 53 3e ed 0c 6c bf
       -0.49469635 0.77568173 0.20698513 -0.92207223
0001b0 bd ae a2 3e 94 00 42 3e d2 5c 32 3e 44 64 5d 3e
       0.3177394 0.18945533 0.1741822 0.2162028
0001c0 52 9f 7d be 80 f6 d8 bd 47 43 68 3a dd 4e 83 3f
       -0.24767807 -0.10593891 0.0008860123 1.0258442
0001d0 6f e6 1f 3f ca 6a 45 40 c1 bf c1 3e 98 f9 3a 3d
       0.6246099 3.084643 0.3784161 0.045648187
0001e0 5b 5d 40 bf c5 6a 81 3e 8f fa d9 3f 8b 83 c2 bd
       -0.7514245 0.2527677 1.702959 -0.09497746
0001f0 17 2e 42 3f 1f eb 43 39 4e a2 47 be f1 f1 7a 3f
       0.7585158 0.00018684239 -0.19495508 0.98025423
000200 90 e2 de 3d 0c 87 15 3e a9 3e e9 bc bc a4 42 bf
       0.10883057 0.14602298 -0.028472262 -0.76032615
000210 cc 42 3c 3e 38 07 ba 3e 41 cf d0 bd e4 7b e9 3e
       0.18384856 0.36333632 -0.101957805 0.45602334
000220 f1 a9 11 3b 24 d6 79 be 67 71 15 bf 60 1c c0 bf
       0.0022226537 -0.24398094 -0.58376163 -1.5008659
000230 72 c8 4f 3d 74 c6 72 3f 9b b4 95 bd d4 7c b7 3f
       0.05072827 0.94834065 -0.073098384 1.433497
000240 e4 04 a8 bd c1 74 8c 3f 8e de d0 3d 98 79 02 40
       -0.08204058 1.097313 0.10198699 2.0386715
000250 88 39 64 3f 8c 5a 59 3e 24 a7 a5 3f 3e 5c 59 3f
       0.89150286 0.21225947 1.2941632 0.84906375
000260 67 6b e6 3e d0 cc 5a 3f a0 d2 7a 3f eb 66 47 3f
       0.45003816 0.8546877 0.9797764 0.77891415
000270 de ab 83 3f 42 ec 69 3f 98 8a 89 bf 03 f7 35 be
       1.0286825 0.91376126 -1.074542 -0.17770009
000280 51 19 11 3f 6c 2a 87 3f 85 10 cb 3f a7 28 8e 3f
       0.56679255 1.0559821 1.5864416 1.1106156
000290 35 6a 72 3f c9 51 e8 3f ec 67 93 3f 3b ed f7 3e
       0.9469331 1.8149959 1.151609 0.4842318
0002a0 db f0 38 bd 6f a0 b2 3e 73 bc 94 3e b1 7f 15 bf
       -0.045151573 0.34888026 0.29050025 -0.58397967
0002b0 c6 06 31 3f 53 88 3c 3f d1 4d a1 3f 9e f8 c0 3f
       0.6915096 0.73645514 1.2601873 1.5075872
0002c0 96 19 d5 be bb ff af be bb 37 42 3f 84 dc 75 3f
       -0.41621083 -0.34374794 0.7586629 0.96039605
0002d0 db c5 5e 3e d6 f5 2c 40 59 3a 58 3f d2 44 ae 3c
       0.21755163 2.7025046 0.8446403 0.02127305
0002e0 9c 93 21 bf f5 57 8d 3f b9 17 e8 3f 39 6e 92 3f
       -0.6311586 1.1042467 1.813224 1.1439887
0002f0 5f 3f 9b 3f 28 80 40 bd be ea ee 3d 20 5e a5 3f
       1.2128714 -0.04699722 0.11665867 1.291935
000300 af bc b8 3e 13 1f 7b bf 0e a5 d1 3d df cd ff bf
       0.36081454 -0.9809429 0.1023656 -1.9984702
000310 64 48 1e 3f 0e 2e 0a be 2e 78 e3 bf f0 c1 a5 bc
       0.6182921 -0.13494131 -1.7771051 -0.020234078
000320 60 d5 1f bf 20 f6 13 3f 61 54 b9 bf d7 ae 0f c0
       -0.6243496 0.5779743 -1.4478875 -2.2450464
000330 e7 05 8e bc 5e c7 6c be 2a 26 24 bd 42 fb 14 bc
       -0.017336799 -0.23122928 -0.04007546 -0.009093108
000340 ba cb 26 bf f2 4c 2e bf f3 57 c4 be 3b e3 01 bf
       -0.6515461 -0.6808616 -0.3834835 -0.5073735
000350 64 43 0e bf 54 85 7a 3e dc 96 39 bf 5d ac da bf
       -0.5557158 0.24464923 -0.7249582 -1.7083851
000360 e6 2c e9 bf 8a 51 47 bf 13 50 82 3f 05 64 df bf
       -1.8216827 -0.77858794 1.0180687 -1.7452399
000370 b4 fc 84 bf 9d 5a 0d bc 3b 45 a6 3f fa f3 28 bf
       -1.0389619 -0.008627561 1.2989877 -0.6599728
000380 69 3c dc bf 4e 75 c3 3d 5f 18 a2 bd 3d 2c 4c be
       -1.7205936 0.095438585 -0.07914805 -0.1993875
000390 8c 53 4a 3e 93 f7 52 3e 4c ee 8d bf 31 3d 9e 3b
       0.19758433 0.20602255 -1.1088347 0.004829072
0003a0 97 52 29 bf c7 01 01 3f c4 43 29 bc 16 59 e4 bf
       -0.6614165 0.50393337 -0.010331098 -1.7839687
0003b0 c3 f6 89 3e 1f d4 9f be 07 f8 1d bf 9d de 42 bf
       0.26946077 -0.31216523 -0.61706585 -0.7612093
0003c0 b9 a8 d2 3d fb 04 1b bf bc 12 2b bf 6b c2 4b 3f
       0.102860875 -0.60554475 -0.6682546 0.79593533
0003d0 17 f7 83 3e 6d dd 2c 40 69 3f 4b 3b bf fc e0 bd
       0.25774452 2.7010148 0.0031013137 -0.109857075
0003e0 13 71 84 bf ef c6 6b bf 8b 3d c5 3f 32 eb 85 be
       -1.0347008 -0.92100424 1.5409406 -0.26156002
0003f0 f5 a1 06 3f 71 8b 6b be ab 1a a6 3e db 72 15 be
       0.52590877 -0.23002411 0.3244222 -0.14594595

layers.2.bias f4 [64]
000000 30 70 ce 3f 96 c4 66 40 74 20 5f 40 e4 38 62 40
       1.6127987 3.6057487 3.4863558 3.5347223
000010 8d b9 66 40 18 d3 39 c0 ec 5c 6b 40 69 ec 3a c0
       3.6050751 -2.9035091 3.6775465 -2.9206793
000020 49 09 41 c0 df 31 22 3d 46 83 61 40 59 39 5d 40
       -3.0161917 0.039598342 3.5236373 3.4566252
000030 53 57 51 40 45 42 61 40 fa 71 60 40 35 37 5f 40
       3.2709548 3.5196698 3.5069566 3.4877446
000040 0a 22 58 40 c9 1d 67 40 4c cc 64 40 c1 07 51 40
       3.3770776 3.611193 3.5749693 3.2660983
000050 bd a1 40 c0 c6 d5 62 40 55 d7 36 c0 d5 fa 37 c0
       -3.0098717 3.5442977 -2.8568928 -2.8746846
000060 e4 6e 62 40 39 1d 44 c0 6c b4 3d c0 fb 33 3c c0
       3.5380182 -3.0642836 -2.964137 -2.9406726
000070 ed 28 36 c0 30 21 4b 40 77 86 52 40 8c ef 4f 40
       -2.846248 3.1739006 3.289457 3.2489958
000080 0c 02 24 40 57 b1 58 40 e6 2e 32 c0 48 8e 52 40
       2.562625 3.385824 -2.7841125 3.2899342
000090 91 51 36 c0 64 b3 3d c0 f1 6f 5a 40 98 6f 40 c0
       -2.8487284 -2.9640741 3.4130824 -3.0068111
0000a0 cc 7b 0f c0 bb ec 3c c0 3f 01 5f 40 ed c1 4c 40
       -2.241931 -2.951949 3.484451 3.1993363
0000b0 8f 06 a3 3f 48 b0 59 40 bc a8 67 40 c9 2f 3b c0
       1.2736377 3.4013844 3.6196737 -2.9247916
0000c0 c4 87 3c 40 83 f6 40 40 b8 29 62 40 ba 9e 36 c0
       2.9457865 3.015046 3.5337963 -2.853438
0000d0 55 af 3d c0 87 87 5e 40 b9 27 56 40 4f ac 41 c0
       -2.9638264 3.477022 3.3461745 -3.026142
0000e0 e8 b4 4f 40 31 b1 40 c0 46 5f 3e c0 9b df 38 40
       3.2454166 -3.010815 -2.974565 2.8886478
0000f0 93 60 69 40 89 03 69 40 bf 35 5e 40 57 6d 33 c0
       3.6465194 3.6408408 3.4720304 -2.8035486

out.0.weight f4 [21, 64]
000000 36 07 66 bf 63 2a f8 3c e1 cd 9d be 7a fd b7 3e
       -0.89854753 0.030293649 -0.30821136 0.35935575
000010 38 67 ac bd e6 7c 21 c0 30 64 93 be 9c ab 40 c0
       -0.08418125 -2.5232482 -0.28787374 -3.0104742
000020 42 30 3f 40 57 17 33 bf 4d c6 96 be 7f bd ca be
       2.9873204 -0.6995749 -0.29448166 -0.395977
000030 0e 19 12 3f 96 a2 46 3e de 17 be be 45 78 fe 3d
       0.5706948 0.19397959 -0.37127584 0.12425283
000040 9a 4e 7d 3f 60 1b 5a be 11 cb d5 3e 66 cd 94 3e
       0.9894806 -0.21299505 0.4175649 0.29062957
000050 bd 86 3c c0 66 00 1f 3b 26 cf 32 c0 14 15 36 c0
       -2.9457238 0.0024261712 -2.7938933 -2.8450365
000060 32 1e 06 3e 97 b3 36 c0 af 8b 33 c0 b2 b9 22 c0
       0.13097456 -2.8547113 -2.8054006 -2.542584
000070 0c a8 3a c0 d5 d9 24 3e 13 f7 12 3f 16 6f 03 3e
       -2.9165068 0.16098721 0.57408255 0.12835345
000080 05 40 bc bf 72 84 b3 3e 70 58 39 c0 b2 28 2b 3f
       -1.4707037 0.35061985 -2.8960228 0.6685897
000090 49 4c 2e c0 86 cc 3d c0 34 cc 94 3d bf 5f 42 c0
       -2.723406 -2.9656081 0.07265511 -3.0370939
0000a0 53 05 ac bf f9 c8 41 c0 1d f0 d2 3e ea ca b9 bf
       -1.3439125 -3.0278914 0.41198817 -1.451505
0000b0 85 26 2d 3f c6 73 1d 3f 1e f5 9c be 29 98 3b c0
       0.676369 0.6150478 -0.3065576 -2.931162
0000c0 35 6d 91 be c1 ea ac bf 5d 6f f0 bd 08 42 40 c0
       -0.2840363 -1.3509141 -0.11739991 -3.0040302
0000d0 65 9f 36 c0 84 5c 1b be 4e a5 20 3f 78 50 35 c0
       -2.8534787 -0.1517201 0.62752235 -2.8330364
0000e0 94 ef e6 3d be 8d 37 c0 ca c3 33 c0 2e 62 df 3f
       0.11276165 -2.8680263 -2.808825 1.7451837
0000f0 17 e2 28 bf 04 6c cc be ee 29 a1 be 85 5e 30 c0
       -0.65969986 -0.3992616 -0.31477302 -2.755769
000100 a9 f7 9f bf 18 3c 23 be dc 27 17 3d 4c f5 99 be
       -1.2497455 -0.15940893 0.036903247 -0.3006996
000110 0f ad c5 be cd 07 30 c0 4d 0d 26 3c af da 39 c0
       -0.38608596 -2.7504761 0.010135007 -2.9039724
000120 dc a8 26 40 20 f9 81 be 0e 57 ba 3d f5 7f 6b 3d
       2.6040564 -0.2538538 0.090986356 0.057495076
000130 bc 39 4f bf f1 3c 9a bc 77 b6 06 3d fe 0e ff 3d
       -0.8094747 -0.018827887 0.032888856 0.124540314
000140 2b b3 46 bf c2 4f aa bd 26 27 85 bf ca 00 68 bf
       -0.7761714 -0.08315994 -1.0402572 -0.90626204
000150 2d 42 3a c0 50 7d 01 3e d5 e4 3c c0 09 7d 3c c0
       -2.910289 0.12645459 -2.9514668 -2.9451315
000160 30 20 01 3e 9d d1 3b c0 5d 57 43 c0 44 fe 4a c0
       0.12609935 -2.9346688 -3.0522072 -3.1717691
000170 67 47 3b c0 d5 28 75 3e ff 25 b8 bf 9f 2a 71 bf
       -2.926233 0.23941357 -1.4386595 -0.9420566
000180 21 44 50 bf fe fa 6d be 3f 11 25 c0 36 26 72 3f
       -0.81353956 -0.23240277 -2.5791776 0.94589555
000190 52 2f 2c c0 d6 1a 37 c0 fe 81 8b 3d c1 95 2f c0
       -2.6903882 -2.861013 0.068119034 -2.7435153
0001a0 7d 51 d5 bf 7d 06 3f c0 5a 30 19 be 57 e5 65 3f
       -1.6665493 -2.984771 -0.14959851 0.8980307
0001b0 42 26 70 bf 45 a7 bd bf 29 92 35 3e 5c 7d 2a c0
       -0.93808377 -1.4816672 0.17731537 -2.6639013
0001c0 35 00 61 3e ec 2b 69 bf 9f cd 99 be 53 21 31 c0
       0.21972735 -0.91082644 -0.3003969 -2.767659
0001d0 7a ae 29 c0 75 9b 1f bd dd 7c 16 bf d1 57 3f c0
       -2.6512742 -0.038966615 -0.58784276 -2.989735
0001e0 d3 7e 8e bf f8 a2 42 c0 04 a9 3a c0 ff 5c eb 3f
       -1.1132454 -3.0411968 -2.916566 1.8387755
0001f0 df fd 04 be 9f b9 60 3e 73 7d 5a be 67 76 31 c0
       -0.12987469 0.21945809 -0.21336918 -2.7728517
000200 50 6e e3 bd ad 0f b2 be 7f ee 5e 3e f7 47 6e bf
       -0.11105025 -0.34777585 0.21770667 -0.9307856
000210 24 34 3f 3e 4a 31 34 c0 14 f6 7c bd 9f 77 3a c0
       0.18672234 -2.8155084 -0.061758116 -2.913551
000220 ce 64 28 c0 b3 3b b5 3f 65 06 96 3e 08 55 02 3f
       -2.6311526 1.4158844 0.29301754 0.50911
000230 c0 97 8a bf cd 7f d7 be 4f 71 b1 3e 3b 03 89 be
       -1.082756 -0.42089692 0.3465676 -0.26760277
000240 ed c9 ac bf eb f0 f8 3c f1 eb 8d bf 00 af a6 bf
       -1.3499123 0.030388316 -1.1087629 -1.3022156
000250 96 18 3e c0 0b ec 59 3d 1f fa 37 c0 ed 7b 40 40
       -2.9702506 0.053203624 -2.8746412 3.0075638
000260 d6 1e 73 bd 9f 83 c3 3f 37 5f 2f c0 07 98 3b 40
       -0.05935558 1.5274543 -2.7401865 2.931154
000270 35 cd 3f 40 29 7b 94 bd 56 c1 af bf 79 e4 ea be
       2.9968998 -0.072500534 -1.3730876 -0.45877436
000280 85 d2 83 3f e6 5e 0b bf c7 85 2f c0 b2 62 a3 bd
       1.029862 -0.5444168 -2.7425401 -0.07977809
000290 2b d0 1e 40 74 1a 4b 40 d6 a3 7c 3d 49 68 37 c0
       2.4814556 3.1734896 0.061679684 -2.86574
0002a0 27 fa ab 3f 9a 27 39 40 61 9b a6 bf e8 4c 94 3f
       1.3435715 2.893042 -1.3016168 1.158597
0002b0 c8 3a c9 bf 9f ea ab bf fa 78 ad 3e 7b 3c 32 40
       -1.5721064 -1.3430976 0.3388136 2.7849414
0002c0 0b a9 93 bf 6d 51 6e 3f 36 58 9f be d2 05 3a c0
       -1.1535963 0.93092996 -0.31121987 -2.9066052
0002d0 72 c2 29 40 d3 b2 c3 3d 4e ce 8a bf 07 a8 2b 40
       2.652493 0.095555924 -1.0844209 2.6821306
0002e0 b1 01 58 bf 07 0c 3e 40 f1 02 40 40 8a 53 01 c0
       -0.8437758 2.969484 3.0001795 -2.0207238
0002f0 9a 08 5c 3f 7d e9 96 3e 45 6e 95 3e 56 48 41 40
       0.85950625 0.29475012 0.2918569 3.02004
000300 11 9c 97 bf e3 c6 17 3a 75 dd 5c bd d7 2a 01 bf
       -1.1844503 0.00057898293 -0.053922135 -0.50455993
000310 d1 e9 17 be 87 3a 43 c0 3b e0 8a be 1e 28 30 c0
       -0.14835288 -3.0504472 -0.271242 -2.7524486
000320 93 fc 41 40 e7 fb 71 3e e9 19 38 3e 34 37 98 3e
       3.031041 0.2363125 0.17978634 0.29729617
000330 4e 9c 28 bf 70 92 d7 be 9e 46 91 3e 6e 9b 2e be
       -0.658635 -0.4210391 0.2837419 -0.17051479
000340 51 59 6f bf b3 5f da be 81 fb 2f bf 5f 53 86 bf
       -0.9349566 -0.42651138 -0.6874314 -1.0494193
000350 cb 64 3b c0 06 ef 1f 3e 0f f1 28 c0 5c 4d 2d c0
       -2.928027 0.15618524 -2.639713 -2.7078466
000360 d7 b2 a9 bd 09 9b 46 c0 78 b1 33 c0 c4 21 37 c0
       -0.08286064 -3.1032126 -2.8077068 -2.861436
000370 45 6e 3b c0 56 07 a3 3e bf e8 8d bf 42 29 0f bf
       -2.9286053 0.31841534 -1.1086653 -0.5592233
000380 ba ef e9 be d8 2e 44 bc d3 2c 35 c0 f4 45 82 3f
       -0.4569071 -0.011974059 -2.8308609 1.0177598
000390 64 c8 36 c0 4d ed 3b c0 4d e2 16 3e d6 b1 2a c0
       -2.8559809 -2.9363587 0.14734764 -2.6671042
0003a0 de 44 0c c0 76 e0 35 c0 68 a2 5c be fb 17 b1 3f
       -2.1917033 -2.841825 -0.21546328 1.3835443
0003b0 bd 87 90 bf d4 c1 cc bf f2 07 16 be 26 44 44 c0
       -1.1291424 -1.5996652 -0.14651468 -3.0666595
0003c0 7b 6c af bd 25 5c 81 bd b3 da 9a bc 56 7d 41 c0
       -0.08565613 -0.06316403 -0.018903112 -3.023275
0003d0 15 03 36 c0 ab 76 38 be af ac b8 be fd f0 32 c0
       -2.843938 -0.18014018 -0.36069247 -2.7959588
0003e0 c6 ab 28 bf b4 37 3a c0 bc c3 3f c0 a3 58 c8 3f
       -0.65887105 -2.9096498 -2.9963217 1.565205
0003f0 9c 31 ed 3d e5 89 b1 3e 6c b6 9f be dd ac 33 c0
       0.11581728 0.34675518 -0.31193864 -2.8074257

out.0.bias f4 [21]
000000 23 c5 18 c0 4d 62 28 c0 9c ec b8 3f 7d 68 29 c0
       -2.3870323 -2.6309998 1.4447207 -2.6470025
000010 24 39 24 c0 f1 c3 59 40 1b 61 38 c0 aa 8c 38 c0
       -2.5659876 3.4025843 -2.8809268 -2.8835855
000020 91 fc 54 40 e4 30 2a c0 a3 8e 4d c0 f3 6a 69 40
       3.3279154 -2.659234 -3.2118309 3.6471527
000030 2f 95 30 c0 2a ca 2c c0 68 b5 6a 40 24 cd 48 c0
       -2.7591054 -2.699839 3.6673222 -3.1375208
000040 5c 60 47 c0 46 f7 66 40 e3 80 56 c0 99 f6 4c c0
       -3.1152563 3.6088424 -3.3516166 -3.2025511
000050 2b 2f 78 40
       3.877879
