results/FC_PRIMNET/ABAQUS64/weights/epoch_195.pth (torch, 26463 bytes, 10 tensors)

motor_std f4 [3]
00000000: f49d 663e 8268 6a3d a9df bc3b
0.22521192 0.057228573 0.005763967

motor_mean f4 [3]
00000000: c24d 83be 808e 5139 9439 b8bd
-0.25645262 0.00019984879 -0.08995357

position_std f4 [3, 1]
00000000: 0000 803f 0000 803f 0000 803f
1.0 1.0 1.0

position_mean f4 [3, 1]
00000000: 0000 0000 0000 0000 0000 0000
0.0 0.0 0.0

layers.0.weight f4 [64, 3]
00000000: d6e7 debb f2cb 0dbe fa57 afbd c369 16be
00000010: bdfe 90be 9662 08bf c8e9 cabc 71d0 09bd
00000020: d734 72bc ca7b 15bf bd92 1b3f 2873 4a3f
00000030: 0b0f 6cbc 77d2 363f 48e8 f2be 4fa9 0dbf
00000040: aaf0 5a3e d89e 9abf d9da 6d3d d364 ab3e
00000050: f96d cd3e 73c6 763f 9542 42bf 3722 8eba
00000060: ccb3 e9be 1871 b9be 77ca 79be 5dff 4a3f
00000070: 8b48 92bf daea 95bc 7c50 093e 882c 6d3e
00000080: 9dd3 ea3e b518 273f 641f 4bbf a864 bbbe
00000090: a74d 64bc 8264 2dbe 133c 2b3c 755e 88bc
000000a0: 1fc5 d03e 455c 84bf 030a 5d3f 6490 73bf
000000b0: a937 83bf 254f fa3d 50e9 e03e 1462 cabf
000000c0: 2b1f 333e 79f6 4abe 00bf c9bc 6b1d 5ebe
000000d0: dd6b 673f 2661 1a3f 2ea3 18bf a1c0 943f
000000e0: a52e b6bb 210b 843e 844d c0bc d06c 663f
000000f0: bb77 f0be 853d 473f 68e2 843f 86e1 34bd
00000100: 68e8 b6bc ee8a 1abc 0437 8bbe f534 86be
00000110: 4397 a53e 5691 cdbe f41b be3f e9dc ed3d
00000120: 7feb 9e3c 6b0c cf3e af34 6bbe 9e62 cd3b
00000130: 59b8 ea3d c0c5 d63e e443 e6bd a14e e13e
00000140: 3b56 9dbe a4fe 87bf 29b0 bd3f fd41 acbf
00000150: 13bc 63bf 3697 a03f b438 f33e 2d35 ccbe
00000160: 0548 ea3e c160 0d3f 38d2 573f b3ce 9fbf
00000170: b8e5 90be 9f1b e33e 9171 3abf 7691 263e
00000180: 8d6e 183f 5676 0fbf af5d 323f 87f6 27bf
00000190: ffcc 643f 025e 14bd bff5 c63e f410 6bbf
000001a0: 686e cd3e 50eb 97be df66 debe 4784 1dbf
000001b0: 6f93 073f bcd0 50be 81b8 f6bd 1976 133f
000001c0: 6b8e 0e3f 8dc7 973e 19d3 6abf da39 ba3f
000001d0: 8477 d2bc d635 de3d df04 b9be 8037 f03b
000001e0: 786a c13e 7023 78be 7bc7 4fbf 7f37 933e
000001f0: a250 a6bf 6e13 1d3f 1e38 363e 5a6b c7be
00000200: d827 cb3d 548c 0e3f acf8 2ebf 25b8 5c3f
00000210: e2e8 c1be ffcf 543f c4e9 c4be 581b 32bd
00000220: b860 d33e 8d40 393c 1b54 23bf e7a1 20bf
00000230: 2ced 773f 4176 52bf d79c 533f 1dbd 083f
00000240: b82c 373f c246 a2bf 3586 4bbf d58c 113f
00000250: bb31 bfbf 5df3 eb3d 861a 623e 1746 4e3f
00000260: ce4c 70bf 6f96 383f e4a8 673f a404 473f
00000270: 37dc b93e 9d04 62bf c541 c53f 6e4a dcbc
00000280: 8800 c5be eaec be3e 766c 9d3e 2f34 12bf
00000290: f54d 8d3e 38f5 43bd 0580 043e 35ae e3bd
000002a0: ca8f 183f 6a67 0e3e 6dcb 593d 8f2c 94bf
000002b0: 68e3 2abf 4b7f 67bf af8d c93e 6685 4dbf
000002c0: e2dc 2cbb 6fb9 31bf b8b4 833f 6bf6 cbbd
000002d0: a23f 443d d89d 773e 9029 c73e cda5 03bd
000002e0: fb13 433d 8140 9b3c 3b7c 903f b84d 42bf
000002f0: a19a 6f3f e623 10ba e9d9 b6bd 1842 903f
-0.0068025393 -0.1384733 -0.08561702 -0.14688782 -0.2831935 -0.5327543 -0.024769679 -0.03364605
-0.014783106 -0.5839201 0.6077078 0.79081964 -0.014407883 0.71414894 -0.47442842 -0.5533647
0.21380869 -1.2079725 0.058070038 0.3347536 0.40122965 0.9639656 -0.75882846 -0.0010843937
-0.45644987 -0.36219096 -0.2439364 0.79295903 -1.1428388 -0.018300463 0.13409609 0.23161519
0.45864573 0.65272075 -0.79344773 -0.36600232 -0.013934529 -0.16932872 0.0104513345 -0.016646603
0.4077539 -1.0340658 0.863434 -0.951422 -1.0251361 0.12222127 0.43928003 -1.5811181
0.17492358 -0.19820584 -0.024627209 -0.2169091 0.9039896 0.60304487 -0.5962399 1.1621286
-0.0055597597 0.2578974 -0.023474462 0.90009785 -0.46966347 0.77828246 1.0381594 -0.04416039
-0.022327617 -0.0094325375 -0.2719041 -0.26212278 0.32341966 -0.40149945 1.4852281 0.11614401
0.019399403 0.40439162 -0.22969316 0.0062678596 0.11460943 0.41947746 -0.11243418 0.44005302
-0.3072985 -1.0624585 1.4819385 -1.3457638 -0.88958853 1.2546146 0.475042 -0.3988432
0.45758072 0.5522576 0.84305143 -1.2484955 -0.28300261 0.4435701 -0.7282954 0.16266426
0.5954369 -0.5603994 0.696742 -0.65610546 0.893753 -0.036222465 0.38859364 -0.91822743
0.40123296 -0.29671717 -0.4343786 -0.61529964 0.5295934 -0.20392126 -0.1204691 0.5760208
0.5568606 0.29644433 -0.9172836 1.4548905 -0.025691755 0.10850112 -0.3613653 0.007330835
0.37776542 -0.24232268 -0.8116376 0.28753278 -1.2993357 0.6135777 0.17794845 -0.3894909
0.09919709 0.55682874 -0.68348193 0.8621848 -0.37872988 0.83129877 -0.384596 -0.04348311
0.41284728 0.011306894 -0.6380021 -0.62747043 0.9684627 -0.8221169 0.82661194 0.53413564
0.7155261 -1.2677844 -0.7950166 0.5685552 -1.4937052 0.11521027 0.2208043 0.805757
-0.93867195 0.72104543 0.9049208 0.77741456 0.36300823 -0.8828829 1.5410696 -0.02689096
-0.38476968 0.37290126 0.30746812 -0.57110876 0.2759854 -0.04784128 0.1293946 -0.11117212
0.59594405 0.13906637 0.053172518 -1.1576098 -0.66753244 -0.9042861 0.39365909 -0.80281675
-0.0026376774 -0.69423574 1.0289526 -0.0995911 0.047912247 0.24181306 0.38898897 -0.03214054
0.047626477 0.018951656 1.1287912 -0.7589984 0.9359532 -0.00054985133 -0.08928282 1.127017

layers.0.bias f4 [64]
00000000: 1e83 d0be 34f8 a5bf 8161 d0be af9b 0dc0
00000010: d3cb 10c0 0781 58bd f256 16c0 0e8a 23c0
00000020: ee2c 75bf 7a09 813f 9d32 32c0 cb73 32c0
00000030: 3ea5 abbe bcbb fb3f fdd6 eebf 39a3 2d40
00000040: bf77 b4bf f59b 01bd c89c dbbf 0d46 03c0
00000050: 9f01 8fbe b8ff 06be 4000 c5bf 87da a8bf
00000060: 4e83 33c0 cf19 14c0 7873 3440 e1ef 01c0
00000070: fa55 a3bf 0ed4 0a40 0c35 5fbf b77e 98bf
00000080: 9691 2fc0 bb1e e43f 3629 21c0 c81c 27c0
00000090: c5be 12c0 a5d2 07c0 4733 7cbe 3e6d 1340
000000a0: 29fa 8ebf b31e 2440 2f91 de3f fe1a 0fc0
000000b0: 47bb d03f 5f15 0fc0 94f9 ccbf 79a6 583f
000000c0: 5b99 9bbf 8100 b8be 9e68 d4bf cddb 19c0
000000d0: b073 cb3f 98d9 8ac0 76a9 2740 e770 f4be
000000e0: 7716 97bf 800e 07c0 7e9d f0bf 1f70 cebd
000000f0: 2c56 3640 3ed2 2cbe 74e0 3ac0 c36b 13c0
-0.40725034 -1.296637 -0.4069939 -2.2126272 -2.2624404 -0.052857425 -2.3490567 -2.5553012
-0.9577168 1.0081017 -2.7843392 -2.7883174 -0.33524507 1.9666667 -1.8659359 2.7130873
-1.4099044 -0.031642873 -1.7157221 -2.0511506 -0.27930924 -0.13183486 -1.5390701 -1.3191689
-2.8048892 -2.3140752 2.8195477 -2.030266 -1.2760613 2.1691928 -0.8719032 -1.191367
-2.7432609 1.7821878 -2.5181403 -2.6111317 -2.2928936 -2.1222317 -0.24628936 2.3035426
-1.1170093 2.5643737 1.7388057 -2.2360225 1.6307153 -2.2356794 -1.6013665 0.8462902
-1.2156175 -0.35937884 -1.6594427 -2.4040406 1.589468 -4.3390617 2.619718 -0.47742388
-1.1803731 -2.11026 -1.8798063 -0.10079979 2.8490095 -0.16877076 -2.9199495 -2.3034523

layers.2.weight f4 [64, 64]
00000000: 29ae 3d3e 1939 8cbf 2983 033e 51eb efbf
00000010: b10c 5dbf 8fd7 c3bf 7b63 fabf 6e5d 88be
00000020: 9292 d7bf def7 aabf 39de 22c0 67e0 2ec0
00000030: a582 a6bd 009a a9bf 659a 223e 84ab 92bf
00000040: da5a a3bf dd98 fbbf bc25 6b3f 0c4f e6bf
00000050: 318b fdbf 5457 d63d 17b3 07c0 e194 08c0
00000060: 89fa 0ec0 df8c 00c0 c816 6abf ab11 f7bf
00000070: 6574 0bc0 a2e1 c1bf 587b b3bf 28d3 d4bf
00000080: 2c9f 05c0 d54f acbf 4ccf 10c0 57b9 0bc0
00000090: 3fb2 7abf f4c7 c3bf 3c6f 06c0 992d 95bf
000000a0: 43b1 fabf 0461 87bf 3be4 cabf 6316 f7bf
000000b0: 8064 bbbf ac05 cdbf 37f0 eebf 89e1 eebf
000000c0: ccb4 d4bf 2f3b bfbf 4c21 07c0 10a5 f63e
000000d0: 9218 96bf ac16 2040 9201 98bf e413 b5bd
000000e0: 6608 bdbf 6739 e5bf 434d efbf 52a2 f3bf
000000f0: fff9 82bf 1da3 2b3e 7063 2dbf cb57 d1bf
00000100: 3b38 01be 47f2 86bd 3f9e 40bd ac1a 61bf
00000110: 4ee7 733e 8fed d1bd eb75 3dbf a6d5 213f
00000120: f5ae f0bc 7244 4f3e 4810 9abf 1c35 dbbf
00000130: 4032 003e 61e2 9a3e 7333 3b3e e2c2 2a3f
00000140: 8f3f 21be cf04 0f3e 60ac debd 1cd2 863f
00000150: 8a6b db3d 7289 fd3d 6356 173f 2488 83be
00000160: 057a b5bc 92ad bd3e 6108 663f 12fd 04bf
00000170: 3225 40be d52c e13e 1bc7 2d3d 6ca4 ef3d
00000180: 3076 5ebe a284 c93d d2f7 433f f0f6 e03e
00000190: 8657 0d3f 0271 ca3f dc56 1abe 9fb9 3f3e
000001a0: a7aa d2be 2ec9 3c3f 82b8 2d3e 9ead 80bf
000001b0: 9bad 863e 0071 283d 987c 883e 66dc 283e
000001c0: b6b8 2ebe 674a 2cbe 677b 1e3e 813a 943f
000001d0: b6b1 183f 541b 3c40 4364 b13e 98f9 3a3d
000001e0: a978 1cbf 78fc 6f3e 452c c73f d5be 20be
000001f0: 87f7 353f 1feb 4339 0212 7fbd 27f4 553f
00000200: 90e2 de3d ca54 983e a93e e9bc 7aaa 47bf
00000210: b410 f53c 714c 653e 2003 b9bd 4c21 1d3f
00000220: 3a64 0c3e 1dd1 89be a5e9 39bf 78b9 adbf
00000230: 72c8 4f3d 5a5d 683f a604 49bd f50b b13f
00000240: de9b 043c 7092 923f 4c8f 3e3e 1e8a f33f
00000250: 8caa 673f 8c5a 593e 9fc0 923f 42e7 743f
00000260: d995 9c3e 3385 343f b5e3 693f 1cc3 153f
00000270: 7a54 853f 125d 553f 357e 83bf b767 41be
00000280: 3441 d93e 227c 733f 059e b83f 337d 763f
00000290: cb82 4b3f e9a9 d53f 5faf 883f f0fa db3e
000002a0: b3c4 aabb 663e 943e 1dba 6d3e b137 39bf
000002b0: 0912 1a3f 7775 163f e649 a43f 08ec b33f
000002c0: d303 a4be e269 c5be 7c16 683f 8651 913f
000002d0: e95e 3f3e 71ab 2340 ca6b 4d3f d244 ae3c
000002e0: 50c7 fbbe 7a5d 863f 372e d53f 0fa0 823f
000002f0: 110b 943f 2880 40bd 65c9 843e b9e9 933f
00000300: afbc b83e 18e7 53bf 0ea5 d13d 1784 edbf
00000310: 3bcb ed3e c4e0 c6bc 873f d1bf e19a 363d
00000320: 51f4 f9be 1bfe fb3e b806 b8bf 205e 06c0
00000330: e705 8ebc 8217 4bbe 4265 31be 6600 af3c
00000340: a31a 10bf 21db 1abf 34c9 64be 2a94 bebe
00000350: da47 fdbe 5485 7a3e 4e00 35bf 00c2 c7bf
00000360: 660f d8bf 73d8 6cbf 0ee6 7f3f 53fe cebf
00000370: 5c31 65bf 7d9b debc 7a26 913f 2ea5 5cbf
00000380: eee4 cabf 0730 ef3d 0fbf 63be c121 acbe
00000390: 419c 3c3d 7b31 883d d8d3 80bf d567 b5bc
000003a0: 87a5 0bbf 4d7e e53e 3187 35bd 9684 dfbf
000003b0: 16b2 a03e 6e8f eabe 7331 02bf c68a 33bf
000003c0: 479b 953d 3e10 3ebf c269 01bf 7fd4 383f
000003d0: 85d7 323e fe95 2340 1497 3ebd bffc e0bd
000003e0: 3ba8 64bf 49e8 5cbf 0782 b23f 458d 42be
000003f0: 0809 f43e 718b 6bbe f222 323e f269 92be
0.18523468 -1.0954925 0.12843002 -1.8743688 -0.8634749 -1.5300158 -1.9561609 -0.2663378
-1.6841605 -1.3356893 -2.5448134 -2.7324464 -0.08130387 -1.3250122 0.1587921 -1.1458592
-1.2762101 -1.9656025 0.91854453 -1.7992873 -1.9808103 0.10465875 -2.1203058 -2.1340868
-2.2340415 -2.008598 -0.9144101 -1.9302267 -2.1789792 -1.5146983 -1.4022017 -1.662694
-2.08784 -1.3461863 -2.2626524 -2.1831872 -0.9792823 -1.5295396 -2.1005392 -1.165454
-1.9585346 -1.0576482 -1.58509 -1.9303707 -1.4640045 -1.6017356 -1.8667058 -1.8662578
-1.6617675 -1.4939936 -2.1114073 0.48172808 -1.1726248 2.5013838 -1.1875479 -0.088416845
-1.4768188 -1.7908143 -1.8695453 -1.9033911 -1.0232543 0.16761442 -0.67729855 -1.6354917
-0.12619106 -0.065891795 -0.047025915 -0.87931323 0.23818704 -0.10250389 -0.74008054 0.63216627
-0.029380301 0.20240954 -1.2036219 -1.7125583 0.12519169 0.30250838 0.18281345 0.6670362
-0.15746902 0.13966678 -0.10872722 1.053287 0.10713871 0.12379731 0.5911619 -0.25689805
-0.02215291 0.37046486 0.89856535 -0.51948655 -0.18764189 0.43979517 0.04242621 0.11701283
-0.21724772 0.09839751 0.7655002 0.43938398 0.55211675 1.5815737 -0.15072197 0.18723153
-0.41145822 0.73744476 0.16964915 -1.0052984 0.26304325 0.04112339 0.26657557 0.16490325
-0.17062649 -0.16825257 0.15476762 1.1580354 0.59646165 2.939168 0.34646806 0.045648187
-0.6112161 0.23436153 1.5560385 -0.15697797 0.7108082 0.00018684239 -0.062273033 0.8357567
0.10883057 0.2975219 -0.028472262 -0.779945 0.029915191 0.22392441 -0.09033799 0.6137893
0.13710108 -0.26917353 -0.7262214 -1.3572226 0.05072827 0.90767443 -0.0490767 1.3831774
0.008093802 1.1450939 0.18609351 1.9026525 0.9049461 0.21225947 1.1465033 0.9566537
0.30583075 0.70515746 0.9136308 0.5850084 1.0416405 0.8334514 -1.027289 -0.1888722
0.4243256 0.95111287 1.4423224 0.9628479 0.7949645 1.6692477 1.0678519 0.42964888
-0.0052114367 0.28953856 0.23215528 -0.72350603 0.6018377 0.5877299 1.2835052 1.4056406
-0.32034168 -0.38557345 0.9065931 1.1353004 0.18688549 2.557339 0.802426 0.02127305
-0.491755 1.0497277 1.6654729 1.0205096 1.1565877 -0.04699722 0.25934902 1.1555701
0.36081454 -0.82774496 0.1023656 -1.8555936 0.46444115 -0.024277098 -1.6347512 0.044581298
-0.4881921 0.49217305 -1.437705 -2.099495 -0.017336799 -0.19833186 -0.17323783 0.021362495
-0.56290644 -0.60490614 -0.22342378 -0.37222415 -0.4946888 0.24464923 -0.7070359 -1.5606079
-1.6879699 -0.92517775 0.9996041 -1.6171364 -0.8952844 -0.027173752 1.1339867 -0.86189544
-1.5851114 0.11679082 -0.22240852 -0.33619502 0.046047453 0.06650063 -1.006465 -0.022144238
-0.5454945 0.44822922 -0.04431838 -1.7462337 0.3138587 -0.45812553 -0.50856704 -0.70133626
0.073050074 -0.74243534 -0.50552 0.72199243 0.17465027 2.5560298 -0.046530798 -0.109857075
-0.893192 -0.8629194 1.3945931 -0.18999203 0.4766314 -0.23002411 0.17396143 -0.28596455

layers.2.bias f4 [64]
00000000: d94e da3f 6700 5e40 4d02 5640 6fa8 5940
00000010: 5953 5d40 277d 30c0 54b1 6240 7896 31c0
00000020: 3fb3 37c0 3817 cf3d 6a58 5840 00c2 5440
00000030: 4a0f 4940 b29f 5a40 a014 5740 fba6 5640
00000040: e1cc 4e40 9f52 5e40 ff59 5b40 11c2 4840
00000050: cc4b 37c0 4515 5a40 6481 2dc0 e4a4 2ec0
00000060: b282 5940 acc7 3ac0 7b5e 34c0 0ade 32c0
00000070: fcd2 2cc0 2bd7 4140 056c 4940 77a6 4640
00000080: dd10 1c40 fdea 5340 f5d8 28c0 3e38 4940
00000090: a0fb 2cc0 d75d 34c0 6d68 5140 a719 37c0
000000a0: e624 06c0 ca96 33c0 9bb5 5840 e07d 4340
000000b0: 6783 b33f 1473 5040 70b7 5e40 d8d9 31c0
000000c0: 136d 3540 05d1 3740 b26f 5a40 c948 2dc0
000000d0: 6459 34c0 38b7 5540 bacc 4c40 5e56 38c0
000000e0: bf5f 4640 405b 37c0 5509 35c0 aa89 2f40
000000f0: 2fc2 5f40 46b0 6040 df63 5540 6617 2ac0
1.7055312 3.4687746 3.3438904 3.4009054 3.4582121 -2.7576387 3.5420732 -2.774809
-2.8703153 0.101118505 3.3803964 3.3243408 3.1415582 3.415997 3.3606339 3.3539417
3.2312548 3.4737928 3.427368 3.1368449 -2.8640013 3.4075482 -2.7110224 -2.7288141
3.398602 -2.918437 -2.8182666 -2.7948022 -2.7003775 3.0287578 3.147218 3.1039102
2.4385293 3.3112175 -2.638242 3.1440578 -2.702858 -2.8182275 3.2719986 -2.8609407
-2.096002 -2.8060784 3.3860843 3.0545578 1.4024476 3.2570238 3.4799461 -2.7789211
2.8347824 2.8721325 3.4130673 -2.7075675 -2.817956 3.3393078 3.1999955 -2.8802714
3.0995939 -2.8649445 -2.8286946 2.7427773 3.496227 3.5107589 3.3342206 -2.6576781

out.0.weight f4 [21, 64]
00000000: 2338 45bf 4c06 fb3d 807e 52be 1712 e73e
00000010: 233e babb f526 18c0 7a60 33be ab55 37c0
00000020: 9dde 3540 7866 4abf c882 4fbe 7f37 92be
00000030: ca50 1e3f 24c8 823e 48e7 95be 3743 583e
00000040: c6c3 583f fe78 dbbd 92cd e43e 3494 5b3e
00000050: 9431 33c0 39b4 b53d 3579 29c0 23bf 2cc0
00000060: 5838 403e 2787 2dc0 be35 2ac0 c163 19c0
00000070: 1b52 31c0 c84a e03d c04d dd3e 1f73 003d
00000080: 5fb8 a9bf 537e ca3e 7f02 30c0 0fd7 0b3f
00000090: 58f6 24c0 7d7a 34c0 a448 1a3e ce09 39c0
000000a0: 26e4 99bf 0873 38c0 9167 053f 412d a7bf
000000b0: 5f8e 083f 56aa f03e 456e 49be 3842 32c0
000000c0: 51ff 22be 6a73 9abf 658a 233c 17ec 36c0
000000d0: 7449 2dc0 c8cf 80bd afe1 fb3e 87fa 2bc0
000000e0: a084 a93c cd37 2ec0 d96d 2ac0 7755 cd3f
000000f0: 1c65 13bf c79d 98be 6981 5bbe 9408 27c0
00000100: 6f3a 8dbf 4efb 66be d263 0ebb ff5a c0be
00000110: 1449 d7be dcb1 26c0 87c2 83bd be84 30c0
00000120: 3757 1d40 1a3c 05be 3184 4d3d 7380 cc3b
00000130: b5c6 3dbf a906 c8bd 0b22 8dbb 1ab0 b03d
00000140: 28fe 22bf 115d 03be e76e 80bf 77e4 48bf
00000150: 04ed 30c0 95ce c43d e48e 33c0 1827 33c0
00000160: 79f5 9f3d 2da5 32c0 6c01 3ac0 53a8 41c0
00000170: 76f1 31c0 05e4 1a3e 816b a5bf 4087 4dbf
00000180: b74b 2bbf 1de4 9cbe 4ebb 1bc0 fc43 4d3f
00000190: 61d9 22c0 cdc8 2dc0 4949 c73c d03f 26c0
000001a0: 01b0 c2bf 8cb0 35c0 b9b1 71be c091 413f
000001b0: 76a0 4abf 33ec aabf dde8 f93d 6b27 21c0
000001c0: 6ff9 d43d d2b3 44bf 75db cebe 62cb 27c0
000001d0: 8958 20c0 af4a afbd 037c f0be e001 36c0
000001e0: d7f1 77bf 074d 39c0 1353 31c0 c9c1 d83f
000001f0: 34c0 16be e4ad 333e dd35 88be 7620 28c0
00000200: 02e2 69bd d281 c6be 1aef 1a3e 2e8a 72bf
00000210: 8697 133e bddb 2ac0 d26c febd ae21 31c0
00000220: 2913 1fc0 40ea ad3f 414c 443e cfb7 d33e
00000230: 0d95 81bf 9a6a e8be 827a 883e b40a 9ebe
00000240: 2421 9abf 8afd a1bc dfc4 86bf b74c 94bf
00000250: 0ac7 34c0 7e63 f2bb 49a5 2ec0 fc25 3740
00000260: c24f f0bd ccab b93f 720a 26c0 7a42 3240
00000270: 4477 3640 31ab e1bc 4a03 9dbf ed3d a9be
00000280: 77e9 623f de70 11bf d62f 26c0 8dfd 75bd
00000290: 3a7a 1540 cedd 4140 58ea 8e3a e813 2ec0
000002a0: 81a3 993f a9d1 2f40 9710 adbf dcaa 813f
000002b0: e67d b6bf 8b20 99bf c4b1 863e 8ae6 2840
000002c0: 9dc9 81bf f8ba 493f 4ea2 c4be 45b0 30c0
000002d0: e56c 2040 dc6d 4e3d 842b 71bf 7a52 2240
000002e0: 5e2a 34bf 16b6 3440 00ad 3640 7001 f0bf
000002f0: dfa6 473f 0faa 4c3e 2a02 733e 65f2 3740
00000300: cded 84bf ca5f 39bd def9 a3bd e280 0fbf
00000310: a1df 35be 96e4 39c0 e27a a7be 2dd2 26c0
00000320: eeaa 3840 9e16 b43e f14e 073e 0dff 813e
00000330: 5a1e 15bf 3e43 f5be 0e29 823e 2076 43be
00000340: e489 4bbf ebf1 e9be 87d4 24bf 65d7 6cbf
00000350: a20f 32c0 cefa 0a3e 1e9b 1fc0 6bf7 23c0
00000360: 37c5 f8bd 996e 3dc0 875b 2ac0 d3cb 2dc0
00000370: 5418 32c0 a196 5c3e c35e 76bf 3a6b dabe
00000380: 0f1b acbe 6063 85bd e2d6 2bc0 19d2 5f3f
00000390: 7372 2dc0 449b 32c0 60fc ca3d e55b 21c0
000003a0: eaf1 02c0 858a 2cc0 5360 8fbe 549d 9e3f
000003b0: fd89 7bbf 9905 babf 291b 45be 35ee 3ac0
000003c0: 9979 36be bd86 613c 8052 dbbd 6527 38c0
000003d0: 24ad 2cc0 4cc2 4ebe 8a58 85be 0c9b 29c0
000003e0: 053d 04bf c3e1 30c0 cb6d 36c0 8cbb b53f
000003f0: d695 b73d 94a2 9d3e 948b aebe ec56 2ac0
-0.7703878 0.122570604 -0.20556068 0.4513099 -0.005683677 -2.3773777 -0.17517272 -2.8646038
2.8417122 -0.79062605 -0.20264733 -0.28557965 0.61842024 0.2554332 -0.29278016 0.2111939
0.84673727 -0.10716437 0.44688088 0.21443254 -2.799901 0.08872265 -2.648023 -2.699166
0.18771493 -2.711374 -2.6595302 -2.3967135 -2.7706363 0.109517634 0.4322338 0.031359788
-1.325939 0.39549503 -2.7501523 0.5462503 -2.5775356 -2.819976 0.15066773 -2.8912234
-1.202275 -2.882021 0.52111155 -1.3060685 0.5334224 0.47004956 -0.1967097 -2.7852917
-0.15917708 -1.2066472 0.009981726 -2.8581598 -2.7076082 -0.06289631 0.4919562 -2.687166
0.020693123 -2.7221558 -2.6629546 1.6041707 -0.57576156 -0.29807875 -0.21436085 -2.6098986
-1.1033458 -0.22556803 -0.0021726978 -0.37569425 -0.42047942 -2.6046057 -0.064335875 -2.758102
2.4584482 -0.13011208 0.050174896 0.0062408983 -0.7413133 -0.09766895 -0.0043070368 0.08627339
-0.6366906 -0.12828471 -1.0033845 -0.7847361 -2.7644663 0.09609715 -2.8055964 -2.799261
0.07810492 -2.7913315 -2.9063368 -3.0258987 -2.7803626 0.15126045 -1.2923433 -0.802845
-0.66912407 -0.30642787 -2.4333072 0.8018186 -2.5445178 -2.715381 0.024326937 -2.5976448
-1.5209962 -2.8389006 -0.23602952 0.7561302 -0.79151094 -1.3353332 0.12202618 -2.518031
0.10399138 -0.76836884 -0.40401807 -2.6217885 -2.5054038 -0.08559167 -0.46969613 -2.8438644
-0.96853393 -2.8953264 -2.7706954 1.6934139 -0.14721757 0.17546803 -0.26603594 -2.6269813
-0.057100303 -0.3877092 0.15130273 -0.94742095 0.1441327 -2.6696618 -0.124230996 -2.7676806
-2.4855444 1.3587112 0.19169714 0.41351172 -1.0123612 -0.4539383 0.26655966 -0.3086754
-1.2041364 -0.019774217 -1.052883 -1.1585912 -2.8246484 -0.0073971143 -2.7288382 2.8616934
-0.117339626 1.4505553 -2.5943875 2.7853074 2.8510294 -0.02754745 -1.2266629 -0.33055058
0.8863749 -0.56812847 -2.5966697 -0.060056258 2.335585 3.029163 0.001090358 -2.719965
1.2003022 2.7471716 -1.3520688 1.0130267 -1.4257171 -1.1963056 0.263075 2.639071
-1.0139652 0.78800917 -0.3840508 -2.7607586 2.5066464 0.05039774 -0.94207025 2.536284
-0.7037715 2.8236136 2.854309 -1.8750439 0.77989 0.19986747 0.23731294 2.8741696
-1.0385071 -0.045257367 -0.08006643 -0.56056035 -0.17761089 -2.9045768 -0.3271094 -2.606578
2.8854327 0.35173506 0.13213708 0.253899 -0.5824944 -0.47902864 0.25421947 -0.1908803
-0.7950728 -0.4569238 -0.6438679 -0.92516166 -2.7822042 0.13572237 -2.4938426 -2.5619762
-0.12146991 -2.9598753 -2.6618364 -2.7155654 -2.7827349 0.21541835 -0.96238345 -0.42659932
-0.33614394 -0.06513095 -2.6849904 0.8742996 -2.7101104 -2.7907267 0.09911418 -2.5212338
-2.0460153 -2.6959546 -0.28003177 1.2391763 -0.9825743 -1.4532958 -0.19248642 -2.920789
-0.17819823 0.013765034 -0.10709095 -2.8774045 -2.6980677 -0.20191306 -0.26044112 -2.6500883
-0.5165561 -2.7637794 -2.8504512 1.419786 0.08964126 0.307881 -0.34090865 -2.6615553

out.0.bias f4 [21]
00000000: 64c8 0fc0 2b05 28c0 5b12 ac3f 1512 28c0
00000010: e23a 22c0 98a0 4f40 4f59 30c0 4ed2 2bc0
00000020: 218c 4b40 791c 27c0 28c0 45c0 159b 5f40
00000030: 93ab 2cc0 42b6 25c0 760c 6140 6153 3ec0
00000040: a7b8 3dc0 69a9 5c40 9164 4dc0 6300 43c0
00000050: d13c 6e40
-2.2466059 -2.6253154 1.3443102 -2.6261036 -2.534844 3.2441769 -2.755451 -2.684711
3.1804278 -2.6111128 -3.0898533 3.4938405 -2.697972 -2.5892491 3.5163856 -2.973839
-2.9643953 3.44784 -3.209263 -3.0468986 3.722462
