results/FC_PRIMNET/ABAQUS64/weights/epoch_118.pth (torch, 26463 bytes, 10 tensors)

motor_std f4 [3]
000000 f4 9d 66 3e 82 68 6a 3d a9 df bc 3b
       0.22521192 0.057228573 0.005763967

motor_mean f4 [3]
000000 c2 4d 83 be 80 8e 51 39 94 39 b8 bd
       -0.25645262 0.00019984879 -0.08995357

position_std f4 [3, 1]
000000 00 00 80 3f 00 00 80 3f 00 00 80 3f
       1.0 1.0 1.0

position_mean f4 [3, 1]
000000 00 00 00 00 00 00 00 00 00 00 00 00
       0.0 0.0 0.0

layers.0.weight f4 [64, 3]
000000 d6 e7 de bb f2 cb 0d be fa 57 af bd 9e b3 09 bf
       -0.0068025393 -0.1384733 -0.08561702 -0.537897
000010 2f 5c 35 3e 89 34 45 bf c8 e9 ca bc 71 d0 09 bd
       0.17710947 -0.7703329 -0.024769679 -0.03364605
000020 d7 34 72 bc 0c 5b 2f bf 8c cc 93 3d 3d 0b 92 3e
       -0.014783106 -0.684983 0.072167486 0.285242
000030 d2 25 1b 3f 79 73 53 3f 4f ac 59 bf 61 63 0f bf
       0.60604584 0.8259807 -0.8502855 -0.56011015
000040 36 87 2e bd 77 dc ca bf 13 b3 b0 be bb c9 0d be
       -0.042609416 -1.584853 -0.34511623 -0.13846485
000050 9c 58 2e 3f cc 7e 4c 3f f0 c2 75 bf 84 92 e2 be
       0.6810396 0.79880977 -0.96000576 -0.44252408
000060 5c dc bb be 59 2d 0e be d5 c0 46 bf 3b 3f 66 3e
       -0.36691558 -0.13884486 -0.7763799 0.22485058
000070 a9 25 84 bf ea ca 2d 3f a4 73 12 3f f8 96 50 3f
       -1.0323993 0.6788775 0.57207704 0.8148036
000080 e9 65 67 3f a4 fc 73 3e 63 f2 3b bf 38 b2 17 3d
       0.9038988 0.23826844 -0.7341673 0.037035197
000090 a7 4d 64 bc 82 64 2d be 13 3c 2b 3c e5 c6 1c 3e
       -0.013934529 -0.16932872 0.0104513345 0.15310247
0000a0 32 d0 a9 3e e0 34 89 bf e6 20 32 3f fd e7 4e bf
       0.33166653 -1.0719261 0.6958145 -0.80822736
0000b0 16 bc 48 bf e8 31 b7 3d 57 83 b8 3e b1 ba be bf
       -0.78411996 0.08945066 0.36037704 -1.4900724
0000c0 47 86 04 3f 4b 3c b0 3e 9b 96 05 3f 56 fd 95 be
       0.5176739 0.34421 0.5218293 -0.29294842
0000d0 1d 3f 58 3f 21 86 6b 3f dc 5e 0e bf d5 9f 40 3f
       0.84471303 0.9200154 -0.55613494 0.75243884
0000e0 95 31 61 bd 02 d0 9e bd e7 74 23 3e 9a 40 8c 3f
       -0.054978926 -0.07754518 0.15962563 1.0957215
0000f0 e3 f0 f6 be 43 92 61 3f 6d 8d bb 3f 86 e1 34 bd
       -0.48230657 0.881138 1.4652535 -0.04416039
000100 68 e8 b6 bc ee 8a 1a bc 5f b4 10 bf ac a5 cd 3d
       -0.022327617 -0.0094325375 -0.56525224 0.10041365
000110 2e 75 46 3f 63 6c 15 bf c9 0f b2 3f 96 62 5e be
       0.7752255 -0.5836851 1.3911067 -0.21717295
000120 ac 44 d8 3e 36 ab 50 bd fa 5c 44 be 70 2d fe be
       0.42239892 -0.05094453 -0.19176093 -0.4964404
000130 be 86 04 3f 9d 8d 59 3f 7a c6 c9 bd 36 4b 54 3e
       0.517681 0.8498171 -0.098523095 0.20731816
000140 3a f0 ef bd be 16 09 bf 33 4c b8 3f f1 a9 b7 bf
       -0.117157415 -0.53550327 1.4398254 -1.4348737
000150 34 12 81 bf ae 8b 9b 3f eb 76 6a 3d 6d 9c a6 be
       -1.008368 1.2152002 0.057242315 -0.32541218
000160 f1 0c 5b 3e 43 88 38 3f 5e c7 87 3e e5 9c bd bf
       0.21391656 0.7208292 0.26519293 -1.4813505
000170 29 5d e1 be a1 a5 5c 3e 93 06 dd be ec d1 02 be
       -0.44016388 0.21547557 -0.43169078 -0.12775391
000180 6d 57 24 3e 95 54 c2 be e8 51 84 3e 63 44 e3 be
       0.16048975 -0.37955156 0.2584374 -0.44388112
000190 10 68 1a 3f 56 bd 45 bd ff e6 17 bd d0 09 01 bf
       0.60315037 -0.048276268 -0.03708553 -0.504056
0001a0 8c 4d df bc 1e a8 24 3e c6 59 bd 3c f5 02 1f be
       -0.027258657 0.16079757 0.023114096 -0.15528472
0001b0 55 c7 64 3f 53 c3 b8 3e d6 82 28 bf 12 32 1f 3e
       0.89366657 0.3608652 -0.6582464 0.15546444
0001c0 16 58 d6 3e 0a cd c6 bd 6e 56 ff be 5f 75 b8 3f
       0.4186408 -0.09707077 -0.49870628 1.4410819
0001d0 06 67 18 bf 3e b5 50 bd 5d ae 9a be ee ab 69 3e
       -0.595322 -0.050954096 -0.30211154 0.22819492
0001e0 0d ac 7a bd 0b a9 7f bc 38 1b af be 46 38 26 be
       -0.061199237 -0.015604268 -0.34200454 -0.16232404
0001f0 db ce 94 bf dc bc 85 3f 76 6f 69 bd b1 08 b2 be
       -1.1625627 1.044826 -0.056991063 -0.34772256
000200 f7 c1 05 3f c9 4b fa 3d 13 8e 01 bf 41 f9 ce 3e
       0.5224909 0.12221486 -0.50607413 0.4042454
000210 ad 79 e3 be 95 46 09 3f ba e7 11 bf 14 5e 0e bf
       -0.4442877 0.53623325 -0.5699421 -0.556123
000220 c1 01 e3 bd 5e bf de be 5f d1 0c bf 2d f4 40 be
       -0.11084319 -0.43505377 -0.55006975 -0.18843146
000230 b0 6d 21 3f be 55 0d bf ad 6f 5e 3f cb 3e 0d 3f
       0.63057995 -0.5520896 0.86889154 0.5517394
000240 99 5d 40 3e 5d 1f b3 bf 8d 23 a3 bf 15 54 b7 3d
       0.18785705 -1.3993946 -1.2745224 0.08951584
000250 07 9b 9f bf 4c 12 7b 3e 03 0b 35 be f9 e8 84 3f
       -1.2469186 0.24518698 -0.17679982 1.0383598
000260 28 4b a0 bf aa 3d dd 3e 5c 02 03 3f 5b c9 f2 3e
       -1.2522936 0.43211108 0.51175475 0.47419247
000270 42 eb b2 bb 14 43 6c bf af 3a 07 40 e2 99 ff 3e
       -0.005460174 -0.92289853 2.1129568 0.4992209
000280 08 39 63 bf 25 7d 5f 3f d3 7f 1c 3e 42 6f dc be
       -0.887589 0.8730033 0.15283136 -0.43053633
000290 6a 06 e7 3e 38 f5 43 bd 05 80 04 3e 35 ae e3 bd
       0.4512208 -0.04784128 0.1293946 -0.11117212
0002a0 f7 7e 16 3e 5c db 3a be 93 f7 c0 be 7f b9 61 bf
       0.1469687 -0.18247741 -0.37688884 -0.8817367
0002b0 73 29 98 be c3 2b 10 bf 3a ad 5c bd fa df b9 be
       -0.29719123 -0.56316775 -0.05387614 -0.36303693
0002c0 a0 01 1c be c8 aa 97 be 70 7f 85 3f 2e b4 34 bf
       -0.15234995 -0.29622483 1.0429516 -0.7058743
0002d0 6e dc d0 3d 88 5c 47 3e f4 fe 0c 3f cd a5 03 bd
       0.101982936 0.19468892 0.5507653 -0.03214054
0002e0 fb 13 43 3d 81 40 9b 3c 92 5b 5e 3f 40 49 77 bf
       0.047626477 0.018951656 0.86858475 -0.96596146
0002f0 6d e1 67 3f 22 80 b2 3e 17 24 b6 be 9b d2 51 3f
       0.9057835 0.34863383 -0.3557441 0.81961983

layers.0.bias f4 [64]
000000 1e 83 d0 be cf f2 4e bf 81 61 d0 be 61 6c e1 bf
       -0.40725034 -0.80839247 -0.4069939 -1.76112
000010 23 17 dc bf 2d c5 0d 3f b9 7c f1 bf 4c 3c 06 c0
       -1.7194561 0.5537899 -1.8866187 -2.0974302
000020 8e dc c8 be 66 5b d8 3f 2a ca 0d c0 3f f8 16 c0
       -0.3923077 1.6902893 -2.215464 -2.3589017
000030 3e a5 ab be 80 18 0f 40 7a d9 b4 bf 69 af 2a 40
       -0.33524507 2.2358704 -1.4128869 2.6669562
000040 a8 13 5b bf 33 0a 04 3f 33 d0 a2 bf 07 49 c9 bf
       -0.8557687 0.5157806 -1.2719787 -1.5725411
000050 09 2e 96 3e b8 ff 06 be bb b6 89 bf 00 56 54 bf
       0.29331997 -0.13183486 -1.075889 -0.82943726
000060 a4 b8 16 c0 92 1b e8 bf b6 b2 32 40 b4 94 c9 bf
       -2.3550196 -1.8133414 2.7921576 -1.5748506
000070 b4 33 4d bf 5d 38 1c 40 b6 77 98 be ab 16 45 bf
       -0.8015702 2.4409401 -0.29778832 -0.76987714
000080 ab 90 13 c0 2d d8 0c 40 b6 42 05 c0 f5 fd 09 c0
       -2.3057048 2.2006943 -2.0821967 -2.1561253
000090 36 11 e5 bf 7d d6 d7 bf ab 21 42 3e d9 88 23 40
       -1.7895877 -1.6862332 0.18958156 2.5552275
0000a0 d0 f3 2b bf ef 51 29 40 c1 ac 10 40 70 ec e7 bf
       -0.67168903 2.6456258 2.260544 -1.811903
0000b0 76 2a 06 40 45 6f dd bf 38 f0 98 bf d2 46 a4 3f
       2.0963416 -1.7299582 -1.1948309 1.2834113
0000c0 c2 6f 30 bf 47 20 6c 3e c8 e3 95 bf a4 f5 fa bf
       -0.6892053 0.23059188 -1.1710138 -1.9606214
0000d0 bd e4 fe 3f 01 ab 71 c0 9b c2 2c 40 e7 70 f4 be
       1.9913555 -3.7760623 2.6993778 -0.47742388
0000e0 52 33 34 bf 80 d4 d4 bf 39 4a b7 bf bb 9a e1 3e
       -0.7039081 -1.662735 -1.4319526 0.44063362
0000f0 fc 07 34 40 3e d2 2c be fd 1e 1d c0 31 0e ef bf
       2.8129873 -0.16877076 -2.4550164 -1.8676206

layers.2.weight f4 [64, 64]
000000 29 ae 3d 3e 1d e3 43 bf 29 83 03 3e b5 1d bb bf
       0.18523468 -0.7651842 0.12843002 -1.4618441
000010 a5 f6 17 bf 16 d0 8b bf f8 df c5 bf 9c 47 ea be
       -0.59360725 -1.0922878 -1.5458975 -0.4575776
000020 de de 9f bf f3 7b 66 bf 0d 3b 08 c0 cb 3d 14 c0
       -1.2489889 -0.9003288 -2.1286042 -2.3162715
000030 a5 82 a6 bd 75 8a 63 bf f8 06 8e bd 7c 99 35 bf
       -0.08130387 -0.88883144 -0.06934923 -0.70937324
000040 16 69 5b bf b6 28 c4 bf da ba 02 3f 65 46 b2 bf
       -0.85707223 -1.5324924 0.5106636 -1.3927733
000050 20 db c5 bf 54 57 d6 3d 8b d5 d8 bf 9c ac da bf
       -1.5457497 0.10465875 -1.6940168 -1.7083926
000060 37 20 e9 bf fc 75 cc bf 53 17 f4 be 7a 0f c0 bf
       -1.8212956 -1.5973506 -0.47674045 -1.5004723
000070 35 6c e0 bf db ec 89 bf b4 eb 77 bf 80 f3 9d bf
       -1.7533022 -1.0775408 -0.9684403 -1.2339935
000080 fe c0 d6 bf 5f bc 68 bf b7 64 ed bf 85 32 e3 bf
       -1.6777647 -0.9091243 -1.8546361 -1.7749792
000090 e4 03 4c bf 82 d9 92 bf c2 48 d5 bf 91 84 3a bf
       -0.79693437 -1.1472628 -1.6662829 -0.7285853
0000a0 8d 55 c4 bf 44 6f 1f bf 35 fc 92 bf 9f eb c2 bf
       -1.5338608 -0.6227915 -1.1483217 -1.5228156
0000b0 91 76 83 bf 1e 6c 99 bf fa fe b9 bf 39 24 b7 bf
       -1.0270559 -1.198612 -1.4530938 -1.4307929
0000c0 0c 1d 9d bf 4d fd 87 bf a1 46 d8 bf ae 84 93 3d
       -1.2274489 -1.0624176 -1.6896554 0.07203041
0000d0 2e 8b 3c bf e2 b3 05 40 40 56 40 bf e4 13 b5 bd
       -0.7364987 2.0891042 -0.7513161 -0.088416845
0000e0 d3 26 86 bf 6f 5d b0 bf ff fa ba bf 8a fe bb bf
       -1.0480598 -1.3778514 -1.4607848 -1.4687054
0000f0 25 00 16 bf 1d a3 2b 3e 70 0d 46 bf b7 ea a0 bf
       -0.5859397 0.16761442 -0.77364254 -1.2571629
000100 3b 38 01 be 01 a8 f1 3e 3f 9e 40 bd 4b 74 00 bf
       -0.12619106 0.4719849 -0.047025915 -0.5017745
000110 4a 7d a9 be 56 f9 35 bd fd d7 1d bf 79 fe 6d 3f
       -0.331034 -0.04442724 -0.61657697 0.9296642
000120 01 a6 97 3e ff 5f 39 3e 7f 78 a0 bf 24 ec a6 bf
       0.29618838 0.18103026 -1.2536772 -1.3040814
000130 40 32 00 3e 64 4f 9c 3e c1 1a e0 3e b7 00 21 3f
       0.12519169 0.3052932 0.43770412 0.62891716
000140 cc 6c ec 3d 8f 44 b0 3e 72 b7 dd 3e 8d eb 64 3f
       0.11544189 0.34427306 0.4330402 0.8942192
000150 ec fe 59 3e 72 89 fd 3d 3b a0 49 3e 0f 63 e6 3d
       0.21288651 0.12379731 0.1969003 0.11249363
000160 82 d4 c4 be 8b 4b 16 be 96 a2 63 3f 24 d5 96 be
       -0.3844338 -0.14677255 0.8891996 -0.29459488
000170 06 dd 78 3d 20 19 f2 3e 09 b6 ce 3b 0c 9b 96 3e
       0.06075766 0.47284794 0.0063083214 0.29415166
000180 6e 0b d8 be 24 38 9d 3d 8d 2a ab 3e 6b a2 80 bc
       -0.4219622 0.076767236 0.334309 -0.015702447
000190 ae dc cf bc 8a e8 93 3f 36 ba 18 3e aa 92 5b 3e
       -0.025373783 1.155534 0.14914784 0.21442667
0001a0 9d f0 dc 3c 23 27 45 3f 6a 04 48 3e 7c 7e 27 bf
       0.026970202 0.7701284 0.19532934 -0.65427375
0001b0 f2 51 59 3e 98 f2 dd be c8 fe eb 3e 2c 6a 90 3e
       0.21222666 -0.43349147 0.4609282 0.28206003
0001c0 1c 0a a6 3d 04 bc 97 bb 0b d1 16 3f 3e 42 5c 3f
       0.08107397 -0.0046305675 0.58912724 0.8603858
0001d0 72 e8 45 3f 8c eb 21 40 c8 27 c0 3e 98 f9 3a 3d
       0.7730781 2.5300016 0.3753035 0.045648187
0001e0 dc a6 40 be 9d 2b 0b 3e 09 f7 92 3f 42 e9 4f 3d
       -0.18813652 0.13590856 1.1481639 0.05075956
0001f0 6d 97 39 3f 1f eb 43 39 a0 29 00 3f 41 ef e2 3e
       0.7249668 0.00018684239 0.50063515 0.4432316
000200 90 e2 de 3d 41 bf 38 3f a9 3e e9 bc fd fa d7 be
       0.10883057 0.7216683 -0.028472262 -0.42183676
000210 e2 26 03 bf 10 fb 4e 3e 57 65 9e bd fa c1 86 3f
       -0.51231205 0.2021296 -0.07734173 1.0527947
000220 31 dc 0f 3f e1 9d f4 bd 83 16 70 bf cb 67 73 bf
       0.5619536 -0.119441755 -0.9378435 -0.9508025
000230 72 c8 4f 3d 6a 71 62 3f ba 7b f9 3e 96 55 a8 3f
       0.05072827 0.88454306 0.48727208 1.3151119
000240 bd 5f 8e 3e 9f 72 7c 3f d1 66 25 3f 79 57 c5 3f
       0.27807418 0.986124 0.6461001 1.541732
000250 6d 4e 30 3f 8c 5a 59 3e f2 f1 2a 3f 93 ef 80 3f
       0.6886967 0.21225947 0.6677543 1.0073112
000260 a5 bd a4 bd 14 50 3b 3e 89 af 5d 3f c2 ee ed 3e
       -0.08043984 0.18292266 0.8659597 0.4647122
000270 a2 33 71 3f 2d 7a 3f 3f 5b 7e 21 bf f5 18 8f 3e
       0.9421941 0.747958 -0.6308343 0.27948728
000280 1f 5d 6b 3d a5 12 3e 3f 5e e0 80 3f 20 f6 00 3f
       0.057461854 0.742472 1.0068471 0.50375557
000290 de 38 57 3e 44 69 9e 3f 04 28 82 3f 33 7a e9 3e
       0.21017787 1.2375875 1.0168462 0.45601043
0002a0 7b b7 c4 3e 74 0f ba 3e 61 0b 86 3e 42 39 cb be
       0.38421234 0.36339915 0.26180556 -0.39692122
0002b0 04 1d c6 3e b9 82 cd 3d 0a a2 7a 3f 3e d2 96 3f
       0.38694012 0.10034699 0.979035 1.1782911
0002c0 11 e7 2f 3e 69 3b 5a bd 73 7a 88 3f 43 8b 6b 3f
       0.17177989 -0.053279314 1.0662369 0.9200937
0002d0 c8 3d cd 3e 34 d1 09 40 27 f4 5c 3f d2 44 ae 3c
       0.40086198 2.1533937 0.86310047 0.02127305
0002e0 2a 04 7c bd 54 35 39 3f 71 17 9f 3f 40 10 60 3f
       -0.06152741 0.72347 1.2429029 0.87524796
0002f0 fa 0d 92 3f 28 80 40 bd 7f b3 5b 3f f7 c0 59 3f
       1.1410515 -0.04699722 0.85820764 0.85060066
000300 af bc b8 3e 47 ed 86 be 0e a5 d1 3d 25 b5 b9 bf
       0.36081454 -0.26352903 0.1023656 -1.4508406
000310 7b f2 44 be 5e 92 85 3d 72 24 a3 bf de 9a e4 ba
       -0.19233124 0.06522058 -1.2745497 -0.0017441174
000320 93 ed 88 be b0 d1 ce 3e 33 d6 ac bf 31 23 d8 bf
       -0.26743755 0.40394354 -1.3502868 -1.688574
000330 e7 05 8e bc b5 9c 68 be 0f 4d eb be 22 c8 2b bd
       -0.017336799 -0.22716029 -0.4595723 -0.04193891
000340 bb 2a a0 be 93 b7 2d be b7 96 a2 3e bf fd 10 be
       -0.312826 -0.1696456 0.3175561 -0.14159296
000350 6c a9 d9 bd 54 85 7a 3e a0 33 3b bf 9f 41 78 bf
       -0.10628018 0.24464923 -0.7312565 -0.9697513
000360 25 24 b4 bf 9e 36 ae bf 56 e1 80 3f 6a 93 8f bf
       -1.407353 -1.3610418 1.0068767 -1.1216862
000370 2b a1 bf be 4e 90 26 3e 28 e8 39 3f f4 4e 56 bf
       -0.3742765 0.16265985 0.7261987 -0.8371422
000380 0a b6 a1 bf 00 8a 85 3e 0a d4 18 bf 69 ea 23 bf
       -1.2633679 0.26081848 -0.59698546 -0.64029557
000390 fa 8f 01 bf 86 1c 8e be d6 19 0c bf f4 7a 27 3d
       -0.50610316 -0.27756137 -0.5472692 0.04088874
0003a0 90 89 e5 bd 46 40 0c 3f 7d 90 1a 3d 52 36 af bf
       -0.112078786 0.54785573 0.03773545 -1.3688452
0003b0 43 a8 c2 3e e1 f3 5f bf 8c 6c fd bd f4 55 9b be
       0.38018999 -0.87481505 -0.12374219 -0.30339015
0003c0 ab 43 83 bd c5 28 27 bf 16 67 af bc 17 1e b5 3e
       -0.06409391 -0.65296584 -0.02141146 0.3537452
0003d0 77 c5 d5 3e 17 ec 09 40 c3 f4 8a bb bf fc e0 bd
       0.41752216 2.1550348 -0.0042406037 -0.109857075
0003e0 45 be f9 be 70 34 24 bf 0a c0 7b 3f d1 8e 06 3e
       -0.48777977 -0.64142513 0.98339903 0.13140418
0003f0 e4 74 07 3f 71 8b 6b be b0 95 a2 3e 65 5d 1e bf
       0.52912736 -0.23002411 0.31754827 -0.6186126

layers.2.bias f4 [64]
000000 1a 04 eb 3f b2 22 43 40 37 21 3b 40 3c b2 3e 40
       1.8360627 3.0489926 2.9239023 2.9796286
000010 e6 73 44 40 d7 f1 15 c0 a0 e0 47 40 28 0b 17 c0
       3.0695739 -2.3428857 3.123085 -2.360056
000020 c8 1d 1d c0 06 37 15 3f 6a 79 3f 40 22 6b 3b 40
       -2.4549427 0.58287084 2.9917855 2.9284139
000030 35 66 2f 40 8f be 3e 40 57 34 3f 40 e9 82 3c 40
       2.7406132 2.9803808 2.9875696 2.9454901
000040 f7 49 34 40 10 3f 43 40 90 66 40 40 51 34 37 40
       2.8170145 3.050724 3.00626 2.8625681
000050 12 c1 1c c0 9b 47 40 40 78 f6 12 c0 94 19 14 c0
       -2.449284 3.0043705 -2.2962933 -2.3140612
000060 7e 41 41 40 02 38 20 c0 2b d3 19 c0 ba 52 18 c0
       3.0196223 -2.5034184 -2.4035137 -2.3800492
000070 ac 47 12 c0 9b 28 28 40 57 74 32 40 6a 11 2d 40
       -2.2856245 2.6274784 2.7883508 2.7041879
000080 ad 89 0d 40 56 f9 37 40 09 4e 0e c0 9d 9c 2e 40
       2.211528 2.8745933 -2.223513 2.728309
000090 50 70 12 c0 e5 d3 19 c0 ad 0a 39 40 bb 8e 1c c0
       -2.288105 -2.403558 2.8912766 -2.4462116
0000a0 72 e3 d6 bf 7a 0b 19 c0 d6 4e 3f 40 49 35 2a 40
       -1.6788161 -2.3913255 2.9891868 2.6595023
0000b0 62 94 d3 3f 77 88 37 40 5b fd 43 40 88 4e 17 c0
       1.6529658 2.8677042 3.0623386 -2.3641682
0000c0 a2 0b 2a 40 f7 47 20 40 ad c6 3f 40 dd bd 12 c0
       2.65696 2.5043924 2.9965012 -2.2928383
0000d0 14 ce 19 c0 18 d8 3a 40 44 dd 31 40 72 cb 1d c0
       -2.403203 2.9194393 2.77913 -2.4655423
0000e0 53 dd 2b 40 f0 cf 1c c0 05 7e 1a c0 b7 fb 14 40
       2.6853836 -2.4501915 -2.4139416 2.3278635
0000f0 1b f4 4a 40 e8 a0 48 40 b3 f8 3a 40 16 8c 0f c0
       3.171149 3.134821 2.9214294 -2.2429252

out.0.weight f4 [21, 64]
000000 85 fc 05 bf 9a c4 a9 3c f1 29 55 be ce 90 83 3e
       -0.5233844 0.02072363 -0.2081678 0.25696415
000010 10 38 d4 bd bb 37 fb bf 61 d1 30 be 5b ca 1c c0
       -0.103622556 -1.9626383 -0.17267372 -2.4498508
000020 45 56 1b 40 bf c1 8a bf a6 51 71 be 65 67 83 be
       2.4271405 -1.0840377 -0.23566303 -0.2566482
000030 21 27 e7 3e 0e 73 3c 3c 89 16 c1 be 6a fc d4 3d
       0.4514704 0.011502041 -0.37712505 0.10399707
000040 e1 77 f6 3e 5f 02 c6 bd 6f 40 7c 3e f3 81 f3 3d
       0.48138335 -0.09668421 0.24633954 0.1189002
000050 f7 a7 18 c0 64 bb 98 bc 49 ee 0e c0 d3 33 12 c0
       -2.3852518 -0.018644042 -2.2332938 -2.284413
000060 8c b1 70 bc d8 6d 13 c0 6e aa 0f c0 17 b1 fd bf
       -0.014690768 -2.3035793 -2.2447772 -1.9819669
000070 cb c6 16 c0 31 b3 45 3d ed 18 a0 3d 48 c3 de bd
       -2.3558834 0.048266593 0.07817254 -0.10877091
000080 58 32 6e bf 05 98 fa 3d 2f 77 15 c0 a1 75 a7 3e
       -0.9304557 0.12236027 -2.3353994 0.3270693
000090 08 6b 0a c0 eb f9 19 c0 c9 ea 7d 3c e2 7e 1e c0
       -2.1627827 -2.4058788 0.015497872 -2.4764943
0000a0 44 ce 59 bf b8 e7 1d c0 3f ee 9b 3e 27 2d 66 bf
       -0.8508036 -2.467268 0.30455205 -0.89912647
0000b0 a5 53 29 3e 88 f7 90 3d 47 64 34 be e8 b6 17 c0
       0.16535814 0.07078463 -0.17616378 -2.3705387
0000c0 88 17 92 3d 27 c7 51 bf 0e f3 7a 3c c7 60 1c c0
       0.071333945 -0.8194451 0.015316738 -2.4434068
0000d0 24 be 12 c0 2b 79 09 be bf 9f 4a 3e 9b 6f 11 c0
       -2.2928553 -0.13425128 0.19787501 -2.2724369
0000e0 81 03 de bd 7d ac 13 c0 89 e2 0f c0 e8 43 a1 3f
       -0.10840512 -2.3074028 -2.2482016 1.2598848
0000f0 a7 5c 21 bf f3 6b a1 be 42 0c 75 be 44 7d 0c c0
       -0.63032 -0.3152767 -0.23930457 -2.1951456
000100 29 a2 2d bf 47 37 4f be 56 f1 25 3d 7c d4 3e be
       -0.6782556 -0.2023593 0.04051336 -0.18635744
000110 40 6f 64 be 8c 26 0c c0 ab 29 aa bd 6e f9 15 c0
       -0.22308064 -2.1898527 -0.08308729 -2.343349
000120 df ce 02 40 4c a9 a6 3e 37 57 33 3e ef 23 d5 3b
       2.0438764 0.32551038 0.17513739 0.0065045278
000130 23 3e c1 be 98 dd 61 3d 74 6c fa 3d 97 c4 fa 3d
       -0.3774272 0.05514297 0.12227717 0.12244528
000140 16 ff 9d be 24 0a a5 bd 2e 7d 28 bf 01 74 13 bf
       -0.30858678 -0.08058575 -0.6581601 -0.5759888
000150 68 63 16 c0 45 81 4f 3e f8 03 19 c0 c8 9b 18 c0
       -2.3498173 0.20264156 -2.3908672 -2.3845081
000160 04 bc 7c 3e de 8b 18 c0 1c 76 1f c0 03 1d 27 c0
       0.24681097 -2.3835368 -2.4915838 -2.6111457
000170 26 66 17 c0 55 63 f8 3c 34 70 5e bf fd 69 f4 be
       -2.3656096 0.030320803 -0.8688996 -0.47737113
000180 f7 32 8f be c1 9c 48 be fe 2f 01 c0 31 c5 d5 3e
       -0.2796857 -0.19591047 -2.0185542 0.41752008
000190 11 4e 08 c0 3b 48 13 c0 e3 51 56 3e e4 b4 0b c0
       -2.1297648 -2.3012836 0.20929675 -2.1829157
0001a0 18 53 8e bf 3c 25 1b c0 95 1c b9 bd 16 8c cd 3e
       -1.1119108 -2.4241476 -0.09038655 0.4014594
0001b0 d3 6e b9 be 0e 45 69 bf 3d ab e1 3d 1b 9c 06 c0
       -0.36217365 -0.91120994 0.11018989 -2.103278
0001c0 66 57 b7 bd 5d 3e d0 be 71 9c ce be 12 40 0d c0
       -0.08952217 -0.4067258 -0.4035373 -2.2070355
0001d0 39 cd 05 c0 27 6a 65 bd 2e e7 88 be f4 76 1b c0
       -2.0906508 -0.056009438 -0.26738876 -2.4291353
0001e0 1b fa 12 bf b7 c1 1e c0 c3 c7 16 c0 2e e6 a4 3f
       -0.5741288 -2.4805734 -2.3559425 1.2882745
0001f0 e6 dc e0 3d 6b 2a 4f 3e be ee 46 be 26 95 0d c0
       0.10979633 0.20231025 -0.1942701 -2.2122283
000200 38 e1 f6 3b f8 76 86 be 4f f2 80 3d ed a5 1c bf
       0.0075341724 -0.2626264 0.06296217 -0.6119068
000210 f9 f3 4d 3e 99 53 10 c0 3c d1 b9 bd 5e 96 16 c0
       0.201126 -2.2551024 -0.090731114 -2.3529277
000220 d1 8a 04 c0 e8 bf 9e 3f b7 f2 a1 3d 27 40 7f 3e
       -2.0709727 1.2402315 0.07907622 0.24926816
000230 93 8a 37 bf fc aa 0b be b6 03 26 3e c3 01 8c be
       -0.7169582 -0.13639444 0.16212353 -0.27345094
000240 b7 6e 4a bf 22 24 73 3c d2 0e 3f bf dd 4a 49 bf
       -0.7907519 0.014840158 -0.7463199 -0.7862986
000250 b7 48 1a c0 94 37 28 bd 1f 1c 14 c0 ac 9a 1c 40
       -2.4106882 -0.04106863 -2.3142164 2.4469404
000260 d0 5c 49 bd 44 ad 9d 3f 78 96 0b c0 24 b8 17 40
       -0.04916078 1.2318501 -2.181059 2.370614
000270 f4 eb 1b 40 db a8 cd 3c ab ee 4c bf 9a 64 aa bd
       2.4362764 0.02510493 -0.8005168 -0.083199695
000280 cf c4 02 3f 62 1a 6e be 86 a4 0b c0 d2 16 1b bd
       0.51081556 -0.23252252 -2.1819167 -0.03786356
000290 8b df f5 3f 39 9c 27 40 2b 3b 53 3d 4e 8c 13 c0
       1.9208845 2.61891 0.0515701 -2.3054385
0002a0 cf f1 53 3f 59 46 15 40 78 f2 82 bf 57 8a 1a 3f
       0.82790846 2.3324187 -1.0230246 0.6036734
0002b0 c4 19 80 bf cc 2a 43 bf e6 ce 39 3e d0 5b 0e 40
       -1.0007863 -0.7623718 0.18145332 2.2243538
0002c0 8d 30 2f bf 03 32 d7 3e 8c 06 6f be f5 24 16 c0
       -0.6843346 0.42030343 -0.23342341 -2.3460057
0002d0 2b e2 05 40 e2 93 b4 3d 56 f6 14 bf c0 c7 07 40
       2.0919292 0.08817269 -0.5818838 2.1215668
0002e0 27 9e bd be f5 2a 1a 40 14 22 1c 40 e2 4f bb bf
       -0.37034723 2.408872 2.43958 -1.4633753
0002f0 56 a7 30 3f ea 7a b0 3c 73 f1 8e 3e 79 67 1d 40
       0.69005334 0.021542985 0.27918586 2.4594405
000300 4b 3d 1f bf a7 89 b4 3b 54 36 16 bd ec e0 b9 be
       -0.622029 0.0055095735 -0.036672905 -0.36304414
000310 2e 74 32 bd 46 59 1f c0 8c e8 a1 be dd 46 0c c0
       -0.04356783 -2.4898238 -0.31622732 -2.1918252
000320 96 22 1e 40 c3 43 43 3f 69 eb 2c 3e 22 a0 70 3e
       2.470861 0.7627527 0.16886677 0.23498586
000330 39 73 7f be 15 1a b3 be a5 d2 a8 3e eb d9 e1 bd
       -0.24946298 -0.34980837 0.3297321 -0.11027893
000340 3f fd ec be b9 47 ca be e8 cd a8 be b2 36 34 bf
       -0.4628696 -0.39507845 -0.32969594 -0.7039596
000350 06 86 17 c0 3a 1b 65 3e 32 10 05 c0 1b 6c 09 c0
       -2.3675551 0.22373667 -2.0791135 -2.1472232
000360 55 26 a6 39 4a 55 23 c0 37 d0 0f c0 83 40 13 c0
       0.00031690547 -2.5520806 -2.2470834 -2.3008125
000370 04 8d 17 c0 c1 9c 77 3d 3b 27 0a bf a2 fa 1c be
       -2.367982 0.060452227 -0.5396611 -0.15329984
000380 c0 10 fd bd 3b 03 0b 3c 92 4b 11 c0 65 8e ff 3e
       -0.123567104 0.008484657 -2.2702374 0.49913326
000390 23 e7 12 c0 b2 1a 18 c0 a0 7a 3e 3e f9 d0 06 c0
       -2.2953575 -2.3766294 0.18601465 -2.1065047
0003a0 78 35 d1 bf 35 ff 11 c0 a6 55 fe bd a3 b9 59 3f
       -1.6344442 -2.2812016 -0.1241868 0.85048884
0003b0 c3 a4 0d bf f5 aa 83 bf 46 4d 5d be e5 62 20 c0
       -0.5532953 -1.0286547 -0.21611509 -2.506036
0003c0 94 db 9d be 34 e3 e8 3d e0 e9 ea bd 15 9c 1d c0
       -0.30831587 0.113714606 -0.11470389 -2.4626515
0003d0 d4 21 12 c0 e7 d6 ec bd b9 55 e6 bd 20 10 0f c0
       -2.2833147 -0.11564427 -0.11246819 -2.2353592
0003e0 7d 7c 20 be 73 56 16 c0 7b e2 1b c0 58 b6 81 3f
       -0.15672489 -2.3490264 -2.4356983 1.0133772
0003f0 e7 a3 6a 3e 36 d1 9a 3e 4a f7 6b be 9c cb 0f c0
       0.22914086 0.3023774 -0.23043552 -2.2468023

out.0.bias f4 [21]
000000 8b 04 06 c0 9d 3a 13 c0 24 ce 97 3f 65 42 15 c0
       -2.0940273 -2.3004525 1.1859784 -2.3321774
000010 10 e2 0d c0 bb 09 32 40 10 3d 20 c0 1b e4 1a c0
       -2.2169228 2.781844 -2.503727 -2.4201725
000020 93 2c 31 40 84 10 0f c0 f2 b3 27 c0 48 4e 41 40
       2.7683456 -2.235383 -2.620358 3.020403
000030 6d 57 10 c0 de 6f 0d c0 77 3e 43 40 eb 8f 24 c0
       -2.255336 -2.2099528 3.0506876 -2.571284
000040 0f 06 26 c0 cf 88 41 40 a7 c6 30 c0 d4 ac 26 c0
       -2.5941198 3.0239751 -2.7621248 -2.6042986
000050 bc 85 51 40
       3.2737875
