results/FC_PRIMNET/ABAQUS64/weights/epoch_478.pth (torch, 26463 bytes, 10 tensors)

motor_std f4 [3]
0	0x3e669df4	0.22521192
1	0x3d6a6882	0.057228573
2	0x3bbcdfa9	0.005763967

motor_mean f4 [3]
0	0xbe834dc2	-0.25645262
1	0x39518e80	0.00019984879
2	0xbdb83994	-0.08995357

position_std f4 [3, 1]
0	0x3f800000	1.0
1	0x3f800000	1.0
2	0x3f800000	1.0

position_mean f4 [3, 1]
0	0x00000000	0.0
1	0x00000000	0.0
2	0x00000000	0.0

layers.0.weight f4 [64, 3]
0	0xbbdee7d6	-0.0068025393
1	0xbe0dcbf2	-0.1384733
2	0xbdaf57fa	-0.08561702
3	0x3dcc9721	0.09989763
4	0xbf0777aa	-0.5291697
5	0xbe9248a8	-0.28571057
6	0xbccae9c8	-0.024769679
7	0xbd09d071	-0.03364605
8	0xbc7234d7	-0.014783106
9	0xbe8f6d1a	-0.28012925
10	0x3f1637c5	0.5867885
11	0x3f05a18e	0.5219964
12	0xbe87441c	-0.2641915
13	0x3ef905ac	0.4863714
14	0xbe66fcc2	-0.22557357
15	0xbe8f4043	-0.27978715
16	0x3eab0c4b	0.33407816
17	0xbf69b73b	-0.9129521
18	0x3e981666	0.2970459
19	0x3f13b806	0.5770267
20	0x3e3318f5	0.17489989
21	0x3f67fa28	0.90616083
22	0xbf01ae3c	-0.50656486
23	0x3e79347b	0.24336426
24	0xbeb82f47	-0.3597357
25	0xbeff2f51	-0.49840787
26	0x3b4226ab	0.0029625099
27	0x3f631caf	0.8871564
28	0xbf8a9db8	-1.0829382
29	0xbe87d737	-0.26531383
30	0xbdebffd3	-0.11523404
31	0xbc91cdac	-0.017798267
32	0x3e56447a	0.20924559
33	0x3f244bfb	0.64178437
34	0xbf04ead5	-0.51920825
35	0xbe9d4f37	-0.307245
36	0xbc644da7	-0.013934529
37	0xbe2d6482	-0.16932872
38	0x3c2b3c13	0.0104513345
39	0xbe19e764	-0.15029675
40	0x3edee332	0.4353271
41	0xbf67b309	-0.9050756
42	0x3f50a695	0.81504184
43	0xbf2c9930	-0.67421246
44	0xbf6fa70c	-0.9361427
45	0x3cf34b14	0.029698886
46	0x3ecbc2f3	0.39797172
47	0xbfb7de49	-1.4364711
48	0xbd978675	-0.073986925
49	0xbee55377	-0.4479024
50	0xbe8c4d5b	-0.27402768
51	0xbe4a308c	-0.19745082
52	0x3f4536e3	0.77036875
53	0x3e9155f3	0.28385887
54	0xbef0ffb2	-0.4707008
55	0x3f98e65c	1.19453
56	0x3df52a9b	0.11971017
57	0x3eca085c	0.39459503
58	0xbe876229	-0.26442078
59	0x3f22ee36	0.6364473
60	0xbee46f87	-0.4461634
61	0x3f0d1919	0.5511642
62	0x3f3c79c4	0.736233
63	0xbd34e186	-0.04416039
64	0xbcb6e868	-0.022327617
65	0xbc1a8aee	-0.0094325375
66	0xbd208554	-0.03918965
67	0xbf011736	-0.5042604
68	0x3da28b1e	0.07936691
69	0xbefc676b	-0.49297652
70	0x3f9aa2fe	1.2080991
71	0xbe586eef	-0.21136068
72	0xbe60d4c4	-0.21956164
73	0x3f255f29	0.6459833
74	0xbea3efd5	-0.32018915
75	0x3e7f139e	0.24909827
76	0xbdfb59c1	-0.122729786
77	0x3e38516c	0.1799981
78	0xbe5be9f1	-0.2147596
79	0x3ee7ea77	0.4529607
80	0xbe36bc80	-0.17845345
81	0xbf959eb6	-1.168906
82	0x3fb12955	1.3840739
83	0xbf8c8066	-1.0976684
84	0xbf25a6c1	-0.6470757
85	0x3f737d72	0.9511329
86	0x3e248242	0.16065314
87	0xbf02af79	-0.51049
88	0x3f2227d8	0.63342047
89	0x3f1b474b	0.6065566
90	0x3f86b6cf	1.0524539
91	0xbf7bf754	-0.9842427
92	0xbdbc4c31	-0.0919422
93	0x3e57aa95	0.21061166
94	0xbee984b7	-0.45609066
95	0x3e0ef2ad	0.13959761
96	0x3f57c612	0.84286606
97	0xbf1ff991	-0.62490183
98	0x3f71f1fb	0.9450986
99	0xbf3f3efe	-0.74705493
100	0x3f7b77e7	0.9822983
101	0x3df9d9db	0.12199756
102	0x3ee87f94	0.45409834
103	0xbf5e77dc	-0.8690164
104	0x3eda5862	0.42645556
105	0xbf09a18c	-0.53762126
106	0xbf2cb414	-0.6746228
107	0xbf5af572	-0.8553077
108	0x3e92b069	0.28650215
109	0xbee6daf4	-0.45088923
110	0x3e021d8b	0.12706582
111	0x3f3fef13	0.74974173
112	0x3e8e49c2	0.27790648
113	0x3ec906bb	0.39262947
114	0xbf6fffbe	-0.93749607
115	0x3f9aaf39	1.2084724
116	0xbe1c135c	-0.1524176
117	0x3d8719f3	0.06596746
118	0xbeb936aa	-0.36174518
119	0x3d94d4d8	0.07267159
120	0x3f086a93	0.5328762
121	0xbcd106b1	-0.025515886
122	0xbf501e77	-0.81296486
123	0x3ec091ae	0.37611145
124	0xbfaadc65	-1.3348509
125	0x3f1e4023	0.61816615
126	0x3e43ca9e	0.19120261
127	0xbea55abe	-0.32295793
128	0x3d9fce65	0.078030385
129	0x3eb7cae7	0.3589699
130	0xbed9e319	-0.42556074
131	0x3f26f5f6	0.65219057
132	0xbec7d607	-0.39030477
133	0x3f5419e3	0.82852
134	0xbe299a82	-0.16562846
135	0x3e4cc340	0.19996357
136	0x3f28150e	0.65657127
137	0x3e814889	0.25250652
138	0xbefb8677	-0.49126026
139	0xbf0c8193	-0.54885215
140	0x3f4a35aa	0.78988135
141	0xbf52e54c	-0.8238113
142	0x3f5d9097	0.8654875
143	0x3eac58e6	0.33661574
144	0x3f695eb4	0.9116013
145	0xbf8371b4	-1.0269074
146	0xbf07aa34	-0.52994084
147	0x3f46f3a5	0.7771552
148	0xbfaf1b52	-1.3680212
149	0xbd2b56a7	-0.041830685
150	0x3ee8f839	0.4550188
151	0x3f1efac8	0.6210141
152	0xbf3cee84	-0.73801446
153	0x3eefc675	0.46831098
154	0x3f8054e0	1.0025902
155	0x3f07a5f8	0.52987623
156	0x3eee6024	0.46557724
157	0xbf44b1f1	-0.7683402
158	0x3fa9b226	1.3257492
159	0xbe8bbe8c	-0.27293813
160	0xbe0e5b4e	-0.13902017
161	0x3e023e68	0.12719119
162	0x3e7af518	0.24507558
163	0xbf184bec	-0.5949085
164	0x3ea55440	0.3229084
165	0xbd43f538	-0.04784128
166	0x3e048005	0.1293946
167	0xbde3ae35	-0.11117212
168	0x3f3048a9	0.6886087
169	0x3d1e0580	0.038579464
170	0x3c9c8941	0.019108417
171	0xbf8a0199	-1.0781738
172	0xbf06ff28	-0.5273309
173	0xbf57f2cb	-0.8435485
174	0x3effbad0	0.49947214
175	0xbf64557b	-0.8919293
176	0xbe79021a	-0.24317208
177	0xbf24a302	-0.6431123
178	0x3f45da72	0.77286446
179	0xbe1b4b8e	-0.1516554
180	0xbd8dbc1a	-0.06920643
181	0x3e772cd9	0.24138202
182	0x3ef4c4c7	0.4780638
183	0xbd03a5cd	-0.03214054
184	0x3d4313fb	0.047626477
185	0x3c9b4081	0.018951656
186	0x3fa7e257	1.3115948
187	0xbf15c74d	-0.58507234
188	0x3f562dce	0.8366364
189	0xbe6b6f96	-0.22991785
190	0x3dfded05	0.123987235
191	0x3fabfa13	1.3435692

layers.0.bias f4 [64]
0	0xbed0831e	-0.40725034
1	0xbfc56b9d	-1.5423466
2	0xbed06181	-0.4069939
3	0xc01f636f	-2.490444
4	0xc02096a9	-2.5091956
5	0xbea8393e	-0.32856172
6	0xc025cfde	-2.5908122
7	0xc0332fc6	-2.7997909
8	0xbf9a26f9	-1.2043144
9	0x3f38cb1d	0.72184926
10	0xc042103f	-3.0322416
11	0xc0425122	-3.036202
12	0xbeaba53e	-0.33524507
13	0x3feaee5a	1.8353989
14	0xc00867fa	-2.1313462
15	0x402fd4ff	2.7473752
16	0xbfd4307f	-1.65773
17	0xbe751279	-0.23932828
18	0xbff90625	-1.9455
19	0xc0135008	-2.3017597
20	0xbf0bd1dc	-0.54617095
21	0xbe06ffb8	-0.13183486
22	0xbfe40594	-1.7814202
23	0xbfcb56c4	-1.5885854
24	0xc042f49a	-3.0461793
25	0xc023a443	-2.5569007
26	0x40348307	2.8204973
27	0xc01264be	-2.2873988
28	0xbfc66523	-1.5499614
29	0x40019fb7	2.0253732
30	0xbf90fb3d	-1.1326672
31	0xbfbbf7e2	-1.4685023
32	0xc03e86f9	-2.976988
33	0x3fcbd05a	1.5922959
34	0xc031b5e6	-2.7767272
35	0xc03697db	-2.8530185
36	0xc0225d99	-2.5369627
37	0xc0179bcf	-2.3688848
38	0xbf094fe8	-0.5363755
39	0x40099abe	2.1500697
40	0xbfaf50e9	-1.3696567
41	0x401fe049	2.4980643
42	0x3fbea645	1.4894491
43	0xc020c568	-2.5120487
44	0x3fb6e420	1.4288368
45	0xc01ea5ea	-2.4788766
46	0xbff10d8d	-1.883226
47	0x3f3dbc0b	0.74115056
48	0xbfbb3e54	-1.4628396
49	0xbf1d9611	-0.6155711
50	0xbff32fd6	-1.8998973
51	0xc02a23ef	-2.6584432
52	0x3fafc872	1.3733046
53	0xc092b45d	-4.584517
54	0x402413fe	2.5637202
55	0xbef470e7	-0.47742388
56	0xbfb88537	-1.4415654
57	0xc0185575	-2.380216
58	0xc008a7b5	-2.135236
59	0xbec7e321	-0.39040473
60	0x4036e9c6	2.8580184
61	0xbe2cd23e	-0.16877076
62	0xc04a773b	-3.1635273
63	0xc022d7cf	-2.544422

layers.2.weight f4 [64, 64]
0	0x3e3dae29	0.18523468
1	0xbfaa0b82	-1.3284762
2	0x3e038329	0.12843002
3	0xc0074898	-2.1138058
4	0xbf8b4863	-1.0881466
5	0xbfe2ab30	-1.7708492
6	0xc00c82bd	-2.1954796
7	0xbd78b553	-0.0607198
8	0xbff66288	-1.9248819
9	0xbfc9c823	-1.5764202
10	0xc032347a	-2.784453
11	0xc03e3687	-2.972078
12	0xbda682a5	-0.08130387
13	0xbfc86b62	-1.5657771
14	0x3ebff022	0.37487894
15	0xbfb17d40	-1.3866348
16	0xbfc20fa4	-1.5161023
17	0xc00d312a	-2.2061257
18	0x3f943269	1.1577884
19	0xc00274d2	-2.0383801
20	0xc00e2ba2	-2.2214131
21	0x3dd65754	0.10465875
22	0xc01711d2	-2.3604627
23	0xc017f341	-2.374222
24	0xc01e4dce	-2.4734988
25	0xc00fddfc	-2.2479239
26	0xbf93df11	-1.155245
27	0xc00aea89	-2.170565
28	0xc01ad2c8	-2.419115
29	0xbfe0b491	-1.7555104
30	0xbfd24978	-1.6428671
31	0xbff396d5	-1.9030405
32	0xc014f02b	-2.3271587
33	0xbfcb2289	-1.5869914
34	0xc0201dbb	-2.5018146
35	0xc01b0802	-2.4223638
36	0xbf9746a7	-1.1818436
37	0xbfe230a2	-1.7671092
38	0xc015d4a0	-2.3411026
39	0xbfb3ffed	-1.4062477
40	0xc00cb6b3	-2.198651
41	0xbfa63089	-1.2983562
42	0xbfe9b674	-1.8258805
43	0xc00ad9a5	-2.169534
44	0xbfda371b	-1.7048067
45	0xbfeb9b24	-1.840672
46	0xc006cc1f	-2.1062086
47	0xc006d7c6	-2.1069198
48	0xbff383a6	-1.9024551
49	0xbfde0473	-1.7345108
50	0xc0167ca3	-2.3513572
51	0x3f389968	0.7210908
52	0xbfb4e9e5	-1.4133879
53	0x402f6954	2.7408037
54	0xbfb6d2f0	-1.4283123
55	0xbdb513e4	-0.088416845
56	0xbfdbccce	-1.7171876
57	0xc001f033	-2.0302856
58	0xc006f616	-2.10877
59	0xc00936e5	-2.1439755
60	0xbfa1cd17	-1.2640713
61	0x3e2ba31d	0.16761442
62	0xbf056401	-0.5210572
63	0xbfefb733	-1.8727783
64	0xbe01383b	-0.12619106
65	0xbea06f6b	-0.31335005
66	0xbd409e3f	-0.047025915
67	0xbf81aebb	-1.0131449
68	0x3ef940b6	0.48682183
69	0xbc036edd	-0.008022037
70	0xbf6a4618	-0.91513205
71	0x3ec2c5a6	0.3804142
72	0xbe83de35	-0.25755468
73	0x3e5a4681	0.21315958
74	0xbf81b6c0	-1.0133896
75	0xbff9b15c	-1.9507251
76	0x3e003240	0.12519169
77	0x3ea2e8fa	0.31818372
78	0x3e989424	0.29800522
79	0x3f31c2e5	0.6943801
80	0xbeae48cc	-0.34039915
81	0x3c81b444	0.015833028
82	0xbea5a2c1	-0.32350734
83	0x3f99eb11	1.2024862
84	0x3cf86b93	0.030324733
85	0x3dfd8972	0.12379731
86	0x3f53a84b	0.8267867
87	0xbefb060c	-0.4902805
88	0x3e5b04fd	0.21388622
89	0x3f1d29ae	0.61391723
90	0x3f7381c3	0.95119876
91	0xbec68f64	-0.38781273
92	0xbecd8a8e	-0.4014477
93	0x3f0032a1	0.50077254
94	0x3dc22697	0.09480017
95	0x3ec87f7c	0.39159763
96	0xbe2a107c	-0.16607851
97	0x3e3dc517	0.18532215
98	0x3f7dbc98	0.99115896
99	0x3f2e58e0	0.6810436
100	0x3f4c5d1a	0.7982956
101	0x3fe90bee	1.8206766
102	0xbe257d39	-0.1616105
103	0x3e59069f	0.21193932
104	0xbed7f809	-0.42181423
105	0x3f42d144	0.76100564
106	0x3e493827	0.19650327
107	0xbf58b38b	-0.8464896
108	0x3ea53870	0.3226962
109	0x3e911dee	0.28343147
110	0x3d98872e	0.074476585
111	0x3e66fb4c	0.225568
112	0xbe62c87a	-0.22146788
113	0xbdda977c	-0.106734246
114	0xbdbf5604	-0.09342578
115	0x3f6dceae	0.92893493
116	0x3f1977ad	0.59948236
117	0x404b69d9	3.1783354
118	0x3ebc49dd	0.36775103
119	0x3d3af998	0.045648187
120	0xbf57c44d	-0.84283906
121	0x3e522f8c	0.2052595
122	0x3fdffd41	1.7499162
123	0xbdd104c3	-0.10205986
124	0x3f422d1f	0.758501
125	0x3943eb1f	0.00018684239
126	0xbe9dc824	-0.30816758
127	0x3f895137	1.072791
128	0x3ddee290	0.10883057
129	0x3d543265	0.051805872
130	0xbce93ea9	-0.028472262
131	0xbf427cfc	-0.7597196
132	0x3e8e7050	0.27820063
133	0x3ecc0c7f	0.39853284
134	0xbe05a95a	-0.13052884
135	0x3eb8fc81	0.36130145
136	0xbdbc0d5f	-0.09182238
137	0xbe86ee1c	-0.26353538
138	0xbefb0049	-0.49023655
139	0xbfcc0f5e	-1.594219
140	0x3d4fc872	0.05072827
141	0x3f73095c	0.94936156
142	0x3d0010ed	0.03126614
143	0x3fb8b949	1.4431545
144	0xbe2be5c5	-0.16786869
145	0x3f869a4b	1.0515836
146	0x3c8b1c92	0.016981397
147	0x40086b3e	2.1315455
148	0x3f57f2b2	0.843547
149	0x3e595a8c	0.21225947
150	0x3fb1acc2	1.3880847
151	0x3f3f53de	0.74737346
152	0x3f0b30a7	0.5437111
153	0x3f72e1f0	0.94876003
154	0x3f7e37e5	0.9930404
155	0x3f54b518	0.8308883
156	0x3f6e1074	0.92993855
157	0x3f6def3a	0.92943156
158	0xbf8c699d	-1.0969731
159	0xbe0139a1	-0.1261964
160	0x3f08e87a	0.5347973
161	0x3f8a3b16	1.0799282
162	0x3fd56aa1	1.6673166
163	0x3f9a1026	1.2036178
164	0x3f854542	1.0411761
165	0x3ff44f38	1.9086676
166	0x3f916287	1.1358193
167	0x3ef66c15	0.48129335
168	0x3d584b31	0.052806083
169	0x3eac59e9	0.33662346
170	0x3e9594f9	0.2921522
171	0xbefe8bff	-0.49716184
172	0x3f36be7d	0.7138441
173	0x3f549925	0.8304618
174	0x3f93bd8d	1.1542221
175	0x3fc31408	1.5240488
176	0xbeddb0cb	-0.43298945
177	0xbebc14bf	-0.36734578
178	0x3f2a4377	0.66509193
179	0x3f5d4b6c	0.8644321
180	0x3e4f6d35	0.20256503
181	0x4032f3b9	2.7961257
182	0x3f56b27b	0.8386609
183	0x3cae44d2	0.02127305
184	0xbf38cb76	-0.72185457
185	0x3f7eac79	0.9948192
186	0x3ff186b4	1.8869233
187	0x3f92fdbd	1.1483685
188	0x3f9c8e85	1.2230994
189	0xbd408028	-0.04699722
190	0x3bd17f2f	0.0063933353
191	0x3fb097fc	1.3796382
192	0x3eb8bcaf	0.36081454
193	0xbf89a2f0	-1.075285
194	0x3dd1a50e	0.1023656
195	0xc005e2e8	-2.0919743
196	0x3f366f59	0.71263653
197	0xbdfa8e3d	-0.12234161
198	0xbfef7057	-1.8706158
199	0xbdcca080	-0.099915504
200	0xbf357a83	-0.70890063
201	0x3f1780dd	0.59181005
202	0xbfbc9ffa	-1.4736321
203	0xc015acba	-2.3386674
204	0xbc8e05e7	-0.017336799
205	0xbe649956	-0.22324118
206	0x3d8b7a7b	0.06810471
207	0xbb89bb93	-0.004203269
208	0xbf3cabcd	-0.7369965
209	0xbf287571	-0.658042
210	0xbef23fe0	-0.47314358
211	0xbf19a960	-0.6002407
212	0xbef98f7c	-0.48742282
213	0x3e7a8554	0.24464923
214	0xbf43a474	-0.7642281
215	0xbfe66e7c	-1.8002467
216	0xbff50af3	-1.9143966
217	0xbf2f49c8	-0.68471956
218	0x3f83fe86	1.0312049
219	0xbfe00323	-1.7500957
220	0xbf90439e	-1.1270635
221	0x3a669ad8	0.0008796877
222	0x3fad9c72	1.3563368
223	0xbf1008af	-0.5626325
224	0xbfe9f213	-1.8277
225	0x3de99547	0.114054255
226	0x3b5ab79e	0.0033373605
227	0xbdd27090	-0.10275376
228	0x3e956427	0.29177973
229	0x3e990bca	0.29891807
230	0xbf88ceea	-1.0688145
231	0x3c7da150	0.015480354
232	0xbf22fcdf	-0.636671
233	0x3f050572	0.51961434
234	0xbbe5b36a	-0.007009913
235	0xbfec16ac	-1.8444419
236	0x3e89409c	0.26807106
237	0xbe5f9b7e	-0.2183666
238	0xbf2c034c	-0.6719253
239	0xbf37a5db	-0.7173745
240	0x3e452e15	0.1925586
241	0xbf0b26a5	-0.5435584
242	0xbf4341e5	-0.7627242
243	0x3f4c6209	0.7983709
244	0x3e85ac86	0.26108187
245	0x4032db50	2.7946358
246	0x3c83d635	0.016093353
247	0xbde0fcbf	-0.109857075
248	0xbf904355	-1.1270548
249	0xbf56ddee	-0.8393239
250	0x3fcd57d8	1.6042433
251	0xbe530f7f	-0.2061138
252	0x3f09abef	0.53777975
253	0xbe6b8b71	-0.23002411
254	0x3e9e207c	0.3088416
255	0xbd5761ee	-0.052583627

layers.2.bias f4 [64]
0	0x3fc35fa5	1.5263563
1	0x406a719e	3.6631846
2	0x4062eef9	3.5458357
3	0x4066d0fe	3.6065059
4	0x406a0f94	3.6572008
5	0xc03fd28b	-2.9972255
6	0x406ef86c	3.7339125
7	0xc040ebdc	-3.0143957
8	0xc04708bc	-3.109908
9	0x3db468bc	0.08809039
10	0x40643a6a	3.5660653
11	0x406071cc	3.5069456
12	0x4054823a	3.3204484
13	0x40645206	3.5675063
14	0x4063886f	3.5552022
15	0x4062c35e	3.5431743
16	0x405e217d	3.470794
17	0x406af7a5	3.671365
18	0x40681f61	3.6269152
19	0x4056efc5	3.3583844
20	0xc046a130	-3.103588
21	0x406665c1	3.5999606
22	0xc03cd6c8	-2.9506092
23	0xc03dfa48	-2.968401
24	0x4065c626	3.590219
25	0xc04a1cac	-3.158
26	0xc043b3df	-3.0578535
27	0xc042336e	-3.034389
28	0xc03c2860	-2.9399643
29	0x40511f13	3.2675216
30	0x405881d0	3.3829231
31	0x4055ed6f	3.3426168
32	0x4029e03a	2.6543107
33	0x4059c60c	3.4027128
34	0xc0382e59	-2.8778288
35	0x40588dbb	3.3836505
36	0xc03c5104	-2.9424448
37	0xc043b2d7	-3.0577905
38	0x405d7171	3.460049
39	0xc0466f0b	-3.1005275
40	0xc0157b3f	-2.3356473
41	0xc042ec2e	-3.0456653
42	0x4062cd89	3.5437949
43	0x4052bfd0	3.2929573
44	0x3f9737d1	1.1813909
45	0x405fade0	3.4949875
46	0x406b4e54	3.6766558
47	0xc0412f3c	-3.018508
48	0x404248af	3.0356863
49	0x4046f287	3.1085527
50	0x4065394d	3.5816224
51	0xc03c9e2d	-2.9471543
52	0xc043aec8	-3.0575428
53	0x40622924	3.533761
54	0x405c2790	3.4399147
55	0xc047abc2	-3.1198583
56	0x4055b45b	3.339133
57	0xc046b0a4	-3.1045313
58	0xc0445eb9	-3.0682814
59	0x403edf0e	2.9823642
60	0x406bbadf	3.6832807
61	0x406be40b	3.6857936
62	0x4061c286	3.5274978
63	0xc0396cca	-2.897265

out.0.weight f4 [21, 64]
0	0xbf7d9fd7	-0.9907202
1	0x3d8289c2	0.063739315
2	0xbe8471f2	-0.25868183
3	0x3eb8b5fa	0.36076337
4	0xbd3bcf2b	-0.045851868
5	0xc0277c59	-2.6169646
6	0xbe85385d	-0.26019564
7	0xc046ab0f	-3.1041906
8	0x40452cf9	3.08087
9	0xbf277d8b	-0.6542594
10	0xbe8c8d77	-0.2745168
11	0xbeb926b4	-0.3616234
12	0x3f260f30	0.64866924
13	0x3e3ce13f	0.184453
14	0xbea9b673	-0.3314701
15	0x3e3b9d22	0.1832166
16	0x3f8aa064	1.0830197
17	0xbe2c8557	-0.1684774
18	0x3ef7e82b	0.48419318
19	0x3ebeb937	0.37250683
20	0xc0428630	-3.0394402
21	0x3d6a86d8	0.057257503
22	0xc038ce99	-2.8876097
23	0xc03c1487	-2.938753
24	0x3e1ecca4	0.15507752
25	0xc03c99a6	-2.946878
26	0xc0398b22	-2.899117
27	0xc028b925	-2.6363003
28	0xc040a77f	-3.0102232
29	0x3e6d8491	0.23195101
30	0x3f2ae4ec	0.6675556
31	0x3e5ce85f	0.21573018
32	0xbfc83e3c	-1.5643992
33	0x3eacb2ed	0.3373026
34	0xc03f57e3	-2.9897392
35	0x3f4294df	0.7600841
36	0xc0344bbc	-2.8171225
37	0xc043ca05	-3.0592053
38	0x3dce99d3	0.100879334
39	0xc0485f32	-3.1308103
40	0xbfb7fc45	-1.4373862
41	0xc047c86c	-3.1216078
42	0x3ecaecec	0.39633882
43	0xbfc5caae	-1.5452478
44	0x3f451b0a	0.76994383
45	0x3f3572b9	0.7087818
46	0xbe857735	-0.2606751
47	0xc041979c	-3.0248785
48	0xbec06d08	-0.37583184
49	0xbfb8e7c7	-1.4445733
50	0xbe177345	-0.14790066
51	0xc046417b	-3.0977466
52	0xc03c9ed8	-2.947195
53	0xbdcf4f47	-0.10122543
54	0x3f386e60	0.7204342
55	0xc03b4feb	-2.9267528
56	0x3e4bd3c9	0.19905008
57	0xc03d8d31	-2.9617426
58	0xc039c33d	-2.9025414
59	0x3feb56b0	1.838583
60	0xbf20cad8	-0.62809515
61	0xbeb61091	-0.35559514
62	0xbe908b8c	-0.28231466
63	0xc0365df8	-2.8494854
64	0xbfabf9fa	-1.3435662
65	0xbe41ffa0	-0.1894517
66	0xbca57f53	-0.020202314
67	0xbe9ae299	-0.30251005
68	0xbeddb335	-0.43300787
69	0xc0360740	-2.8441925
70	0xbc890e53	-0.016730463
71	0xc03fda22	-2.9976888
72	0x402ca593	2.6976058
73	0xbeaa14a3	-0.3321887
74	0x3d5f7e30	0.0545637
75	0x3c4a4503	0.012345555
76	0xbf692ced	-0.91084176
77	0x3c881709	0.016612547
78	0xbc53fc48	-0.0129385665
79	0x3d7f6aca	0.0623577
80	0xbf5e93d4	-0.8694432
81	0xbe0a95da	-0.13533726
82	0xbf9014ba	-1.1256325
83	0xbf7f6636	-0.99765337
84	0xc04041a0	-3.0040054
85	0x3d82de4c	0.06390056
86	0xc042e448	-3.0451832
87	0xc0427c7c	-3.038848
88	0x3dd1d88a	0.1024638
89	0xc041b7ac	-3.0268354
90	0xc04956d0	-3.1459236
91	0xc050fdb7	-3.2654855
92	0xc04146da	-3.0199494
93	0x3ea6463e	0.32475466
94	0xbfc42850	-1.5324802
95	0xbf848480	-1.0352936
96	0xbf683fc0	-0.90722275
97	0xbe3c52e4	-0.18390995
98	0xc02b10b2	-2.672894
99	0x3f850f86	1.0395362
100	0xc0322ec5	-2.7841046
101	0xc03d1855	-2.95461
102	0x3d077273	0.03306813
103	0xc0359534	-2.8372316
104	0xbfe1518f	-1.7603015
105	0xc04505f0	-3.0784874
106	0xbe08b629	-0.13350739
107	0x3f7dd379	0.99150807
108	0xbf84169b	-1.0319399
109	0xbfc9a932	-1.5754759
110	0x3e03189f	0.12802361
111	0xc0307ccf	-2.7576177
112	0x3e9ee61d	0.31034938
113	0xbf808ea5	-1.0043532
114	0xbe897175	-0.26844373
115	0xc03720c6	-2.8613753
116	0xc02faded	-2.7449906
117	0xbdb7cc11	-0.089744695
118	0xbf2dc5b6	-0.6787981
119	0xc0455744	-3.0834513
120	0xbf9a7cd9	-1.206935
121	0xc048a26b	-3.1349132
122	0xc040a877	-3.0102823
123	0x3ff75c7e	1.9325101
124	0xbe3971ac	-0.18109769
125	0x3e2c1305	0.1680413
126	0xbe80c021	-0.25146583
127	0xc03775da	-2.866568
128	0xbe3bd1d2	-0.18341759
129	0xbeafae0e	-0.3431248
130	0x3e44adc9	0.19206919
131	0xbf61ef08	-0.8825536
132	0x3e4673b1	0.1938007
133	0xc03a30bd	-2.9092247
134	0xbd673edb	-0.056456428
135	0xc0407712	-3.0072675
136	0xc02e6185	-2.7247021
137	0x3fbf5f38	1.4950933
138	0x3eaf2af5	0.3421246
139	0x3f048362	0.51762974
140	0xbf952bb5	-1.1653963
141	0xbeb3ba56	-0.351031
142	0x3eb90bc4	0.3614179
143	0xbe9dd542	-0.30826765
144	0xbfb8cb2b	-1.4437002
145	0x3c295da9	0.010337272
146	0xbf9338b8	-1.1501684
147	0xbfb2aa94	-1.3958306
148	0xc04415b1	-3.063824
149	0x3cf1c106	0.029510986
150	0xc03df992	-2.9683576
151	0x40467b60	3.1012802
152	0xbc775d13	-0.015097874
153	0x3fc9d740	1.5768814
154	0xc0355eaa	-2.8339028
155	0x4041977a	3.0248704
156	0x4045cca8	3.0906162
157	0xbe0eb154	-0.13934833
158	0xbfbbc356	-1.4668987
159	0xbf0d0b4f	-0.5509538
160	0x3f8fce19	1.1234771
161	0xbef16118	-0.4714439
162	0xc035853a	-2.8362565
163	0xbdf932f7	-0.12167924
164	0x4024cf9e	2.575172
165	0x40510c09	3.2663596
166	0x3dbb8472	0.09156121
167	0xc03d6758	-2.9594326
168	0x3fb7f5bb	1.4371866
169	0x403f270d	2.9867585
170	0xbf9e6525	-1.2374617
171	0x3fa04d07	1.2523507
172	0xbfd53d0c	-1.6659255
173	0xbfb7eee4	-1.4369779
174	0x3ea4fc5e	0.3222379
175	0x40383bee	2.8786578
176	0xbf9f99be	-1.2468793
177	0x3f832295	1.0244929
178	0xbe71103f	-0.23541354
179	0xc0400545	-3.0003216
180	0x402fc1e5	2.7462094
181	0x3d938510	0.07203114
182	0xbf96c677	-1.1779317
183	0x4031a77a	2.775847
184	0xbf6fe578	-0.93709517
185	0x40440b7a	3.0632005
186	0x40460264	3.093896
187	0xc00752fd	-2.1144402
188	0x3f62d3e7	0.8860459
189	0x3e95b370	0.29238462
190	0x3e97b148	0.29627442
191	0x404747c9	3.1137564
192	0xbfa39d4f	-1.2782382
193	0xbce7c8d6	-0.028294008
194	0xbde0a0ab	-0.10968145
195	0xbefe5a44	-0.49678242
196	0xbe3ee2a6	-0.18641147
197	0xc04939fa	-3.1441636
198	0xbe97ce2f	-0.29649493
199	0xc0362791	-2.846165
200	0x4047f94a	3.1245904
201	0x3e282c48	0.16423142
202	0x3e26ef9e	0.16302344
203	0x3e84e994	0.25959456
204	0xbf41dd9e	-0.75728786
205	0xbec32ff1	-0.38122514
206	0x3e7b6dab	0.24553554
207	0xbe6fa0f9	-0.2340125
208	0xbf839e3c	-1.0282664
209	0xbef399d9	-0.47578314
210	0xbf43e98b	-0.76528233
211	0xbf921134	-1.14115
212	0xc041643e	-3.0217433
213	0x3dc7cee6	0.097562596
214	0xc02ef082	-2.7334294
215	0xc0334ccf	-2.801563
216	0xbdc46f7e	-0.09591578
217	0xc04c8118	-3.1953793
218	0xc039b0eb	-2.9014232
219	0xc03d2137	-2.9551523
220	0xc0416db8	-3.0223217
221	0x3ed05eb5	0.40697256
222	0xbf99ea80	-1.2024689
223	0xbf26e092	-0.6518642
224	0xbf0c565f	-0.5481929
225	0x3d157a35	0.0364935
226	0xc03b2c46	-2.9245772
227	0x3f8e4188	1.1113749
228	0xc03cc7d7	-2.9496973
229	0xc041eacc	-3.0299559
230	0x3e059851	0.13046385
231	0xc030b149	-2.7608206
232	0xc0124448	-2.2854176
233	0xc03bdfe9	-2.9355414
234	0xbe44433a	-0.1916627
235	0x3fbd1559	1.477214
236	0xbf9c8aaf	-1.2229823
237	0xbfd8c425	-1.6934859
238	0xbe43ae6a	-0.19109502
239	0xc04a4399	-3.1603758
240	0x3a422660	0.0007406231
241	0xbe14c4df	-0.14528225
242	0x3cacab7c	0.021077864
243	0xc0477cc9	-3.1169913
244	0xc03c0288	-2.9376545
245	0xbe701fbc	-0.23449606
246	0xbee5bf82	-0.4487267
247	0xc038f070	-2.8896751
248	0xbf409bf6	-0.7523798
249	0xc0403727	-3.0033662
250	0xc045c32f	-3.090038
251	0x3fd45851	1.6589452
252	0x3da9d250	0.08292067
253	0x3e9ae4e2	0.3025275
254	0xbeb39cb5	-0.35080495
255	0xc039ac50	-2.9011421

out.0.bias f4 [21]
0	0xc017d64f	-2.3724554
1	0xc02c968e	-2.6966891
2	0x3fbb2d61	1.4623224
3	0xc02d4f85	-2.7079785
4	0xc027a3bb	-2.6193683
5	0x405f05fb	3.48474
6	0xc038ded3	-2.8886
7	0xc0362c99	-2.846472
8	0x405b15f4	3.423215
9	0xc02c309d	-2.6904671
10	0xc0520362	-3.2814565
11	0x406f9273	3.7433136
12	0xc034a4bc	-2.8225546
13	0xc031ffc6	-2.7812362
14	0x4071007e	3.765655
15	0xc04e1508	-3.2200336
16	0xc04cad41	-3.1980746
17	0x406cba25	3.6988614
18	0xc05c805d	-3.4453347
19	0xc052bcbf	-3.2927701
20	0x407dda40	3.966446
