results/PRIMNET/ABAQUS64/weights/epoch_369.pth (torch, 110725 bytes, 189 tensors)

motor_std f4 [3]
0	0x3e669df4	0.22521192
1	0x3d6a6882	0.057228573
2	0x3bbcdfa9	0.005763967

motor_mean f4 [3]
0	0xbe834dc2	-0.25645262
1	0x39518e80	0.00019984879
2	0xbdb83994	-0.08995357

position_std f4 [3, 1]
0	0x3f800000	1.0
1	0x3f800000	1.0
2	0x3f800000	1.0

position_mean f4 [3, 1]
0	0x00000000	0.0
1	0x00000000	0.0
2	0x00000000	0.0

ACT_EMBED.layers.0.weight f4 [64, 3]
0	0xbebd5c22	-0.36984354
1	0xbf7c1ad7	-0.98478454
2	0x3f829818	1.0202665
3	0x3f6a7dd1	0.9159823
4	0x3e80a23c	0.25123775
5	0xbeb8a64d	-0.36064377
6	0xbfdc55c9	-1.721368
7	0xbf9421a5	-1.1572767
8	0x3fc2ef60	1.5229301
9	0x3ffabf16	1.9589565
10	0xbfc8d993	-1.5691398
11	0xbf96bb94	-1.1775994
12	0x3ff44117	1.9082364
13	0xc01ad390	-2.4191628
14	0x3edd93de	0.43276876
15	0xc025930e	-2.5871005
16	0x4014cde1	2.3250659
17	0x3fc620c4	1.5478749
18	0xbfa5a427	-1.294072
19	0xbf2cd3e8	-0.67510843
20	0x3c9f93c0	0.019479632
21	0xbea37a63	-0.3192931
22	0xc0322192	-2.783299
23	0x40157a40	2.3355865
24	0x3f656d1f	0.8961963
25	0x40133206	2.2999282
26	0xbf995d1d	-1.1981541
27	0xc013bef5	-2.30853
28	0xbfdc9618	-1.7233305
29	0xbf8d6024	-1.1044965
30	0x3fd052cf	1.6275271
31	0xbfc5516f	-1.5415477
32	0xbf445267	-0.76688236
33	0x3ff43c32	1.908087
34	0xc00c7d7a	-2.1951585
35	0x3e86a50d	0.262978
36	0xbed7eb80	-0.4217186
37	0x3fb09249	1.3794643
38	0xbf17b6ce	-0.5926331
39	0x3ffa665e	1.956249
40	0xc02d5fd5	-2.7089741
41	0xbe5464b5	-0.20741542
42	0x3fe23fb0	1.7675686
43	0xc007f02b	-2.1240337
44	0xbe8d982d	-0.27655163
45	0x4012d34d	2.2941468
46	0xbffb2268	-1.9619875
47	0x400170e6	2.0225158
48	0x3feebf29	1.8652087
49	0xbfee0de4	-1.8597989
50	0x3f47146d	0.7776554
51	0x3fd7c7f0	1.6857891
52	0xc011c7d0	-2.2778206
53	0x3ef1595b	0.47138485
54	0x3f9e8ad4	1.2386117
55	0xc0116603	-2.2718513
56	0x3f05fe6d	0.5234135
57	0xc00461c2	-2.0684667
58	0xbfc07c86	-1.5038002
59	0xbf56f307	-0.8396458
60	0x3fa556cf	1.2917117
61	0x3fe5eb6d	1.7962471
62	0xbed93e10	-0.42430162
63	0xbfab71bb	-1.3394083
64	0x3fa5652c	1.29215
65	0x400f260c	2.2366972
66	0x3fe81d1b	1.8133882
67	0x3cc7d28a	0.024392385
68	0xc012d761	-2.2943957
69	0xbfa71a40	-1.3054886
70	0x401934c0	2.3938446
71	0xbf926c9c	-1.1439395
72	0xbf8da73b	-1.106666
73	0x400663e5	2.099847
74	0xbefe82b7	-0.49709103
75	0xbfcb7018	-1.5893583
76	0xbf9509e9	-1.1643649
77	0x3f9c72b1	1.2222501
78	0x3e9d366c	0.30705583
79	0x3fa0f205	1.2573858
80	0xbe952638	-0.2913072
81	0xc018d2ca	-2.3878655
82	0x3ff444f1	1.9083539
83	0xbf4d732d	-0.8025387
84	0x3fddde74	1.7333512
85	0x3d6bfed5	0.057616074
86	0xc0238ca1	-2.5554583
87	0x3eb90ff6	0.3614499
88	0x3f8037ae	1.0016992
89	0xbe634cc8	-0.22197258
90	0xbf81e3b4	-1.0147614
91	0xc029d142	-2.653397
92	0x3f81eee7	1.0151032
93	0x3f057ae5	0.5214065
94	0x3fa05214	1.2525048
95	0xbfa8cf58	-1.3188276
96	0xc027baad	-2.6207688
97	0xc00c28e8	-2.1899967
98	0x3f9e9294	1.2388482
99	0xbf363821	-0.71179396
100	0x3e059668	0.13045657
101	0x4019f2c5	2.4054425
102	0xbe8dc99f	-0.27692887
103	0x3fc20766	1.5158508
104	0x4032487e	2.7856746
105	0x403a6ac3	2.9127662
106	0x40086d71	2.1316798
107	0x3f9e2f81	1.2358247
108	0xbfac92d5	-1.348231
109	0xbfd60e3c	-1.6723094
110	0x3fcef53e	1.6168592
111	0x40114900	2.2700806
112	0xbfe10c26	-1.7581832
113	0xbf8ccb3f	-1.0999526
114	0x3e711bf3	0.23545818
115	0xbe3907ce	-0.18069384
116	0xbf002dbf	-0.50069803
117	0x3fca7e5f	1.5819815
118	0xc026f81a	-2.608893
119	0x40109897	2.2593133
120	0x40207b99	2.5075438
121	0xbf2c9039	-0.67407566
122	0x400ceb3b	2.2018573
123	0xbf9e6ab4	-1.2376313
124	0xc00880e9	-2.132868
125	0xc0090790	-2.1410866
126	0x3ff35b98	1.9012327
127	0x3ff906f5	1.9455248
128	0xbf8cf198	-1.1011229
129	0x3f4d5661	0.8020993
130	0x3fb577ad	1.4177147
131	0xbfd0d63f	-1.6315383
132	0xc02945ed	-2.644893
133	0xbfc9a74b	-1.5754179
134	0xbf9abb16	-1.2088344
135	0x3ec1e7f5	0.37872282
136	0xbf4755f3	-0.77865523
137	0x3e7fd633	0.24984054
138	0x3ecdada6	0.40171546
139	0xbf695454	-0.911443
140	0x3f9d637f	1.2295989
141	0x3d0e7013	0.03477485
142	0x3dcfd9d8	0.10148972
143	0x3ff36f39	1.9018317
144	0xbf930e07	-1.1488656
145	0x3fccd945	1.6003805
146	0x3e776668	0.24160159
147	0x3f98fa10	1.1951313
148	0xc02a457a	-2.6604905
149	0x3e936653	0.28789005
150	0x3ea28587	0.31742498
151	0x3ddf7e9f	0.10912823
152	0xbfc82569	-1.5636417
153	0xbfbbc614	-1.4669824
154	0xc02969d0	-2.6470833
155	0x3f709f6d	0.93993264
156	0x3fc680f2	1.5508101
157	0xc016e017	-2.3574274
158	0x3fcbbb5a	1.591655
159	0xbef97d2a	-0.48728305
160	0x3fedf792	1.8591177
161	0xbf883f85	-1.0644385
162	0xc019a856	-2.4008994
163	0x3fe63da4	1.7987561
164	0x3fbcc964	1.474896
165	0xc01e4658	-2.4730434
166	0xc03525b2	-2.8304257
167	0x401805b3	2.3753479
168	0x3e61b482	0.22041515
169	0xc0376d4c	-2.866046
170	0x3fe0f87f	1.7575835
171	0x400a2538	2.1585217
172	0xbff816c7	-1.9381951
173	0xbfbee3df	-1.4913291
174	0x3ff26959	1.89384
175	0x3eed40cc	0.463385
176	0xbf0ed879	-0.5579906
177	0xbfb96d36	-1.4486454
178	0x3fee536f	1.8619212
179	0xc029b617	-2.651739
180	0x3fa8f749	1.3200465
181	0xc00e8479	-2.2268355
182	0xbdda1bbe	-0.10649823
183	0xc00d56b8	-2.208418
184	0xbfd66889	-1.6750652
185	0x3f3013f5	0.6878045
186	0x3fb3124a	1.3989956
187	0xc0298401	-2.6486819
188	0x3fa5b52e	1.2945917
189	0x3e2867bf	0.16445826
190	0x3e6726d6	0.22573408
191	0x3ef86942	0.48517805

ACT_EMBED.layers.2.weight f4 [64, 64]
0	0x4013f5d9	2.3118804
1	0xc017c408	-2.3713398
2	0xc032bfa3	-2.7929466
3	0xc042fdab	-3.0467327
4	0xc0158559	-2.336264
5	0xc0328bbe	-2.7897792
6	0xc03fed2c	-2.9988508
7	0xc01d4d13	-2.4578292
8	0xc04756f9	-3.1146834
9	0x4020e84f	2.514179
10	0x401300ec	2.2969313
11	0xc00dfdb1	-2.218609
12	0xc0352fee	-2.8310504
13	0xc0409003	-3.0087898
14	0xc03c88d6	-2.9458518
15	0xc03fbafc	-2.9957876
16	0xc02ed8c9	-2.7319815
17	0xc02d4bea	-2.7077584
18	0xc00ab998	-2.1675777
19	0xc02fafff	-2.745117
20	0xc03cc228	-2.9493504
21	0xc03e8c55	-2.9773152
22	0xc033776f	-2.8041646
23	0xc02b70e6	-2.6787658
24	0xc03ed534	-2.981763
25	0x401e2eda	2.4716096
26	0xc03d483c	-2.9575338
27	0xc04316c9	-3.0482657
28	0xc045cb5a	-3.0905366
29	0xc0303ec2	-2.7538304
30	0xc03ea391	-2.9787333
31	0xc03bbc01	-2.9333498
32	0xc0447220	-3.0694656
33	0x40168753	2.3520095
34	0xc0153de1	-2.3319018
35	0xc01389cf	-2.3052862
36	0xc01878cd	-2.382373
37	0xc030f25a	-2.764792
38	0xc02b33c7	-2.6750352
39	0xc0405dfd	-3.0057366
40	0xc0375156	-2.8643394
41	0xc03a2718	-2.908636
42	0xc0310566	-2.7659545
43	0xc045a14d	-3.08797
44	0xc03c9e6c	-2.9471693
45	0xc042e593	-3.045262
46	0x402fc228	2.7462254
47	0xc040648c	-3.006137
48	0xc03ecdd0	-2.9813118
49	0xc01b713a	-2.4287858
50	0xc03dd5a3	-2.9661644
51	0xc0331127	-2.797922
52	0xc0125388	-2.2863483
53	0xc037b610	-2.8704872
54	0xc046beca	-3.1053948
55	0xc00ae8f8	-2.1704693
56	0xc01dca38	-2.4654675
57	0xc02b3e1f	-2.6756666
58	0xc03cf3bb	-2.9523761
59	0xc023eccd	-2.5613282
60	0xc0187764	-2.382287
61	0xc00c6f91	-2.1943095
62	0xc01d7022	-2.459969
63	0xc01a4eda	-2.4110627
64	0x403be0c9	2.9355948
65	0xc03eebe2	-2.9831471
66	0xc03bf4cc	-2.9368162
67	0xc030df5d	-2.763633
68	0xc0352713	-2.83051
69	0xc0357ac4	-2.835618
70	0xc04c9fd5	-3.1972554
71	0xc0377d5c	-2.8670263
72	0xc037861d	-2.8675606
73	0xc02e5f24	-2.724557
74	0xc036a0de	-2.8535686
75	0xc0371d8d	-2.8611786
76	0xc02d1f3e	-2.7050319
77	0xc02d2936	-2.7056403
78	0xc03960d9	-2.896536
79	0xc032e917	-2.7954767
80	0xc03f1900	-2.9859009
81	0xc0256016	-2.5839896
82	0xc047aeeb	-3.1200511
83	0xc040b021	-3.01075
84	0xc0388735	-2.8832524
85	0xc03ba7a5	-2.9321072
86	0xc035fe3a	-2.8436418
87	0xc0425bdf	-3.0368574
88	0xc03073d0	-2.7570686
89	0xc0351be7	-2.829828
90	0xc029db0c	-2.6539946
91	0xc0361edc	-2.8456335
92	0xc038dd08	-2.8884907
93	0xc032fb7f	-2.7966
94	0xc047728a	-3.116366
95	0xc03debb7	-2.967512
96	0xc03a5c32	-2.9118772
97	0xc03c3d01	-2.9412234
98	0xc0531844	-3.298356
99	0xc03612c1	-2.8448946
100	0xc02e9dbc	-2.7283773
101	0xc03b3e2c	-2.9256697
102	0xc0341a32	-2.8140988
103	0xc03bdf32	-2.9354978
104	0xc02f35fb	-2.7376697
105	0xc03161b2	-2.7715878
106	0xc02d395a	-2.7066255
107	0xc03d4234	-2.9571657
108	0xc0376b71	-2.8659327
109	0xc042c6e7	-3.04339
110	0xc038dc6a	-2.888453
111	0xc03650a3	-2.8486717
112	0xc03a475b	-2.9106052
113	0xc0339a19	-2.8062804
114	0xc0361fb5	-2.8456852
115	0xc04a1628	-3.1576023
116	0xc036a681	-2.8539126
117	0xc02f9f35	-2.7440922
118	0xc03679e8	-2.8511906
119	0xc039e4db	-2.9045932
120	0xc040a025	-3.0097744
121	0xc0347971	-2.8199122
122	0xc02aa8cc	-2.6665525
123	0xc03aab0e	-2.9166903
124	0xc0426d9e	-3.0379405
125	0xc03eab33	-2.9791992
126	0xc038a0db	-2.8848178
127	0xc03c30c3	-2.9404762
128	0xc0191668	-2.3919926
129	0x402f65cd	2.7405884
130	0xc0249be6	-2.5720153
131	0xc0384e48	-2.879778
132	0xc0334a69	-2.8014166
133	0xc034863e	-2.8206935
134	0xc0226bb2	-2.5378232
135	0xc03653d8	-2.8488674
136	0x4048220f	3.1270788
137	0xc0260335	-2.5939457
138	0xc035f63d	-2.8431542
139	0xc0490c2f	-3.1413686
140	0x4036931c	2.8527288
141	0xc035f34a	-2.8429742
142	0xc027dc69	-2.6228278
143	0x40334376	2.8009925
144	0xc037f034	-2.8740358
145	0xc02e75a1	-2.7259295
146	0xc03cde17	-2.9510553
147	0x40459f5b	3.0878513
148	0xc03c6be1	-2.9440844
149	0xc030afd8	-2.7607327
150	0xc04ba7a3	-3.1821067
151	0xc0423641	-3.0345614
152	0xc038f086	-2.8896804
153	0xc0400ca9	-3.0007727
154	0x403b26de	2.9242473
155	0xc02d85f9	-2.711302
156	0xc0366259	-2.8497527
157	0xc0478b4b	-3.1178768
158	0xc02fddeb	-2.7479198
159	0xc02d6cf5	-2.7097752
160	0xc022675a	-2.537558
161	0xc0294cb1	-2.6453059
162	0xc04250ce	-3.036182
163	0xc047165c	-3.1107397
164	0xc040cec7	-3.0126207
165	0xc037c72c	-2.8715315
166	0xc03aec64	-2.9206781
167	0xc0308afc	-2.758483
168	0xc040d806	-3.013185
169	0xc03640be	-2.8477015
170	0xc047d7fa	-3.1225572
171	0xc039026e	-2.8907733
172	0xc027a101	-2.619202
173	0xc03f66cd	-2.9906495
174	0xc02f5eba	-2.7401567
175	0xc02c52bb	-2.6925495
176	0x403737b9	2.862776
177	0x40350d48	2.8289356
178	0xc0381fde	-2.876945
179	0xc0464bb6	-3.098371
180	0xc03f94ee	-2.993465
181	0xc0426215	-3.0372365
182	0xc02e8d23	-2.7273643
183	0xc03a1056	-2.907247
184	0xc036596b	-2.8492076
185	0xc03f71fa	-2.9913316
186	0xc03ddf71	-2.9667628
187	0xc030d685	-2.7630932
188	0xc040b076	-3.0107703
189	0xc02ec500	-2.730774
190	0xc03d2102	-2.9551396
191	0xc037a7ca	-2.869616
192	0x4034dedb	2.826102
193	0xc03bd5b5	-2.9349186
194	0xc03c8b60	-2.9460068
195	0xc0278c2e	-2.617931
196	0xc033addb	-2.8074863
197	0xc03d4a35	-2.9576542
198	0xc0462ff0	-3.0966759
199	0xc0361280	-2.8448792
200	0xc0436fd9	-3.0537016
201	0xc03c160b	-2.9388454
202	0xc035c2d8	-2.8400173
203	0xc039de18	-2.9041805
204	0xc02e9985	-2.72812
205	0xc032fe9e	-2.7967906
206	0xc0344277	-2.8165567
207	0xc04317d6	-3.0483298
208	0xc045ad34	-3.0886965
209	0xc02e20d4	-2.7207537
210	0xc03d707d	-2.9599907
211	0xc0371cac	-2.861125
212	0xc035d6d0	-2.841236
213	0xc037db93	-2.8727767
214	0xc03312b5	-2.7980168
215	0xc03a3de0	-2.9100266
216	0xc03585df	-2.8362958
217	0xc0398eff	-2.8993528
218	0xc032f2f5	-2.796079
219	0xc02ff88d	-2.7495453
220	0xc03bb4c7	-2.9329088
221	0xc038be7d	-2.8866265
222	0xc03fa396	-2.9943595
223	0xc03c99d5	-2.9468892
224	0xc03d6f83	-2.9599311
225	0xc03fbb3a	-2.9958024
226	0xc045e2c0	-3.0919647
227	0xc03f7bac	-2.9919233
228	0xc039cd8b	-2.9031703
229	0xc031ab35	-2.7760746
230	0xc035d38e	-2.8410373
231	0xc040d5d6	-3.0130515
232	0xc03bc7b2	-2.9340634
233	0xc0257975	-2.5855381
234	0xc03c75b8	-2.944685
235	0xc0383cc2	-2.8787084
236	0xc0359b02	-2.837586
237	0xc045668b	-3.0843837
238	0xc039efa6	-2.905252
239	0xc0360354	-2.8439531
240	0xc046a5d8	-3.1038723
241	0xc03f372e	-2.987743
242	0xc03795bf	-2.8685148
243	0xc042bf87	-3.04294
244	0xc0274efe	-2.6141963
245	0xc02c5f20	-2.693306
246	0xc044407f	-3.0664365
247	0xc03a09ec	-2.9068556
248	0xc03efcdd	-2.9841835
249	0xc040c429	-3.0119727
250	0xc02c16dd	-2.6888955
251	0xc03b3f96	-2.925756
252	0xc03d6700	-2.9594116
253	0xc03df77d	-2.9682305
254	0xc03aeb8a	-2.9206262
255	0xc04039bd	-3.003524

ACT_EMBED.layers.4.weight f4 [64, 64]
0	0xc0267fc9	-2.6015494
1	0xc031bfa4	-2.7773218
2	0xc043ed98	-3.0613766
3	0xc022b13c	-2.5420675
4	0xc04b192f	-3.173412
5	0xc04aba78	-3.1676311
6	0xc02356e8	-2.5521793
7	0xc02315b8	-2.5482006
8	0xc0456eaa	-3.0848794
9	0xc038dc55	-2.888448
10	0x3ff6165c	1.9225574
11	0xc039762e	-2.897838
12	0xc0433107	-3.0498674
13	0xc036f551	-2.858723
14	0xc02e5bed	-2.7243607
15	0xc01ab16b	-2.4170787
16	0xc0360de0	-2.8445969
17	0xc03359e7	-2.8023622
18	0xc032a88e	-2.7915378
19	0xc034f441	-2.827408
20	0x40416898	3.022009
21	0x403bd364	2.9347773
22	0xc032f47d	-2.7961724
23	0xc0276c7c	-2.6159964
24	0x402b7c0a	2.6794457
25	0x3e36399e	0.17795417
26	0xc02ae00b	-2.6699245
27	0xc033b7ee	-2.8081012
28	0x40353ceb	2.8318431
29	0xc035e899	-2.8423216
30	0xc02f8e07	-2.7430437
31	0xc022ddb6	-2.5447822
32	0xc01995e8	-2.3997746
33	0xc02c4c39	-2.6921523
34	0xc039da7e	-2.9039607
35	0xc03772ce	-2.8663821
36	0xc03c0b93	-2.9382064
37	0xc023c850	-2.559101
38	0xc03947af	-2.8950002
39	0x40460866	3.0942626
40	0xc02d8db7	-2.7117746
41	0x404b09e9	3.1724799
42	0xc0517098	-3.2724972
43	0xc04220a0	-3.0332413
44	0xc0368e89	-2.8524497
45	0x40426754	3.0375566
46	0xc034257c	-2.8147879
47	0xc04bc2d4	-3.1837664
48	0xc049f4ba	-3.155562
49	0xc0150723	-2.3285606
50	0xc02e4b96	-2.7233634
51	0xc018ef9e	-2.389625
52	0xc04ce84d	-3.2016785
53	0x40420429	3.031504
54	0x4033a590	2.8069801
55	0x3e23c1ea	0.15991941
56	0x4044941f	3.0715406
57	0xc02fb512	-2.7454267
58	0x403cf219	2.9522765
59	0xc03269ff	-2.7877195
60	0xc02f77d3	-2.7416885
61	0xc0333a9c	-2.8004522
62	0x3d29b200	0.04142952
63	0x4020a6a5	2.5101712
64	0xc02be420	-2.6857986
65	0xc04f6bd4	-3.2409563
66	0xc03be1ab	-2.9356487
67	0xc03447b3	-2.8168762
68	0xc03db6a8	-2.9642735
69	0xc01e6a4f	-2.4752386
70	0xc03f7c33	-2.9919555
71	0xc045df34	-3.0917482
72	0x403fd183	2.9971626
73	0xc0351e61	-2.8299792
74	0xbdf12d87	-0.11776262
75	0x402eaa7f	2.7291563
76	0xc02759d5	-2.614858
77	0xc039b6ad	-2.9017746
78	0xc0316d06	-2.7722793
79	0xc03b71b2	-2.9288144
80	0xc0311d2c	-2.7674055
81	0xc0301b09	-2.75165
82	0xc03aebf9	-2.9206526
83	0x4000fa15	2.0152638
84	0x3bf7a68c	0.0075576957
85	0xc030c7cc	-2.7621946
86	0xc0395637	-2.8958871
87	0xc0348f15	-2.821233
88	0xc024a1a4	-2.5723658
89	0x3e55b831	0.20871045
90	0xc040bebe	-3.011642
91	0xc03c374c	-2.940875
92	0x40317f56	2.773397
93	0xc03b4b72	-2.9264798
94	0xc03ab36e	-2.9172015
95	0xc03f1f73	-2.9862945
96	0xc041fe21	-3.0311358
97	0xc0349df2	-2.8221402
98	0xc01b2399	-2.4240477
99	0xc02eabe7	-2.729242
100	0x40294bec	2.645259
101	0xc04b5b51	-3.1774485
102	0xc035d80b	-2.8413112
103	0x3e0b90a5	0.13629396
104	0xc0447261	-3.0694811
105	0x3ccc42b3	0.024934148
106	0xc0121c4e	-2.2829776
107	0xc033d77f	-2.8100278
108	0xc0458020	-3.0859451
109	0xc04129d2	-3.0181775
110	0xc03f7483	-2.9914863
111	0xc033c10a	-2.8086572
112	0xc033695e	-2.803306
113	0xc0423247	-3.0343187
114	0xc042ba23	-3.042611
115	0xc03a5c1b	-2.9118717
116	0xc029b452	-2.6516309
117	0xbcb5bfcb	-0.02218618
118	0x3d6d357f	0.057912346
119	0xbdd9208c	-0.10601911
120	0xc01eb855	-2.4800007
121	0xc02e7bdb	-2.7263095
122	0xc037dd48	-2.872881
123	0xc038dbd9	-2.8884184
124	0xc0320ccc	-2.782031
125	0xc031c3ba	-2.7775712
126	0x3d91a893	0.07112231
127	0xc0388b81	-2.8835146
128	0xc03ea05b	-2.9785373
129	0xc03bfa32	-2.9371457
130	0xc02b618f	-2.6778295
131	0xc03f1580	-2.9856873
132	0xc02d8215	-2.7110646
133	0xc03c1224	-2.9386072
134	0xc0416b85	-3.0221875
135	0xc03b44af	-2.926067
136	0xc03658c2	-2.8491673
137	0xc03f8fa0	-2.9931412
138	0xbdc970df	-0.098359816
139	0xbd718868	-0.058967978
140	0xc041daa7	-3.0289705
141	0xc048b717	-3.136175
142	0xc04269bc	-3.0377035
143	0xc0406b7f	-3.006561
144	0xc0363d37	-2.8474863
145	0xc03547b4	-2.8325014
146	0xc046c7f5	-3.1059544
147	0xc0436513	-3.053044
148	0xc041a011	-3.0253947
149	0xc03d7420	-2.9602127
150	0xc03757fb	-2.864745
151	0xc03a8c66	-2.9148192
152	0xc04ac3de	-3.1682048
153	0xc040ee67	-3.014551
154	0xc0484253	-3.129048
155	0xc03649d4	-2.848256
156	0xc0441f71	-3.064419
157	0xc04bbb45	-3.183305
158	0xc034a81e	-2.822761
159	0xc031629a	-2.7716432
160	0xc042e886	-3.045442
161	0xc03c672e	-2.9437976
162	0xc02a88c5	-2.6645977
163	0xc04b7d06	-3.1795058
164	0xc038423c	-2.8790426
165	0xc03e5b1b	-2.9743106
166	0xc04858d3	-3.1304214
167	0xc037d651	-2.8724558
168	0xc03f1c43	-2.9861
169	0xc038f4c2	-2.8899388
170	0xc040cc25	-3.01246
171	0xc0449956	-3.071859
172	0xc0387bbf	-2.8825529
173	0xc042b27a	-3.0421433
174	0xc038dd36	-2.8885016
175	0xc02f5c65	-2.7400143
176	0xc03a8bb0	-2.9147758
177	0xc037df54	-2.8730059
178	0xc0396c53	-2.8972366
179	0xc03dfbcc	-2.9684935
180	0xc047c436	-3.1213508
181	0xc03570aa	-2.8350015
182	0xc039132b	-2.891795
183	0xc015ca3f	-2.3404691
184	0xc03ed9f9	-2.982054
185	0xc0440f51	-3.0634348
186	0xc03a7bbc	-2.9138021
187	0xc03a55ed	-2.9114945
188	0xc035eb3a	-2.842482
189	0xc03dd48b	-2.9660976
190	0x403debe4	2.9675226
191	0xc038db5e	-2.888389
192	0xbc69448a	-0.014237532
193	0xbdfa5fd4	-0.12225309
194	0xc043cfa5	-3.0595486
195	0xbd8ce282	-0.068791404
196	0xbc63a943	-0.013895336
197	0xc03af6f8	-2.9213238
198	0xc0496a75	-3.1471226
199	0xc03ea590	-2.9788551
200	0xc0427558	-3.038412
201	0xc0415096	-3.0205436
202	0x3e426a05	0.18985756
203	0xbcc4d7dc	-0.024028711
204	0xbe501bc6	-0.20323095
205	0xc043dd13	-3.0603683
206	0xc0483341	-3.1281283
207	0xc043e865	-3.0610592
208	0xc03251dc	-2.7862463
209	0xc028c9e3	-2.6373222
210	0xc035555a	-2.8333344
211	0xc0400f08	-3.0009174
212	0xbe0e25db	-0.13881628
213	0x3e538bdc	0.20658821
214	0xc03ba9ba	-2.9322343
215	0xc03ac55a	-2.9182954
216	0xc03cadc3	-2.9481056
217	0xbe753851	-0.23947264
218	0xc03fd45d	-2.9973366
219	0xc0381557	-2.8763025
220	0xbd457cfe	-0.048214905
221	0xbdc243b2	-0.09485568
222	0xc03cf3fd	-2.9523919
223	0xc0369a7e	-2.8531795
224	0xc036de35	-2.8573124
225	0xbe7e42f6	-0.24830231
226	0xc03fa042	-2.9941564
227	0xc03fc365	-2.996301
228	0xc03e9822	-2.9780354
229	0xc0460e7c	-3.094634
230	0xc0352b32	-2.8307614
231	0x3d78977a	0.060691334
232	0xc03727f1	-2.8618128
233	0xbd839bc9	-0.06426198
234	0xc0421539	-3.0325453
235	0xc031b088	-2.7763996
236	0xbe80c7a3	-0.2515231
237	0xc044a9ef	-3.072872
238	0xc03ff101	-2.9990847
239	0x3e9f914e	0.31165546
240	0xc03e60e8	-2.9746647
241	0xc0465a62	-3.0992665
242	0xc03eca06	-2.9810805
243	0xc02c73c0	-2.6945648
244	0xc03d068d	-2.9535248
245	0xc039ebe6	-2.905023
246	0xc0405290	-3.0050392
247	0x3dd1cd1f	0.10244202
248	0xc032b002	-2.7919927
249	0xbe179235	-0.14801867
250	0x3d6bd21a	0.057573415
251	0xbdc546b2	-0.09632625
252	0xc02a8ca9	-2.6648352
253	0xc03782c0	-2.8673553
254	0x3da0fcca	0.07860716
255	0xc02e63d2	-2.7248425

FK_LAYER.joints.0.p_offset f4 [3, 1]
0	0xc0973860	-4.7256317
1	0xc0be3e2a	-5.9450884
2	0x3f81d0cb	1.0141844

FK_LAYER.joints.0.rpy_offset f4 [3]
0	0xbba849d4	-0.005135754
1	0x3c62f568	0.013852455
2	0xbbc8ba6c	-0.006125739

FK_LAYER.joints.1.p_offset f4 [3, 1]
0	0xc0961eb8	-4.69125
1	0xc0bf6a7e	-5.9817495
2	0x3f6e697c	0.93129706

FK_LAYER.joints.1.rpy_offset f4 [3]
0	0xbc5572a1	-0.013027818
1	0xbbb3b35b	-0.0054840273
2	0xbc5cca69	-0.013475993

FK_LAYER.joints.1.axis f4 [3, 1]
0	0xbdf3ec6b	-0.119103275
1	0xbe85d452	-0.2613855
2	0x3e9d6ea1	0.30748466

FK_LAYER.joints.1.q_layer.0.weight f4 [1, 64]
0	0xc01f1100	-2.4854126
1	0xc042ab08	-3.041689
2	0x403b211e	2.9238963
3	0x403520d8	2.8301296
4	0x4001413b	2.0196064
5	0xc00f1ea3	-2.236245
6	0x404e4fcd	3.2236207
7	0x3f87f4a7	1.0621537
8	0xc03121ef	-2.7676961
9	0x4042ff5c	3.046836
10	0xc03612f5	-2.844907
11	0x40357e8a	2.8358483
12	0xc02731fd	-2.612426
13	0x40399505	2.8997204
14	0x404ad6dd	3.1693642
15	0x3e531770	0.2061441
16	0x3fc123da	1.5089066
17	0xc026a4ec	-2.603816
18	0xc01049d2	-2.2545056
19	0xc0216e57	-2.5223596
20	0xbff0e6f7	-1.8820485
21	0x403f6d8c	2.9910612
22	0xbff38bb5	-1.902701
23	0xc02d2103	-2.7051399
24	0xc0339768	-2.806116
25	0xc0487c76	-3.1325965
26	0xbff4afee	-1.911619
27	0x402d0368	2.703333
28	0xc0394d56	-2.8953452
29	0xc031ace5	-2.7761776
30	0xc02b982c	-2.6811628
31	0x404681e0	3.101677
32	0xbdf4ebf9	-0.11959071
33	0xc036364a	-2.8470635
34	0x403e8d30	2.9773674
35	0xc007529e	-2.1144176
36	0xc019c9c3	-2.4029396
37	0x401c7b34	2.4450197
38	0xc03e8c6f	-2.9773214
39	0xc0397a39	-2.8980849
40	0xc0338e53	-2.8055618
41	0xc03343bc	-2.8010092
42	0x3fcd4fb7	1.6039952
43	0x4031d4a7	2.7786043
44	0x3f40a8ce	0.75257576
45	0xc032ea12	-2.7955365
46	0x401f85cb	2.492541
47	0xc03944a4	-2.8948145
48	0x3ff3716e	1.9018991
49	0x402fdbbb	2.7477863
50	0xc01f38c6	-2.4878402
51	0x403b4b0e	2.926456
52	0xbff81791	-1.9382192
53	0x3f8ab9df	1.0837973
54	0xc031f655	-2.78066
55	0xc01f3004	-2.4873056
56	0x3f94da0f	1.1629046
57	0x402fd34c	2.7472715
58	0xc036fe63	-2.8592765
59	0x3feed5e8	1.8659029
60	0xc0152180	-2.3301697
61	0x40106219	2.2559874
62	0x4036794e	2.8511539
63	0xc0242003	-2.5644538

FK_LAYER.joints.2.p_offset f4 [3, 1]
0	0xc0a69d83	-5.2067275
1	0xc0d4ef32	-6.6541986
2	0xbe656a1c	-0.22403759

FK_LAYER.joints.2.rpy_offset f4 [3]
0	0xbc4585ae	-0.0120557975
1	0x3c999a9b	0.01875048
2	0x3bfc1f64	0.0076941717

FK_LAYER.joints.2.axis f4 [3, 1]
0	0xbf7628eb	-0.96156186
1	0xbed593ff	-0.41714475
2	0x403fedce	2.9988894

FK_LAYER.joints.2.q_layer.0.weight f4 [1, 64]
0	0xc027cf8e	-2.6220431
1	0x402d73c0	2.7101898
2	0xc038c94d	-2.8872864
3	0xbdd5da3f	-0.10442018
4	0xc03937a1	-2.8940203
5	0x402075fd	2.5072014
6	0x4037963b	2.8685443
7	0x4038f7aa	2.8901162
8	0x40446a81	3.0690005
9	0xc02ab4dc	-2.6672888
10	0xc02e0ea4	-2.7196436
11	0x403b69f5	2.928342
12	0x401eeac9	2.4830801
13	0x401cd096	2.450231
14	0xc03e33bb	-2.9719074
15	0x402cffc5	2.703111
16	0x403caab9	2.94792
17	0x4044640c	3.0686064
18	0xc03b990c	-2.9312162
19	0x402767fb	2.6157215
20	0xc00f5a36	-2.239881
21	0xbfa99a17	-1.325015
22	0xc04760dc	-3.1152868
23	0xc0245bd7	-2.5681055
24	0xbfebd9a3	-1.8425792
25	0xc05084f8	-3.2581158
26	0xc03c90b9	-2.9463332
27	0x400bb578	2.182951
28	0xc04566fc	-3.0844107
29	0xc0395ec4	-2.896409
30	0xc0466f77	-3.1005533
31	0xc031ed10	-2.7800941
32	0x40348ec2	2.8212132
33	0xc03537c5	-2.831529
34	0xbfa1f71e	-1.2653539
35	0x4040d64f	3.0130804
36	0x4033c487	2.80887
37	0x403884ed	2.8831131
38	0x4027eb27	2.6237276
39	0xc02f2059	-2.7363493
40	0x402dc8f9	2.7153914
41	0xc037b111	-2.8701823
42	0x402f54b6	2.7395453
43	0xc037f6f4	-2.8744478
44	0xbfcf27ee	-1.618406
45	0x40371ece	2.8612552
46	0xc0384981	-2.8794863
47	0xc0398b12	-2.8991132
48	0x402a4252	2.6602979
49	0x3d434950	0.047677338
50	0xc028e5e7	-2.6390321
51	0x4004adb1	2.0731013
52	0xc01e8ecf	-2.4774663
53	0x40392d9a	2.8934083
54	0xc0434bcd	-3.0515015
55	0xc029eaaa	-2.6549478
56	0x4037c1f1	2.8712122
57	0xc02a90d6	-2.66509
58	0xc0324851	-2.7856638
59	0x4039c175	2.9024327
60	0xc03bab66	-2.9323363
61	0x402b36da	2.6752229
62	0xc03253b1	-2.786358
63	0x3fab2eee	1.3373697

FK_LAYER.joints.3.p_offset f4 [3, 1]
0	0xc0a84342	-5.25821
1	0xc0d217c8	-6.565403
2	0xbf1319d1	-0.5746127

FK_LAYER.joints.3.rpy_offset f4 [3]
0	0x3c39ffc4	0.011352483
1	0xbb86bcd7	-0.004111867
2	0xb9bb8ae0	-0.0003577089

FK_LAYER.joints.3.axis f4 [3, 1]
0	0xbbc49a38	-0.0059998296
1	0x3e30bb78	0.17259014
2	0xbd19a097	-0.037506666

FK_LAYER.joints.3.q_layer.0.weight f4 [1, 64]
0	0xc031c363	-2.7775505
1	0x40342b0d	2.8151276
2	0x40417afd	3.0231316
3	0x4035c2ce	2.840015
4	0x40015ddf	2.0213544
5	0x402e523f	2.72377
6	0x40282ce6	2.6277404
7	0x402b8a7f	2.6803281
8	0x4016706f	2.3506124
9	0x4036ca50	2.8560982
10	0xc03ad6e5	-2.9193661
11	0xc01a161e	-2.4076
12	0xc045ec1b	-3.0925357
13	0x404d60db	3.2090366
14	0x40369ea5	2.853433
15	0xbf3a3373	-0.72734755
16	0x4000765d	2.0072243
17	0xc01dbfd9	-2.4648345
18	0xc03ab171	-2.9170802
19	0xc025e1b7	-2.5919015
20	0xbf048440	-0.517643
21	0x4035235b	2.830283
22	0x40410a12	3.0162396
23	0xc0330e49	-2.797747
24	0xc03b642e	-2.9279895
25	0xc0275c86	-2.6150222
26	0xbff28ab1	-1.8948575
27	0x4035652e	2.8343005
28	0xc031acf7	-2.776182
29	0xc034f2ec	-2.8273268
30	0xc0421235	-3.0323613
31	0x4032b625	2.7923672
32	0x3e9d2875	0.3069493
33	0xc044a445	-3.0725262
34	0x40409590	3.0091286
35	0x4033ad74	2.8074617
36	0x4034b264	2.823388
37	0x40124252	2.2852979
38	0xc03a9ee4	-2.915948
39	0xc032fe79	-2.7967818
40	0x40255955	2.5835774
41	0xc0214f7e	-2.5204768
42	0xc0330a6b	-2.7975109
43	0x403d17a3	2.9545677
44	0xbe97abb5	-0.2962319
45	0xc023e3b7	-2.5607736
46	0x404f05db	3.2347324
47	0xc026f054	-2.6084185
48	0x4004b957	2.0738122
49	0x401a2614	2.408574
50	0xc02ae787	-2.6703813
51	0x404355ef	3.05212
52	0xbf4ab8a1	-0.7918797
53	0x401dbf08	2.4647846
54	0xc0390cbb	-2.891402
55	0xc034d40a	-2.8254418
56	0x401ff67f	2.49942
57	0x403a3c86	2.909944
58	0xc03ca807	-2.9477556
59	0x402be5d5	2.6859028
60	0xc022e041	-2.5449374
61	0x4021f7fa	2.5307603
62	0x40332451	2.7990916
63	0x401cd752	2.450642

FK_LAYER.joints.4.p_offset f4 [3, 1]
0	0xc0a90d0e	-5.2828436
1	0xc0d91c2e	-6.78469
2	0xbf3d10db	-0.73853844

FK_LAYER.joints.4.rpy_offset f4 [3]
0	0xbbceb3ed	-0.00630807
1	0x3a9d358a	0.0011994105
2	0x3aef1c14	0.0018242621

FK_LAYER.joints.4.axis f4 [3, 1]
0	0xbedfe13d	-0.4372653
1	0xbe6160e2	-0.22009614
2	0x3eee8356	0.46584576

FK_LAYER.joints.4.q_layer.0.weight f4 [1, 64]
0	0xc02f92ec	-2.7433424
1	0x403035b2	2.7532773
2	0x403255aa	2.7864785
3	0x4010c9a1	2.2623065
4	0xbfff7754	-1.9958291
5	0x40354866	2.8325438
6	0x40449877	3.0718057
7	0x3fd93efe	1.6972349
8	0x402bcae8	2.6842594
9	0xc032de4d	-2.7948182
10	0xc0456ba9	-3.084696
11	0xc0124b64	-2.2858515
12	0xc025a2eb	-2.5880687
13	0x403471f2	2.8194547
14	0x403c8f31	2.9462397
15	0x3fd8f6d8	1.6950331
16	0x3fe98509	1.8243724
17	0xc038d39c	-2.8879156
18	0xc04b8ae3	-3.180352
19	0xc02de1c2	-2.7169042
20	0x3f795a30	0.9740324
21	0x4039884e	2.8989444
22	0xbfdf5bac	-1.7449851
23	0xc037a66f	-2.8695333
24	0xc02863db	-2.6310947
25	0xc038ead4	-2.8893328
26	0x3ff5bc19	1.9198028
27	0x40303597	2.7532709
28	0xc022332e	-2.5343738
29	0xc02b7f5e	-2.6796489
30	0xc02bfff3	-2.687497
31	0x403aaa39	2.9166396
32	0x3e0c5696	0.13704905
33	0xc0332466	-2.7990966
34	0x40433961	3.0503771
35	0x402c2454	2.6897173
36	0x404485f2	3.0706754
37	0x403b9f54	2.9315996
38	0xc033f2a8	-2.8116856
39	0xc052df83	-3.294892
40	0x401a61dc	2.4122229
41	0xc028376d	-2.628383
42	0xc038d688	-2.888094
43	0x404d8107	3.2110002
44	0xbef5d815	-0.4801642
45	0xc03c6102	-2.943421
46	0xc02c611a	-2.6934266
47	0xc049e1fa	-3.1544175
48	0x40376fe3	2.866204
49	0x40065df5	2.0994847
50	0xc039a91a	-2.9009461
51	0x404aedb5	3.1707585
52	0x3fccb145	1.5991598
53	0x40091b97	2.142309
54	0xc030e96e	-2.7642474
55	0xc033a120	-2.8067093
56	0xbfceef88	-1.6166849
57	0x403a4ab4	2.9108095
58	0xc0223fe1	-2.5351489
59	0x401aa0e2	2.4160695
60	0xc0256611	-2.5843546
61	0xbfe46f80	-1.7846527
62	0x403b5b33	2.9274414
63	0x4032b9c2	2.7925878

FK_LAYER.joints.5.p_offset f4 [3, 1]
0	0xc0a2d66a	-5.0886736
1	0xc0daa2e7	-6.8323855
2	0xbf81e474	-1.0147843

FK_LAYER.joints.5.rpy_offset f4 [3]
0	0xbc0a9178	-0.008457534
1	0xbb99372c	-0.0046757665
2	0x3c049240	0.008091509

FK_LAYER.joints.5.axis f4 [3, 1]
0	0xbfef4ba4	-1.8694959
1	0xbf8dae8b	-1.1068891
2	0x403ce1a3	2.9512718

FK_LAYER.joints.5.q_layer.0.weight f4 [1, 64]
0	0xc0323030	-2.7841911
1	0x40334641	2.801163
2	0xc035cdcd	-2.840686
3	0x3d48752f	0.04893988
4	0xc03c41ac	-2.9415083
5	0x400c407e	2.1914363
6	0xc035b835	-2.839368
7	0x4034aa16	2.8228812
8	0x404ff4f0	3.2493248
9	0xc0427f6b	-3.039027
10	0x40276fa0	2.616188
11	0xc04ca92d	-3.1978257
12	0xc0372413	-2.8615768
13	0xc02fbb3f	-2.7458036
14	0xc03f8985	-2.9927685
15	0x404df68e	3.2181735
16	0x4041fc86	3.0310378
17	0x4025c364	2.5900507
18	0xc03d881c	-2.9614325
19	0xc03e77e4	-2.9760675
20	0xc02480e1	-2.5703661
21	0xc018c8f7	-2.387266
22	0xc03c30f5	-2.940488
23	0xc0337ac8	-2.804369
24	0xc030728d	-2.7569916
25	0xc01f35bc	-2.4876547
26	0xc03b7dde	-2.9295573
27	0xc00d5b77	-2.2087076
28	0xc03dfb1f	-2.9684522
29	0xc0316762	-2.771935
30	0xc0489c2f	-3.1345327
31	0xc04b42d6	-3.1759543
32	0x40341e49	2.8143485
33	0xc03aca21	-2.918587
34	0xc022a94a	-2.5415826
35	0x4024cd3f	2.5750272
36	0x4043298f	3.0494115
37	0x403730e2	2.8623586
38	0xc0388a51	-2.8834422
39	0xc0277ea2	-2.617104
40	0x403e5592	2.9739728
41	0xc03583d9	-2.8361723
42	0xc0276dac	-2.6160688
43	0xc032f2d6	-2.7960715
44	0xbf439293	-0.7639553
45	0x402e1978	2.7203045
46	0xc03b20a0	-2.9238663
47	0x403b0a7e	2.9225154
48	0x4033e44f	2.8108099
49	0x3d739142	0.0594647
50	0xc041b2f7	-3.0265481
51	0xc04509f6	-3.078733
52	0xc042cc1e	-3.0437083
53	0x403ee210	2.9825478
54	0xc0399c08	-2.9001484
55	0xc045b66b	-3.089259
56	0x403c268c	2.9398527
57	0xc03ab9c9	-2.9175894
58	0xc02cb442	-2.698502
59	0x4029609c	2.6465216
60	0xc03d7ca6	-2.960733
61	0x403d796b	2.9605358
62	0xc03dd9af	-2.9664114
63	0xbd624b17	-0.055247393

FK_LAYER.joints.6.p_offset f4 [3, 1]
0	0xc0a4abfe	-5.145995
1	0xc0d7ed55	-6.747721
2	0xbf80a939	-1.0051643

FK_LAYER.joints.6.rpy_offset f4 [3]
0	0x3b8d5415	0.004313002
1	0xbbd84cb8	-0.0066009425
2	0x3cf753d0	0.030191332

FK_LAYER.joints.6.axis f4 [3, 1]
0	0xbe860131	-0.26172784
1	0x3e98bc24	0.2983104
2	0x3f48c2fc	0.7842252

FK_LAYER.joints.6.q_layer.0.weight f4 [1, 64]
0	0x40291bc5	2.64232
1	0xc03029dc	-2.752555
2	0xc03da5fe	-2.9632564
3	0xc02af65e	-2.671287
4	0x3fbd9d28	1.4813585
5	0xc01d0d84	-2.45395
6	0xc0384751	-2.8793528
7	0xc01d3ad7	-2.4567163
8	0xc018b046	-2.3857589
9	0x402e8dd9	2.7274077
10	0x403d4fa4	2.9579859
11	0xc029f6d6	-2.6556907
12	0x403b9d56	2.931478
13	0x402af452	2.6711621
14	0xc046a2d3	-3.103688
15	0x3e2baac2	0.16764358
16	0xc01ae62e	-2.420299
17	0xc03a9f8d	-2.9159882
18	0x4028a72a	2.635203
19	0xc0402fc0	-3.0029144
20	0x3ff2129f	1.8911933
21	0xc036c082	-2.8554997
22	0xc03c5d09	-2.9431784
23	0xc0292619	-2.6429503
24	0x403b8435	2.9299443
25	0x4031aeab	2.776286
26	0x3fd1b9ca	1.6384823
27	0xc04b6745	-3.178178
28	0xc028427a	-2.6290574
29	0x404fffce	3.249988
30	0x40360c37	2.8444955
31	0xc0414c51	-3.020283
32	0x3ebf4cea	0.37363368
33	0x402f7667	2.7416017
34	0xc036d656	-2.856832
35	0xc031536b	-2.7707164
36	0xc0273607	-2.6126726
37	0xc024226a	-2.5646005
38	0xc03728eb	-2.8618724
39	0x402fc285	2.7462475
40	0xc029469b	-2.6449344
41	0xc0225d3e	-2.536941
42	0x402d4e52	2.7079053
43	0xc0350bf7	-2.8288553
44	0xbee5c71f	-0.4487848
45	0x40383eb1	2.8788264
46	0xc02d9bce	-2.7126346
47	0x403ba18f	2.9317358
48	0xc02ce7cd	-2.701648
49	0xbffc5625	-1.9713789
50	0xc038f602	-2.8900151
51	0xc03f5f88	-2.9902058
52	0x3f54e98a	0.8316885
53	0xc01ececf	-2.4813726
54	0x40381cfd	2.8767693
55	0xc0202934	-2.5025148
56	0xc013553d	-2.3020775
57	0xc0388f55	-2.8837483
58	0xc0147938	-2.3198986
59	0xc031a654	-2.7757769
60	0x401a0b77	2.4069498
61	0xc0120e97	-2.2821405
62	0xc02e14f2	-2.7200284
63	0xc02db86d	-2.7143815

FK_LAYER.joints.7.p_offset f4 [3, 1]
0	0xc003ac2c	-2.0573835
1	0xc026fc12	-2.6091352
2	0x42292a29	42.291172

FK_LAYER.joints.7.rpy_offset f4 [3]
0	0xba47e069	-0.0007624687
1	0xbc61b295	-0.013775487
2	0xbc3ed940	-0.011648476

FK_LAYER.joints.8.p_offset f4 [3, 1]
0	0xbfba9eef	-1.4579753
1	0xc028cee8	-2.6376286
2	0x42291289	42.2681

FK_LAYER.joints.8.rpy_offset f4 [3]
0	0xbaa32738	-0.0012447601
1	0xbbe935b6	-0.0071169985
2	0xbbbfa197	-0.0058481204

FK_LAYER.joints.8.axis f4 [3, 1]
0	0xbd49efb1	-0.049300853
1	0x3e4a4163	0.19751506
2	0x3f5c896c	0.8614719

FK_LAYER.joints.8.q_layer.0.weight f4 [1, 64]
0	0x4022e14b	2.5450008
1	0x4026cdf9	2.6063216
2	0x40460281	3.0939028
3	0x4024e988	2.5767536
4	0xc008f7f0	-2.140133
5	0xbfa30fc8	-1.2739191
6	0x40384bbe	2.879623
7	0x3fb56d2f	1.4173945
8	0xc0271ca4	-2.611123
9	0xc02e8111	-2.7266276
10	0xc0340b6a	-2.8131967
11	0xc02155a3	-2.5208519
12	0xc025da30	-2.591442
13	0xc04c71dc	-3.1944494
14	0x40541c7a	3.314238
15	0x3e042e9b	0.12908404
16	0xc0103d6e	-2.2537494
17	0xbfd257a5	-1.6432997
18	0xc048cf91	-3.1376688
19	0xc029f429	-2.6555274
20	0xbf8b34e6	-1.0875518
21	0x40378f45	2.8681195
22	0xbfee6f72	-1.862776
23	0xc036b2e6	-2.854669
24	0xc04f47b5	-3.2387516
25	0xc028cb3f	-2.6374052
26	0x3fee5fc4	1.8622975
27	0x4027fc5c	2.6247778
28	0xc034f8da	-2.8276887
29	0xc038150a	-2.8762841
30	0xc021d46f	-2.528591
31	0x402825da	2.6273103
32	0x3e4f7862	0.20260766
33	0xc0301072	-2.7510037
34	0x402c4169	2.6914923
35	0xc009bafd	-2.1520379
36	0x40221289	2.5323813
37	0xc034ff3e	-2.8280787
38	0xc02edb01	-2.732117
39	0xc0322d26	-2.7840056
40	0x40237b5d	2.5544045
41	0x401de035	2.4668095
42	0xc02a42a8	-2.6603184
43	0x4046226b	3.0958507
44	0x3e3670cd	0.17816468
45	0xc045544a	-3.0832696
46	0xc03cd373	-2.9504058
47	0xc048894a	-3.1333795
48	0xc02e460b	-2.723025
49	0x4005a871	2.0884058
50	0x401a5410	2.4113808
51	0x40428b61	3.039757
52	0xbffdd286	-1.9829872
53	0x401d754c	2.4602842
54	0xc036de00	-2.8572998
55	0xc03d96ae	-2.9623218
56	0x3fa02411	1.2511007
57	0x40368c54	2.852315
58	0xc04f2dd4	-3.2371721
59	0x400fccbd	2.2468712
60	0x40326b17	2.7877862
61	0xc01660ee	-2.349666
62	0x403e03cc	2.9689817
63	0x402f9011	2.743168

FK_LAYER.joints.9.p_offset f4 [3, 1]
0	0xbf93d9f4	-1.1550889
1	0xc0257f8e	-2.5859103
2	0x4228323e	42.049065

FK_LAYER.joints.9.rpy_offset f4 [3]
0	0xbc9a743e	-0.018854257
1	0xbc4322b5	-0.01191013
2	0x397da02e	0.00024187632

FK_LAYER.joints.9.axis f4 [3, 1]
0	0x3dc56161	0.09637714
1	0xbff2a492	-1.8956473
2	0x403d8038	2.9609509

FK_LAYER.joints.9.q_layer.0.weight f4 [1, 64]
0	0xc044d143	-3.0752723
1	0x402e9e1a	2.7283998
2	0xc02f78c4	-2.741746
3	0xbdaa585d	-0.08317635
4	0xc04108f4	-3.0161715
5	0x40122bd9	2.2839262
6	0xc045f86b	-3.0932872
7	0x403d9566	2.9622436
8	0x4034eb79	2.826872
9	0xc0358fe5	-2.8369076
10	0x403f8a8f	2.992832
11	0xc0347987	-2.8199174
12	0x4024a9b6	2.5728583
13	0xc032057a	-2.7815843
14	0xc03017ca	-2.751452
15	0x40469677	3.1029336
16	0x40481b39	3.1266615
17	0x402d29a4	2.7056665
18	0xc03a5fa2	-2.912087
19	0xc04b6d29	-3.1785376
20	0xc033960f	-2.8060338
21	0xc01efcaa	-2.4841714
22	0x4000a6bc	2.0101767
23	0xc02d487f	-2.7075498
24	0x4039d3ba	2.9035478
25	0x403f451e	2.9885936
26	0xc030bd20	-2.7615433
27	0xc007fc6e	-2.124782
28	0xc029cd2f	-2.6531484
29	0x403b67f2	2.9282193
30	0x402b5659	2.6771452
31	0xc0374478	-2.863554
32	0x402925e3	2.6429374
33	0x4039e951	2.9048655
34	0xbfc44dab	-1.5336202
35	0x4015e6f6	2.3422217
36	0x4032b4ac	2.7922773
37	0x40398dc0	2.8992767
38	0x4025cc62	2.5905995
39	0x40314a85	2.7701733
40	0x402cb4f5	2.6985447
41	0xc03016b1	-2.751385
42	0xc03840a0	-2.8789444
43	0xc03b2b70	-2.9245262
44	0xc036a38b	-2.8537319
45	0xc02bf1d6	-2.6866355
46	0xc03d4154	-2.9571123
47	0x403b60b9	2.9277785
48	0x40486e57	3.1317346
49	0x3e7b9515	0.24568589
50	0xc03a8c8e	-2.9148288
51	0x3fef1b0f	1.8680133
52	0x400fb373	2.2453277
53	0x4039f0ab	2.9053142
54	0x4024514d	2.5674622
55	0xc03672e1	-2.8507617
56	0x404bb78b	3.1830776
57	0xc02d9d33	-2.7127197
58	0xc0368fe1	-2.8525317
59	0x403cb0a5	2.9482815
60	0xc037c3db	-2.871329
61	0x404331b7	3.0499094
62	0xc03e22cb	-2.9708736
63	0x40010c0b	2.01636

FK_LAYER.joints.10.p_offset f4 [3, 1]
0	0xbf26c05d	-0.65137273
1	0xc058c09a	-3.3867555
2	0x4227e627	41.97476

FK_LAYER.joints.10.rpy_offset f4 [3]
0	0xb7a4f70e	-1.9665367e-05
1	0xbc9108c6	-0.017704379
2	0x3a613396	0.0008590756

FK_LAYER.joints.10.axis f4 [3, 1]
0	0x3efc8332	0.49318844
1	0xbed63604	-0.41838086
2	0x3f5120e4	0.8169081

FK_LAYER.joints.10.q_layer.0.weight f4 [1, 64]
0	0x400b0f68	2.1728153
1	0xc02c8250	-2.6954536
2	0xc03832f0	-2.878109
3	0xc006b81c	-2.1049871
4	0x400c8dd5	2.1961567
5	0x4008c369	2.136927
6	0xc04a0495	-3.1565297
7	0xc009f4a7	-2.1555574
8	0xc01f0c14	-2.4851122
9	0x4027df73	2.6230133
10	0x402a777d	2.663543
11	0xc02b7a44	-2.6793375
12	0x402f6e91	2.7411234
13	0x4036a6b8	2.8539257
14	0xc044c550	-3.074543
15	0x3f556ec4	0.8337214
16	0xc0123799	-2.2846434
17	0xc02b75f2	-2.6790738
18	0xc0383c4a	-2.8786798
19	0xc03585a0	-2.8362808
20	0xbf9d4a03	-1.2288212
21	0xc04392e3	-3.0558403
22	0xc0519513	-3.2747238
23	0xc04472c9	-3.069506
24	0x4032b35f	2.792198
25	0x4036e499	2.8577025
26	0x3ff5c27f	1.919998
27	0xc02c4075	-2.6914341
28	0xc0354ef4	-2.832944
29	0x40399a9b	2.9000614
30	0x4030b562	2.7610707
31	0xc04469df	-3.0689619
32	0xbed18391	-0.4092069
33	0x402c2b9a	2.6901612
34	0xc030ae7e	-2.7606502
35	0xc01f6590	-2.490574
36	0xc02f97e8	-2.7436466
37	0x402e0598	2.7190914
38	0xc028127f	-2.626129
39	0x403b492b	2.9263408
40	0xc005b06e	-2.0888934
41	0xc021db42	-2.5290074
42	0x40292b42	2.6432652
43	0xc03e38a0	-2.972206
44	0x3f0aca2a	0.5421473
45	0x403ed1af	2.981548
46	0x403a3b0c	2.909854
47	0x403f5e2b	2.9901226
48	0xc017fbfb	-2.3747547
49	0xbfd154d1	-1.6354009
50	0xc03be806	-2.9360366
51	0x3fe51170	1.7895947
52	0x3f79d670	0.9759283
53	0xc0122adb	-2.2838657
54	0x403e9dbc	2.9783773
55	0xc02be5e4	-2.6859064
56	0xc0115614	-2.2708788
57	0xc02b5490	-2.6770363
58	0xc01ba03b	-2.4316547
59	0xc0294ef1	-2.6454432
60	0x40133e82	2.3006902
61	0xc0176408	-2.3654804
62	0xc047d2ed	-3.122249
63	0x4008ba6f	2.136379

FK_LAYER.joints.11.p_offset f4 [3, 1]
0	0x3dd3b93f	0.10338067
1	0xc05bcc2d	-3.434337
2	0x4226b076	41.672325

FK_LAYER.joints.11.rpy_offset f4 [3]
0	0x3c3eed86	0.01165331
1	0x3c18176b	0.009282927
2	0xbcc7474f	-0.024325995

FK_LAYER.joints.11.axis f4 [3, 1]
0	0x3f067275	0.525184
1	0xbeb86931	-0.36017755
2	0x3f46cfc4	0.77660775

FK_LAYER.joints.11.q_layer.0.weight f4 [1, 64]
0	0x402bd79d	2.685035
1	0xc0391345	-2.891801
2	0xc0411c8f	-3.017368
3	0xc002ba06	-2.042604
4	0xc000a2d6	-2.0099387
5	0xc02bda18	-2.6851864
6	0x402706f8	2.6098003
7	0x3ffaca52	1.9592993
8	0x401328bf	2.299362
9	0xc03c626e	-2.9435077
10	0xc036ef59	-2.8583586
11	0xc01a761a	-2.4134583
12	0x402bf89b	2.6870487
13	0xc04a9995	-3.165624
14	0xc0316fa6	-2.7724395
15	0xbf7d1d6e	-0.9887303
16	0xbfe16f66	-1.7612121
17	0xc0314427	-2.7697847
18	0x401a7574	2.4134188
19	0xc03065f3	-2.7562225
20	0x3fd8eccc	1.6947265
21	0xc04ef28d	-3.2335541
22	0x40036bb1	2.053448
23	0xc02aea9a	-2.670569
24	0xc034a4cf	-2.822559
25	0xc038f5ca	-2.8900018
26	0x3fda1024	1.7036176
27	0x403fcbc0	2.996811
28	0xc027bd2d	-2.6209214
29	0xc041276f	-3.0180318
30	0x402b0bc6	2.6725936
31	0xc03bc6f0	-2.9340172
32	0xbee41e1e	-0.44554228
33	0xc03d7ffa	-2.960936
34	0xc03cfc3b	-2.952895
35	0x40260368	2.593958
36	0x402fcf22	2.7470174
37	0xc026059f	-2.594093
38	0xc02dc4ca	-2.715136
39	0xc0484cc2	-3.129685
40	0x401db662	2.4642568
41	0x402036ac	2.503337
42	0xc02e28d3	-2.7212417
43	0xc043f83a	-3.0620255
44	0x3ece2b78	0.4026754
45	0x40300691	2.7504008
46	0xc04d2017	-3.2050836
47	0xc0307dfe	-2.75769
48	0x402b22bf	2.6739957
49	0xbfbe549c	-1.4869571
50	0x4039a08d	2.9004242
51	0xc043efea	-3.0615182
52	0x4005c3e3	2.090081
53	0x3ff4b0ba	1.9116433
54	0xc038220c	-2.877078
55	0xc024a132	-2.5723386
56	0x4001a374	2.0256014
57	0xc0358acc	-2.8365965
58	0x4025ca4f	2.590473
59	0xc030e171	-2.7637599
60	0xc01326a9	-2.2992346
61	0x401436f8	2.315855
62	0xc0437493	-3.0539901
63	0xc01c55ad	-2.4427292

FK_LAYER.joints.12.p_offset f4 [3, 1]
0	0xbe7c9bff	-0.24668883
1	0xc032c64c	-2.793353
2	0x42262956	41.540367

FK_LAYER.joints.12.rpy_offset f4 [3]
0	0x3c7e612d	0.015526098
1	0xbc28ea48	-0.010309763
2	0x3aff81b3	0.001949361

FK_LAYER.joints.12.axis f4 [3, 1]
0	0xbff5afb5	-1.9194247
1	0x3f041c48	0.51605654
2	0xc04f25e5	-3.236688

FK_LAYER.joints.12.q_layer.0.weight f4 [1, 64]
0	0x404f784b	3.241717
1	0xc039c893	-2.902867
2	0x4047f1a0	3.1241226
3	0x3eedde78	0.46458793
4	0x404015fb	3.0013416
5	0xc00ee810	-2.232914
6	0x4034a75c	2.8227148
7	0xc02ee1ae	-2.7325244
8	0xc04aa1f1	-3.166134
9	0x404d34b6	3.2063422
10	0x403a1fce	2.9081912
11	0x402b59ba	2.6773515
12	0x4043d160	3.0596542
13	0x4036a4b0	2.8538017
14	0x40578b68	3.3678837
15	0xc037e7af	-2.8735158
16	0xc032c9ff	-2.7935789
17	0xc0283a7c	-2.6285696
18	0x403b6ad1	2.9283946
19	0x404e2641	3.2210848
20	0x4046caa3	3.106118
21	0x4028f097	2.6396844
22	0xbfd3abf2	-1.6536849
23	0x4045030c	3.078311
24	0x4022aace	2.541675
25	0x403b39c9	2.925402
26	0x402e70df	2.725639
27	0x402dca21	2.715462
28	0x404d5e9e	3.2089
29	0x404ef35e	3.233604
30	0x40484a04	3.1295176
31	0x40396dd9	2.8973296
32	0xc009ecf7	-2.1550882
33	0x404452ae	3.0675464
34	0x40165e17	2.3494928
35	0xc0219e7a	-2.5252976
36	0xc04f9b50	-3.2438545
37	0xc036e034	-2.8574343
38	0x4034cc75	2.824979
39	0x4034cbac	2.8249311
40	0xc03579c2	-2.8355565
41	0x4041dcb6	3.0290961
42	0x4039dac1	2.9039767
43	0x4033623b	2.8028705
44	0x4050cd9d	3.2625496
45	0x404272d9	3.0382597
46	0x4023b350	2.5578194
47	0x40472e95	3.1122181
48	0xc048f5f5	-3.140012
49	0x3e8f2d80	0.279644
50	0x404e08c4	3.219285
51	0xc0194f73	-2.3954742
52	0xc00ded0d	-2.2175934
53	0xc04987fe	-3.1489253
54	0x404560b9	3.0840285
55	0x403119de	2.7672038
56	0xc03b09e5	-2.922479
57	0x403bfe9a	2.9374146
58	0x405201cc	3.2813597
59	0xc03d0a3f	-2.9537504
60	0x404bf5fd	3.186889
61	0xc04a1d8a	-3.158053
62	0x403e2cb4	2.9714785
63	0xc02c4777	-2.6918619

FK_LAYER.joints.13.p_offset f4 [3, 1]
0	0x3e3e5a6b	0.18589179
1	0xc00a2b67	-2.158899
2	0x422577a5	41.36684

FK_LAYER.joints.13.rpy_offset f4 [3]
0	0x3c92187a	0.017833937
1	0xbc47eb3b	-0.012202079
2	0xbbf8460f	-0.007576711

FK_LAYER.joints.13.axis f4 [3, 1]
0	0x3e53635e	0.20643374
1	0xbea9fd96	-0.33201283
2	0x3f765162	0.9621793

FK_LAYER.joints.13.q_layer.0.weight f4 [1, 64]
0	0xc02ba4e2	-2.6819386
1	0xc02f6bd5	-2.7409565
2	0x403f7e95	2.992101
3	0x40407f91	3.007786
4	0xbfe0dc54	-1.7567239
5	0xc00e7d5b	-2.226401
6	0x40356fee	2.8349566
7	0x4009476a	2.1449838
8	0x40127a00	2.2886963
9	0x4029cf3d	2.6532738
10	0xc0211b55	-2.5172932
11	0x4024088c	2.5630217
12	0xc028af96	-2.635717
13	0x4034e438	2.8264294
14	0x403cf87a	2.9526658
15	0xbf18b911	-0.5965739
16	0x3fc842a0	1.5645332
17	0xc02a64e9	-2.662409
18	0xc036c95e	-2.8560405
19	0xc03847c6	-2.8793807
20	0xbfaeed90	-1.3666248
21	0x402f2136	2.736402
22	0xbfeccdef	-1.8500346
23	0x402547cd	2.5825074
24	0xc036c41e	-2.85572
25	0xc03e157e	-2.9700618
26	0xbfc20495	-1.5157648
27	0x403cb628	2.948618
28	0xc01d8a2c	-2.4615583
29	0xc02fe8a9	-2.7485754
30	0xc0306a52	-2.7564893
31	0x4031ec4e	2.780048
32	0xbf101ab3	-0.5629074
33	0xc03b09d4	-2.9224749
34	0x403f2c31	2.9870722
35	0x40278635	2.6175663
36	0xc01db9ab	-2.4644573
37	0x401e7e7e	2.4764705
38	0xc01f3836	-2.4878058
39	0xc038f8b9	-2.8901808
40	0xc033a809	-2.807131
41	0xc02231e1	-2.5342944
42	0x3fb2d08e	1.3969896
43	0x40331f12	2.7987714
44	0xbd223942	-0.039605387
45	0xc031a919	-2.775946
46	0x4030e2dd	2.7638466
47	0xc03c58bc	-2.942916
48	0x400a61c5	2.1622174
49	0x4035d084	2.8408518
50	0xc02c44a6	-2.69169
51	0x403567a0	2.8344498
52	0xbfe91b8a	-1.8211529
53	0x3ffb05a4	1.9611096
54	0xc03aaeda	-2.916922
55	0xc037fff4	-2.8749971
56	0x3fd1f238	1.6402044
57	0x4034f814	2.8276415
58	0xc02453a1	-2.5676043
59	0x40113dd8	2.2693996
60	0xc00a0cc3	-2.157029
61	0x401af9e5	2.4215024
62	0x403e9fbe	2.9785
63	0xc0135fbd	-2.3027184

FK_LAYER.joints.14.p_offset f4 [3, 1]
0	0xc00df0a7	-2.2178133
1	0xc08eb8da	-4.460065
2	0x422856e2	42.084846

FK_LAYER.joints.14.rpy_offset f4 [3]
0	0x3bf28b9e	0.0074018976
1	0x3b81a9fc	0.0039570313
2	0x3cac59bf	0.021038888

FK_LAYER.joints.15.p_offset f4 [3, 1]
0	0xc01c2ffb	-2.4404285
1	0xc0858e1d	-4.173598
2	0x42290398	42.25351

FK_LAYER.joints.15.rpy_offset f4 [3]
0	0x3cac8cd3	0.021063244
1	0x3b30755a	0.0026925416
2	0x3bd94a46	0.0066311685

FK_LAYER.joints.15.axis f4 [3, 1]
0	0x3ec748b2	0.3892265
1	0x3ec8a7ac	0.39190423
2	0xbe85278b	-0.2600673

FK_LAYER.joints.15.q_layer.0.weight f4 [1, 64]
0	0xc0222923	-2.5337608
1	0x40249520	2.5716019
2	0x40388cfd	2.8836052
3	0x4022ca8d	2.5436127
4	0x3fe39cb4	1.7782197
5	0xbfcdf63d	-1.6090771
6	0x40317d7a	2.7732835
7	0x3fc6c416	1.5528591
8	0x4016ae5a	2.3543916
9	0xc04ca115	-3.1973317
10	0xc0399f9b	-2.9003665
11	0xc03074a9	-2.7571204
12	0xc0225ce7	-2.5369203
13	0xc02e945e	-2.7278056
14	0x40432963	3.049401
15	0x3f6a2327	0.9145989
16	0xc011da65	-2.2789547
17	0xc00558a6	-2.0835357
18	0xc042aae2	-3.0416799
19	0xc02f6734	-2.740674
20	0xbf51946e	-0.8186711
21	0x40359811	2.8374064
22	0x403886ea	2.8832345
23	0xc02a0646	-2.656633
24	0xc025dd9f	-2.5916517
25	0xc025ba36	-2.5894904
26	0x3ff7d1a7	1.9360856
27	0x403c9f3a	2.9472184
28	0xc021adc7	-2.5262315
29	0xc035eb1f	-2.8424757
30	0xc044c9fc	-3.0748281
31	0x403e4ca2	2.9734273
32	0xbd4fe94f	-0.05075961
33	0xc0397d6b	-2.89828
34	0x40424783	3.0356147
35	0x4046b0ad	3.1045334
36	0x40408cef	3.008602
37	0x40286d57	2.6316736
38	0xc04350e3	-3.051812
39	0xc03748ac	-2.8638105
40	0xc0214bbe	-2.520248
41	0xc0490413	-3.1408737
42	0xc02b7340	-2.6789093
43	0x40430011	3.046879
44	0xbf1a47a3	-0.6026556
45	0xc0338a74	-2.8053255
46	0x404fcaa7	3.246744
47	0xc029b66e	-2.6517596
48	0x40024746	2.0356002
49	0x40317baf	2.773174
50	0xc032c309	-2.793154
51	0x40344bf2	2.8171353
52	0xbef64632	-0.4810043
53	0xc0041357	-2.0636804
54	0xc056ceeb	-3.3563793
55	0xc02c4c45	-2.6921551
56	0x3fa37139	1.2768928
57	0x4050e573	3.2640045
58	0xc02b80d2	-2.6797376
59	0x40315e24	2.771371
60	0xc0294a2b	-2.6451519
61	0xc007c10b	-2.1211574
62	0x4032b935	2.7925541
63	0x3ff39bfc	1.9031978

FK_LAYER.joints.16.p_offset f4 [3, 1]
0	0xc024f9bc	-2.5777426
1	0xc05212c5	-3.2823956
2	0x4228dcc3	42.215588

FK_LAYER.joints.16.rpy_offset f4 [3]
0	0xbbbc7d8d	-0.0057522715
1	0x3bbdabed	0.0057883174
2	0x3c419900	0.011816263

FK_LAYER.joints.16.axis f4 [3, 1]
0	0xbfff33fc	-1.9937739
1	0xc0157935	-2.335523
2	0x404542b4	3.0821962

FK_LAYER.joints.16.q_layer.0.weight f4 [1, 64]
0	0xc02f7872	-2.7417264
1	0x4051cff2	3.278317
2	0xc0431a76	-3.04849
3	0xbe440fcf	-0.19146655
4	0xc046a001	-3.1035159
5	0x401badd0	2.4324837
6	0xc0359485	-2.83719
7	0x40483d70	3.1287498
8	0x40429542	3.04036
9	0xc0386146	-2.880937
10	0xc02a861a	-2.664435
11	0xc03b833a	-2.9298844
12	0xc04cbf7b	-3.199187
13	0xc03ffcb1	-2.999798
14	0xc02a8263	-2.6642082
15	0x403acca0	2.9187393
16	0x40438094	3.0547228
17	0x401db531	2.464184
18	0xc03137f1	-2.7690394
19	0xc046e446	-3.1076827
20	0xc03580ce	-2.8359866
21	0xc0240d85	-2.5633252
22	0x3fe4af53	1.7866005
23	0xc037c261	-2.871239
24	0x4028f7b6	2.640119
25	0xc0423f8a	-3.035128
26	0xc03d8c15	-2.961675
27	0xc022aa7f	-2.5416563
28	0xc038f7bc	-2.8901205
29	0x403bcc02	2.9343266
30	0xc03bdfe0	-2.9355392
31	0xc04f5245	-3.2393963
32	0x402d4537	2.7073495
33	0xc04557e7	-3.0834901
34	0xbff5c0e4	-1.919949
35	0x402ba403	2.6818855
36	0x40335dce	2.8026004
37	0x403ba027	2.93165
38	0xc03511bd	-2.8292077
39	0x4032b5c1	2.7923434
40	0x403ff8e6	2.9995666
41	0xc049475c	-3.1449804
42	0xc03b1658	-2.9232388
43	0xc0465179	-3.0987227
44	0xc062df7c	-3.5448904
45	0xc02ddce2	-2.7166066
46	0xc02e1ae9	-2.7203925
47	0x4043172b	3.048289
48	0x404054fa	3.0051866
49	0xbcbae584	-0.02281452
50	0xc035a5d2	-2.8382459
51	0x4014850f	2.3206213
52	0xbff30c11	-1.8988057
53	0x404e1acc	3.2203856
54	0x402b1427	2.673105
55	0xc037bcda	-2.8709016
56	0x40509d9e	3.2596202
57	0xc03e590f	-2.9741857
58	0xc03d714f	-2.9600408
59	0x4035c8e6	2.8403869
60	0xc04e9114	-3.2276049
61	0x404e7d17	3.2263849
62	0xc03c5092	-2.9424176
63	0x400c14dd	2.1887734

FK_LAYER.joints.17.p_offset f4 [3, 1]
0	0xc035ada1	-2.8387225
1	0xc06345c4	-3.5511332
2	0x42291dde	42.279167

FK_LAYER.joints.17.rpy_offset f4 [3]
0	0xbc6f18e1	-0.014593334
1	0xbc415265	-0.01179943
2	0xbb738e45	-0.0037163657

FK_LAYER.joints.17.axis f4 [3, 1]
0	0xbed33e34	-0.41258395
1	0x3ea09bdd	0.31368914
2	0x3f77a1cd	0.96731263

FK_LAYER.joints.17.q_layer.0.weight f4 [1, 64]
0	0xc014974c	-2.3217344
1	0xc0256e18	-2.5848446
2	0x403c018d	2.9375947
3	0x40329bf5	2.7907689
4	0xbfe2bbc2	-1.7713549
5	0x3ffacbca	1.9593441
6	0x403aaa9c	2.9166632
7	0x3fdf11c8	1.7427301
8	0x3ff56453	1.9171242
9	0xc032fa4a	-2.7965264
10	0xc03f0a8e	-2.9850192
11	0x403794d3	2.8684585
12	0xc035f374	-2.8429842
13	0x40375b62	2.8649526
14	0x402d41d9	2.707144
15	0x3f8f2f05	1.1186224
16	0x3fa88bb1	1.316763
17	0xc028b240	-2.6358795
18	0xc02482ef	-2.5704916
19	0xc01f8b53	-2.4928787
20	0xbfd99823	-1.6999553
21	0x40258eb6	2.5868354
22	0x40373882	2.862824
23	0x40451351	3.079304
24	0xc047893f	-3.1177518
25	0xc03239bd	-2.784774
26	0xbffc1753	-1.9694618
27	0x40406630	3.006237
28	0xc03dc44a	-2.9651055
29	0xc03baca8	-2.932413
30	0xc031ea11	-2.7799113
31	0x4029a174	2.6504793
32	0x3f2e2cd9	0.6803718
33	0xc027d910	-2.6226234
34	0x403da6e1	2.9633105
35	0x402a0237	2.6563852
36	0x4023beb6	2.558515
37	0x402408fe	2.5630488
38	0xc032ac47	-2.791765
39	0xc02bc28e	-2.6837497
40	0xc03e8865	-2.9770749
41	0xc0311911	-2.767155
42	0xc042dbef	-3.0446737
43	0x4046a844	3.10402
44	0xbf821d36	-1.0165164
45	0xc035e0ac	-2.841838
46	0x40410f6f	3.016567
47	0xc02835c2	-2.628281
48	0xc0373bf5	-2.8630345
49	0x40311096	2.7666373
50	0xc0289c96	-2.6345572
51	0x40338582	2.8050237
52	0x3feb59e4	1.8386807
53	0x3fcdda3f	1.6082228
54	0xc02a7be7	-2.6638124
55	0xc016c5dc	-2.3558264
56	0x3fe53a1b	1.7908357
57	0x4038881c	2.8833075
58	0xc02fd81f	-2.747566
59	0xc038c72f	-2.8871572
60	0xc012ceb5	-2.2938664
61	0x4006651b	2.099921
62	0x403b60aa	2.927775
63	0xc00e8249	-2.226702

FK_LAYER.joints.18.p_offset f4 [3, 1]
0	0xc016da5f	-2.3570783
1	0xc087e3df	-4.2465663
2	0x4225d58e	41.45855

FK_LAYER.joints.18.rpy_offset f4 [3]
0	0xbb5e2382	-0.0033895676
1	0x3c45625d	0.012047377
2	0x3c62dfab	0.013847272

FK_LAYER.joints.18.axis f4 [3, 1]
0	0x3efddb06	0.49581164
1	0x3eed26cc	0.46318662
2	0x3f76239e	0.961481

FK_LAYER.joints.18.q_layer.0.weight f4 [1, 64]
0	0x40188273	2.382962
1	0xc014617b	-2.3184497
2	0x403c7e65	2.9452145
3	0x4032a274	2.7911654
4	0x3fea34f8	1.8297415
5	0x40459cfc	3.0877066
6	0xc049aced	-3.1511796
7	0x402f6cee	2.7410235
8	0xc0208b6f	-2.5085104
9	0x403a242e	2.9084582
10	0xc02e7010	-2.7255898
11	0x401faa45	2.4947674
12	0xc02c57c7	-2.6928575
13	0xc026bcb4	-2.6052675
14	0x403dceed	2.9657547
15	0x3f502b21	0.8131581
16	0x4009afff	2.151367
17	0x40026904	2.0376596
18	0xc045c49e	-3.0901256
19	0xc0207981	-2.507416
20	0x3f8e956a	1.1139348
21	0x403ec942	2.9810338
22	0x40439f46	3.0565963
23	0x4029bf1f	2.65229
24	0xc03e8ee3	-2.977471
25	0xc03ed8bd	-2.9819787
26	0x3fe5ecc3	1.7962879
27	0xc037c48e	-2.8713717
28	0x4025e934	2.5923586
29	0x403c6809	2.9438498
30	0xc0344a5c	-2.8170385
31	0x403b51e1	2.9268725
32	0x3cb5a85f	0.022175012
33	0x403c6543	2.9436805
34	0x403f197a	2.98593
35	0xc025931c	-2.5871038
36	0xc03cb917	-2.948797
37	0x40348c28	2.8210545
38	0xc0264469	-2.5979254
39	0x402f86c3	2.7426002
40	0x40162cfe	2.346496
41	0xc02208d3	-2.5317886
42	0x3f9dcf8e	1.2328966
43	0x404a91b0	3.165142
44	0x3da5a602	0.08088304
45	0xc03f3f24	-2.9882288
46	0x402b39c1	2.6754
47	0x4052e4a0	3.2952042
48	0xc02a2089	-2.6582358
49	0x3fef69f1	1.8704206
50	0xc02101d8	-2.5157375
51	0x4029ee41	2.6551669
52	0xc00b18d8	-2.1733913
53	0x401172cb	2.2726314
54	0xc035b468	-2.8391361
55	0x40244c5e	2.567161
56	0xbf881423	-1.0631145
57	0x40398a5e	2.8990703
58	0xc02721fa	-2.6114488
59	0xc01ddef6	-2.4667335
60	0x4024b770	2.5736961
61	0x4004e723	2.0766075
62	0x403f132a	2.9855447
63	0x4032e899	2.7954466

FK_LAYER.joints.19.p_offset f4 [3, 1]
0	0xc039741d	-2.897712
1	0xc08d9e38	-4.425564
2	0x42263f8c	41.562057

FK_LAYER.joints.19.rpy_offset f4 [3]
0	0xbc156f7c	-0.009120818
1	0x3a1a1bb6	0.0005878763
2	0x3c466025	0.012107884

FK_LAYER.joints.19.axis f4 [3, 1]
0	0x4005d0ac	2.0908613
1	0x40298f26	2.649362
2	0xc04001d0	-3.0001106

FK_LAYER.joints.19.q_layer.0.weight f4 [1, 64]
0	0x40489dd1	3.1346323
1	0xc0393498	-2.893835
2	0x404ce037	3.201185
3	0x3e625a30	0.22104716
4	0x4044b23b	3.0733783
5	0xc01b63d9	-2.4279692
6	0x403f5b40	2.9899445
7	0xc03842cc	-2.879077
8	0xc0402894	-3.0024767
9	0x402a7699	2.6634886
10	0xc02f4820	-2.7387772
11	0x404f30ac	3.2373457
12	0xc00fa850	-2.244648
13	0x4044852d	3.0706284
14	0x4047e4d1	3.1233408
15	0xc053496e	-3.3013568
16	0xc04095d9	-3.009146
17	0xc01b2feb	-2.4247997
18	0x4036796e	2.8511615
19	0x404005bc	3.00035
20	0x40412d9e	3.0184093
21	0x400f6744	2.2406778
22	0xbfe25aa8	-1.7683916
23	0x4033c66b	2.8089855
24	0xc0395e40	-2.8963776
25	0xc02fe4cf	-2.7483404
26	0x403ec0a6	2.9805083
27	0x402056fa	2.5053086
28	0x402c41cf	2.6915166
29	0xc026856c	-2.6018934
30	0x403a9621	2.9154131
31	0x404a73e0	3.1633224
32	0xc0305d26	-2.7556853
33	0x40293668	2.6439457
34	0x3fd926d4	1.6964974
35	0xc02eb7de	-2.7299724
36	0xc036d158	-2.8565273
37	0xc040ffe2	-3.0156178
38	0x4042d4f6	3.044248
39	0xc0274cee	-2.6140704
40	0xc037a22e	-2.8692737
41	0x403f3fcc	2.9882689
42	0x4024f95c	2.5777197
43	0x404a2b97	3.1589105
44	0x40347f9d	2.820289
45	0x401f58f3	2.489804
46	0x40484e16	3.129766
47	0xc0424036	-3.0351691
48	0xc034e209	-2.826296
49	0xbd89fb6f	-0.0673741
50	0x40469fe5	3.1035092
51	0xc0072c0e	-2.112064
52	0x3fd91edd	1.6962544
53	0xc0391bef	-2.89233
54	0xc0250e4e	-2.578998
55	0x4044916c	3.0713758
56	0xc047284d	-3.1118348
57	0x4047c8f2	3.1216397
58	0x403706f9	2.8598006
59	0xc03c7df4	-2.9451876
60	0x402d13c7	2.704332
61	0xc039935d	-2.8996193
62	0x4032ceba	2.7938676
63	0xc00079f8	-2.0074444

FK_LAYER.joints.20.p_offset f4 [3, 1]
0	0xc03cf973	-2.9527252
1	0xc09b2384	-4.8480854
2	0x4225fbfd	41.496082

FK_LAYER.joints.20.rpy_offset f4 [3]
0	0xbc587deb	-0.013213615
1	0x3c6df3c6	0.014523452
2	0x3bd93953	0.006629148

FK_LAYER.joints.20.axis f4 [3, 1]
0	0xbed16048	-0.4089377
1	0xbde7f9ac	-0.11326918
2	0x3e4d1159	0.20026149
