results/PRIMNET/ABAQUS64/weights/epoch_257.pth (torch, 110725 bytes, 189 tensors)

motor_std f4 [3]
000000 f4 9d 66 3e 82 68 6a 3d a9 df bc 3b
       0.22521192 0.057228573 0.005763967

motor_mean f4 [3]
000000 c2 4d 83 be 80 8e 51 39 94 39 b8 bd
       -0.25645262 0.00019984879 -0.08995357

position_std f4 [3, 1]
000000 00 00 80 3f 00 00 80 3f 00 00 80 3f
       1.0 1.0 1.0

position_mean f4 [3, 1]
000000 00 00 00 00 00 00 00 00 00 00 00 00
       0.0 0.0 0.0

ACT_EMBED.layers.0.weight f4 [64, 3]
000000 a9 22 92 be fa 65 66 bf 7d c4 73 3f b3 f0 54 3f
       -0.2854207 -0.89999354 0.9522169 0.8317978
000010 fe 19 ac 3e e5 06 c5 be af 31 e7 bf 6a 47 89 bf
       0.3361358 -0.38481823 -1.8062037 -1.0724919
000020 1b 14 b8 3f 2e 7e f1 3f 2f 83 ce bf d7 9a a1 bf
       1.4381136 1.8866632 -1.6133784 -1.2625378
000030 92 8a ee 3f 47 66 15 c0 d6 f8 b1 3e 04 cf 22 c0
       1.8636038 -2.3343675 0.3476016 -2.5438852
000040 ca 59 10 40 ef 3f bb 3f 78 2e 9d bf d3 9e 42 bf
       2.2554803 1.4628886 -1.2279806 -0.76023597
000050 74 bd 69 3d 5c 09 70 be 84 b5 2c c0 38 e7 1a 40
       0.057065442 -0.2344107 -2.6985788 2.4203625
000060 fb af 6b 3f 9b ca 0d 40 af 9b 9a bf bf f6 12 c0
       0.920654 2.215491 -1.2078761 -2.2963102
000070 0e fe d3 bf 85 4c 96 bf e5 8a c5 3f df 7a ba bf
       -1.6561906 -1.1742102 1.5433012 -1.4568747
000080 08 f1 59 bf d9 38 fe 3f 11 11 07 c0 ce d1 50 3e
       -0.8513341 1.9861099 -2.1104167 0.20392534
000090 a0 6f ac be 0a bc a5 3f d9 54 2c bf 7f 8d ef 3f
       -0.33678913 1.294801 -0.6731697 1.8715056
0000a0 96 f5 27 c0 f2 fe 4a be 7f 7f d7 3f 46 86 02 c0
       -2.6243644 -0.19823816 1.6835784 -2.0394454
0000b0 45 45 b9 be 6b 68 0d 40 f1 4f f0 bf dc 00 f8 3f
       -0.3618566 2.2094982 -1.8774396 1.9375262
0000c0 6b dc e3 3f b6 45 e3 bf 83 2f 46 3f 76 f5 cc 3f
       1.7801641 -1.7755649 0.7741625 1.6012409
0000d0 de 5a 0c c0 25 f5 c5 3e 9d b7 93 3f 65 cf 16 c0
       -2.193046 0.38663593 1.1540409 -2.3564084
0000e0 92 49 0b 3f be 12 01 c0 e5 c9 c0 bf bf 7c 6c bf
       0.54409134 -2.016769 -1.5061613 -0.9237785
0000f0 4a 81 9a 3f 38 b6 f0 3f 24 a6 c4 be 4f 95 a0 bf
       1.2070706 1.8805609 -0.38408005 -1.2545565
000100 a3 a6 9b 3f e4 95 14 40 84 f9 f2 3f f0 90 cb 3d
       1.2160228 2.3216486 1.8982396 0.09939754
000110 33 69 0d c0 9e d5 ab bf 7f c7 13 40 7b 49 9d bf
       -2.2095459 -1.3424566 2.3090513 -1.228805
000120 5c d2 82 bf b0 a3 09 40 d4 55 d3 be ab 48 d6 bf
       -1.0220447 2.1506157 -0.4127642 -1.6740927
000130 67 2b 8a bf 43 71 94 3f e8 0e 84 3e 4e c1 a7 3f
       -1.0794495 1.1597065 0.25792623 1.3105867
000140 c2 1a 67 be d8 3d 1e c0 0c 6b e9 3f 71 c9 37 bf
       -0.22568801 -2.4725246 1.8235793 -0.7179175
000150 49 8e d9 3f b5 95 30 3d da 1e 1e c0 72 24 d4 3e
       1.6996547 0.04311152 -2.470633 0.41434056
000160 54 23 6b 3f 34 ee 9c be fd 26 6e bf ce 67 24 c0
       0.9185078 -0.30650485 -0.9302824 -2.5688357
000170 70 07 6e 3f 4d 0e 1b 3f e2 e4 a7 3f b4 69 af bf
       0.929801 0.60568696 1.3116724 -1.3704133
000180 7b 45 2a c0 71 82 0b c0 c9 a5 93 3f 3e ec 4b bf
       -2.6604908 -2.1798365 1.1534969 -0.7965735
000190 45 1a 3d 3d ef a1 16 40 5f 73 63 be aa 30 b7 3f
       0.04616763 2.3536336 -0.2221198 1.4311726
0001a0 0c db 2c 40 bc 02 35 40 d2 fe 02 40 ca 44 93 3f
       2.7008696 2.828292 2.046803 1.1505368
0001b0 cf 37 ae bf 6b 33 cb bf 4f cf d9 3f 68 dd 0b 40
       -1.3610781 -1.5875067 1.701639 2.1853886
0001c0 b4 8b de bf ac 71 95 bf d7 7e 25 3e 80 71 fe bd
       -1.7386384 -1.1675315 0.16161667 -0.12423992
0001d0 97 aa dd be 5a a4 bf 3f c9 8b 21 c0 83 07 16 40
       -0.43294212 1.4972031 -2.5241568 2.3442085
0001e0 90 11 1b 40 85 57 1a bf 32 0f 10 40 40 8b 93 bf
       2.422947 -0.60289794 2.2509274 -1.1526871
0001f0 83 13 03 c0 c0 9c 03 c0 df 39 fe 3f 99 2a ee 3f
       -2.048066 -2.0564423 1.9861411 1.860675
000200 87 13 82 bf 6a e2 44 3f 3e 61 bf 3f ee f5 c5 bf
       -1.0162209 0.7690798 1.4951551 -1.5465677
000210 05 db 23 c0 8e c5 be bf 4d e2 8f bf b4 76 96 3e
       -2.560243 -1.4904039 -1.1240937 0.29387438
000220 4b b9 31 bf 80 6f 3a 3e eb 88 b6 3e bb c8 63 bf
       -0.6942336 0.18206596 0.35651335 -0.88978165
000230 e4 81 92 3f 28 4a b6 3d ae cf 3e 3e b1 94 e8 3f
       1.144589 0.08900863 0.18633911 1.8170377
000240 13 8c 8a bf d4 62 ca 3f d9 f0 62 3e 98 03 8e 3f
       -1.0823997 1.581141 0.22162189 1.1094847
000250 0a e1 24 c0 37 55 7e 3e 7d 2d 85 3e 9c e5 3c 3e
       -2.5762353 0.24837194 0.26011267 0.18446964
000260 62 fb d1 bf d2 a1 c6 bf 98 fd 23 c0 dd f6 5a 3f
       -1.6404841 -1.5518134 -2.5623531 0.85532933
000270 9f a6 bb 3f 4d 43 13 c0 87 9a d6 3f 96 60 12 bf
       1.4660224 -2.3009827 1.6765908 -0.5717863
000280 83 1d e3 3f be d7 7a bf 8e 3c 14 c0 29 4d db 3f
       1.7743381 -0.97985446 -2.316196 1.7132922
000290 b6 21 bd 3f 19 50 1e c0 7a b6 2f c0 35 9e 12 40
       1.4775913 -2.4736388 -2.7455125 2.2909062
0002a0 72 86 8f 3e b8 02 32 c0 3c 71 e4 3f f7 82 07 40
       0.2803226 -2.781416 1.7847056 2.1173685
0002b0 39 40 ed bf e6 cf c9 bf d7 96 e7 3f b5 59 e9 3e
       -1.8535224 -1.576657 1.8092908 0.45576254
0002c0 5f 31 f2 be 0b 45 be bf 74 7d e3 3f f9 49 24 c0
       -0.47303292 -1.486482 1.777266 -2.567015
0002d0 c9 1f 9e 3f 4b 24 09 c0 74 47 44 be b9 df 0a c0
       1.235345 -2.1428401 -0.19167882 -2.169905
0002e0 d1 5b cd bf b3 7b 1f 3f af 8c ab 3f 96 1c 24 c0
       -1.6043645 0.62298125 1.3402308 -2.5642447
0002f0 9d 07 9c 3f 19 3e 2f 3e 07 68 54 3e aa e3 03 3f
       1.2189823 0.17113532 0.20742808 0.5151926

ACT_EMBED.layers.2.weight f4 [64, 64]
000000 f5 89 0e 40 24 58 12 c0 bf 53 2d c0 c7 91 3d c0
       2.2271702 -2.2866297 -2.7082365 -2.9620225
000010 75 19 10 c0 da 1f 2d c0 48 81 3a c0 2f e1 17 c0
       -2.2515538 -2.705069 -2.9141407 -2.373119
000020 15 eb 41 c0 6b 7c 1b 40 08 95 0d 40 cd 91 08 c0
       -3.0299733 2.4294689 2.2122211 -2.133899
000030 0a c4 2f c0 1f 24 3b c0 f2 1c 37 c0 18 4f 3a c0
       -2.7463403 -2.9240797 -2.8611417 -2.9110775
000040 e5 6c 29 c0 06 e0 27 c0 b4 4d 05 c0 1b 44 2a c0
       -2.6472714 -2.6230483 -2.0828676 -2.6604068
000050 44 56 37 c0 71 20 39 c0 8b 0b 2e c0 02 05 26 c0
       -2.8646402 -2.892605 -2.7194545 -2.5940557
000060 50 69 39 c0 f6 c2 18 40 58 dc 37 c0 e5 aa 3d c0
       -2.8970528 2.3868995 -2.8728237 -2.9635556
000070 76 5f 40 c0 de d2 2a c0 ad 37 39 c0 1d 50 36 c0
       -3.0058265 -2.6691203 -2.8940232 -2.8486397
000080 3c 06 3f c0 6f 1b 11 40 fd d1 0f c0 eb 1d 0e c0
       -2.9847555 2.2672994 -2.2471917 -2.220576
000090 e9 0c 13 c0 76 86 2b c0 e3 c7 25 c0 19 f2 3a c0
       -2.297663 -2.6800818 -2.590325 -2.9210265
0000a0 72 e5 31 c0 34 bb 34 c0 82 99 2b c0 69 35 40 c0
       -2.7796292 -2.823926 -2.6812444 -3.00326
0000b0 88 32 37 c0 af 79 3d c0 44 56 2a 40 a8 f8 3a c0
       -2.8624592 -2.960552 2.6615152 -2.9214268
0000c0 ec 61 39 c0 56 05 16 c0 bf 69 38 c0 43 a5 2d c0
       -2.8966017 -2.3440757 -2.8814542 -2.7132118
0000d0 a4 e7 0c c0 2c 4a 32 c0 e6 52 41 c0 14 7d 05 c0
       -2.2016382 -2.785777 -3.0206847 -2.0857592
0000e0 54 5e 18 c0 3b d2 25 c0 d7 87 37 c0 e9 80 1e c0
       -2.3807573 -2.5909564 -2.867666 -2.476618
0000f0 80 0b 13 c0 ad 03 07 c0 3e 04 18 c0 f6 e2 14 c0
       -2.297577 -2.1095994 -2.375259 -2.3263526
000100 e5 74 36 40 fe 7f 39 c0 e8 88 36 c0 79 73 2b c0
       2.8508847 -2.898437 -2.852106 -2.678923
000110 2f bb 2f c0 e0 0e 30 c0 f1 33 47 c0 78 11 32 c0
       -2.7457998 -2.750908 -3.1125453 -2.7823162
000120 39 1a 32 c0 40 f3 28 c0 fa 34 31 c0 a9 b1 31 c0
       -2.7828505 -2.6398468 -2.7688584 -2.7764685
000130 5a b3 27 c0 52 bd 27 c0 f5 f4 33 c0 33 7d 2d c0
       -2.6203218 -2.6209302 -2.811826 -2.7107666
000140 1c ad 39 c0 32 f4 1f c0 07 43 42 c0 3d 44 3b c0
       -2.9011908 -2.4992795 -3.035341 -2.92604
000150 51 1b 33 c0 c1 3b 36 c0 56 92 30 c0 fb ef 3c c0
       -2.7985423 -2.847397 -2.7589316 -2.9521472
000160 ec 07 2b c0 03 b0 2f c0 28 6f 24 c0 f8 b2 30 c0
       -2.6723585 -2.745118 -2.5692844 -2.7609234
000170 24 71 33 c0 9b 8f 2d c0 a6 06 42 c0 d3 7f 38 c0
       -2.8037806 -2.71189 -3.0316558 -2.8828018
000180 4e f0 34 c0 1d d1 36 c0 60 ac 4d c0 dd a6 30 c0
       -2.827167 -2.8565133 -3.213646 -2.7601845
000190 d8 31 29 c0 48 d2 35 c0 4e ae 2e c0 4e 73 36 c0
       -2.6436672 -2.8409595 -2.7293887 -2.8507876
0001a0 17 ca 29 c0 ce f5 2b c0 76 cd 27 c0 50 d6 37 c0
       -2.6529596 -2.6868777 -2.6219153 -2.8724556
0001b0 8d ff 31 c0 03 5b 3d c0 86 70 33 c0 bf e4 30 c0
       -2.7812226 -2.95868 -2.803743 -2.7639616
0001c0 77 db 34 c0 35 2e 2e c0 d1 b3 30 c0 44 aa 44 c0
       -2.825895 -2.7215703 -2.7609751 -3.0728922
0001d0 9d 3a 31 c0 51 33 2a c0 04 0e 31 c0 f7 78 34 c0
       -2.7692025 -2.659382 -2.7664804 -2.819883
0001e0 41 34 3b c0 8d 0d 2f c0 e8 3c 25 c0 2a 3f 35 c0
       -2.9250643 -2.735202 -2.5818424 -2.8319802
0001f0 ba 01 3d c0 4f 3f 39 c0 f7 34 33 c0 df c4 36 c0
       -2.9532304 -2.894489 -2.8001077 -2.855766
000200 4c ab 13 c0 e9 f9 29 40 02 30 1f c0 64 e2 32 c0
       -2.3073301 2.6558783 -2.4873052 -2.7950678
000210 85 de 2d c0 5a 1a 2f c0 ce ff 1c c0 f4 e7 30 c0
       -2.7167065 -2.7359834 -2.453113 -2.7641573
000220 2b b6 42 40 51 97 20 c0 4d 8c 30 c0 4b a0 43 c0
       3.0423687 -2.5092356 -2.7585633 -3.0566585
000230 38 27 31 40 66 87 30 c0 85 70 22 c0 92 d7 2d 40
       2.7680187 -2.758264 -2.5381176 2.7162824
000240 50 84 32 c0 bd 09 29 c0 33 72 37 c0 77 33 40 40
       -2.7893257 -2.6412194 -2.8663452 3.0031412
000250 fd ff 36 c0 f4 43 2b c0 bf 3b 46 c0 5d ca 3c c0
       -2.8593743 -2.6760225 -3.0973966 -2.9498513
000260 a2 84 33 c0 c5 a0 3a c0 c2 bb 35 40 15 1a 28 c0
       -2.8049703 -2.9160626 2.8395848 -2.626592
000270 75 f6 30 c0 67 1f 42 c0 07 72 2a c0 11 01 28 c0
       -2.7650425 -3.0331666 -2.6632097 -2.625065
000280 76 fb 1c c0 cd e0 23 c0 ea e4 3c c0 78 aa 41 c0
       -2.452848 -2.5605958 -2.9514718 -3.0260296
000290 e3 62 3b c0 48 5b 32 c0 80 80 35 c0 18 1f 2b c0
       -2.9279106 -2.7868214 -2.835968 -2.6737728
0002a0 22 6c 3b c0 da d4 30 c0 16 6c 42 c0 8a 96 33 c0
       -2.928475 -2.7629914 -3.037847 -2.8060632
0002b0 1d 35 22 c0 e9 fa 39 c0 d6 f2 29 c0 d7 e6 26 c0
       -2.5344918 -2.9059393 -2.6554465 -2.6078393
0002c0 d5 cb 31 40 64 a1 2f 40 fa b3 32 c0 d2 df 40 c0
       2.778066 2.7442255 -2.792235 -3.013661
0002d0 0a 29 3a c0 31 f6 3c c0 3f 21 29 c0 72 a4 34 c0
       -2.9087548 -2.9525263 -2.6426542 -2.822537
0002e0 87 ed 30 c0 16 06 3a c0 8d 73 38 c0 a1 6a 2b c0
       -2.7644975 -2.9066215 -2.8820527 -2.678383
0002f0 92 44 3b c0 1c 59 29 c0 1e b5 37 c0 e6 3b 32 c0
       -2.9260602 -2.6460638 -2.8704295 -2.784906
000300 f7 72 2f 40 d1 69 36 c0 7c 1f 37 c0 4a 20 22 c0
       2.741392 -2.8502085 -2.8612967 -2.5332208
000310 f7 41 2e c0 51 de 37 c0 0c c4 40 c0 9c a6 30 c0
       -2.7227762 -2.872944 -3.0119658 -2.760169
000320 f5 03 3e c0 27 aa 36 c0 f4 56 30 c0 34 72 34 c0
       -2.9689915 -2.8541353 -2.7553072 -2.8194704
000330 a1 2d 29 c0 ba 92 2d c0 93 d6 2e c0 f2 ab 3d c0
       -2.64341 -2.7120805 -2.7318466 -2.9636197
000340 50 41 40 c0 f0 b4 28 c0 99 04 38 c0 c8 b0 31 c0
       -3.0039864 -2.6360435 -2.8752806 -2.7764149
000350 ec 6a 30 c0 af 6f 32 c0 d1 a6 2d c0 fc d1 34 c0
       -2.756526 -2.7880666 -2.7133067 -2.8253164
000360 fb 19 30 c0 1b 23 34 c0 11 87 2d c0 a9 8c 2a c0
       -2.7515857 -2.8146427 -2.7113688 -2.6648352
000370 e3 48 36 c0 99 52 33 c0 b2 37 3a c0 f1 2d 37 c0
       -2.8481987 -2.8019164 -2.9096494 -2.862179
000380 9f 03 38 c0 56 4f 3a c0 dc 76 40 c0 c8 0f 3a c0
       -2.875221 -2.9110923 -3.0072546 -2.9072132
000390 a7 61 34 c0 51 3f 2c c0 aa 67 30 c0 f2 69 3b c0
       -2.8184602 -2.6913645 -2.7563272 -2.9283414
0003a0 ce 5b 36 c0 91 0d 20 c0 d4 09 37 c0 de d0 32 c0
       -2.8493533 -2.500828 -2.8599749 -2.7939982
0003b0 1e 2f 30 c0 a7 fa 3f c0 c2 83 34 c0 70 97 30 c0
       -2.7528758 -2.9996736 -2.8205419 -2.759243
0003c0 f4 39 41 c0 4a cb 39 c0 db 29 32 c0 a3 53 3d c0
       -3.0191622 -2.9030328 -2.7838047 -2.9582298
0003d0 1a e3 21 c0 3c f3 26 c0 9b d4 3e c0 08 9e 34 c0
       -2.5294862 -2.6085958 -2.9817264 -2.8221455
0003e0 f9 90 39 c0 45 58 3b c0 f9 aa 26 c0 b2 d3 35 c0
       -2.8994734 -2.9272625 -2.6041853 -2.8410459
0003f0 1c fb 37 c0 99 8b 38 c0 a6 7f 35 c0 d9 cd 3a c0
       -2.8747015 -2.8835204 -2.835916 -2.918814

ACT_EMBED.layers.4.weight f4 [64, 64]
000000 e5 13 21 c0 c0 53 2c c0 b4 81 3e c0 58 45 1d c0
       -2.5168393 -2.6926117 -2.9766665 -2.4573574
000010 4b ad 45 c0 94 4e 45 c0 04 eb 1d c0 d4 a9 1d c0
       -3.088702 -3.082921 -2.4674692 -2.4634905
000020 c6 02 40 c0 71 70 33 c0 61 dd ed 3f 4a 0a 34 c0
       -3.0001693 -2.8037379 1.8583184 -2.813128
000030 23 c5 3d c0 6d 89 31 c0 09 f0 28 c0 87 45 15 c0
       -2.9651573 -2.7740128 -2.6396506 -2.3323686
000040 fc a1 30 c0 03 ee 2d c0 aa 3c 2d c0 5d 88 2f c0
       -2.7598867 -2.717652 -2.7068276 -2.742698
000050 18 fd 3b 40 80 67 36 40 99 88 2d c0 98 00 22 c0
       2.9373226 2.8500671 -2.7114623 -2.5312862
000060 26 10 26 40 9e 39 36 3e 27 74 25 c0 0a 4c 2e c0
       2.5947356 0.17795417 -2.5852144 -2.723391
000070 07 d1 2f 40 b5 7c 30 c0 87 22 2a c0 d2 71 1d c0
       2.747133 -2.7576115 -2.6583574 -2.460072
000080 04 2a 14 c0 55 e0 26 c0 9a 6e 34 c0 ea 06 32 c0
       -2.3150644 -2.6074421 -2.8192506 -2.781672
000090 af 9f 36 c0 6c 5c 1e c0 cb db 33 c0 e6 9c 40 40
       -2.8534963 -2.474391 -2.81029 3.0095763
0000a0 d3 21 28 c0 f9 9f 45 40 b4 04 4c c0 bc b4 3c c0
       -2.6270645 3.087889 -3.187787 -2.9485312
0000b0 a5 22 31 c0 70 fb 3c 40 98 b9 2e c0 e4 58 46 c0
       -2.7677395 2.9528465 -2.7300777 -3.0991755
0000c0 3a 89 44 c0 3f 9b 0f c0 b2 df 28 c0 ba 83 13 c0
       -3.0708756 -2.2438505 -2.6386533 -2.304915
0000d0 69 7c 47 c0 45 98 3c 40 3c 3b 2e 40 ea c1 23 3e
       -3.1169684 2.9467938 2.7223654 0.15991941
0000e0 3b 28 3f 40 2e 49 2a c0 35 86 37 40 1b fe 2c c0
       2.9868305 -2.6607165 2.8675663 -2.7030094
0000f0 ef 0b 2a c0 b8 ce 2d c0 00 b2 29 3d 25 3b 1b 40
       -2.6569784 -2.715742 0.04142952 2.425485
000100 3c 78 26 c0 f0 ff 49 c0 c7 75 36 c0 cf db 2e c0
       -2.6010885 -3.1562462 -2.8509386 -2.732166
000110 c4 4a 38 c0 6b fe 18 c0 4f 10 3a c0 50 73 40 c0
       -2.8795633 -2.3905284 -2.9072454 -3.007038
000120 03 66 3a 40 7d b2 2f c0 87 2d f1 bd ff 3e 29 40
       2.9124763 -2.745269 -0.11776262 2.64447
000130 f1 ed 21 c0 c9 4a 34 c0 22 01 2c c0 ce 05 36 c0
       -2.5301478 -2.8170645 -2.6875691 -2.8441043
000140 48 b1 2b c0 25 af 2a c0 15 80 35 c0 b1 4a fa 3f
       -2.6826954 -2.66694 -2.8359425 1.9554044
000150 8c a6 f7 3b e8 5b 2b c0 53 ea 33 c0 31 23 2f c0
       0.0075576957 -2.6774845 -2.811177 -2.736523
000160 c0 35 1f c0 31 b8 55 3e da 52 3b c0 68 cb 36 c0
       -2.4876556 0.20871045 -2.9269319 -2.856165
000170 72 13 2c 40 8e df 35 c0 8a 47 35 c0 8f b3 39 c0
       2.6886868 -2.8417697 -2.8324914 -2.9015844
000180 3d 92 3c c0 0e 32 2f c0 b5 b7 15 c0 03 40 29 c0
       -2.9464257 -2.73743 -2.3393376 -2.644532
000190 1e ed 23 40 6d ef 45 c0 27 6c 30 c0 a5 90 0b 3e
       2.5613475 -3.0927384 -2.756601 0.13629396
0001a0 7d 06 3f c0 b3 42 cc 3c 6a b0 0c c0 9b 6b 2e c0
       -2.984771 0.024934148 -2.1982675 -2.7253177
0001b0 68 15 40 c0 15 c4 3b c0 9f 08 3a c0 26 55 2e c0
       -3.0013065 -2.933843 -2.9067762 -2.723947
0001c0 7a fd 2d c0 63 c6 3c c0 3f 4e 3d c0 37 f0 34 c0
       -2.718596 -2.9496086 -2.9579008 -2.8271616
0001d0 6e 48 24 c0 cb bf b5 bc 7f 35 6d 3d 8c 20 d9 bd
       -2.5669208 -0.02218618 0.057912346 -0.10601911
0001e0 71 4c 19 c0 f7 0f 29 c0 64 71 32 c0 f5 6f 33 c0
       -2.3952906 -2.6415994 -2.7881708 -2.8037083
0001f0 e8 a0 2c c0 d6 57 2c c0 93 a8 91 3d 9d 1f 33 c0
       -2.697321 -2.692861 0.07112231 -2.7988045
000200 77 34 39 c0 4e 8e 36 c0 ab f5 25 c0 9c a9 39 c0
       -2.8938272 -2.8524356 -2.5931194 -2.9009771
000210 95 16 28 c0 40 a6 36 c0 a1 ff 3b c0 cb d8 35 c0
       -2.6263783 -2.853897 -2.9374774 -2.841357
000220 42 ed 30 c0 bc 23 3a c0 df 70 c9 bd 68 88 71 bd
       -2.764481 -2.908431 -0.098359816 -0.058967978
000230 47 72 3c c0 33 4b 43 c0 d8 fd 3c c0 9b ff 3a c0
       -2.944475 -3.0514648 -2.9529934 -2.921851
000240 53 d1 30 c0 d0 db 2f c0 11 5c 41 c0 b3 fc 3d c0
       -2.7627761 -2.7477913 -3.0212443 -2.9685485
000250 21 36 3c c0 3c 08 38 c0 17 ec 31 c0 82 20 35 c0
       -2.9408038 -2.8755026 -2.7800348 -2.8301091
000260 fa 57 45 c0 1a 87 3b c0 6f d6 42 c0 f0 dd 30 c0
       -3.0834947 -2.930121 -3.044338 -2.763546
000270 8d b3 3e c0 29 50 46 c0 3a 3c 2f c0 b6 f6 2b c0
       -2.979709 -3.0986426 -2.738051 -2.686933
000280 a2 7c 3d c0 4a fb 36 c0 e1 1c 25 c0 22 11 46 c0
       -2.960732 -2.8590875 -2.5798876 -3.0947957
000290 58 d6 32 c0 37 ef 38 c0 ef ec 42 c0 04 6f 32 c0
       -2.7943325 -2.8896005 -3.0457113 -2.7880259
0002a0 5f b0 39 c0 62 8c 33 c0 41 60 3b c0 72 2d 3f c0
       -2.9013898 -2.8054433 -2.9277499 -2.9871488
0002b0 cf 11 33 c0 fa 46 3d c0 52 71 33 c0 a3 fb 29 c0
       -2.797962 -2.957457 -2.8037915 -2.6559837
0002c0 cc 1f 35 c0 70 73 32 c0 6f 00 34 c0 e8 8f 38 c0
       -2.8300657 -2.7882957 -2.8125265 -2.8837833
0002d0 52 58 42 c0 8e 05 30 c0 42 ac 33 c0 a4 50 11 c0
       -3.0366406 -2.750339 -2.8073888 -2.270547
0002e0 15 6e 39 c0 d1 a3 3e c0 d8 0f 35 c0 09 ea 34 c0
       -2.8973439 -2.9787486 -2.829092 -2.8267844
0002f0 56 7f 30 c0 a7 68 38 c0 56 93 38 40 7a 6f 33 c0
       -2.757772 -2.8813875 2.8839927 -2.803679
000300 8a 44 69 bc d4 5f fa bd 53 6d 3e c0 82 e2 8c bd
       -0.014237532 -0.12225309 -2.9754226 -0.068791404
000310 43 a9 63 bc 0f 90 35 c0 23 08 44 c0 68 3c 39 c0
       -0.013895336 -2.8369176 -3.0629966 -2.894312
000320 9b 0f 3d c0 bc 0c 3c c0 05 6a 42 3e dc d7 c4 bc
       -2.9540775 -2.9382772 0.18985756 -0.024028711
000330 c6 1b 50 be 87 73 3e c0 e1 ca 42 c0 8b 8b 3e c0
       -0.20323095 -2.9758012 -3.0436327 -2.977267
000340 2b ea 2c c0 da c3 23 c0 bd 0b 30 c0 3f ab 3a c0
       -2.7017925 -2.5588288 -2.7507164 -2.916702
000350 db 25 0e be dc 8b 53 3e a8 4d 36 c0 25 be 35 c0
       -0.13881628 0.20658821 -2.8484898 -2.8397305
000360 cc 59 37 c0 51 38 75 be 6d 6a 3a c0 2f ac 32 c0
       -2.8648558 -0.23947264 -2.9127457 -2.7917593
000370 fe 7c 45 bd b2 43 c2 bd 9d 8b 37 c0 8e 30 31 c0
       -0.048214905 -0.09485568 -2.8678963 -2.7685885
000380 e3 7b 31 c0 f6 42 7e be b9 74 3a c0 b4 5b 3a c0
       -2.7731864 -0.24830231 -2.9133742 -2.911847
000390 39 31 39 c0 bf a8 40 c0 a6 c1 2f c0 7a 97 78 3d
       -2.8936293 -3.0102994 -2.7461944 0.060691334
0003a0 3c e2 31 c0 c9 9b 83 bd 88 ad 3c c0 22 ad 2c c0
       -2.7794333 -0.06426198 -2.9480915 -2.6980672
0003b0 a3 c7 80 be ab 7f 3f c0 11 87 3a c0 4e 91 9f 3e
       -0.2515231 -2.9921672 -2.9144938 0.31165546
0003c0 c0 f7 38 c0 d6 f0 40 c0 7a 60 39 c0 a6 74 27 c0
       -2.8901215 -3.0146995 -2.8965135 -2.6164947
0003d0 48 bf 37 c0 61 85 34 c0 d3 ec 3a c0 1f cd d1 3d
       -2.87105 -2.8206408 -2.9207046 0.10244202
0003e0 45 4a 2d c0 35 92 17 be 1a d2 6b 3d b2 46 c5 bd
       -2.707658 -0.14801867 0.057573415 -0.09632625
0003f0 1f 2b 25 c0 03 1d 32 c0 ca fc a0 3d b1 fd 28 c0
       -2.580757 -2.7830207 0.07860716 -2.640484

FK_LAYER.joints.0.p_offset f4 [3, 1]
000000 c8 80 94 c0 fb ff be c0 4d e7 6d 3f
       -4.6407204 -5.9687476 0.9293106

FK_LAYER.joints.0.rpy_offset f4 [3]
000000 d4 49 a8 bb 68 f5 62 3c 6c ba c8 bb
       -0.005135754 0.013852455 -0.006125739

FK_LAYER.joints.1.p_offset f4 [3, 1]
000000 21 67 93 c0 7e f5 bf c0 eb 44 5e 3f
       -4.606339 -5.9987173 0.8682391

FK_LAYER.joints.1.rpy_offset f4 [3]
000000 a1 72 55 bc 5b b3 b3 bb 69 ca 5c bc
       -0.013027818 -0.0054840273 -0.013475993

FK_LAYER.joints.1.axis f4 [3, 1]
000000 1a bd 0e bd 26 7e 9f be fb 2c 9c 3e
       -0.03484831 -0.3115093 0.30503067

FK_LAYER.joints.1.q_layer.0.weight f4 [1, 64]
000000 1c a5 19 c0 24 3f 3d c0 3a b5 35 40 3e e3 2f 40
       -2.4007025 -2.9569788 2.8391862 2.7482448
000010 12 aa f7 3f bf b2 09 c0 e9 e3 48 40 d6 38 7a 3f
       1.9348776 -2.1515348 3.1389105 0.97742975
000020 0b b6 2b c0 78 93 3d 40 11 a7 30 c0 a6 12 30 40
       -2.682986 2.9621258 -2.760197 2.7511382
000030 19 c6 21 c0 21 29 34 40 f9 6a 45 40 56 a9 f8 3d
       -2.527716 2.8150103 3.084654 0.12141673
000040 4a 4b b6 3f 08 39 21 c0 ee dd 0a c0 73 02 1c c0
       1.4241726 -2.519106 -2.1697955 -2.4376495
000050 46 0f e6 bf a8 01 3a 40 25 b3 e8 bf 1f b5 27 c0
       -1.7973411 2.906351 -1.817967 -2.6204298
000060 84 2b 2e c0 92 10 43 c0 5e d7 e9 bf e8 97 27 40
       -2.721406 -3.0478864 -1.826885 2.6186466
000070 72 e1 33 c0 01 41 2c c0 48 2c 26 c0 fc 15 41 40
       -2.810635 -2.6914675 -2.5964527 3.0169668
000080 56 e8 0d bd 66 ca 30 c0 b0 21 39 40 ba e6 01 c0
       -0.0346454 -2.7623534 2.8926811 -2.0297074
000090 df 5d 14 c0 50 0f 17 40 8b 20 39 c0 55 0e 34 c0
       -2.3182294 2.3603096 -2.8926113 -2.8133748
0000a0 6f 22 2e c0 d8 d7 2d c0 27 77 c2 3f c3 68 2c 40
       -2.7208517 -2.716299 1.5192612 2.6938941
0000b0 4a 56 42 3f 2e 7e 2d c0 e7 19 1a 40 c0 d8 33 c0
       0.75912917 -2.7108264 2.407831 -2.8101044
0000c0 de 98 e8 3f ab eb 2a 40 e2 cc 19 c0 2a df 35 40
       1.8171651 2.670634 -2.40313 2.8417459
0000d0 01 3f ed bf 9d c2 7f 3f 71 8a 2c c0 20 c4 19 c0
       -1.8534852 0.9990633 -2.6959498 -2.4025955
0000e0 7f 01 8a 3f 68 67 2a 40 7f 92 31 c0 58 fd e3 3f
       1.0781707 2.6625614 -2.7745664 1.7811689
0000f0 9c b5 0f c0 35 f6 0a 40 6a 0d 31 40 af b5 1e c0
       -2.2454596 2.1712773 2.7664437 -2.479839

FK_LAYER.joints.2.p_offset f4 [3, 1]
000000 f3 e5 a3 c0 78 9f d3 c0 81 f8 81 be
       -5.12182 -6.6132164 -0.25384906

FK_LAYER.joints.2.rpy_offset f4 [3]
000000 ae 85 45 bc 9b 9a 99 3c 64 1f fc 3b
       -0.0120557975 0.01875048 0.0076941717

FK_LAYER.joints.2.axis f4 [3, 1]
000000 e1 90 7f bf a8 80 00 bf 7c 81 3a 40
       -0.9983044 -0.50196314 2.914153

FK_LAYER.joints.2.q_layer.0.weight f4 [1, 64]
000000 aa 63 22 c0 a4 08 28 40 ed 79 33 c0 1a 33 d4 bd
       -2.537333 2.6255274 -2.8043168 -0.10361309
000010 bd cb 33 c0 19 0a 1b 40 bc 60 32 40 c6 8b 33 40
       -2.8093102 2.4224913 2.7871542 2.805406
000020 9d fe 3e 40 1a d1 25 c0 0e af 28 c0 38 04 36 40
       2.9842904 -2.5908875 -2.6356845 2.8440075
000030 25 1b 1a 40 80 af 17 40 ac fc 38 c0 e1 93 27 40
       2.4079068 2.3700867 -2.8904219 2.6184008
000040 d5 3e 37 40 28 f8 3e 40 4f 33 36 c0 fb 53 22 40
       2.86321 2.9838963 -2.8468816 2.5363758
000050 8f cd 14 c0 c1 d6 a4 bf 02 04 42 c0 8a f4 1e c0
       -2.3250463 -1.2878038 -3.0314946 -2.4836755
000060 6d 0b e1 bf d0 34 4b c0 d5 24 37 c0 0c 11 08 40
       -1.7581612 -3.1750984 -2.861623 2.1260405
000070 4b ff 3f c0 72 fc 33 c0 32 28 41 c0 12 af 2c c0
       -2.9999568 -2.812283 -3.0180783 -2.6981854
000080 e3 24 2f 40 71 e6 2f c0 7d c9 9d bf 6b 6a 3b 40
       2.7366264 -2.74844 -1.2327114 2.9283702
000090 a3 58 2e 40 6d 19 33 40 d5 88 22 40 a0 15 2a c0
       2.72416 2.7984269 2.5396016 -2.65757
0000a0 15 5d 28 40 59 46 32 c0 89 09 2a 40 b0 e5 32 c0
       2.6306813 -2.7855437 2.656832 -2.795269
0000b0 b9 02 da bf 11 b9 31 40 c2 f4 32 c0 73 52 34 c0
       -1.7032081 2.7769206 -2.7961888 -2.8175323
0000c0 6e d6 24 40 c2 30 44 3d 93 7b 23 c0 19 05 ff 3f
       2.5755877 0.04789806 -2.5544174 1.9923431
0000d0 ae 28 19 c0 b6 c1 33 40 d8 e6 3d c0 25 84 24 c0
       -2.393108 2.8086982 -2.9672146 -2.5705655
0000e0 0d 56 32 40 4b 5d 25 c0 35 dd 2c c0 91 55 34 40
       2.7865021 -2.5838192 -2.7010014 2.8177226
0000f0 82 3f 36 c0 f6 ca 25 40 39 21 2d c0 19 f9 a6 3f
       -2.8476262 2.5905128 -2.7051528 1.3044769

FK_LAYER.joints.3.p_offset f4 [3, 1]
000000 b1 8b a5 c0 9e d4 d1 c0 0c f9 02 bf
       -5.173302 -6.5572042 -0.51161265

FK_LAYER.joints.3.rpy_offset f4 [3]
000000 c4 ff 39 3c d7 bc 86 bb e0 8a bb b9
       0.011352483 -0.004111867 -0.0003577089

FK_LAYER.joints.3.axis f4 [3, 1]
000000 82 04 a1 3d b3 63 d6 3d 48 a1 40 3d
       0.07862188 0.10468235 0.04702881

FK_LAYER.joints.3.q_layer.0.weight f4 [1, 64]
000000 7f 57 2c c0 29 bf 2e 40 19 0f 3c 40 f9 79 30 40
       -2.6928403 2.7304175 2.9384215 2.7574446
000010 2f e3 f7 3f 5b e6 28 40 02 c1 22 40 9b 1e 26 40
       1.9366206 2.6390598 2.5430303 2.595618
000020 8b 04 11 40 6c 5e 31 40 01 6b 35 c0 3a aa 14 c0
       2.2659023 2.771388 -2.834656 -2.3228898
000030 37 80 40 c0 f7 f4 47 40 c1 32 31 40 02 83 24 bf
       -3.0078256 3.1243265 2.7687228 -0.642624
000040 5f 14 f6 3f f5 53 18 c0 8d 45 35 c0 d3 75 20 c0
       1.9224967 -2.3801243 -2.83237 -2.5071914
000050 6f a1 dd be 77 b7 2f 40 2e 9e 3b 40 65 a2 2d c0
       -0.43287227 2.7455728 2.9315295 -2.7130368
000060 4a f8 35 c0 a2 f0 21 c0 21 b2 e7 bf ae f9 2f 40
       -2.8432794 -2.530312 -1.8101236 2.7496142
000070 13 41 2c c0 08 87 2f c0 51 a6 3c c0 41 4a 2d 40
       -2.6914718 -2.7426167 -2.9476511 2.707657
000080 64 82 63 3e 61 38 3f c0 10 2a 3b 40 90 41 2e 40
       0.22217709 -2.987816 2.9244423 2.7227516
000090 80 46 2f 40 6e d6 0c 40 00 33 35 c0 95 92 2d c0
       2.738678 2.2005877 -2.8312378 -2.7120717
0000a0 71 ed 1f 40 9a e3 1b c0 87 9e 2d c0 bf ab 37 40
       2.4988673 -2.4357667 -2.7128007 2.8698575
0000b0 bf f2 a2 be d3 77 1e c0 f7 99 49 40 70 84 21 c0
       -0.31825826 -2.4760635 3.1500223 -2.5237083
0000c0 82 9a fe 3f 09 31 15 40 a3 7b 25 c0 0b ea 3d 40
       1.9890902 2.3311179 -2.5856712 2.9674098
0000d0 d4 0e 35 bf 24 53 18 40 d7 a0 33 c0 26 68 2f c0
       -0.7072575 2.3800745 -2.806692 -2.7407317
0000e0 9b 8a 1a 40 a2 d0 34 40 23 3c 37 c0 f1 79 26 40
       2.4147098 2.825234 -2.8630455 2.6011927
0000f0 5d 74 1d c0 16 8c 1c 40 6d b8 2d 40 2e c9 17 40
       -2.4602273 2.4460502 2.7143815 2.371654

FK_LAYER.joints.4.p_offset f4 [3, 1]
000000 7f 55 a6 c0 6d 51 d8 c0 81 21 31 bf
       -5.1979365 -6.7599397 -0.6919175

FK_LAYER.joints.4.rpy_offset f4 [3]
000000 ed b3 ce bb 8a 35 9d 3a 14 1c ef 3a
       -0.00630807 0.0011994105 0.0018242621

FK_LAYER.joints.4.axis f4 [3, 1]
000000 0d 19 e0 be c4 fe 0d be 0f af 09 3f
       -0.43769112 -0.13866717 0.53782743

FK_LAYER.joints.4.q_layer.0.weight f4 [1, 64]
000000 08 27 2a c0 ce c9 2a 40 2a ea 2c 40 41 74 0c 40
       -2.6586323 2.6685672 2.7017922 2.1945956
000010 c4 9e f4 bf 82 dc 2f 40 93 2c 3f 40 6e 66 ce 3f
       -1.9110951 2.7478337 2.9870956 1.6125009
000020 04 5f 26 40 69 72 2d c0 c5 ff 3f c0 80 df 0c c0
       2.5995493 -2.710108 -2.999986 -2.2011414
000030 07 37 20 c0 d6 06 2f 40 4d 23 37 40 48 1e ce 3f
       -2.5033586 2.7347922 2.8615296 1.6102991
000040 79 ac de 3f b8 67 33 c0 ff 1e 46 c0 de 75 28 c0
       1.7396384 -2.8032055 -3.0956419 -2.632194
000050 26 52 83 3f 39 20 34 40 1c 83 d4 bf 8b 3a 32 c0
       1.0259445 2.8144667 -1.6602511 -2.7848232
000060 f7 f7 22 c0 f0 7e 33 c0 89 e3 ea 3f 7b ca 2a 40
       -2.5463846 -2.8046227 1.8350688 2.6686084
000070 4a c7 1c c0 7a 13 26 c0 0f 94 26 c0 55 3e 35 40
       -2.4496636 -2.5949388 -2.6027868 2.8319294
000080 9f 77 61 3d 82 b8 2d c0 78 d2 3d 40 70 b8 26 40
       0.05504572 -2.7143865 2.965971 2.6050072
000090 0e 1a 3f 40 70 33 36 40 c4 86 2e c0 9f 73 4d c0
       2.9859653 2.8468895 -2.7269754 -3.210182
0000a0 f8 f5 14 40 89 cb 22 c0 a4 6a 33 c0 23 15 48 40
       2.3275127 -2.5436728 -2.8033838 3.12629
0000b0 c8 f0 0e bf 1e f5 36 c0 36 f5 26 c0 16 76 44 c0
       -0.55836153 -2.8587108 -2.6087165 -3.0697074
0000c0 ff 03 32 40 0d bd 02 40 36 3d 34 c0 d1 81 45 40
       2.781494 2.0427887 -2.816236 3.0860484
0000d0 b5 d8 c1 3f b3 af 03 40 8a 7d 2b c0 3c 35 2e c0
       1.5144259 2.0575988 -2.6795373 -2.7219992
0000e0 f8 16 c4 bf d0 de 34 40 fd d3 1c c0 fe 34 15 40
       -1.531951 2.8260994 -2.4504387 2.3313594
0000f0 2d fa 1f c0 f0 96 d9 bf 4f ef 35 40 9a 50 2d 40
       -2.4996445 -1.6999187 2.8427312 2.7080445

FK_LAYER.joints.5.p_offset f4 [3, 1]
000000 d7 1e a0 c0 64 37 d9 c0 62 71 72 bf
       -5.0037646 -6.7880116 -0.9470426

FK_LAYER.joints.5.rpy_offset f4 [3]
000000 78 91 0a bc 2c 37 99 bb 40 92 04 3c
       -0.008457534 -0.0046757665 0.008091509

FK_LAYER.joints.5.axis f4 [3, 1]
000000 ee 8b e4 bf 66 8a 98 bf 38 75 37 40
       -1.7855203 -1.1917236 2.8665295

FK_LAYER.joints.5.q_layer.0.weight f4 [1, 64]
000000 4c c4 2c c0 89 db 2d 40 43 6c 30 c0 21 15 57 3d
       -2.699481 2.7165244 -2.7566078 0.052510384
000010 c8 d5 36 c0 9a d4 06 40 c0 91 30 c0 32 3e 2f 40
       -2.8567982 2.1067262 -2.7588959 2.738171
000020 0c 89 4a 40 4a 19 3d c0 83 64 22 40 69 40 47 c0
       3.1646147 -2.9546685 2.5373847 -3.1133063
000030 7d c4 31 c0 82 55 2a c0 c3 28 3a c0 aa 8a 48 40
       -2.7776177 -2.661469 -2.908738 3.1334634
000040 a2 90 3c 40 80 57 20 40 27 23 38 c0 fb 10 39 c0
       2.9463277 2.5053406 -2.8771455 -2.8916614
000050 5b f3 29 c0 16 18 14 c0 38 cb 36 c0 a7 14 2e c0
       -2.6554782 -2.31397 -2.8561535 -2.7200105
000060 78 0a 2b c0 db ee 19 c0 fa 11 36 c0 ad 6a 09 c0
       -2.672514 -2.4052036 -2.8448472 -2.147136
000070 bf 92 38 c0 81 20 2c c0 e2 34 43 c0 0d df 45 c0
       -2.8839567 -2.689484 -3.0501027 -3.091739
000080 1d b7 2e 40 cf 67 35 c0 91 98 1e c0 bf 61 1f 40
       2.7299263 -2.834461 -2.478062 2.490341
000090 ab bd 3d 40 c6 c5 31 40 83 2b 33 c0 3b 2c 22 c0
       2.9647014 2.7776961 -2.7995307 -2.5339496
0000a0 ae e9 38 40 21 19 30 c0 22 0c 22 c0 ac 9a 2d c0
       2.8892627 -2.7515337 -2.5319905 -2.7125654
0000b0 62 49 59 bf fe de 28 40 ab bb 35 c0 e6 bb 35 40
       -0.848776 2.6386104 -2.8395793 2.8395934
0000c0 6b 78 2e 40 7a 40 78 3d db 47 3c c0 15 c3 3f c0
       2.7260997 0.060608365 -2.9418857 -2.9962819
0000d0 99 65 3d c0 2c 76 39 40 af 36 34 c0 a7 4d 40 c0
       -2.959326 2.8978376 -2.8158376 -3.0047395
0000e0 a8 ba 36 40 64 56 35 c0 ee 49 27 c0 b8 f4 23 40
       2.8551426 -2.8333979 -2.6138873 2.5618114
0000f0 c2 10 38 c0 87 0d 38 40 5d 77 38 c0 22 e3 37 bd
       -2.8760228 2.8758256 -2.8822854 -0.044894345

FK_LAYER.joints.6.p_offset f4 [3, 1]
000000 6a f4 a1 c0 94 a2 d7 c0 5c df 75 bf
       -5.0610857 -6.738596 -0.96043944

FK_LAYER.joints.6.rpy_offset f4 [3]
000000 15 54 8d 3b b8 4c d8 bb d0 53 f7 3c
       0.004313002 -0.0066009425 0.030191332

FK_LAYER.joints.6.axis f4 [3, 1]
000000 f7 6f a3 be 4a ac 5b 3e 8f 21 5c 3f
       -0.3192136 0.21452442 0.85988706

FK_LAYER.joints.6.q_layer.0.weight f4 [1, 64]
000000 e1 af 23 40 f8 bd 2a c0 1a 3a 38 c0 57 df 25 c0
       2.5576098 -2.6678448 -2.8785462 -2.5917566
000010 98 c4 b2 3f a0 a1 17 c0 6d db 32 c0 f3 ce 17 c0
       1.3966246 -2.3692398 -2.7946427 -2.3720062
000020 62 44 13 c0 f5 21 29 40 c0 e3 37 40 f2 8a 24 c0
       -2.3010488 2.6426976 2.8732758 -2.5709805
000030 72 31 36 40 e8 95 25 40 ef 36 41 c0 ec d0 a9 3d
       2.846768 2.5872746 -3.0189779 0.08291802
000040 4a 7a 15 c0 a9 33 35 c0 46 3b 23 40 dc c3 3a c0
       -2.335589 -2.831278 2.5504928 -2.9182043
000050 c2 38 e7 3f 02 55 31 c0 25 f1 36 c0 35 ba 23 c0
       1.8064196 -2.7708135 -2.8584683 -2.5582402
000060 51 18 36 40 c7 42 2c 40 66 e2 c6 3f 29 fc 45 c0
       2.8452342 2.6915758 1.5537841 -3.0935156
000070 96 d6 22 c0 ea 93 4a 40 53 a0 30 40 6d e0 3b c0
       -2.5443473 3.165278 2.7597854 -2.9355729
000080 4c cb c2 3e 83 0a 2a 40 66 6c 31 c0 87 e7 2b c0
       0.38045728 2.6568916 -2.772241 -2.6860063
000090 23 ca 21 c0 86 b6 1e c0 07 bd 31 c0 a1 56 2a 40
       -2.5279624 -2.4798903 -2.7771623 2.6615374
0000a0 b7 da 23 c0 5a f1 1c c0 6e e2 27 40 13 a0 2f c0
       -2.5602243 -2.452231 2.6231952 -2.7441452
0000b0 a2 87 08 bf cd d2 32 40 ea 2f 28 c0 ab 35 36 40
       -0.5333196 2.7941163 -2.6279244 2.8470256
0000c0 e9 7b 27 c0 fe 9e f3 bf 1e 8a 33 c0 a4 f3 39 c0
       -2.6169379 -1.9032896 -2.805305 -2.9054956
0000d0 45 3a 3f 3f eb 62 19 c0 19 b1 32 40 50 bd 1a c0
       0.7469829 -2.3966625 2.7920592 -2.4178047
0000e0 59 e9 0d c0 71 23 33 c0 54 0d 0f c0 70 3a 2c c0
       -2.2173674 -2.7990382 -2.2351885 -2.6910667
0000f0 93 9f 14 40 b3 a2 0c c0 0e a9 28 c0 28 07 29 c0
       2.3222396 -2.1974304 -2.6353183 -2.6410618

FK_LAYER.joints.7.p_offset f4 [3, 1]
000000 54 17 09 c0 63 8d 21 c0 8f d3 28 42
       -2.1420488 -2.5242546 42.2066

FK_LAYER.joints.7.rpy_offset f4 [3]
000000 69 e0 47 ba 95 b2 61 bc 40 d9 3e bc
       -0.0007624687 -0.013775487 -0.011648476

FK_LAYER.joints.8.p_offset f4 [3, 1]
000000 c2 75 c5 bf f0 5f 23 c0 3b bc 28 42
       -1.5426562 -2.5527306 42.18382

FK_LAYER.joints.8.rpy_offset f4 [3]
000000 38 27 a3 ba b6 35 e9 bb 97 a1 bf bb
       -0.0012447601 -0.0071169985 -0.0058481204

FK_LAYER.joints.8.axis f4 [3, 1]
000000 b1 ec 10 3d 35 ba 35 3e 16 50 72 3f
       0.035381977 0.17746814 0.9465345

FK_LAYER.joints.8.q_layer.0.weight f4 [1, 64]
000000 67 75 1d 40 15 62 21 40 9d 96 40 40 ac 33 20 40
       2.4602907 2.5216115 3.0091927 2.5031538
000010 0c 8c 03 c0 38 37 98 bf da df 32 40 9f 94 aa 3f
       -2.0554228 -1.1891851 2.7949128 1.3326606
000020 c0 b0 21 c0 2d 15 29 c0 86 9f 2e c0 bf e9 1b c0
       -2.526413 -2.6419175 -2.7284865 -2.4361417
000030 4c 6e 20 c0 5c 06 47 c0 96 b0 4e 40 40 f1 5a 3e
       -2.506732 -3.1097631 3.229528 0.21381092
000040 8a d1 0a c0 ac 83 c7 bf ad 63 43 c0 45 88 24 c0
       -2.1690392 -1.5587058 -3.0529587 -2.5708172
000050 42 c4 85 bf 55 25 32 40 e2 96 e3 bf 02 47 31 c0
       -1.0450518 2.7835286 -1.7780421 -2.769959
000060 d1 db 49 c0 5b 5f 23 c0 34 87 e3 3f 40 91 22 40
       -3.1540415 -2.552695 1.7775636 2.5401154
000070 f6 8c 2f c0 26 a9 32 c0 8b 68 1c c0 f6 b9 22 40
       -2.7429786 -2.791574 -2.4438808 2.5426002
000080 36 19 93 3e 8e a4 2a c0 a5 d8 26 40 19 4f 04 c0
       0.28730172 -2.6662936 2.606973 -2.0673277
000090 a5 a6 1c 40 5a 93 2f c0 1d 6f 29 c0 42 c1 2c c0
       2.4476712 -2.7433686 -2.6474068 -2.6992955
0000a0 79 0f 1e 40 51 74 18 40 c4 d6 24 c0 87 b6 40 40
       2.4696944 2.3820994 -2.5756083 3.0111406
0000b0 10 1b c0 3d 66 e8 3f c0 f3 67 37 c0 66 1d 43 c0
       0.09380162 -2.9985595 -2.8657196 -3.0486693
0000c0 27 da 28 c0 14 78 01 40 2c e8 14 40 7d 1f 3d 40
       -2.638315 2.022954 2.3266706 2.955047
0000d0 f6 f9 f2 bf 68 09 18 40 1c 72 31 c0 ca 2a 38 c0
       -1.8982532 2.375574 -2.7725897 -2.8776116
0000e0 81 4b 95 3f 70 20 31 40 f0 c1 49 c0 d9 60 0a 40
       1.1663667 2.7676048 -3.152462 2.162161
0000f0 33 ff 2c 40 0a f5 10 c0 e8 97 38 40 28 29 2a 40
       2.7030761 -2.264956 2.8842716 2.658762

FK_LAYER.joints.9.p_offset f4 [3, 1]
000000 cb b0 9e bf 0a 10 20 c0 2c df 27 42
       -1.2397703 -2.500979 41.96794

FK_LAYER.joints.9.rpy_offset f4 [3]
000000 3e 74 9a bc b5 22 43 bc 2e a0 7d 39
       -0.018854257 -0.01191013 0.00024187632

FK_LAYER.joints.9.axis f4 [3, 1]
000000 8b 38 39 3e f5 cc e7 bf c4 12 38 40
       0.18087976 -1.8109423 2.8761454

FK_LAYER.joints.9.q_layer.0.weight f4 [1, 64]
000000 5f 65 3f c0 2a 34 29 40 97 2d 2a c0 e2 f4 a6 bd
       -2.9905622 2.6438088 -2.6590326 -0.081521764
000010 10 9d 3b c0 f5 bf 0c 40 d3 a9 40 c0 82 29 38 40
       -2.9314613 2.1992161 -3.0103652 2.8775334
000020 95 7f 2f 40 63 35 30 c0 42 23 3a 40 07 0e 2f c0
       2.742162 -2.7532585 2.908402 -2.7352312
000030 2c 48 1f 40 ac a6 2c c0 37 c4 2a c0 93 2a 41 40
       2.48878 -2.6976728 -2.668226 3.0182235
000040 55 af 42 40 c0 bd 27 40 05 fd 34 c0 0d 02 46 c0
       3.0419514 2.6209564 -2.827943 -3.0938752
000050 0e 2d 2e c0 0e ca 1a c0 ca 7d f6 3f ff dc 27 c0
       -2.7215 -2.4185824 1.9257138 -2.6228635
000060 92 6a 34 40 fd de 39 40 3c 51 2b c0 b3 7f 03 c0
       2.8190045 2.9042351 -2.6768332 -2.0546691
000070 13 62 24 c0 ca fe 35 40 23 00 26 40 92 e9 31 c0
       -2.568486 2.843676 2.5937583 -2.779881
000080 1c b7 23 40 86 96 34 40 81 de bd bf 12 7b 10 40
       2.558051 2.8216872 -1.4833528 2.2575116
000090 c8 48 2d 40 08 23 34 40 47 b0 20 40 64 e4 2b 40
       2.7075672 2.8146381 2.510759 2.6858149
0000a0 11 49 27 40 31 ab 2a c0 4c d6 32 c0 db e8 35 c0
       2.6138346 -2.6666987 -2.7943296 -2.8423374
0000b0 de 35 31 c0 76 89 26 c0 2c f1 37 c0 f0 fc 35 40
       -2.7689128 -2.60214 -2.874095 2.843563
0000c0 73 02 43 40 c7 a1 7b 3e aa 20 35 c0 a6 c5 e4 3f
       3.0470245 0.24573432 -2.8301187 1.7872818
0000d0 8a 4c 0a 40 c7 84 34 40 5d e7 1e 40 61 07 31 c0
       2.1609216 2.820604 2.4828713 -2.7660754
0000e0 a7 4b 46 40 e9 41 28 c0 61 24 31 c0 c1 44 37 40
       3.0983675 -2.6290228 -2.7678454 2.8635714
0000f0 f7 57 32 c0 d3 c5 3d 40 00 d0 38 c0 fa 96 f9 3f
       -2.786619 2.9651992 -2.8876953 1.9499199

FK_LAYER.joints.10.p_offset f4 [3, 1]
000000 d1 6d 3c bf 25 51 53 c0 ff aa 27 42
       -0.73605067 -3.3018277 41.91699

FK_LAYER.joints.10.rpy_offset f4 [3]
000000 0e f7 a4 b7 c6 08 91 bc 96 33 61 3a
       -1.9665367e-05 -0.017704379 0.0008590756

FK_LAYER.joints.10.axis f4 [3, 1]
000000 ab a8 d1 3e 70 e4 ac be e8 77 3b 3f
       0.40948996 -0.33768034 0.7322984

FK_LAYER.joints.10.q_layer.0.weight f4 [1, 64]
000000 84 a3 05 40 6c 16 27 c0 0c c7 32 c0 e5 3e 02 c0
       2.0881052 -2.6107435 -2.7933989 -2.0350888
000010 f1 21 07 40 85 57 03 40 b1 98 44 c0 c3 88 04 c0
       2.1114466 2.0522168 -3.0718195 -2.0708473
000020 30 a0 19 c0 8f 73 22 40 99 0b 25 40 60 0e 26 c0
       -2.400402 2.5383031 2.5788329 -2.5946274
000030 ad 02 2a 40 d4 3a 31 40 6c 59 3f c0 53 be 3f 3f
       2.6564133 2.7692156 -2.9898329 0.74899787
000040 b5 cb 0c c0 0e 0a 26 c0 49 d9 32 c0 bc 19 30 c0
       -2.1999333 -2.5943637 -2.794512 -2.7515707
000050 13 91 92 bf 83 2a 3e c0 2f 29 4c c0 e5 06 3f c0
       -1.1450523 -2.9713447 -3.1900136 -2.9847958
000060 7b 47 2d 40 b5 78 31 40 ef e9 ea 3f 59 d5 26 c0
       2.7074878 2.7729924 1.8352641 -2.6067717
000070 10 e3 2f c0 b7 2e 34 40 7e 49 2b 40 fb fd 3e c0
       -2.7482338 2.8153512 2.6763606 -2.9842517
000080 e6 30 a6 be b6 bf 26 40 cd 46 2b c0 ac f9 19 c0
       -0.32459182 2.605451 -2.6761963 -2.4058638
000090 04 2c 2a c0 18 9a 28 40 9b a6 22 c0 47 dd 35 40
       -2.6589365 2.6344051 -2.5414188 2.8416307
0000a0 8a 44 00 c0 5e 6f 1c c0 5e bf 23 40 bc cc 38 c0
       -2.0041833 -2.4442973 2.5585551 -2.887496
0000b0 be 4f ea 3e cb 65 39 40 8c cf 34 40 47 f2 39 40
       0.45763963 2.896838 2.8251677 2.9054124
0000c0 17 90 12 c0 39 e0 c9 bf 22 7c 36 c0 8d 4a da 3f
       -2.2900445 -1.5771552 -2.8513265 1.7054001
0000d0 f3 27 64 3f f7 be 0c c0 d8 31 39 40 00 7a 26 c0
       0.8912346 -2.1991556 2.8936672 -2.6011963
0000e0 30 ea 0b c0 ac e8 25 c0 57 34 16 c0 0d e3 23 c0
       -2.1861687 -2.5923262 -2.3469446 -2.560733
0000f0 9e d2 0d 40 24 f8 11 c0 09 67 42 c0 47 51 03 40
       2.21598 -2.2807703 -3.0375388 2.0518358

FK_LAYER.joints.11.p_offset f4 [3, 1]
000000 3b 3b 99 3c 4b 5c 56 c0 c7 bf 26 42
       0.018705001 -3.349383 41.687283

FK_LAYER.joints.11.rpy_offset f4 [3]
000000 86 ed 3e 3c 6b 17 18 3c 4f 47 c7 bc
       0.01165331 0.009282927 -0.024325995

FK_LAYER.joints.11.axis f4 [3, 1]
000000 58 ea 0c 3f b7 20 8e be 18 98 45 3f
       0.5504508 -0.27759334 0.771852

FK_LAYER.joints.11.q_layer.0.weight f4 [1, 64]
000000 b9 6b 26 40 61 a7 33 c0 ab b0 3b c0 2b 5b fd bf
       2.6003249 -2.807091 -2.932658 -1.9793447
000010 7e 6d f6 bf 98 6e 26 c0 78 9b 21 40 c2 f1 ef 3f
       -1.9252164 -2.6005 2.525114 1.8745654
000020 db bc 0d 40 8a f6 36 c0 75 83 31 c0 36 0a 15 c0
       2.2146518 -2.8587976 -2.7736485 -2.3287482
000030 b7 8c 26 40 b1 2d 45 c0 c2 03 2c c0 fd 6c 67 bf
       2.6023386 -3.0809138 -2.6877294 -0.9040068
000040 d6 96 d6 bf 43 d8 2b c0 90 09 15 40 0f fa 2a c0
       -1.6764781 -2.6850746 2.3287086 -2.6715124
000050 ee 28 dc 3f 9d 88 49 c0 17 ff fb 3f b6 7e 25 c0
       1.7199991 -3.1489632 1.9687222 -2.5858588
000060 eb 38 2f c0 da 8b 33 c0 94 37 cf 3f d0 61 3a 40
       -2.737849 -2.8054109 1.6188836 2.91222
000070 49 51 22 c0 8b bb 3b c0 e2 9f 25 40 0c 5b 36 c0
       -2.5362113 -2.9333217 2.5878835 -2.849307
000080 9a d8 b8 be 16 14 38 c0 72 98 37 c0 84 97 20 40
       -0.36102754 -2.876226 -2.8686795 2.5092478
000090 3e 63 2a 40 bb 99 20 c0 e6 58 28 c0 de e0 42 c0
       2.6623073 -2.509383 -2.630426 -3.0449748
0000a0 7e 4a 18 40 c8 ca 1a 40 ef bc 28 c0 ba 8c 3e c0
       2.3795466 2.4186268 -2.6365316 -2.9773393
0000b0 84 6d b1 3e ad 9a 2a 40 33 b4 47 c0 1a 12 2b c0
       0.34653866 2.6656907 -3.1203735 -2.6729798
0000c0 db b6 25 40 d3 73 b8 bf a9 34 34 40 06 84 3e c0
       2.5892856 -1.4410347 2.8157141 -2.976808
0000d0 ff 57 00 40 2a d8 e9 3f 28 b6 32 c0 4e 35 1f c0
       2.0053709 1.8269093 -2.792368 -2.4876285
0000e0 b8 6e f8 3f b0 1f 30 c0 6b 5e 20 40 8d 75 2b c0
       1.9408789 -2.751934 2.5057628 -2.6790497
0000f0 c5 ba 0d c0 14 cb 0e 40 af 08 3e c0 60 ee 16 c0
       -2.2145245 2.231145 -2.96928 -2.3582993

FK_LAYER.joints.12.p_offset f4 [3, 1]
000000 05 a8 a9 be 79 55 2d c0 bd 09 26 42
       -0.33136 -2.7083418 41.50951

FK_LAYER.joints.12.rpy_offset f4 [3]
000000 2d 61 7e 3c 48 ea 28 bc b3 81 ff 3a
       0.015526098 -0.010309763 0.001949361

FK_LAYER.joints.12.axis f4 [3, 1]
000000 de 3d 00 c0 2d e4 dc 3e dd b8 49 c0
       -2.003776 0.43142834 -3.1519082

FK_LAYER.joints.12.q_layer.0.weight f4 [1, 64]
000000 67 0c 4a 40 af 5c 34 c0 47 8c 42 40 1e 63 eb 3e
       3.157007 -2.818157 3.0398118 0.45974058
000010 17 aa 3a 40 2c 7c 09 c0 76 4c 2f 40 ca 75 29 c0
       2.9166315 -2.1482038 2.7390418 -2.6478143
000020 0d 36 45 c0 c6 ca 47 40 de b5 34 40 d6 ed 25 40
       -3.081424 3.1217513 2.8236003 2.5926414
000030 44 66 3e 40 24 3b 31 40 73 26 52 40 cb 7b 32 c0
       2.9749918 2.7692347 3.2835968 -2.7888057
000040 1b 5e 2d c0 98 ce 22 c0 51 ff 35 40 5d ba 48 40
       -2.7088687 -2.5438595 2.8437083 3.1363747
000050 13 60 41 40 01 0e 24 40 25 d9 c8 bf 28 97 3f 40
       3.021489 2.5633547 -1.5691267 2.9936008
000060 11 45 1d 40 ad ce 35 40 fb 04 29 40 3d f4 28 40
       2.4573405 2.8407395 2.640929 2.6399071
000070 ba f2 47 40 6e 89 49 40 84 de 42 40 b8 07 34 40
       3.1241899 3.149013 3.0448313 2.812971
000080 c5 7d 04 c0 4e ea 3e 40 35 f4 11 40 96 32 1c c0
       -2.0701764 2.9830508 2.2805302 -2.4405875
000090 6c 2f 4a c0 50 74 31 c0 f5 60 2f 40 84 62 2f 40
       -3.1591444 -2.7727242 2.7402928 2.740388
0000a0 de 0d 30 c0 d2 70 3c 40 dd 6e 34 40 6d 03 2e 40
       -2.7508464 2.944386 2.8192666 2.718959
0000b0 e6 5f 4b 40 59 07 3d 40 93 4d 1e 40 24 e6 41 40
       3.1777282 2.9535735 2.4734848 3.0296717
0000c0 11 8a 43 c0 33 44 8e 3e e0 9c 48 40 13 00 14 c0
       -3.055302 0.27786407 3.134575 -2.3125045
0000d0 5c 85 08 c0 1a 1c 44 c0 9d f5 3f 40 fa ad 2b 40
       -2.1331396 -3.0642152 2.999366 2.6824937
0000e0 01 9e 35 c0 79 98 36 40 e8 95 4c 40 5b 9e 37 c0
       -2.8377688 2.8530562 3.1966496 -2.8690403
0000f0 19 8a 46 40 a6 b1 44 c0 f7 c6 38 40 12 7a 27 c0
       3.1021788 -3.0733428 2.8871439 -2.6168256

FK_LAYER.joints.13.p_offset f4 [3, 1]
000000 26 4c cf 3d be ba 04 c0 c8 92 25 42
       0.10121946 -2.0738978 41.39334

FK_LAYER.joints.13.rpy_offset f4 [3]
000000 7a 18 92 3c 3b eb 47 bc 0f 46 f8 bb
       0.017833937 -0.012202079 -0.007576711

FK_LAYER.joints.13.axis f4 [3, 1]
000000 8f 2e fa 3d c0 61 ba be 59 7f 6b 3f
       0.122159116 -0.36402702 0.9199119

FK_LAYER.joints.13.q_layer.0.weight f4 [1, 64]
000000 fe 38 26 c0 f1 ff 29 c0 b1 12 3a 40 53 3b 3b 40
       -2.5972285 -2.6562464 2.9073908 2.9254959
000010 c4 03 d6 bf 77 11 09 c0 0a 04 30 40 86 db 03 40
       -1.6719899 -2.141691 2.7502465 2.0602736
000020 1c 0e 0d 40 21 64 24 40 71 af 1b c0 a8 9c 1e 40
       2.2039862 2.5686114 -2.432583 2.4783115
000030 b2 43 23 c0 54 78 2f 40 96 8c 37 40 a0 08 03 bf
       -2.5510068 2.7417192 2.8679557 -0.51185036
000040 10 6a bd 3f 05 f9 24 c0 7a 5d 31 c0 e2 db 32 c0
       1.4797993 -2.577699 -2.7713304 -2.7946706
000050 40 16 a4 bf 52 b5 29 40 5f f5 e1 bf e9 db 1f 40
       -1.281929 2.651692 -1.7653006 2.4977973
000060 3a 58 31 c0 9a a9 38 c0 05 2c b7 bf a8 4a 37 40
       -2.77101 -2.8853517 -1.4310309 2.8639317
000070 48 1e 18 c0 c5 7c 2a c0 6e fe 2a c0 6a 80 2c 40
       -2.3768482 -2.6638653 -2.6717792 2.6953378
000080 15 df 01 bf f0 9d 35 c0 b1 c0 39 40 51 1a 22 40
       -0.5073102 -2.8377647 2.902386 2.5328562
000090 c7 4d 18 c0 9a 12 19 40 52 cc 19 c0 d5 8c 33 c0
       -2.3797472 2.3917603 -2.4030957 -2.8054707
0000a0 25 3c 2e c0 fd c5 1c c0 fe f7 a7 3f 2e b3 2d 40
       -2.722421 -2.4495842 1.3122556 2.7140613
0000b0 4f 4f fe bd 35 3d 2c c0 f9 76 2b 40 d8 ec 36 c0
       -0.12417471 -2.6912358 2.6791365 -2.8582058
0000c0 e1 f5 04 40 21 c0 30 40 c2 d8 26 c0 bc fb 2f 40
       2.0775073 2.7617266 -2.6069798 2.7497396
0000d0 fa 42 de bf 14 2d f0 3f f6 42 35 c0 10 94 32 c0
       -1.736419 1.8763757 -2.832212 -2.790287
0000e0 a8 19 c7 3f 30 8c 2f 40 bd e7 1e c0 f4 d1 0b 40
       1.5554705 2.7429314 -2.4828942 2.1846895
0000f0 df a0 04 c0 01 8e 15 40 da 33 39 40 a1 f4 0d c0
       -2.0723188 2.3367922 2.8937898 -2.218056

FK_LAYER.joints.14.p_offset f4 [3, 1]
000000 e1 5b 13 c0 5e 3e 90 c0 bb 88 28 42
       -2.3024828 -4.507613 42.133526

FK_LAYER.joints.14.rpy_offset f4 [3]
000000 9e 8b f2 3b fc a9 81 3b bf 59 ac 3c
       0.0074018976 0.0039570313 0.021038888

FK_LAYER.joints.15.p_offset f4 [3, 1]
000000 2f 9b 21 c0 71 c6 86 c0 47 05 29 42
       -2.5250967 -4.211724 42.255154

FK_LAYER.joints.15.rpy_offset f4 [3]
000000 d3 8c ac 3c 5a 75 30 3b 46 4a d9 3b
       0.021063244 0.0026925416 0.0066311685

FK_LAYER.joints.15.axis f4 [3, 1]
000000 c9 0b 9c 3e ee 67 9d 3e d4 74 33 be
       0.3047774 0.30743355 -0.17525035

FK_LAYER.joints.15.q_layer.0.weight f4 [1, 64]
000000 3f bd 1c c0 3c 29 1f 40 19 21 33 40 61 b5 1d 40
       -2.4490507 2.4868917 2.7988951 2.4641955
000010 88 c4 d8 3f ad 1d c3 bf 96 11 2c 40 86 eb bb 3f
       1.6934977 -1.5243431 2.6885734 1.4681251
000020 76 42 11 40 31 35 47 c0 b7 33 34 c0 c5 08 2b c0
       2.2696815 -3.1126215 -2.8156564 -2.6724102
000030 03 f1 1c c0 7a 28 29 c0 7f bd 3d 40 b6 72 54 3f
       -2.4522102 -2.6430955 2.964691 0.82987535
000040 81 6e 0c c0 84 d9 ff bf fe 3e 3d c0 50 fb 29 c0
       -2.1942446 -1.9988256 -2.9569697 -2.655964
000050 1f df 3b bf 91 2c 30 40 06 1b 33 40 62 9a 24 c0
       -0.7338733 2.75272 2.7985244 -2.5719228
000060 bb 71 20 c0 52 4e 20 c0 17 f9 ec 3f 1e 34 37 40
       -2.5069416 -2.5047803 1.8513516 2.862556
000070 e3 41 1c c0 3b 7f 30 c0 18 5e 3f c0 be e0 38 40
       -2.4415214 -2.7577655 -2.990118 2.8887172
000080 57 96 d3 bd 87 11 34 c0 93 dd 3c 40 c9 44 41 40
       -0.103314094 -2.8135698 2.9510238 3.0198233
000090 0b 21 3b 40 73 01 23 40 ff e4 3d c0 c8 dc 31 c0
       2.9238918 2.5469635 -2.9671018 -2.7791004
0000a0 da df 1b c0 2f 98 43 c0 5c 07 26 c0 2d 94 3d 40
       -2.4355378 -3.0561635 -2.5941992 2.962169
0000b0 8b 99 04 bf 90 1e 2e c0 c3 5e 4a 40 8a 4a 24 c0
       -0.5179679 -2.7206154 3.1620338 -2.5670495
0000c0 8b b7 f9 3f 09 bd 2c 40 25 57 2d c0 0e e0 2e 40
       1.9509138 2.6990378 -2.7084439 2.7324252
0000d0 5b f8 ca be fc 4d fd bf 07 63 51 c0 61 e0 26 c0
       -0.39642605 -1.9789424 -3.2716691 -2.607445
0000e0 a9 98 98 3f 8f 79 4b 40 ee 14 26 c0 40 f2 2b 40
       1.1921588 3.1792943 -2.5950274 2.6866608
0000f0 47 de 23 c0 27 55 02 c0 51 4d 2d 40 0a d2 eb 3f
       -2.5604417 -2.0364473 2.707844 1.8423474

FK_LAYER.joints.16.p_offset f4 [3, 1]
000000 ea 64 2a c0 8b 7e 54 c0 9e d5 28 42
       -2.6624093 -3.3202236 42.20861

FK_LAYER.joints.16.rpy_offset f4 [3]
000000 8d 7d bc bb ed ab bd 3b 00 99 41 3c
       -0.0057522715 0.0057883174 0.011816263

FK_LAYER.joints.16.axis f4 [3, 1]
000000 1b 28 f6 bf c4 0a 10 c0 f1 d5 3f 40
       -1.9230989 -2.250657 2.997433

FK_LAYER.joints.16.q_layer.0.weight f4 [1, 64]
000000 8e 0c 2a c0 72 64 4c 40 a8 bb 3d c0 99 df 40 be
       -2.6570163 3.1936307 -2.9645786 -0.18835296
000010 1d 34 41 c0 ec 41 16 40 19 47 30 c0 8c d1 42 40
       -3.0188057 2.3477736 -2.7543395 3.0440397
000020 5e 29 3d 40 25 fb 32 c0 2b 6b 25 c0 ba 17 36 c0
       2.9556499 -2.7965786 -2.584666 -2.8451982
000030 5d 65 47 c0 90 96 3a c0 cd 22 25 c0 bc 60 35 40
       -3.1155617 -2.9154396 -2.580249 2.8340292
000040 b0 14 3e 40 4d 49 18 40 01 ce 2b c0 c6 78 41 c0
       2.9700127 2.379474 -2.6844485 -3.0229964
000050 ea 14 30 c0 ee 71 1f c0 ad e2 d9 3f e1 56 32 c0
       -2.7512765 -2.4913287 1.7022301 -2.7865527
000060 2c 96 23 40 fc e6 3c c0 31 20 38 c0 d4 09 1e c0
       2.5560408 -2.9515982 -2.8769648 -2.4693499
000070 3c 8c 33 c0 7d 65 36 40 f0 75 36 c0 a8 ef 49 c0
       -2.8054342 2.8499444 -2.8509483 -3.1552525
000080 da d5 27 40 bd ff 3f c0 89 c9 ed bf 1f 38 26 40
       2.6224275 -2.999984 -1.8577129 2.5971754
000090 ea f1 2d 40 a7 34 36 40 31 a8 2f c0 04 50 2d 40
       2.7178903 2.8469636 -2.7446406 2.7080088
0000a0 02 8d 3a 40 dc db 43 c0 d8 aa 35 c0 f2 fb 40 c0
       2.9148564 -3.0602942 -2.8385525 -3.0153775
0000b0 11 72 5d c0 56 73 28 c0 53 bb 28 c0 a1 b5 3d 40
       -3.460087 -2.6320395 -2.6364334 2.9642107
0000c0 16 e9 3a 40 4e 8e b1 bc 52 3a 30 c0 11 47 0f 40
       2.9204764 -0.021674301 -2.7535596 2.2387125
0000d0 2e 45 e8 bf e8 ae 48 40 79 b8 25 40 5a 51 32 c0
       -1.8146112 3.1356754 2.5893843 -2.7862153
0000e0 ba 31 4b 40 0e f6 38 c0 cf 05 38 c0 02 5d 30 40
       3.17491 -2.890018 -2.8753545 2.7556767
0000f0 30 25 49 c0 33 11 49 40 98 f0 36 c0 42 9b 07 40
       -3.1428947 3.1416748 -2.8584347 2.1188512

FK_LAYER.joints.17.p_offset f4 [3, 1]
000000 c9 18 3b c0 5a 65 65 c0 cd dd 28 42
       -2.9233878 -3.584311 42.216602

FK_LAYER.joints.17.rpy_offset f4 [3]
000000 e1 18 6f bc 65 52 41 bc 45 8e 73 bb
       -0.014593334 -0.01179943 -0.0037163657

FK_LAYER.joints.17.axis f4 [3, 1]
000000 89 8d f7 be 90 c6 bd 3e e0 41 86 3f
       -0.4835017 0.37065554 1.0488853

FK_LAYER.joints.17.q_layer.0.weight f4 [1, 64]
000000 68 2b 0f c0 34 02 20 c0 a9 95 36 40 14 55 2d 40
       -2.2370243 -2.5001345 2.8528845 2.7083178
000010 32 e3 d7 bf 3a f3 ef 3f b8 3e 35 40 38 39 d4 3f
       -1.686621 1.8746102 2.831953 1.6579962
000020 c3 8b ea 3f 66 8e 2d c0 aa 9e 39 c0 ef 28 32 40
       1.8323902 -2.7118163 -2.900309 2.7837484
000030 90 87 30 c0 7e ef 31 40 f5 d5 27 40 75 56 84 3f
       -2.758274 2.7802424 2.622434 1.0338885
000040 e4 b8 9d 3f 5c 46 23 c0 0b 17 1f c0 6f 1f 1a c0
       1.2322049 -2.5511694 -2.4857814 -2.4081686
000050 09 66 e4 bf d2 22 20 40 9e cc 31 40 6d a7 3f 40
       -1.7843639 2.5021253 2.7781138 2.9945939
000060 5b 1d 42 c0 d9 cd 2c c0 c3 3e f1 bf b0 fa 3a 40
       -3.0330417 -2.700064 -1.8847278 2.9215508
000070 66 58 38 c0 c4 40 36 c0 2d 7e 2c c0 90 35 24 40
       -2.8803954 -2.847703 -2.6952012 2.5657692
000080 03 ea 29 3f 2c 6d 22 c0 61 3b 38 40 53 96 24 40
       0.663727 -2.5379133 2.8786242 2.571675
000090 d2 52 1e 40 7e 9d 1e 40 63 40 2d c0 aa 56 26 c0
       2.473805 2.4783626 -2.7070549 -2.5990396
0000a0 81 1c 39 c0 2d ad 2b c0 0b 70 3d c0 60 3c 41 40
       -2.8923647 -2.6824448 -2.9599636 3.01931
0000b0 5d 51 8a bf c8 74 30 c0 8b a3 3b 40 de c9 22 c0
       -1.080608 -2.7571278 2.9318569 -2.543571
0000c0 11 d0 31 c0 ff f7 2b 40 b2 30 23 c0 9e 19 2e 40
       -2.7783244 2.6870115 -2.5498471 2.7203135
0000d0 54 81 e0 3f af 01 c3 3f 03 10 25 c0 f8 59 11 c0
       1.7539468 1.5234889 -2.5791023 -2.2711163
0000e0 8b 61 da 3f 38 1c 33 40 3b 6c 2a c0 4b 5b 33 c0
       1.7061018 2.7985973 -2.6628559 -2.802447
0000f0 d1 62 0d c0 37 f9 00 40 c6 f4 35 40 f5 17 09 c0
       -2.2091563 2.0152109 2.8430648 -2.1420872

FK_LAYER.joints.18.p_offset f4 [3, 1]
000000 69 45 1c c0 32 83 88 c0 79 27 26 42
       -2.4417365 -4.266015 41.538548

FK_LAYER.joints.18.rpy_offset f4 [3]
000000 82 23 5e bb 5d 62 45 3c ab df 62 3c
       -0.0033895676 0.012047377 0.013847272

FK_LAYER.joints.18.axis f4 [3, 1]
000000 97 90 14 3f e1 c6 c1 3e af f2 85 3f
       0.58033127 0.37847045 1.0464686

FK_LAYER.joints.18.q_layer.0.weight f4 [1, 64]
000000 e7 18 13 40 27 f7 0e c0 81 12 37 40 9d e7 2d 40
       2.298395 -2.233835 2.8605044 2.7172616
000010 68 5c df 3f 18 31 40 40 09 41 44 c0 0a 01 2a 40
       1.7450075 3.0029964 -3.0664694 2.6563134
000020 8b 1f 1b c0 ae b8 34 40 2c 04 29 c0 61 3e 1a 40
       -2.4238002 2.823772 -2.6408796 2.4100573
000030 e3 eb 26 c0 34 51 21 c0 09 63 38 40 92 db 65 3f
       -2.6081474 -2.5205812 2.8810446 0.8978816
000040 1b 44 04 40 df f9 f9 3f ba 58 40 c0 9d 0d 1b c0
       2.0666568 1.952938 -3.0054154 -2.422706
000050 30 47 98 3f 52 5f 39 40 62 33 3e 40 3b 53 24 40
       1.1896725 2.896443 2.9718862 2.56758
000060 ff 22 39 c0 d9 6c 39 c0 33 14 db 3f 66 5b 32 c0
       -2.892761 -2.8972685 1.7115539 -2.7868285
000070 50 7d 20 40 25 fc 36 40 78 de 2e c0 fd e5 35 40
       2.5076485 2.8591397 -2.7323284 2.8421624
000080 b5 0f d6 bc 5f f9 36 40 1a b1 39 40 38 27 20 c0
       -0.026130537 2.8589704 2.9014344 -2.5023937
000090 33 4d 37 c0 a8 20 2f 40 85 d8 20 c0 df 1a 2a 40
       -2.8640869 2.7363682 -2.5132153 2.65789
0000a0 7e c1 10 40 ef 9c 1c c0 fe f6 92 3f cc 25 45 40
       2.2618098 -2.4470785 1.1481626 3.080432
0000b0 d5 b0 38 3d 40 d3 39 c0 dd cd 25 40 20 79 4d 40
       0.045090515 -2.9035187 2.59069 3.210518
0000c0 a5 b4 24 c0 ca 42 e8 3f f4 95 1b c0 5d 82 24 40
       -2.5735257 1.8145382 -2.4310274 2.5704567
0000d0 f4 ac 05 c0 e7 06 0c 40 84 48 30 c0 7a e0 1e 40
       -2.0886812 2.1879213 -2.754426 2.482451
0000e0 b8 77 7a bf 7a 1e 34 40 16 b6 21 c0 12 73 18 c0
       -0.97838926 2.8143601 -2.5267386 -2.3820233
0000f0 8c 4b 1f 40 35 f6 fe 3f 46 a7 39 40 dc 82 2d 40
       2.488986 1.9918886 2.9008346 2.711112

FK_LAYER.joints.19.p_offset f4 [3, 1]
000000 28 df 3e c0 93 14 8e c0 27 61 26 42
       -2.9823704 -4.4400115 41.594875

FK_LAYER.joints.19.rpy_offset f4 [3]
000000 7c 6f 15 bc b6 1b 1a 3a 25 60 46 3c
       -0.009120818 0.0005878763 0.012107884
