results/PRIMNET/ABAQUS64/weights/epoch_58.pth (torch, 110534 bytes, 189 tensors)

motor_std f4 [3]
0.22521192 0.057228573 0.005763967
00000000: f49d 663e 8268 6a3d a9df bc3b

motor_mean f4 [3]
-0.25645262 0.00019984879 -0.08995357
00000000: c24d 83be 808e 5139 9439 b8bd

position_std f4 [3, 1]
1.0 1.0 1.0
00000000: 0000 803f 0000 803f 0000 803f

position_mean f4 [3, 1]
0.0 0.0 0.0
00000000: 0000 0000 0000 0000 0000 0000

ACT_EMBED.layers.0.weight f4 [64, 3]
-0.60123575 -0.006088837 0.7141107 0.70273644 0.49473375 0.17179945 -1.2511168 -1.2181075
1.0223262 0.6612173 -1.309868 -0.9682188 0.6761524 -1.6137544 0.46829087 -1.253331
1.1209117 0.6896211 -0.4902592 -0.4192454 -0.32470113 0.49760625 -1.4519349 1.3431704
0.3318845 0.9657197 -0.34810844 -1.4281644 -1.0136714 -0.27323073 0.5848374 -0.2524448
-0.92342967 1.0985063 -1.3411238 0.3458296 0.2862708 0.24471214 -0.22264916 1.0999256
-1.3702176 0.34258866 0.96049196 -0.74325234 0.029935434 0.9033783 -1.1428075 0.7920551
1.2904801 -1.0824778 0.16216348 0.41170007 -0.8800693 -0.28800157 1.0422082 -1.4743437
0.9214273 -0.825867 -1.0591522 -1.107475 -0.022831107 1.020723 -0.65397555 -1.2516751
0.47617266 1.3371994 1.2722992 0.32548925 -1.1717988 -1.2814265 1.1325262 -0.18076664
-0.36423308 1.112769 -0.82978535 -1.2219714 0.0041709966 0.06957961 0.18778351 0.73133945
0.35593632 -1.3819581 0.94816244 0.50339967 0.73059565 0.49506253 -1.1658484 0.09515828
0.42536622 -1.1628288 -0.685906 -1.265207 1.2587464 0.759792 1.3157309 -0.5242241
-1.3765651 -1.1374835 0.71378726 -0.9853005 -0.87193096 1.2300678 -0.2501101 0.14992106
1.3885137 1.5215633 0.7366424 0.56382465 -0.32380068 -1.2268034 0.8172477 1.092806
-1.017387 -1.1957916 -0.09178868 -0.4036655 0.23656645 0.98146486 -1.2511885 1.0653502
1.1094279 -1.1666545 0.9690153 0.15949681 -1.0297061 -0.74211526 1.3981868 0.5914115
-0.43381566 -0.24281034 0.8929598 -1.0911447 -1.24686 -1.1595812 0.107918076 0.33345222
0.2585437 -0.08530503 -0.23353516 0.2454364 0.22860971 0.095110685 0.44108278 0.6990565
-0.4010222 1.140206 0.4151993 1.1194247 -1.2657253 0.16276273 0.38073924 0.2673174
-0.5860962 -0.5407019 -1.279053 0.5136875 1.121486 -1.2184712 0.82846963 -0.4981153
0.6594496 -0.74763507 -1.137519 0.61162114 1.1074402 -1.1677812 -1.4490671 0.98961574
-0.45841712 -1.4889444 0.93497247 1.3507285 -1.0215051 -1.0966794 0.6412348 0.8768148
0.1868398 -1.3094438 0.48302284 -1.268817 0.24204415 -1.419289 -0.4641856 -0.8592605
-1.5242767 -0.24856158 1.287273 -1.3130991 0.44962907 -0.13838474 0.18882382 0.86748904
00000000: 96ea 19bf de84 c7bb f5cf 363f 89e6 333f
00000010: be4d fd3e 32ec 2f3e 9824 a0bf f2ea 9bbf
00000020: 96db 823f 8945 293f c1a9 a7bf 30dd 77bf
00000030: 5318 2d3f 818f cebf d2c3 ef3e 266d a0bf
00000040: 097a 8f3f 028b 303f 4103 fbbe 55a7 d6be
00000050: 3a3f a6be 3fc6 fe3e 01d9 b9bf 02ed ab3f
00000060: c4ec a93e 6839 773f 453b b2be 17ce b6bf
00000070: fcbf 81bf e6e4 8bbe e7b7 153f 7240 81be
00000080: e365 6cbf db9b 8c3f f2a9 abbf 9410 b13e
00000090: 1692 923e d295 7a3e 24fe 63be 5dca 8c3f
000000a0: 4a63 afbf c867 af3e cde2 753f c945 3ebf
000000b0: 283b f53c cd43 673f 8447 92bf 1fc4 4a3f
000000c0: 742e a53f a28e 8abf 2f0e 263e 5aca d23e
000000d0: 394c 61bf f174 93be 1467 853f 4bb7 bcbf
000000e0: a9e2 6b3f 056c 53bf 4d92 87bf bec1 8dbf
000000f0: 4d08 bbbc 0da7 823f f16a 27bf e436 a0bf
00000100: e7cc f33e 5a29 ab3f b3da a23f 87a6 a63e
00000110: 81fd 95bf c905 a4bf 9ef6 903f e41a 39be
00000120: c27c babe 376f 8e3f d06c 54bf 8f69 9cbf
00000130: dbac 883b c17f 8e3d 524a 403e 1039 3b3f
00000140: 493d b63e 01e4 b0bf c6ba 723f cdde 003f
00000150: 5108 3b3f d678 fd3e 853a 95bf 58e2 c23d
00000160: 9ac9 d93e 93d7 94bf 8997 2fbf 4ef2 a1bf
00000170: 9a1e a13f ba81 423f df69 a83f 8d33 06bf
00000180: 4933 b0bf 0f99 91bf c3ba 363f a73c 7cbf
00000190: de36 5fbf dd72 9d3f 6e0e 80be e884 193e
000001a0: d1ba b13f 96c2 c23f 9994 3c3f d056 103f
000001b0: 34c9 a5be e507 9dbf 2537 513f 11e1 8b3f
000001c0: bd39 82bf b30f 99bf b4fb bbbd 3fad cebe
000001d0: 7a3e 723e 4841 7b3f f226 a0bf 655d 883f
000001e0: bc01 8e3f ef54 95bf 6311 783f 2253 233e
000001f0: 69cd 83bf 44fb 3dbf c9f7 b23f be66 173f
00000200: 161d debe 46a3 78be 0399 643f a1aa 8bbf
00000210: 1c99 9fbf 286d 94bf 2704 dd3d 40ba aa3e
00000220: d75f 843e 67b4 aebd d723 6fbe ae53 7b3e
00000230: aa18 6a3e 64c9 c23d 9ad5 e13e 5ef5 323f
00000240: c852 cdbe 45f2 913f 0195 d43e 4f49 8f3f
00000250: 4903 a2bf 46ab 263e 41f0 c23e d4dd 883e
00000260: 670a 16bf 716b 0abf 02b8 a3bf 0681 033f
00000270: da8c 8f3f ddf6 9bbf 9616 543f f808 ffbe
00000280: b0d1 283f 0365 3fbf 399a 91bf 3493 1c3f
00000290: 9ac0 8d3f db79 95bf 087b b9bf 7557 7d3f
000002a0: a6b5 eabe bb95 bebf 5b5a 6f3f ace4 ac3f
000002b0: aec0 82bf fe5f 8cbf f727 243f ef76 603f
000002c0: ef52 3f3e db9b a7bf c54e f73e 9868 a2bf
000002d0: 6cda 773e 43ab b5bf bca9 edbe 7ff8 5bbf
000002e0: 801b c3bf ed86 7ebe 5dc5 a43f a213 a8bf
000002f0: c835 e63e bbb4 0dbe 085b 413e c313 5e3f

ACT_EMBED.layers.2.weight f4 [64, 64]
0.9119006 -0.97129583 -1.3929287 -1.6467025 -0.9362335 -1.3898091 -1.5988219 -1.0577877
-1.7146658 1.1143211 0.8970207 -0.8186469 -1.4310327 -1.6087513 -1.5458217 -1.5957581
-1.3319639 -1.3077286 -0.76758665 -1.345147 -1.5493194 -1.5773375 -1.4041468 -1.2787334
-1.581784 1.0716395 -1.5575607 -1.6482954 -1.6905068 -1.3538604 -1.5787553 -1.5333174
-1.6694716 0.95199513 -0.93187183 -0.90527165 -0.9823301 -1.3647742 -1.2750174 -1.6056973
-1.4643058 -1.5086095 -1.3659368 -1.6879522 -1.5471509 -1.6452435 1.3462553 -1.6060978
-1.5812854 -1.0287534 -1.5661294 -1.3978922 -0.8863493 -1.4704521 -1.705377 -0.77055293
-1.0654141 -1.275645 -1.5523565 -1.1615641 -0.982244 -0.7943185 -1.0599155 -1.0110449
1.535575 -1.5831203 -1.5367966 -1.3636154 -1.4304801 -1.4356838 -1.7972195 -1.4669921
-1.4675262 -1.3245392 -1.453671 -1.461146 -1.3051215 -1.3056225 -1.4964948 -1.3954469
-1.5858614 -1.183972 -1.7200334 -1.6107119 -1.4832139 -1.5320866 -1.4436239 -1.6368369
-1.3570986 -1.4298103 -1.2539539 -1.4456158 -1.4884629 -1.3965824 -1.7163482 -1.5674769
-1.5118514 -1.5412049 -1.8983495 -1.4448649 -1.3283478 -1.5256712 -1.4141288 -1.5354779
-1.3376521 -1.3716178 -1.3066078 -1.5571449 -1.4658989 -1.6433592 -1.4884253 -1.448642
-1.5105672 -1.4063103 -1.4456675 -1.7575845 -1.4538817 -1.3440746 -1.4511604 -1.5045538
-1.6097361 -1.4198945 -1.2665347 -1.5166539 -1.6379203 -1.5791733 -1.4847909 -1.5404576
-0.99284697 1.340697 -1.1723067 -1.4797404 -1.4013869 -1.4206997 -1.1379198 -1.4488376
1.7271087 -1.1938955 -1.4449737 -1.741351 1.4529206 -1.4429445 -1.222788 1.4009748
-1.4740355 -1.3259 -1.551036 1.6878335 -1.5440546 -1.3607149 -1.7820859 -1.6345406
-1.4896404 -1.6007919 1.5251011 -1.3112842 -1.449723 -1.7179544 -1.3479499 -1.3097574
-1.1378255 -1.2452741 -1.6361614 -1.71071 -1.612583 -1.471508 -1.5206546 -1.3584652
-1.6131593 -1.4476718 -1.7225394 -1.4907329 -1.2191727 -1.590621 -1.340139 -1.2925197
1.4628025 1.428918 -1.4769082 -1.6983414 -1.5934238 -1.6372043 -1.3273467 -1.5072201
-1.44919 -1.5913029 -1.5667278 -1.3630755 -1.6107441 -1.3307562 -1.5551194 -1.4695932
1.4261321 -1.5348985 -1.5459886 -1.2178894 -1.4074566 -1.5576334 -1.6966462 -1.4448613
-1.6536719 -1.5388263 -1.4400474 -1.504141 -1.3281263 -1.3967729 -1.4165388 -1.648312
-1.6886668 -1.3207358 -1.5599694 -1.4610922 -1.4412063 -1.472753 -1.397999 -1.5100003
-1.4362661 -1.499324 -1.3960491 -1.3495158 -1.5328882 -1.4865991 -1.59433 -1.5468707
-1.5598979 -1.5957729 -1.6919947 -1.5918826 -1.5031307 -1.3760569 -1.4410195 -1.6130259
-1.5340433 -1.1854846 -1.5446671 -1.4786712 -1.4375563 -1.684354 -1.5052246 -1.4439234
-1.7038425 -1.5877831 -1.4684802 -1.6429209 -1.2141416 -1.2932763 -1.6664068 -1.5068167
-1.5841445 -1.6119467 -1.2888777 -1.5257219 -1.5593904 -1.568207 -1.5206027 -1.6034963
00000000: 5172 693f d8a6 78bf 7d4b b2bf 26c7 d2bf
00000010: 00ad 6fbf 44e5 b1bf 32a6 ccbf 9665 87bf
00000020: 2b7a dbbf 13a2 8e3f 26a3 653f d892 51bf
00000030: 142c b7bf 90eb cdbf 7cdd c5bf cd41 ccbf
00000040: cb7d aabf a763 a7bf 8f80 44bf c72d acbf
00000050: 1950 c6bf 32e6 c9bf 15bb b3bf 89ad a3bf
00000060: e677 cabf 7c2b 893f 265e c7bf 58fb d2bf
00000070: 8762 d8bf 4c4b adbf a714 cabf bf43 c4bf
00000080: 3fb1 d5bf f4b5 733f 278f 6ebf e2bf 67bf
00000090: fc79 7bbf ecb0 aebf c533 a3bf 7d87 cdbf
000000a0: 5f6e bbbf 1e1a c1bf 04d7 aebf d10e d8bf
000000b0: 0a09 c6bf 5797 d2bf 1852 ac3f 9d94 cdbf
000000c0: 8f67 cabf 31ae 83bf ee76 c8bf 22ee b2bf
000000d0: cae7 62bf c637 bcbf cb49 dabf f542 45bf
000000e0: 7d5f 88bf 5648 a3bf 9eb3 c6bf 22ae 94bf
000000f0: 5874 7bbf 7558 4bbf 50ab 87bf eb69 81bf
00000100: b98d c43f b0a3 cabf c0b5 c4bf f38a aebf
00000110: f919 b7bf 7dc4 b7bf 4a0b e6bf 66c6 bbbf
00000120: e6d7 bbbf 808a a9bf e411 babf d506 bbbf
00000130: 390e a7bf a31e a7bf 248d bfbf 019e b2bf
00000140: 82fd cabf 658c 97bf 0e2a dcbf cf2b cebf
00000150: f4d9 bdbf 6a1b c4bf abc8 b8bf df83 d1bf
00000160: 68b5 adbf 0604 b7bf 9081 a0bf f009 b9bf
00000170: f485 bebf 36c3 b2bf 4cb1 dbbf 15a3 c8bf
00000180: 5984 c1bf 3446 c5bf 1efd f2bf 55f1 b8bf
00000190: 4d07 aabf 3249 c3bf 2c02 b5bf 8a8a c4bf
000001a0: 2f38 abbf 2c91 afbf ed3e a7bf 8650 c7bf
000001b0: 93a2 bbbf 9859 d2bf b884 bebf 1a6d b9bf
000001c0: 445a c1bf fa01 b4bf a20b b9bf 87f8 e0bf
000001d0: cc18 babf a30a acbf a0bf b9bf 3895 c0bf
000001e0: d50b cebf 1abf b5bf cf1d a2bf b721 c2bf
000001f0: 5fa7 d1bf 5a22 cabf a10d bebf b72d c5bf
00000200: 382b 7ebf f69b ab3f 250e 96bf 2268 bdbf
00000210: a560 b3bf 7dd9 b5bf 5ba7 91bf 8373 b9bf
00000220: e611 dd3f 91d1 98bf e6f4 b8bf 97e4 debf
00000230: 4df9 b93f 68b2 b8bf 5184 9cbf 2453 b33f
00000240: 32ad bcbf 17b7 a9bf 5988 c6bf ee0a d83f
00000250: 95a3 c5bf e82b aebf 641b e4bf a038 d1bf
00000260: 89ac bebf c0e6 ccbf 8336 c33f 29d8 a7bf
00000270: 8690 b9bf eee5 dbbf 9f89 acbf 21a6 a7bf
00000280: 44a4 91bf 2465 9fbf bd6d d1bf 8cf8 dabf
00000290: 1f69 cebf 605a bcbf cfa4 c2bf 30e2 adbf
000002a0: 017c cebf 4f4d b9bf 2c7c dcbf 56d0 bebf
000002b0: da0d 9cbf 7899 cbbf ad89 abbf 4971 a5bf
000002c0: 1d3d bb3f c9e6 b63f 540b bdbf 4063 d9bf
000002d0: 50f5 cbbf e98f d1bf 7fe6 a9bf 97ec c0bf
000002e0: 0f7f b9bf d0af cbbf 898a c8bf 4279 aebf
000002f0: dd2c cebf 3856 aabf 270e c7bf a11b bcbf
00000300: 7f8b b63f 8e77 c4bf f4e2 c5bf cde3 9bbf
00000310: 8a27 b4bf 8860 c7bf b42b d9bf 37f1 b8bf
00000320: 85ab d3bf 43f8 c4bf 7953 b8bf b187 c0bf
00000330: 0b00 aabf 74c9 b2bf 2551 b5bf e3fb d2bf
00000340: 3c26 d8bf df0d a9bf 14ad c7bf 1205 bbbf
00000350: 7379 b8bf 2c83 bcbf a2f1 b2bf b147 c1bf
00000360: 91d7 b7bf d9e9 bfbf bdb1 b2bf efbc acbf
00000370: ae35 c4bf e148 bebf 0113 ccbf dcff c5bf
00000380: bcaa c7bf 4942 ccbf 4893 d8bf cfc2 cbbf
00000390: 9666 c0bf a222 b0bf 5473 b8bf a277 cebf
000003a0: 885b c4bf f6bd 97bf a7b7 c5bf 1945 bdbf
000003b0: d801 b8bf e998 d7bf 33ab c0bf 7bd2 b8bf
000003c0: 8317 dabf 7a3c cbbf 29f7 bbbf 3b4b d2bf
000003d0: fe68 9bbf 148a a5bf d14c d5bf 5fdf c0bf
000003e0: 3fc5 cabf 4554 cebf f2f9 a4bf db4a c3bf
000003f0: 1b9a c7bf 02bb c8bf 1ca3 c2bf 5e3f cdbf

ACT_EMBED.layers.4.weight f4 [64, 64]
-1.201615 -1.377304 -1.6613588 -1.1421145 -1.7733809 -1.7676011 -1.152115 -1.1481378
-1.6850464 -1.4884201 0.86139506 -1.4980408 -1.6498497 -1.4586909 -1.3243428 -1.0170372
-1.4445792 -1.4023324 -1.3915199 -1.4275216 1.6223428 1.5347573 -1.3961545 -1.2159424
1.2794255 0.17795417 -1.269889 -1.4080834 1.4318253 -1.4422919 -1.3437172 -1.1447208
-0.999733 -1.2921226 -1.5039331 -1.466348 -1.5382468 -1.1590358 -1.4949708 1.6950494
-1.3117448 1.7741266 -1.8724915 -1.633208 -1.4525146 1.6375364 -1.4147582 -1.7858489
-1.7560686 -0.928531 -1.3233336 -0.9895827 -1.8017155 1.6315933 1.4081491 0.15991941
1.6715705 -1.345397 1.552257 -1.3877016 -1.3417186 -1.4004226 0.04142952 1.1108384
-1.2857686 -1.8409265 -1.5356288 -1.4168584 -1.564251 -1.0752685 -1.5919147 -1.6917186
1.5976449 -1.4299613 -0.11776262 1.3298596 -1.2149355 -1.5017464 -1.3724344 -1.5287809
-1.3674355 -1.3516324 -1.5206172 1.0267193 0.0075576957 -1.362165 -1.4958576 -1.4212034
-1.1723003 0.20871045 -1.6116041 -1.5408565 1.373707 -1.5264578 -1.5171652 -1.5862551
-1.6311021 -1.4221224 -1.0240891 -1.3292245 1.2588488 -1.7774285 -1.4412935 0.13629396
-1.6694514 0.024934148 -0.8829663 -1.4100101 -1.687042 -1.6255689 -1.5914576 -1.4086394
-1.4032763 -1.6342857 -1.6425798 -1.511834 -1.2515894 -0.02218618 0.057912346 -0.10601911
-1.0800427 -1.3262918 -1.4728452 -1.4883907 -1.3820013 -1.3775415 0.07112231 -1.4834881
-1.5786111 -1.537174 -1.2778593 -1.585727 -1.3118038 -1.5386119 -1.6222413 -1.5260688
-1.4498291 -1.5932839 -0.098359816 -0.058967978 -1.6323025 -1.7362287 -1.6377573 -1.6065339
-1.4475163 -1.4325314 -1.7059606 -1.6564133 -1.6269387 -1.5602822 -1.4647708 -1.5148181
-1.7682352 -1.6189549 -1.7290543 -1.4483339 -1.6645445 -1.7841755 -1.4227911 -1.3716254
-1.6454475 -1.5439228 -1.2646039 -1.7795624 -1.4793485 -1.5743096 -1.730511 -1.4769984
-1.5861397 -1.4933065 -1.6124818 -1.6720568 -1.4839418 -1.6425251 -1.4885334 -1.3512018
-1.5149667 -1.4730059 -1.4972551 -1.5685178 -1.7216522 -1.435872 -1.4968257 -1.1849023
-1.5821406 -1.6640251 -1.5138246 -1.511588 -1.442512 -1.5661225 1.5867274 -1.4884448
-0.014237532 -0.12225309 -1.6691391 -0.068791404 -0.013895336 -1.5264202 -1.7566595 -1.5816355
-1.6454158 -1.6610932 0.18985756 -0.024028711 -0.20323095 -1.6630718 -1.7315079 -1.677271
-1.3902161 -1.3401109 -1.4678397 -1.6094265 -0.13881628 0.20658821 -1.5489893 -1.6203257
-1.5717701 -0.23947264 -1.5990646 -1.4793231 -0.048214905 -0.09485568 -1.5556227 -1.4547782
-1.4670137 -0.24830231 -1.6588752 -1.600051 -1.5833436 -1.7015054 -1.4332578 0.060691334
-1.5004164 -0.06426198 -1.636363 -1.4821621 -0.2515231 -1.7396472 -1.6009398 0.31165546
-1.5776807 -1.7017045 -1.5833992 -1.4038117 -1.5904918 -1.5106738 -1.6125494 0.10244202
-1.399083 -0.14801867 0.057573415 -0.09632625 -1.2757546 -1.4746394 0.07860716 -1.3310287
00000000: 85ce 99bf 7f4b b0bf 68a7 d4bf cf30 92bf
00000010: 25fe e2bf c140 e2bf 8178 93bf 2ef6 92bf
00000020: 9aaf d7bf 8d84 bebf 6384 5c3f cdbf bfbf
00000030: 462e d3bf 62b6 babf 1184 a9bf 462e 82bf
00000040: f9e7 b8bf a17f b3bf 531d b2bf 07b9 b6bf
00000050: eea8 cf3f ed72 c43f 31b5 b2bf 00a4 9bbf
00000060: 37c4 a33f 9e39 363e b98b a2bf 143c b4bf
00000070: 0d46 b73f 059d b8bf edfe abbf 3686 92bf
00000080: 80ee 7fbf 4664 a5bf e180 c0bf 4bb1 bbbf
00000090: 45e5 c4bf 495b 94bf 345b bfbf 61f7 d83f
000000a0: 41e7 a7bf 9516 e33f cdad efbf f60c d1bf
000000b0: 00ec b9bf cb9a d13f cc16 b5bf b296 e4bf
000000c0: dbc6 e0bf 35b4 6dbf ff62 a9bf 4b55 7dbf
000000d0: 9d9e e6bf 0dd8 d03f 3b3e b43f eac1 233e
000000e0: 06f6 d53f f835 acbf 5bb0 c63f 35a0 b1bf
000000f0: 6fbd abbf 0c41 b3bf 00b2 293d f42f 8e3f
00000100: 1194 a4bf 7ba3 ebbf 7c8f c4bf 9e5b b5bf
00000110: 6039 c8bf 66a2 89bf dcc3 cbbf 3c8a d8bf
00000120: a17f cc3f f908 b7bf 872d f1bd d738 aa3f
00000130: 0283 9bbf 3a39 c0bf eeab afbf 18af c3bf
00000140: 2008 afbf 4a02 adbf 96a3 c2bf 8a6b 833f
00000150: 8ca6 f73b 6c5b aebf 4378 bfbf fee9 b5bf
00000160: f00d 96bf 31b8 553e 0b49 cebf c93a c5bf
00000170: a2d5 af3f f862 c3bf 7832 c2bf 680a cbbf
00000180: f4c7 d0bf 1b08 b6bf 5a15 83bf 0724 aabf
00000190: f521 a13f c782 e3bf 4e7c b8bf a590 0b3e
000001a0: 95b0 d5bf b342 cc3c 140a 62bf 367b b4bf
000001b0: fef0 d7bf a412 d0bf e2b4 cbbf 4c4e b4bf
000001c0: 8f9e b3bf 4630 d1bf 0e40 d2bf c783 c1bf
000001d0: 1534 a0bf cbbf b5bc 7f35 6d3d 8c20 d9bd
000001e0: d73e 8abf eec3 a9bf 3186 bcbf 9683 bebf
000001f0: 6be5 b0bf 4853 b0bf 93a8 913d f0e2 bdbf
00000200: ee0f cabf 1ec2 c4bf e590 a3bf 1af9 cabf
00000210: 30e9 a7bf 3cf1 c4bf 9aa5 cfbf 3956 c3bf
00000220: 0094 b9bf baf0 cbbf df70 c9bd 6888 71bd
00000230: 4aef d0bf be3c debf 08a2 d1bf e7a2 cdbf
00000240: 3748 b9bf 305d b7bf eb5c dabf 5a05 d4bf
00000250: 873f d0bf 54b7 c7bf 9c7d bbbf 8fe5 c1bf
00000260: 8855 e2bf ea39 cfbf a751 ddbf 0163 b9bf
00000270: cb0f d5bf dd5f e4bf 051e b6bf 6c91 afbf
00000280: 069e d2bf 439f c5bf 8ade a1bf b3c8 e3bf
00000290: 4b5b bdbf fa82 c9bf 6281 ddbf 490e bdbf
000002a0: a006 cbbf ab24 bfbf ce65 cebf f505 d6bf
000002b0: cef1 bdbf 433e d2bf 4388 bebf 2ef4 acbf
000002c0: 6eea c1bf 758b bcbf 0ea6 bfbf 31c5 c8bf
000002d0: 195f dcbf a7ca b7bf fc97 bfbf e1aa 97bf
000002e0: 9583 cabf c6fe d4bf 01c5 c1bf b77b c1bf
000002f0: 3ca4 b8bf b476 c8bf e219 cb3f 5c85 bebf
00000300: 8a44 69bc d45f fabd 5aa6 d5bf 82e2 8cbd
00000310: 43a9 63bc bd61 c3bf 38da e0bf 0873 cabf
00000320: fc9c d2bf b49e d4bf 056a 423e dcd7 c4bc
00000330: c61b 50be 89df d4bf 0da2 ddbf d1b0 d6bf
00000340: 9af2 b1bf c188 abbf 2ce2 bbbf b001 cebf
00000350: db25 0ebe dc8b 533e 4845 c6bf d566 cfbf
00000360: c32f c9bf 5138 75be 26ae ccbf 765a bdbf
00000370: fe7c 45bd b243 c2bd a51e c7bf 2c36 babf
00000380: 1bc7 bbbf f642 7ebe 0656 d4bf 79ce ccbf
00000390: 01ab cabf eeca d9bf fe74 b7bf 7a97 783d
000003a0: a50d c0bf c99b 83bd 5874 d1bf 7db7 bdbf
000003b0: a3c7 80be c2ac debf 98eb ccbf 4e91 9f3e
000003c0: 71f1 c9bf 74d1 d9bf d3ac cabf 1ab0 b3bf
000003d0: 3c95 cbbf c25d c1bf 0568 cebf 1fcd d13d
000003e0: 2715 b3bf 3592 17be 1ad2 6b3d b246 c5bd
000003f0: ed4b a3bf fcc0 bcbf cafc a03d 265f aabf

FK_LAYER.joints.0.p_offset f4 [3, 1]
-5.1291437 -6.1067333 0.07653527
00000000: f221 a4c0 5c6a c3c0 86be 9c3d

FK_LAYER.joints.0.rpy_offset f4 [3]
-0.005135754 0.013852455 -0.006125739
00000000: d449 a8bb 68f5 623c 6cba c8bb

FK_LAYER.joints.1.p_offset f4 [3, 1]
-5.0903006 -6.131609 0.012992497
00000000: bee3 a2c0 2436 c4c0 7bde 543c

FK_LAYER.joints.1.rpy_offset f4 [3]
-0.013027818 -0.0054840273 -0.013475993
00000000: a172 55bc 5bb3 b3bb 69ca 5cbc

FK_LAYER.joints.1.axis f4 [3, 1]
0.5041742 -0.5611629 -0.20235677
00000000: 8f11 013f 5fa8 0fbf 9d36 4fbe

FK_LAYER.joints.1.q_layer.0.weight f4 [1, 64]
-1.0853592 -1.6416934 1.5238737 1.4777598 0.6196088 -0.8363975 1.8236856 -0.3378189
-1.3676783 1.6468654 -1.4448773 1.4358187 -1.2123706 1.4996918 1.7693458 -0.30960166
0.10889852 -1.2037574 -0.8545127 -1.1223062 -0.48626482 1.5913713 -0.50271904 -1.3053966
-1.4060864 -1.7325667 -0.5116102 1.3038688 -1.4953036 -1.376148 -1.2811311 1.7016591
-0.77242655 -1.4470459 1.5781107 -0.7144266 -1.002898 1.0450149 -1.5772841 -1.4980439
-1.405532 -1.4009795 0.20398408 1.3785865 0.20750128 -1.3955069 1.0924995 -1.4947731
0.5019172 1.4731691 -1.0877867 1.5264816 -0.53821635 -0.3161378 -1.3806301 -1.0872761
-0.23710048 1.3472538 -1.4592444 0.46590358 -0.9301397 0.8559956 1.4511356 -1.1657494
00000000: 0ded 8abf 0223 d2bf 4b0e c33f 3c27 bd3f
00000010: af9e 1e3f 261e 56bf 886e e93f 99f6 acbe
00000020: 1510 afbf 7ccc d23f bdf1 b8bf e8c8 b73f
00000030: f62e 9bbf e7f5 bf3f ec79 e23f 1c84 9ebe
00000040: 3006 df3d b914 9abf 58c1 5abf bba7 8fbf
00000050: b4f7 f8be 0eb2 cb3f 32b2 00bf 3c17 a7bf
00000060: a4fa b3bf bfc4 ddbf e3f8 02bf 2ce5 a63f
00000070: 1c66 bfbf 9e25 b0bf 1bfc a3bf f7cf d93f
00000080: bfbd 45bf cd38 b9bf 88ff c93f a9e4 36bf
00000090: f65e 80bf 0cc3 853f 72e4 c9bf e7bf bfbf
000000a0: 79e8 b3bf 4c53 b3bf 34e1 503e 8675 b03f
000000b0: 377b 543e f89f b2bf 06d7 8b3f ba54 bfbf
000000c0: a57d 003f ce90 bc3f 983c 8bbf c063 c33f
000000d0: 8cc8 09bf d0dc a1be 7db8 b0bf dd2b 8bbf
000000e0: 78ca 72be d072 ac3f 85c8 babf ea8a ee3e
000000f0: a31d 6ebf 8722 5b3f d0be b93f 4737 95bf

FK_LAYER.joints.2.p_offset f4 [3, 1]
-5.072589 -6.3451037 -0.19329202
00000000: a652 a2c0 170b cbc0 58ee 45be

FK_LAYER.joints.2.rpy_offset f4 [3]
-0.0120557975 0.01875048 0.0076941717
00000000: ae85 45bc 9b9a 993c 641f fc3b

FK_LAYER.joints.2.axis f4 [3, 1]
-1.3003162 -1.1983265 1.6008259
00000000: c370 a6bf c362 99bf dde7 cc3f

FK_LAYER.joints.2.q_layer.0.weight f4 [1, 64]
-1.2220985 1.3110483 -1.5169339 -0.09109351 -1.493991 1.1072274 1.5240581 1.4900881
1.6690781 -1.4045808 -1.3319347 1.5349822 1.240055 1.1261199 -1.6262611 1.3082615
1.5479254 1.668684 -1.5380749 1.3041571 -1.1252677 -0.71033674 -1.7315532 -1.1726832
-0.44777942 -1.8868691 -1.546303 1.2429857 -1.6884699 -1.5061204 -1.7375321 -1.4272237
1.4222109 -1.4590486 -0.7258485 1.6132175 1.4089478 1.4838285 1.2334948 -1.435335
1.3154572 -1.4712731 1.372791 -1.5647527 -1.5402656 1.4682649 -1.502804 -1.5504032
1.2604232 0.05132859 -1.24026 0.73812723 -1.0835521 1.4934268 -1.6595501 -1.260511
1.471189 -1.3219053 -1.3865877 1.5025638 -1.5323395 1.2752646 -1.4449736 0.79397196
00000000: b96d 9cbf 6ed0 a73f e42a c2bf 3c8f babd
00000010: 193b bfbf a1b9 8d3f 5614 c33f 35bb be3f
00000020: 5aa4 d53f 4ec9 b3bf d67c aabf 4c7a c43f
00000030: 1fba 9e3f b224 903f 5329 d0bf 1d75 a73f
00000040: 6b22 c63f 7097 d53f a3df c4bf 9fee a63f
00000050: c608 90bf a1d8 35bf 89a3 ddbf 7c1a 96bf
00000060: 5843 e5be ed84 f1bf 42ed c5bf 281a 9f3f
00000070: c81f d8bf 8ec8 c0bf 7467 debf 44af b6bf
00000080: 020b b63f 1bc2 babf 35d1 39bf e97d ce3f
00000090: 6758 b43f 18ee bd3f 28e3 9d3f 0fb9 b7bf
000000a0: e760 a83f ad52 bcbf 9eb7 af3f d149 c8bf
000000b0: 6c27 c5bf 1bf0 bb3f e25b c0bf 9d73 c6bf
000000c0: 8c55 a13f ed3d 523d d7c0 9ebf e8f5 3c3f
000000d0: d6b1 8abf 9c28 bf3f 236c d4bf 6d58 a1bf
000000e0: ec4f bc3f 3134 a9bf b57b b1bf 0354 c03f
000000f0: b323 c4bf df3b a33f e5f4 b8bf bf41 4b3f

FK_LAYER.joints.3.p_offset f4 [3, 1]
-5.1192136 -6.3040934 -0.31996453
00000000: 99d0 a3c0 22bb c9c0 64d2 a3be

FK_LAYER.joints.3.rpy_offset f4 [3]
0.011352483 -0.004111867 -0.0003577089
00000000: c4ff 393c d7bc 86bb e08a bbb9

FK_LAYER.joints.3.axis f4 [3, 1]
-0.03131087 -0.13129911 0.8018798
00000000: d43f 00bd 4673 06be ff47 4d3f

FK_LAYER.joints.3.q_layer.0.weight f4 [1, 64]
-1.3775208 1.4151098 1.623108 1.4753249 0.62135476 1.323752 1.227762 1.2802963
0.95057434 1.4560786 -1.5193303 -1.0076061 -1.692506 1.8090105 1.4534142 0.56428707
0.60724735 -1.0648048 -1.5170557 -1.1918385 -0.15028931 1.4305385 1.6162145 -1.3977171
-1.5279559 -1.2149678 -0.49485478 1.4346386 -1.3761522 -1.427297 -1.6323278 1.3923374
-0.36531857 -1.6725323 1.6097276 1.4074321 1.4233584 0.8852998 -1.5159113 -1.3967521
1.1835121 -1.1204234 -1.3974811 1.5545475 0.06276307 -1.1607083 1.8346907 -1.2083616
0.673878 1.1289696 -1.270346 1.6521022 0.60621524 1.064743 -1.4913615 -1.4254122
1.0996578 1.509906 -1.5477251 1.2858728 -1.144876 1.1307285 1.3990619 1.1444113
00000000: 9a52 b0bf 5122 b53f 01c2 cf3f 72d7 bc3f
00000010: 1b11 1f3f b570 a93f 4e27 9d3f c0e0 a33f
00000020: d758 733f c960 ba3f 6a79 c2bf 3df9 80bf
00000030: 09a4 d8bf a88d e73f 7a09 ba3f 1e75 103f
00000040: 9074 1b3f 864b 88bf e22e c2bf 2a8e 98bf
00000050: 71e5 19be e31b b73f 1ee0 ce3f 65e8 b2bf
00000060: 0f94 c3bf 1184 9bbf 9b5d fdbe 3da2 b73f
00000070: c125 b0bf abb1 b6bf 1ef0 d0bf 1d38 b23f
00000080: 090b bbbe 8a15 d6bf 8e0b ce3f bc26 b43f
00000090: 9c30 b63f 02a3 623f 6209 c2bf c6c8 b2bf
000000a0: 537d 973f 096a 8fbf a9e0 b2bf 6afb c63f
000000b0: ed89 803d 1792 94bf 25d7 ea3f 98ab 9abf
000000c0: 4583 2c3f 1382 903f b39a a2bf 1678 d33f
000000d0: ec30 1b3f 8049 883f efe4 bebf e873 b6bf
000000e0: 96c1 8c3f 9a44 c13f db1b c6bf 7b97 a43f
000000f0: 4c8b 92bf b6bb 903f 7614 b33f 127c 923f

FK_LAYER.joints.4.p_offset f4 [3, 1]
-5.110397 -6.3538537 -0.27873814
00000000: 5f88 a3c0 c552 cbc0 c4b6 8ebe

FK_LAYER.joints.4.rpy_offset f4 [3]
-0.00630807 0.0011994105 0.0018242621
00000000: edb3 cebb 8a35 9d3a 141c ef3a

FK_LAYER.joints.4.axis f4 [3, 1]
0.11946091 0.19901288 0.15253577
00000000: eca7 f43d 08ca 4b3e 5632 1c3e

FK_LAYER.joints.4.q_layer.0.weight f4 [1, 64]
-1.3433248 1.3532596 1.3869549 1.1434141 -0.59582627 1.4325261 1.6718954 0.29722017
1.2842408 -1.394848 -1.6846664 -0.88583803 -1.1880043 1.4203132 1.546306 0.30376595
0.4243981 -1.4878759 -1.7803195 -1.3168744 0.5094143 1.5025222 -0.3449898 -1.4694984
-1.231046 -1.4892927 0.51979405 1.3541412 -1.1343168 -1.2796167 -1.2874671 1.5166628
-0.82300335 -1.3990787 1.6554246 1.2898307 1.6706456 1.5315788 -1.4116559 -1.8948506
1.0121813 -1.2283332 -1.4880662 1.8111552 0.16512132 -1.5433911 -1.2934686 -1.7543997
1.4661819 1.1633116 -1.5009058 1.7708491 0.19916213 0.7423687 -1.3642176 -1.4066795
-0.21673825 1.5108314 -1.1350914 1.0160278 -1.1842892 -0.38469714 1.5274671 1.3953627
00000000: 11f2 abbf 9c37 ad3f bd87 b13f 655b 923f
00000010: 1288 18bf 045d b73f ab00 d63f 3e2d 983e
00000020: 0162 a43f 618a b2bf 26a3 d7bf 48c6 62bf
00000030: 8610 98bf d3cc b53f 5bed c53f 3687 9b3e
00000040: b54a d93e b872 bebf 82e1 e3bf 578f a8bf
00000050: fa68 023f a652 c03f 81a2 b0be 8618 bcbf
00000060: ea92 9dbf 25a1 bebf 3911 053f 8054 ad3f
00000070: 4b31 91bf 7bca a3bf b9cb a4bf 0222 c23f
00000080: 59b0 52bf 0315 b3bf f4e4 d33f 2c19 a53f
00000090: b7d7 d53f c60a c43f 24b1 b4bf 778a f2bf
000000a0: 288f 813f 063a 9dbf f478 bebf efd3 e73f
000000b0: 9015 293e d78d c5bf 6190 a5bf 2b90 e0bf
000000c0: d9ab bb3f 65e7 943f ae1d c0bf 2fab e23f
000000d0: 28f1 4b3e e00b 3e3f af9e aebf 130e b4bf
000000e0: a2f0 5dbe ec62 c13f ad4a 91bf 330d 823f
000000f0: ca96 97bf 06f7 c4be 0b84 c33f 3f9b b23f

FK_LAYER.joints.5.p_offset f4 [3, 1]
-5.108772 -6.368555 -0.39005935
00000000: 0f7b a3c0 34cb cbc0 dcb5 c7be

FK_LAYER.joints.5.rpy_offset f4 [3]
-0.008457534 -0.0046757665 0.008091509
00000000: 7891 0abc 2c37 99bb 4092 043c

FK_LAYER.joints.5.axis f4 [3, 1]
-1.339291 -1.4343003 1.5531883
00000000: e36d abbf 2797 b7bf e0ce c63f

FK_LAYER.joints.5.q_layer.0.weight f4 [1, 64]
-1.3842568 1.4022659 -1.4515468 0.107931614 -1.5414779 0.79150814 -1.5094098 1.4228634
1.8494761 -1.6452487 1.3145238 -1.8009015 -1.4745588 -1.3526524 -1.6042904 1.8227082
1.6310637 1.1902534 -1.5693773 -1.5814047 -1.5109967 -1.1762843 -1.546884 -1.4104428
-1.3605205 -1.1247528 -1.529524 -1.1920251 -1.571856 -1.4096589 -1.7392172 -1.7844455
1.4149357 -1.5280285 -1.4924151 1.1753889 1.6496142 1.4632385 -1.4971106 -1.2422037
1.5740931 -1.4372725 -1.2268206 -1.4157655 -1.3245269 1.3699315 -1.5318893 1.5533016
1.4109993 0.07835801 -1.6274184 -1.7164326 -1.6493051 1.5825686 -1.5079268 -1.6923705
1.5398339 -1.5264698 -1.2997501 1.2467839 -1.5607114 1.5606053 -1.5760019 0.115822956
00000000: 542f b1bf 737d b33f 49cc b9bf 400b dd3d
00000010: 264f c5bf 47a0 4a3f 5734 c1bf 6320 b63f
00000020: a2bb ec3f 8297 d2bf 5142 a83f f183 e6bf
00000030: 58be bcbf b723 adbf 6359 cdbf 814e e93f
00000040: b2c6 d03f 395a 983f 5be1 c8bf 786b cabf
00000050: 5768 c1bf 7c90 96bf 4b00 c6bf 6489 b4bf
00000060: 8925 aebf e6f7 8fbf 71c7 c3bf 4794 98bf
00000070: 9432 c9bf b46f b4bf ab9e debf b668 e4bf
00000080: 9d1c b53f 7096 c3bf 7507 bfbf 2573 963f
00000090: 8f26 d33f 664b bb3f 52a1 bfbf 8800 9fbf
000000a0: e27b c93f 8cf8 b7bf 7508 9dbf ce37 b5bf
000000b0: 198a a9bf ea59 af3f f314 c4bf 96d2 c63f
000000c0: a09b b43f 2a7a a03d 3f4f d0bf 10b4 dbbf
000000d0: 6e1c d3bf 9c91 ca3f bf03 c1bf 999f d8bf
000000e0: 4719 c53f 5d63 c3bf 365e a6bf 9d96 9f3f
000000f0: 64c5 c7bf eac1 c73f 6eba c9bf 9634 ed3d

FK_LAYER.joints.6.p_offset f4 [3, 1]
-5.162024 -6.323601 -0.4276568
00000000: 4d2f a5c0 f05a cac0 d5f5 dabe

FK_LAYER.joints.6.rpy_offset f4 [3]
0.004313002 -0.0066009425 0.030191332
00000000: 1554 8d3b b84c d8bb d053 f73c

FK_LAYER.joints.6.axis f4 [3, 1]
-0.076470956 -0.110189706 0.15885341
00000000: ce9c 9cbd 24ab e1bd 78aa 223e

FK_LAYER.joints.6.q_layer.0.weight f4 [1, 64]
1.2422752 -1.3525254 -1.563258 -1.3575709 0.08135299 -1.0539204 -1.479474 -1.0566628
-0.9857162 1.3274378 1.5579529 -1.2556505 1.5314451 1.2855152 -1.7036703 -0.778116
-1.0202575 -1.5159515 1.2351676 -1.6028746 0.51747507 -1.4562092 -1.5431843 -1.2429297
1.5299112 1.3762561 0.23879968 -1.7791857 -1.22902 1.8499465 1.4444659 -1.6202588
0.5581703 1.3415841 -1.4582807 -1.3706987 -1.2126173 -1.1645352 -1.4618516 1.346218
-1.2448905 -1.136895 1.3078756 -1.4288853 -0.19436829 1.478801 -1.3126168 1.531715
-1.3016182 -0.84620535 -1.4900107 -1.5902249 -0.56812465 -1.0813191 1.4767326 -1.1024615
-0.90206194 -1.4837216 -0.9198903 -1.3757472 1.0069201 -0.8821297 -1.3200107 -1.5027741
00000000: e002 9f3f 8d1f adbf d718 c8bf e2c4 adbf
00000010: 659c a63d dde6 86bf 675f bdbf ba40 87bf
00000020: e657 7cbf 7be9 a93f 006b c73f 28b9 a0bf
00000030: 6506 c43f c38b a43f de11 dabf 9c32 47bf
00000040: cc97 82bf b30a c2bf f919 9e3f ff2a cdbf
00000050: 3f79 043f 1065 babf 1087 c5bf 5218 9fbf
00000060: 21d4 c33f 2929 b03f e787 743e 5bbc e3bf
00000070: 8750 9dbf 0ccb ec3f 42e4 b83f a464 cfbf
00000080: 40e4 0e3f 07b9 ab3f f1a8 babf 0e73 afbf
00000090: 0b37 9bbf 7d0f 95bf f41d bbbf df50 ac3f
000000a0: 9258 9fbf c685 91bf 7868 a73f b7e5 b6bf
000000b0: 7b08 47be 5a49 bd3f d403 a8bf 3d0f c43f
000000c0: 6d9b a6bf eaa0 58bf acb8 bebf 7d8c cbbf
000000d0: 9e70 11bf aa68 8abf 9305 bd3f 751d 8dbf
000000e0: 88ed 66bf 97ea bdbf ee7d 6bbf 7c18 b0bf
000000f0: c2e2 803f 41d3 61bf 1cf6 a8bf e75a c0bf

FK_LAYER.joints.7.p_offset f4 [3, 1]
-2.801204 -3.2685535 41.52029
00000000: ed46 33c0 fb2f 51c0 c714 2642

FK_LAYER.joints.7.rpy_offset f4 [3]
-0.0007624687 -0.013775487 -0.011648476
00000000: 69e0 47ba 95b2 61bc 40d9 3ebc

FK_LAYER.joints.8.p_offset f4 [3, 1]
-2.1992226 -3.3148165 41.690304
00000000: 10c0 0cc0 f425 54c0 dfc2 2642

FK_LAYER.joints.8.rpy_offset f4 [3]
-0.0012447601 -0.0071169985 -0.0058481204
00000000: 3827 a3ba b635 e9bb 97a1 bfbb

FK_LAYER.joints.8.axis f4 [3, 1]
-0.30396318 -0.17336349 -0.26111725
00000000: 10a1 9bbe 3386 31be 29b1 85be

FK_LAYER.joints.8.q_layer.0.weight f4 [1, 64]
1.1449633 1.2063116 1.6940162 1.3600123 -0.740142 0.12609684 1.4797441 0.017381342
-1.2110672 -1.3266577 -1.4131669 -1.1207985 -1.1913788 -1.7949444 1.9142765 -0.010788185
-0.85377073 -0.24541259 -1.737675 -1.2554871 0.24812229 1.469694 -0.46280178 -1.4546381
-1.8387101 -1.2373586 0.4622859 1.2256992 -1.4276589 -1.4762477 -1.1285362 1.2273319
-0.11251374 -1.3509861 1.2946614 -0.7520351 1.132325 -1.4282635 -1.3320873 -1.3839759
1.1543511 1.0667679 -1.2602798 1.6959285 0.22290319 -1.6832399 -1.5510899 -1.7333617
-1.3230551 1.006516 1.0113511 1.6398108 -0.58301705 1.060362 -1.4572682 -1.5622998
-0.1489118 1.4523203 -1.8371902 0.84687173 1.3878518 -0.9496382 1.569006 1.3485024
00000000: 288e 923f 6b68 9a3f 86d5 d83f e214 ae3f
00000010: f279 3dbf 881f 013e 4168 bd3f 5163 8e3c
00000020: 4004 9bbf ebcf a9bf a7e2 b4bf 5376 8fbf
00000030: 1a7f 98bf bdc0 e5bf 0307 f53f edc0 30bc
00000040: b890 5abf 704d 7bbe 226c debf cdb3 a0bf
00000050: c513 7e3e ef1e bc3f 5bf4 ecbe 9531 babf
00000060: da5a ebbf c461 9ebf bdb0 ec3e b6e3 9c3f
00000070: 87bd b6bf aff5 bcbf e073 90bf 3619 9d3f
00000080: 9b6d e6bd 1ded acbf 77b7 a53f 5f85 40bf
00000090: 07f0 903f 57d1 b6bf d681 aabf 1f26 b1bf
000000a0: c7c1 933f da8b 883f d950 a1bf 2f14 d93f
000000b0: bc40 643e 6874 d7bf 1d8a c6bf ccde ddbf
000000c0: df59 a9bf 84d5 803f f473 813f 52e5 d13f
000000d0: 9b40 15bf f1b9 873f c487 babf 71f9 c7bf
000000e0: 567c 18be a2e5 b93f 0c29 ebbf 96cc 583f
000000f0: 21a5 b13f 7d1b 73bf 30d5 c83f ba9b ac3f

FK_LAYER.joints.9.p_offset f4 [3, 1]
-1.8882828 -3.3706524 41.75225
00000000: 40b3 f1bf c5b8 57c0 4e02 2742

FK_LAYER.joints.9.rpy_offset f4 [3]
-0.018854257 -0.01191013 0.00024187632
00000000: 3e74 9abc b522 43bc 2ea0 7d39

FK_LAYER.joints.9.axis f4 [3, 1]
0.6860771 -0.49762398 1.5593145
00000000: c0a2 2f3f 92c8 febe 9e97 c73f

FK_LAYER.joints.9.q_layer.0.weight f4 [1, 64]
-1.6753261 1.3299973 -1.375028 -0.05583899 -1.6161463 0.883965 -1.723737 1.5622215
1.4269141 -1.455272 1.5976361 -1.420464 1.1833397 -1.3954962 -1.3756158 1.7029172
1.7266439 1.3057085 -1.5213675 -1.7795663 -1.4075521 -1.4002224 0.61471856 -1.3083129
1.506453 1.5943636 -1.3615137 -0.9662704 -1.2541915 1.530947 1.2980604 -1.4813169
1.2402831 1.5296073 -0.7035119 0.94226503 1.3923191 1.5003678 1.2712117 1.3763511
1.2985867 -1.3518105 -1.4802321 -1.5662953 -1.4506155 -1.2900038 -1.5856571 1.5364094
1.7318242 0.24642648 -1.5151387 0.5338478 0.85050637 1.5053107 1.1695485 -1.4512564
1.7830564 -1.3300002 -1.4530146 1.5484078 -1.4713296 1.6499631 -1.5957841 0.91861355
00000000: 1671 d6bf 5a3d aa3f eb00 b0bf 6db7 64bd
00000010: e2dd cebf 884b 623f 6aa3 dcbf e0f6 c73f
00000020: 1fa5 b63f 5a46 babf 577f cc3f c4d1 b5bf
00000030: ad77 973f 9f9f b2bf 2e14 b0bf 31f9 d93f
00000040: ab02 dd3f 7521 a73f 2cbc c2bf d4c8 e3bf
00000050: ab2a b4bf 7d3a b3bf 325e 1d3f cc76 a7bf
00000060: 74d3 c03f 1b14 cc3f 1546 aebf 7f5d 77bf
00000070: 5989 a0bf 12f6 c33f d826 a63f cb9b bdbf
00000080: 99c1 9e3f 2cca c33f 5b19 34bf 4838 713f
00000090: 8337 b23f 0d0c c03f 11b7 a23f 462c b03f
000000a0: 1738 a63f 2008 adbf 3f78 bdbf 5d7c c8bf
000000b0: c5ad b9bf d81e a5bf d0f6 cabf 10a9 c43f
000000c0: 6aac dd3f 3957 7c3e 11f0 c1bf 40aa 083f
000000d0: c9ba 593f 05ae c03f c4b3 953f c5c2 b9bf
000000e0: 313b e43f 723d aabf 62fc b9bf 3a32 c63f
000000f0: 8754 bcbf fe31 d33f a742 ccbf 422a 6b3f

FK_LAYER.joints.10.p_offset f4 [3, 1]
-1.3850574 -4.1674666 41.669548
00000000: 9049 b1bf e35b 85c0 9ead 2642

FK_LAYER.joints.10.rpy_offset f4 [3]
-1.9665367e-05 -0.017704379 0.0008590756
00000000: 0ef7 a4b7 c608 91bc 9633 613a

FK_LAYER.joints.10.axis f4 [3, 1]
-0.23048095 0.16496418 0.15626626
00000000: 3303 6cbe 5fec 283e 4304 203e

FK_LAYER.joints.10.q_layer.0.weight f4 [1, 64]
0.7728631 -1.2954837 -1.4781672 -0.9505874 0.79616565 0.7369361 -1.7567104 -0.7555587
-1.0850587 1.2230093 1.2635055 -1.2793052 1.3410939 1.4539665 -1.6745969 -0.5297785
-0.8846816 -1.2790415 -1.4877337 -1.436251 -0.5379647 -1.6590829 -1.8746942 -1.6694763
1.3921682 1.4576707 0.52000123 -1.2924656 -1.4329143 1.5000209 1.3610531 -1.6689919
0.0061685033 1.2901436 -1.3645004 -1.0905204 -1.343617 1.3195641 -1.2260785 1.5263188
-0.6889527 -1.1289525 1.2432208 -1.5722904 0.0638654 1.5815216 1.5101879 1.5900942
-0.97471106 -0.6728693 -1.5360049 0.39829722 -0.42366678 -0.88385373 1.5783516 -1.2858763
-0.8708766 -1.2770661 -1.0316088 -1.2453996 0.9006748 -0.96543586 -1.7223028 0.7390974
00000000: 5bda 453f 69d2 a5bf 9534 bdbf b259 73bf
00000010: 83d1 4b3f d8a7 3c3f e3db e0bf 4c6c 41bf
00000020: 34e3 8abf 928b 9c3f 8cba a13f 46c0 a3bf
00000030: f7a8 ab3f 931b ba3f 3159 d6bf 909f 07bf
00000040: 7e7a 62bf a2b7 a3bf 0f6e bebf 13d7 b7bf
00000050: 0eb8 09bf d45c d4bf fbf5 efbf 66b1 d5bf
00000060: 9132 b23f f494 ba3f cd1e 053f 836f a5bf
00000070: bc69 b7bf af00 c03f fd36 ae3f 87a1 d5bf
00000080: 2821 ca3b 6d23 a53f f3a7 aebf 2c96 8bbf
00000090: a4fb abbf 7ae7 a83f 24f0 9cbf 6a5e c33f
000000a0: 345f 30bf 8481 90bf dc21 9f3f d040 c9bf
000000b0: ddcb 823d 4d6f ca3f d64d c13f 3588 cb3f
000000c0: aa86 79bf 2a41 2cbf cf9b c4bf 9ded cb3e
000000d0: daea d8be 3d44 62bf 6d07 ca3f 9897 a4bf
000000e0: c5f1 5ebf e776 a3bf c20b 84bf 4169 9fbf
000000f0: a092 663f ce26 77bf 6b74 dcbf 7d35 3d3f

FK_LAYER.joints.11.p_offset f4 [3, 1]
-0.6392924 -4.168441 41.85933
00000000: aba8 23bf de63 85c0 f46f 2742

FK_LAYER.joints.11.rpy_offset f4 [3]
0.01165331 0.009282927 -0.024325995
00000000: 86ed 3e3c 6b17 183c 4f47 c7bc

FK_LAYER.joints.11.axis f4 [3, 1]
0.2765673 0.061426915 0.5214517
00000000: 3b9a 8d3e ca9a 7b3d dc7d 053f

FK_LAYER.joints.11.q_layer.0.weight f4 [1, 64]
1.2850165 -1.4917724 -1.6175708 -0.99724793 -0.60994756 -1.2856694 1.21017 0.55930245
0.8993466 -1.5435137 -1.4583623 -1.0134287 1.2871144 -1.7656538 -1.3726066 0.2382125
-0.36122614 -1.369755 1.0133772 -1.3562882 0.47232744 -1.8353854 0.65351003 -1.2705511
-1.4225414 -1.4919032 0.30359718 1.5984204 -1.2208692 -1.6180072 1.2725711 -1.5341305
-0.07068671 -1.5609384 -1.5615472 1.1938956 1.3469998 -1.1940428 -1.3151661 -1.729691
1.0642271 1.1032834 -1.321224 -1.6624993 -0.12990877 1.3504428 -1.8051211 -1.3576722
1.2740017 -0.7285003 1.5003957 -1.6616555 0.69009393 0.5116613 -1.4770532 -1.1723447
0.62561 -1.4374967 1.1904093 -1.3637661 -0.8992193 0.9158341 -1.6541036 -1.0468615
00000000: 6c7b a43f 66f2 bebf 8f0c cfbf a44b 7fbf
00000010: 8625 1cbf d190 a4bf dae6 9a3f 722e 0f3f
00000020: 943b 663f db91 c5bf 9eab babf 08b8 81bf
00000030: 2ac0 a43f f200 e2bf 93b1 afbf faed 733e
00000040: a2f2 b8be 2254 afbf 58b6 813f da9a adbf
00000050: e7d4 f13e e9ed eabf 6f4c 273f 6ba1 a2bf
00000060: d615 b6bf aff6 bebf 1771 9b3e 0a99 cc3f
00000070: 7145 9cbf dc1a cfbf 9ce3 a23f 635e c4bf
00000080: 32c4 90bd d4cc c7bf c7e0 c7bf 92d1 983f
00000090: 7d6a ac3f 65d6 98bf 5d57 a8bf 8466 ddbf
000000a0: 9838 883f 6438 8d3f de1d a9bf c7cc d4bf
000000b0: ce06 05be 4fdb ac3f 350e e7bf 34c8 adbf
000000c0: 7d12 a33f ff7e 3abf f70c c03f 21b1 d4bf
000000d0: ffa9 303f 3cfc 023f 1410 bdbf 640f 96bf
000000e0: fa27 203f e4ff b7bf 555f 983f e38f aebf
000000f0: 3c33 66bf 1b74 6a3f abb9 d3bf 8fff 85bf

FK_LAYER.joints.12.p_offset f4 [3, 1]
-0.96932125 -3.652224 41.86717
00000000: 7025 78bf 0abe 69c0 fb77 2742

FK_LAYER.joints.12.rpy_offset f4 [3]
0.015526098 -0.010309763 0.001949361
00000000: 2d61 7e3c 48ea 28bc b381 ff3a

FK_LAYER.joints.12.axis f4 [3, 1]
-1.6503029 -0.5908501 -1.835132
00000000: 203d d3bf f441 17bf 9be5 eabf

FK_LAYER.joints.12.q_layer.0.weight f4 [1, 64]
1.8417114 -1.5031772 1.7319728 0.38455677 1.6013014 -0.83295864 1.440507 -1.3324949
-1.76614 1.808369 1.5102808 1.2774171 1.6606761 1.4561547 1.9758927 -1.4732798
-1.3935611 -1.2285914 1.5289013 1.821209 1.7073499 1.3774786 -0.2566925 1.6784005
1.1489846 1.5263854 1.3256094 1.4672155 1.8090217 1.8351 1.7299398 1.5032665
-0.7527448 1.6709186 1.2099831 -1.1253158 -1.8438488 -1.4576391 1.4253912 1.4277086
-1.4355627 1.6291499 1.5042391 1.4164366 1.8595873 1.6387271 1.1647182 1.7482957
-1.7400421 0.2501926 1.8193492 -1.0245929 -0.82150894 -1.7489076 1.6850436 1.3672694
-1.5224558 1.5433812 1.8814493 -1.5537782 1.786867 -1.7580591 1.5790722 -1.4515547
00000000: 33bd eb3f 1c68 c0bf 49b1 dd3f a0e4 c43e
00000010: 72f7 cc3f c73c 55bf 8962 b83f 318f aabf
00000020: e010 e2bf a378 e73f e250 c13f 6782 a33f
00000030: 0991 d43f 4763 ba3f 0dea fc3f 6f94 bcbf
00000040: 3660 b2bf 7c42 9dbf 0ab3 c33f 601d e93f
00000050: 718a da3f 3851 b03f 336d 83be d4d5 d63f
00000060: ed11 933f 9960 c33f 92ad a93f b8cd bb3f
00000070: 068e e73f 8fe4 ea3f ab6e dd3f 096b c03f
00000080: e2b3 40bf a9e0 d53f bae0 9a3f 590a 90bf
00000090: 3d03 ecbf eb93 babf 3873 b63f 28bf b63f
000000a0: 85c0 b7bf fc87 d03f e88a c03f cb4d b53f
000000b0: f506 ee3f cfc1 d13f 7c15 953f 27c8 df3f
000000c0: b3b9 debf 3f19 803e 6fe0 e83f dc25 83bf
000000d0: 694e 52bf 34dc dfbf 82af d73f af02 af3f
000000e0: d5df c2bf 848d c53f 55d3 f03f 34e2 c6bf
000000f0: 0fb8 e43f 1508 e1bf 0a1f ca3f 8bcc b9bf

FK_LAYER.joints.13.p_offset f4 [3, 1]
-0.5375627 -2.9970837 42.107853
00000000: b69d 09bf 38d0 3fc0 716e 2842

FK_LAYER.joints.13.rpy_offset f4 [3]
0.017833937 -0.012202079 -0.007576711
00000000: 7a18 923c 3beb 47bc 0f46 f8bb

FK_LAYER.joints.13.axis f4 [3, 1]
0.81436545 -0.40893358 0.36474374
00000000: 417a 503f be5f d1be b1bf ba3e

FK_LAYER.joints.13.q_layer.0.weight f4 [1, 64]
-1.2819072 -1.3409389 1.592072 1.6480099 -0.35670468 -0.82640743 1.4349866 0.74499047
0.88868153 1.2541628 -1.1172398 1.1629562 -1.2356699 1.4264355 1.552646 0.30459055
0.16452406 -1.2623712 -1.4560091 -1.4793552 -0.14578852 1.3366727 -0.45004532 1.182442
-1.4556887 -1.570026 -0.11574816 1.5489517 -1.061505 -1.3485458 -1.3564597 1.3800181
-0.82411385 -1.5224518 1.5877477 1.2175128 -1.0644276 1.0765004 -1.0877523 -1.4901407
-1.4071013 -1.1342373 -0.0030224863 1.3987535 0.54700965 -1.3759162 1.363829 -1.5428859
0.76222646 1.5326312 -1.2916602 1.4344916 -0.4211456 0.5611068 -1.5168858 -1.4749609
0.240194 1.4276118 -1.1675389 0.86939883 -0.75703216 1.0214608 1.5784621 -0.9035679
00000000: 8915 a4bf e3a3 abbf 04c9 cb3f fdf1 d23f
00000010: ffa1 b6be 708f 53bf a4ad b73f b2b7 3e3f
00000020: a280 633f 6888 a03f b701 8fbf c0db 943f
00000030: 6e2a 9ebf 7095 b63f 1bbd c63f 4bf3 9b3e
00000040: ff78 283e 6195 a1bf 825e babf 835b bdbf
00000050: 9649 15be 1718 ab3f 576c e6be 425a 973f
00000060: 0254 babf 9df6 c8bf 5f0d edbd 0d44 c63f
00000070: 65df 87bf 269d acbf 79a0 adbf 6fa4 b03f
00000080: 20f9 52bf b3df c2bf 513b cb3f 76d7 9b3f
00000090: 2a3f 88bf c4ca 893f 783b 8bbf eebc bebf
000000a0: e51b b4bf b02e 91bf e814 46bb 5b0a b33f
000000b0: d308 0c3f 061e b0bf f391 ae3f 497d c5bf
000000c0: 4621 433f 422d c43f 1f55 a5bf 6c9d b73f
000000d0: 65a0 d7be b2a4 0f3f 5029 c2bf 85cb bcbf
000000e0: 6af5 753e fcbb b63f ea71 95bf ec90 5e3f
000000f0: dccc 41bf 3abf 823f 0c0b ca3f 3a50 67bf

FK_LAYER.joints.14.p_offset f4 [3, 1]
-2.1787403 -4.4632187 41.8018
00000000: 7b70 0bc0 b0d2 8ec0 0b35 2742

FK_LAYER.joints.14.rpy_offset f4 [3]
0.0074018976 0.0039570313 0.021038888
00000000: 9e8b f23b fca9 813b bf59 ac3c

FK_LAYER.joints.15.p_offset f4 [3, 1]
-2.4056666 -4.1380734 41.835155
00000000: 71f6 19c0 196b 84c0 3357 2742

FK_LAYER.joints.15.rpy_offset f4 [3]
0.021063244 0.0026925416 0.0066311685
00000000: d38c ac3c 5a75 303b 464a d93b

FK_LAYER.joints.15.axis f4 [3, 1]
0.09042646 -0.085773766 -0.8130437
00000000: 8231 b93d 28aa afbd a223 50bf

FK_LAYER.joints.15.q_layer.0.weight f4 [1, 64]
-1.1337874 1.1716081 1.4836026 1.231462 0.37835702 -0.2090661 1.3735222 0.15285084
0.9544297 -1.7973077 -1.5003262 -1.3570908 -1.1368622 -1.3278356 1.6493832 -0.060039032
-0.8789466 -0.6835716 -1.6416487 -1.3406564 0.54709107 1.4381217 1.4832318 -1.2565931
-1.1915886 -1.1894265 0.53608274 1.5480778 -1.1261779 -1.442446 -1.6747985 1.5734026
-0.41489676 -1.4982508 1.6369678 1.7045037 1.6085632 1.2316966 -1.6517822 -1.4637772
-1.1203636 -1.7408559 -1.278877 1.6469086 0.37476456 -1.4052958 1.846762 -1.251718
0.6359682 1.5479795 -1.3931363 1.4171654 0.9165982 -0.66367346 -1.9563378 -1.2921373
-0.12306198 1.8639749 -1.2797054 1.3713412 -1.2451081 -0.7211663 1.3925363 0.8975479
00000000: f21f 91bf 41f7 953f b1e6 bd3f 8ca0 9d3f
00000010: 03b8 c13e 6c15 56be 93cf af3f ee84 1c3e
00000020: 8155 743f 2e0e e6bf b00a c0bf 27b5 adbf
00000030: b384 91bf 84f6 a9bf fd1e d33f 7deb 75bd
00000040: a502 61bf 8cfe 2ebf 8b21 d2bf a19a abbf
00000050: 290e 0c3f 5f14 b83f 8ada bd3f 0bd8 a0bf
00000060: fa85 98bf 213f 98bf b83c 093f 6a27 c63f
00000070: 9926 90bf 12a2 b8bf cc5f d6bf 4265 c93f
00000080: 596d d4be afc6 bfbf 2988 d13f 2d2d da3f
00000090: 66e5 cd3f 3ca8 9d3f 996d d3bf 0d5d bbbf
000000a0: 1368 8fbf 5ed4 debf 3eb2 a3bf e7cd d23f
000000b0: 24e1 bf3e bce0 b3bf b262 ec3f 4c38 a0bf
000000c0: d0ce 223f 3124 c63f 4a52 b2bf ad65 b53f
000000d0: 2ea6 6a3f 81e6 29bf 4769 fabf c164 a5bf
000000e0: eb07 fcbd bb96 ee3f 63cd a3bf 1c88 af3f
000000f0: b45f 9fbf 5b9e 38bf a13e b23f b3c5 653f

FK_LAYER.joints.16.p_offset f4 [3, 1]
-2.5361426 -3.243079 41.958626
00000000: 2950 22c0 9b8e 4fc0 a2d5 2742

FK_LAYER.joints.16.rpy_offset f4 [3]
-0.0057522715 0.0057883174 0.011816263
00000000: 8d7d bcbb edab bd3b 0099 413c

FK_LAYER.joints.16.axis f4 [3, 1]
-0.6105183 -0.93413883 1.6813158
00000000: ed4a 1cbf b923 6fbf 5b35 d73f

FK_LAYER.joints.16.q_layer.0.weight f4 [1, 64]
-1.3417921 1.8790469 -1.6623224 -0.14001843 -1.7034981 1.0325208 -1.4690349 1.7287321
1.6404136 -1.4870558 -1.3463975 -1.530266 -1.8178039 -1.6059991 -1.2768621 1.5181015
1.654705 1.0642259 -1.3710006 -1.7083684 -1.4359941 -1.3738846 0.3924532 -1.4717933
1.2510247 -1.6545175 -1.5616412 -1.347179 -1.490836 1.5399342 -1.5375736 -1.8486735
1.3053377 -1.7034147 -0.8914091 1.2819511 1.4026421 1.5323385 -1.4318593 1.3997167
1.5996095 -1.7455468 -1.5240325 -1.7201508 -2.14317 -1.3189231 -1.3334111 1.6587335
1.6052761 -0.003975254 -1.4387199 0.9676357 -0.5075369 1.8203812 1.2900089 -1.471468
1.8595905 -1.5832908 -1.5605953 1.4404645 -1.8276229 1.8264265 -1.5543133 1.0334332
00000000: d8bf abbf 9c84 f03f fbc6 d4bf fe60 0fbe
00000010: 3a0c dabf a429 843f 5609 bcbf 1847 dd3f
00000020: 13f9 d13f d857 bebf c156 acbf c2df c3bf
00000030: ccad e8bf 6191 cdbf 3870 a3bf 2651 c23f
00000040: 60cd d33f 8e38 883f f37c afbf d1ab dabf
00000050: a8ce b7bf 73db afbf a0ef c83e b963 bcbf
00000060: 9421 a03f 3bc7 d3bf dce3 c7bf 5d70 acbf
00000070: b7d3 bebf 901c c53f 36cf c4bf 55a1 ecbf
00000080: 4e15 a73f 7e09 dabf 6333 64bf f916 a43f
00000090: c789 b33f ab23 c43f 2a47 b7bf eb29 b33f
000000a0: 01c0 cc3f 146e dfbf 7f13 c3bf e72d dcbf
000000b0: b329 09c0 79d2 a8bf 37ad aabf 6151 d43f
000000c0: b079 cd3f d942 82bb f927 b8bf f9b6 773f
000000d0: f0ed 01bf 4002 e93f 031f a53f 1059 bcbf
000000e0: 1007 ee3f 46a9 cabf 96c1 c7bf 2461 b83f
000000f0: 8cef e9bf 58c8 e93f bdf3 c6bf 8a47 843f

FK_LAYER.joints.17.p_offset f4 [3, 1]
-2.7999766 -3.4749036 41.882893
00000000: d132 33c0 d264 5ec0 1588 2742

FK_LAYER.joints.17.rpy_offset f4 [3]
-0.014593334 -0.01179943 -0.0037163657
00000000: e118 6fbc 6552 41bc 458e 73bb

FK_LAYER.joints.17.axis f4 [3, 1]
-0.17842172 0.430028 0.7484509
00000000: 2fb4 36be a12c dc3e 7a9a 3f3f

FK_LAYER.joints.17.q_layer.0.weight f4 [1, 64]
-0.9217054 -1.184803 1.5375752 1.4285661 -0.37138283 0.5593473 1.5166864 0.34271687
0.51712734 -1.3965563 -1.5849801 1.4684241 -1.4429545 1.4649905 1.3071263 0.14799997
-0.08037906 -1.2358326 -1.1704261 -1.0928371 -0.88677007 1.1871215 1.4628506 1.6792742
-1.7177222 -1.3847444 -0.5694559 1.606571 -1.5650711 -1.5323806 -1.3798816 1.2504375
0.11487775 -1.2225837 1.5639604 1.2563453 1.1584616 1.1634152 -1.3917353 -1.2837188
-1.5770375 -1.3671253 -1.644643 1.7040024 -0.30283716 -1.4418082 1.6165421 -1.2282313
-1.4630371 1.4518839 -1.2345098 1.4050535 0.43871564 0.20822334 -1.263775 -0.9557846
0.39082626 1.4832691 -1.3475364 -1.4871298 -0.89385164 0.69992113 1.5277413 -0.82795984
00000000: e3f4 6bbf a0a7 97bf 44cf c43f 41db b63f
00000010: e425 bebe 6231 0f3f c822 c23f 9678 af3e
00000020: 7562 043f 5bc2 b2bf a1e0 cabf 52f5 bb3f
00000030: bcb2 b8bf cf84 bb3f ea4f a73f 4e8d 173e
00000040: c79d a4bd c32f 9ebf 86d0 95bf 16e2 8bbf
00000050: 5d03 63bf 99f3 973f b03e bb3f 75f2 d63f
00000060: 52de dbbf 4e3f b1bf ddc7 11bf 1ea4 cd3f
00000070: 4054 c8bf 0c25 c4bf f69f b0bf 560e a03f
00000080: 0745 eb3d 9f7d 9cbf db2f c83f eccf a03f
00000090: 7848 943f caea 943f 6224 b2bf e650 a4bf
000000a0: 5ddc c9bf f6fd aebf a983 d2bf c01c da3f
000000b0: 790d 9bbe 2c8d b8bf daea ce3f af36 9dbf
000000c0: cd44 bbbf 55d7 b93f 6b04 9ebf cbd8 b33f
000000d0: 569f e03e 8038 553e 61c3 a1bf 4dae 74bf
000000e0: 611a c83e c3db bd3f 137c acbf 455a bebf
000000f0: 76d3 64bf 082e 333f 078d c33f 2df5 53bf

FK_LAYER.joints.18.p_offset f4 [3, 1]
-2.2947202 -4.095865 41.815937
00000000: b2dc 12c0 5311 83c0 8543 2742

FK_LAYER.joints.18.rpy_offset f4 [3]
-0.0033895676 0.012047377 0.013847272
00000000: 8223 5ebb 5d62 453c abdf 623c

FK_LAYER.joints.18.axis f4 [3, 1]
-0.18307863 -0.015870363 0.23901983
00000000: f778 3bbe 9002 82bc 9dc1 743e

FK_LAYER.joints.18.q_layer.0.weight f4 [1, 64]
0.98541534 -0.9196456 1.5452441 1.5704206 0.42974013 1.6876888 -1.7513613 1.3410655
-1.1085359 1.508965 -1.3256198 1.094726 -1.2929232 -1.2057983 1.5657796 0.5039514
0.7513651 0.6377244 -1.6901078 -1.1073865 0.337066 1.5826014 1.6568809 1.2523199
-1.5775446 -1.5819759 0.39627922 -1.4741554 1.1923077 1.5439751 -1.4170089 1.5268983
-0.45589525 1.5437224 1.5892636 -1.1870868 -1.548778 1.4217697 -1.1978767 1.3426301
0.94695646 -1.1317446 -0.16707169 1.7652198 -0.11292417 -1.5882008 1.275406 1.8959019
-1.258218 0.94702244 -1.1156961 1.2552325 -0.7735188 0.872628 -1.4391661 1.1671673
0.33685324 1.4990892 -1.211405 -1.0667038 1.1736307 0.6766197 1.5855649 1.4022973
00000000: 2e44 7c3f e56d 6bbf 8fca c53f 8b03 c93f
00000010: e606 dc3e 3006 d83f 9b2c e0bf 09a8 ab3f
00000020: 81e4 8dbf c425 c13f e9ad a9bf fb1f 8c3f
00000030: 827e a5bf 9957 9abf 776b c83f f502 013f
00000040: 7759 403f e841 233f 7455 d8bf d7be 8dbf
00000050: ea93 ac3e af92 ca3f ac14 d43f 054c a03f
00000060: fbec c9bf 307e cabf 1ce5 ca3e 20b1 bcbf
00000070: 8a9d 983f faa0 c53f 8c60 b5bf 6771 c33f
00000080: 1a6b e9be b298 c53f fd6c cb3f 76f2 97bf
00000090: 5c3e c6bf 8dfc b53f 0654 99bf 4edb ab3f
000000a0: bd6b 723f 02dd 90bf d714 2bbe b9f2 e13f
000000b0: ca44 e7bd 2a4a cbbf 8140 a33f eaac f23f
000000c0: 4a0d a1bf 1070 723f 21cf 8ebf 75ab a03f
000000d0: 5405 46bf 8c64 5f3f 9836 b8bf bd65 953f
000000e0: 0778 ac3e 28e2 bf3f 520f 9bbf c089 88bf
000000f0: 8839 963f f336 2d3f caf3 ca3f 7a7e b33f

FK_LAYER.joints.19.p_offset f4 [3, 1]
-2.8376536 -4.229023 41.724545
00000000: 1e9c 35c0 2854 87c0 efe5 2642

FK_LAYER.joints.19.rpy_offset f4 [3]
-0.009120818 0.0005878763 0.012107884
00000000: 7c6f 15bc b61b 1a3a 2560 463c

FK_LAYER.joints.19.axis f4 [3, 1]
0.72002083 1.2479556 -1.5992421
00000000: 4953 383f 02bd 9f3f f7b3 ccbf

FK_LAYER.joints.19.q_layer.0.weight f4 [1, 64]
1.73471 -1.4951109 1.8278338 0.190543 1.6733605 -1.0280087 1.6290205 -1.4790515
-1.6025543 1.2728705 -1.3778375 1.8379241 -0.9029072 1.6795932 1.7443744 -1.9006753
-1.6091431 -1.0248765 1.455037 1.6012264 1.6184173 1.133748 -0.3756468 1.4097128
-1.5103728 -1.4105207 1.5804702 1.370313 1.2925718 -1.206501 1.5194669 1.7782317
-1.353632 1.2881905 0.8237681 -1.3300381 -1.4565911 -1.6166444 1.6498687 -1.221545
-1.4693344 1.588962 1.178924 1.7945186 1.4186584 1.0928949 1.754183 -1.6500102
-1.4264095 -0.079740204 1.7041231 -0.76550126 0.30352843 -1.492325 -1.1868851 1.6721033
-1.711817 1.7363149 1.4605161 -1.545355 1.3043622 -1.4996502 1.4136208 -0.9269762
00000000: fa0a de3f cb5f bfbf 75f6 e93f b41d 433e
00000010: ad30 d63f ca95 83bf be83 d03f 8f51 bdbf
00000020: 8020 cdbf 6ced a23f fb5c b0bf 1941 eb3f
00000030: ed24 67bf e9fc d63f a947 df3f 5449 f3bf
00000040: 67f8 cdbf 272f 83bf a73e ba3f fdf4 cc3f
00000050: 4c28 cf3f a81e 913f c754 c0be 7871 b43f
00000060: e553 c1bf f18b b4bf d94c ca3f 6b66 af3f
00000070: fe72 a53f a06e 9abf e47d c23f 199d e33f
00000080: d043 adbf 6de3 a43f 77e2 523f b03e aabf
00000090: 9471 babf 34ee cebf e62e d33f 965b 9cbf
000000a0: 2613 bcbf 1b63 cb3f fbe6 963f c9b2 e53f
000000b0: 9996 b53f fbe3 8b3f 1289 e03f 8933 d3bf
000000c0: 9694 b6bf d54e a3bd b520 da3f e4f7 43bf
000000d0: 1468 9b3e 8104 bfbf daeb 97bf 7b07 d63f
000000e0: d21c dbbf 913f de3f 31f2 ba3f 31ce c5bf
000000f0: 57f5 a63f 8af4 bfbf 87f1 b43f 504e 6dbf

FK_LAYER.joints.20.p_offset f4 [3, 1]
-2.8941228 -4.5985823 41.664642
00000000: 4f39 39c0 9627 93c0 98a8 2642

FK_LAYER.joints.20.rpy_offset f4 [3]
-0.013213615 0.014523452 0.006629148
00000000: eb7d 58bc c6f3 6d3c 5339 d93b

FK_LAYER.joints.20.axis f4 [3, 1]
-0.15796247 -0.008858806 0.27726668
00000000: eac0 21be 8724 11bc e6f5 8d3e

FK_LAYER.joints.20.q_layer.0.weight f4 [1, 64]
1.2950279 -0.99577665 -1.594966 -1.5330908 0.6200242 -1.4618421 -1.5066739 -0.7426168
-0.87771255 1.5316083 1.8506069 1.481701 1.7350891 1.8628523 -1.7879668 -1.0943867
-0.8546236 1.1181676 1.5472829 1.3683326 -0.10337801 -1.243043 -1.4583946 1.1179926
1.1922297 1.665032 -0.3358892 -1.7125906 1.185775 1.7540247 1.392731 -1.5196668
1.2150335 1.4115068 -1.4379554 -1.6477804 -1.4634521 -1.2109252 1.1711941 1.7638819
-1.0258384 1.2401395 1.1913571 -1.4425339 -0.20118438 1.3886696 -1.724828 1.4437551
1.6414088 -1.7085483 1.2701713 -1.6685723 0.62312764 -1.0222011 1.3649049 1.2632452
-1.0211914 -1.4824146 1.5169269 -0.7031325 0.77590734 -1.2757417 -1.4763926 -1.4033828
00000000: 79c3 a53f 38eb 7ebf d927 ccbf 523c c4bf
00000010: e8b9 1e3f a41d bbbf b1da c0bf 221c 3ebf
00000020: c5b1 60bf be0b c43f b0e0 ec3f 61a8 bd3f
00000030: 6617 de3f f271 ee3f 19dc e4bf dd14 8cbf
00000040: 9dc8 5abf 1e20 8f3f 5e0d c63f 8625 af3f
00000050: dab7 d3bd 081c 9fbf adac babf 621a 8f3f
00000060: fc9a 983f c51f d53f abf9 abbe 2b36 dbbf
00000070: 7ac7 973f e283 e03f 0245 b23f 7184 c2bf
00000080: 3886 9b3f 41ac b43f ec0e b8bf 78ea d2bf
00000090: 6652 bbbf 99ff 9abf b0e9 953f e2c6 e13f
000000a0: ac4e 83bf e4bc 9e3f 647e 983f f3a4 b8bf
000000b0: 4703 4ebe edbf b13f 2ac7 dcbf f8cc b83f
000000c0: af19 d23f b6b1 dabf f994 a23f c793 d5bf
000000d0: 4b85 1f3f 7cd7 82bf 34b5 ae3f 05b2 a13f
000000e0: 66b6 82bf c3bf bdbf a92a c23f 7e00 34bf
000000f0: dda1 463f 814b a3bf 6ffa bcbf 0ca2 b3bf

FK_LAYER.joints.21.p_offset f4 [3, 1]
-6.0494 -7.406189 41.50161
00000000: af94 c1c0 80ff ecc0 a601 2642

FK_LAYER.joints.21.rpy_offset f4 [3]
0.00020759615 0.008922974 -0.014165272
00000000: 2bae 5939 aa31 123c 7515 68bc

FK_LAYER.joints.22.p_offset f4 [3, 1]
-6.338612 -7.459946 41.227303
00000000: e9d5 cac0 e1b7 eec0 c2e8 2442

FK_LAYER.joints.22.rpy_offset f4 [3]
-0.008267361 0.0054421546 -0.0027450619
00000000: d373 07bc 1a54 b23b 7fe6 33bb

FK_LAYER.joints.22.axis f4 [3, 1]
0.14025772 -0.030950848 0.01466319
00000000: b89f 0f3e a28c fdbc e03d 703c

FK_LAYER.joints.22.q_layer.0.weight f4 [1, 64]
1.617667 -0.77526593 -1.7033279 -1.2378739 -0.6346347 -1.5271482 -1.6414608 -1.2297698
-0.93793327 1.5244615 1.7277534 1.458389 1.6622066 1.3877127 -1.5702769 -0.7523969
-0.7285956 1.2898592 1.5458114 1.1857388 0.9770227 -1.6654637 -1.8772217 1.3376417
1.6009449 1.4420792 0.27012447 -1.6371479 1.0631675 1.4796463 1.6154687 -1.656391
0.73876184 1.3621343 -1.6057782 -1.5694863 -1.4179511 -1.3724058 1.4100991 1.4590651
-0.84762144 1.53714 1.2260952 -1.773329 0.12101251 1.80802 -1.5994012 1.2821685
-0.91841894 -1.300532 1.2260954 -1.394626 -0.5877815 -1.1126162 1.5466317 1.60969
-0.7485206 -1.698329 1.2465882 -0.9997708 1.001585 -0.86576104 -1.842161 -1.2729406
00000000: b60f cf3f d477 46bf a606 dabf a772 9ebf
00000010: 6b77 22bf 9879 c3bf 631b d2bf 1969 9dbf
00000020: 651c 70bf 8e21 c33f 0627 dd3f 7eac ba3f
00000030: 30c3 d43f 92a0 b13f d5fe c8bf 159d 40bf
00000040: 3e85 3abf 1b1a a53f 26dd c53f 4ac6 973f
00000050: 291e 7a3f ea2d d5bf cd48 f0bf d837 ab3f
00000060: c3eb cc3f 0d96 b83f c14d 8a3e 108e d1bf
00000070: df15 883f 0d65 bd3f aec7 ce3f 9f04 d4bf
00000080: 7f1f 3d3f 6b5a ae3f 248a cdbf ede4 c8bf
00000090: 6c7f b5bf feaa afbf 217e b43f a5c2 ba3f
000000a0: b8fd 58bf 01c1 c43f b0f0 9c3f 72fc e2bf
000000b0: 68d5 f73d 336d e73f 2eb9 ccbf 191e a43f
000000c0: 811d 6bbf d577 a6bf b2f0 9c3f 1b83 b2bf
000000d0: d978 16bf 356a 8ebf 07f8 c53f 520a ce3f
000000e0: 0c9f 3fbf d862 d9bf 3490 9f3f fbf0 7fbf
000000f0: f033 803f 84a2 5dbf efcb ebbf b8ef a2bf

FK_LAYER.joints.23.p_offset f4 [3, 1]
-6.5490093 -7.8169503 40.80391
00000000: 7c91 d1c0 7524 fac0 3437 2342

FK_LAYER.joints.23.rpy_offset f4 [3]
0.0066965874 -0.0011797724 -0.0026764395
00000000: 0c6f db3b 98a2 9aba 3467 2fbb

FK_LAYER.joints.23.axis f4 [3, 1]
-1.3768481 -1.2685301 1.6288033
00000000: 8f3c b0bf 325f a2bf a07c d03f
