results/FC_PRIMNET/ABAQUS32/weights/epoch_301.pth (torch, 10847 bytes, 10 tensors)

motor_std f4 [3]
0	0x3e669df4	0.22521192
1	0x3d6a6882	0.057228573
2	0x3bbcdfa9	0.005763967

motor_mean f4 [3]
0	0xbe834dc2	-0.25645262
1	0x39518e80	0.00019984879
2	0xbdb83994	-0.08995357

position_std f4 [3, 1]
0	0x3f800000	1.0
1	0x3f800000	1.0
2	0x3f800000	1.0

position_mean f4 [3, 1]
0	0x00000000	0.0
1	0x00000000	0.0
2	0x00000000	0.0

layers.0.weight f4 [32, 3]
0	0x3f3f63b6	0.7476152
1	0xbf817af1	-1.0115644
2	0x3f425087	0.75904125
3	0xbf6ee855	-0.9332326
4	0x3f335698	0.70054007
5	0x3e4844df	0.19557522
6	0xbf8af746	-1.0856712
7	0x3d543288	0.051806003
8	0x3e983625	0.2972881
9	0x3edba064	0.42895806
10	0x3f1709a3	0.5899908
11	0x3eb538fb	0.35395035
12	0xbf338433	-0.70123595
13	0xbd71a7bc	-0.058997855
14	0xbf087451	-0.53302485
15	0xbe77d199	-0.24201049
16	0xbcfdac6f	-0.030966012
17	0xbea640ae	-0.32471222
18	0x3edf4cbb	0.43613228
19	0x3f0f521b	0.5598466
20	0xbf63ad72	-0.8893653
21	0x3d66b618	0.056326002
22	0x3f32bd40	0.6982002
23	0x3ee0b84e	0.43890613
24	0x3ec04716	0.37554234
25	0xbe8e1d47	-0.27756712
26	0x3f04356c	0.51644015
27	0xbed0457d	-0.40678015
28	0x3f73b75a	0.9520165
29	0x3d315756	0.04329618
30	0xbe9b23c7	-0.30300733
31	0x3e7b53b0	0.24543643
32	0x3ee4cb12	0.4468618
33	0xbeca58da	-0.39520913
34	0x3f2a46bc	0.6651418
35	0x3e77db4c	0.24204749
36	0xbf807a5b	-1.003734
37	0x3fc16a04	1.5110478
38	0xbee5e928	-0.44904447
39	0xbf6f1baa	-0.93401587
40	0x3ef7aea1	0.4837542
41	0xbe0a0071	-0.13476731
42	0xbf41e233	-0.7573578
43	0x3fc1e32f	1.5147456
44	0xbe0ea16a	-0.13928762
45	0x3e890793	0.2676359
46	0xbe07009d	-0.13183828
47	0x3e814b1a	0.2525261
48	0x3f5493f5	0.83038265
49	0x3ebba006	0.36645526
50	0xbf108630	-0.56454754
51	0x3dad3756	0.0845782
52	0x3ee977e8	0.45599294
53	0xbe8ecbbb	-0.2788981
54	0xbc6a8cdd	-0.014315811
55	0x3f03a85b	0.51428765
56	0xbe39cc70	-0.18144393
57	0x3e593d21	0.21214725
58	0x3e7121e5	0.23548086
59	0xbd2c0ab8	-0.04200241
60	0x3f067359	0.52519757
61	0x3e663666	0.22481689
62	0x3e546b67	0.20744096
63	0xbf7d9dd3	-0.99068946
64	0x3f883e09	1.0643932
65	0xbe5d824b	-0.21631734
66	0xbf9eea04	-1.2415166
67	0x3f115a0c	0.56778026
68	0x3e5c0902	0.21487811
69	0xbf567d3b	-0.83784837
70	0x3fa1deb4	1.2646089
71	0xbecd0cb1	-0.40048745
72	0x3e07c04d	0.1325695
73	0xbf0a260e	-0.53964317
74	0x3f05829c	0.5215242
75	0xbf2ae1e1	-0.66750914
76	0x3f9fbbbd	1.2479168
77	0x3e11b5fc	0.14229578
78	0xbeb49b52	-0.3527475
79	0x3f731b41	0.9496346
80	0xbf18246c	-0.59430575
81	0xbe8bc356	-0.27297467
82	0x3ebebeb2	0.37254864
83	0x3ca3a654	0.019976772
84	0xbecfa9a3	-0.4055911
85	0xbe7faf12	-0.24969128
86	0xbf047d65	-0.51753837
87	0xbe057541	-0.1303301
88	0x3eea5110	0.4576497
89	0xbc2a62e6	-0.010399556
90	0xbf868392	-1.0508902
91	0x3fbab936	1.4587772
92	0xbe234fb1	-0.15948369
93	0x3f075490	0.5286341
94	0x3e43c999	0.19119872
95	0xbed4f278	-0.4159124

layers.0.bias f4 [32]
0	0x40133991	2.3003886
1	0x3f25fe7d	0.64841443
2	0xbfae65a4	-1.3624768
3	0xbf6443d3	-0.8916599
4	0x4016ca53	2.356099
5	0x402a8a67	2.6646974
6	0xc03c2dfd	-2.940307
7	0xc01fb3c0	-2.495346
8	0xc00dcb37	-2.2155282
9	0x3f09162d	0.5354946
10	0xbfb449ec	-1.4085059
11	0xbf8377b6	-1.0270908
12	0xbe801b2d	-0.25020733
13	0x3fbe97c1	1.4890062
14	0x3d1f4249	0.038881574
15	0x404502a3	3.078286
16	0xc0462d12	-3.0965009
17	0x4022b95a	2.542563
18	0x402f5484	2.7395334
19	0xc00864b7	-2.1311471
20	0x3cf8fdb2	0.030394409
21	0xbfd9aec7	-1.7006463
22	0x3e0e0c3f	0.13871859
23	0x3fdd6acd	1.7298218
24	0x401f0598	2.4847164
25	0x3f2e3aaa	0.68058264
26	0xbf8ce065	-1.100598
27	0x401cbebb	2.4491413
28	0xbfb41738	-1.4069586
29	0xbfa7437e	-1.3067472
30	0xbe9a6034	-0.30151522
31	0xc03e9f92	-2.9784894

layers.2.weight f4 [32, 32]
0	0xc041608f	-3.0215185
1	0xc036752d	-2.8509018
2	0xc0353818	-2.8315487
3	0xc034e065	-2.826196
4	0xc047c504	-3.1213999
5	0xc045236f	-3.0802877
6	0xc0367cc5	-2.8513653
7	0xc02687c9	-2.6020377
8	0xc038cdf0	-2.8875694
9	0xc032fbeb	-2.7966259
10	0xc04a473f	-3.1605985
11	0xc04bc273	-3.1837432
12	0xc02d1f12	-2.7050214
13	0xc037ea2f	-2.8736684
14	0xc036eed8	-2.8583279
15	0xc0310844	-2.7661295
16	0xc0342412	-2.8147016
17	0xc03f51ec	-2.989375
18	0xc0409b85	-3.0094922
19	0xc03a654b	-2.9124324
20	0xc031da2c	-2.7789412
21	0xc04aafd8	-3.1669827
22	0xc02a75fb	-2.663451
23	0xc0517a79	-3.2731001
24	0xc04ba519	-3.1819518
25	0xc046bca1	-3.105263
26	0xc024dc70	-2.5759544
27	0xc0399aba	-2.9000688
28	0xc03a15df	-2.907585
29	0xc03fb2f6	-2.995298
30	0xc03fc67f	-2.9964902
31	0xc02f4c52	-2.7390332
32	0xb9935a8c	-0.00028105488
33	0xbef20410	-0.47268724
34	0xbf2597b6	-0.6468462
35	0x3e4bbb03	0.19895558
36	0x3f16542a	0.58722174
37	0x3f337481	0.70099646
38	0xc01a97e2	-2.4155202
39	0xc00375d4	-2.0540667
40	0xbf906401	-1.1280519
41	0xbea102cd	-0.3144745
42	0xbf898b30	-1.0745602
43	0x3d5296bf	0.051413294
44	0xbe984cbe	-0.2974605
45	0xbed11997	-0.40839836
46	0xbd8f2587	-0.0698958
47	0x3f9b11ea	1.2114842
48	0xc01abd86	-2.4178176
49	0x3eca9774	0.39568675
50	0x3ec721a8	0.38892865
51	0xbebc8141	-0.36817363
52	0xbea0b0df	-0.31384942
53	0xbfba9aef	-1.4578532
54	0xbf1d4212	-0.6142894
55	0x3d31bc4a	0.043392457
56	0x3dc4d31a	0.09610577
57	0xbe851c95	-0.2599837
58	0xbefeac31	-0.49740747
59	0x3e96460d	0.2935032
60	0xbe0ccf65	-0.1375099
61	0xbf7fafee	-0.9987782
62	0xbe549cf5	-0.20763
63	0xbf90b486	-1.1305091
64	0x3f8b1c99	1.0868102
65	0xbec2e609	-0.38066128
66	0xbf9fb5ee	-1.2477396
67	0xbe8da09d	-0.276616
68	0x3f2cdbde	0.6752299
69	0x3f1395c0	0.57650375
70	0xc001fa75	-2.0309117
71	0xc0141a77	-2.3141153
72	0xbf913531	-1.1344358
73	0xbf3bdd2b	-0.7338435
74	0xbf97a722	-1.184788
75	0x3d23aa43	0.039957296
76	0xbf341cb0	-0.70356274
77	0x3de4dfe5	0.11175517
78	0xbf7f8949	-0.99818856
79	0x3f65d3dc	0.89776397
80	0xc004d67e	-2.0755916
81	0x3f4d39fd	0.8016661
82	0x3ef5b1ec	0.47987306
83	0xbe7eeaff	-0.24894331
84	0x3ded1939	0.115770765
85	0xbe34492a	-0.17606035
86	0xbf59bb91	-0.8505183
87	0xbf319ced	-0.69380075
88	0x3f17c1da	0.5928017
89	0xbf82fc7f	-1.0233306
90	0xbf4618e1	-0.7738171
91	0xbdd5d4d5	-0.10440985
92	0xbf20fa1c	-0.62881637
93	0xbf0ac796	-0.54210794
94	0xbf2fdf1b	-0.68699807
95	0xbffd4ae1	-1.9788476
96	0xc02f8105	-2.7422497
97	0xc01c7df2	-2.445187
98	0xc04a993c	-3.1656027
99	0xc03f1e81	-2.9862368
100	0xc031afa4	-2.7763453
101	0xc03a0c5a	-2.9070039
102	0xc04aee57	-3.170797
103	0xc03321bc	-2.798934
104	0xc041ecd8	-3.0300808
105	0xc0464a25	-3.0982754
106	0x4033f56b	2.8118541
107	0x3fede87c	1.8586574
108	0xc01ab7b9	-2.4174635
109	0xc0295298	-2.6456661
110	0x403b7966	2.9292846
111	0xc03c4b7f	-2.942108
112	0xc0516aba	-3.272139
113	0xc02c036c	-2.6877089
114	0xc01afaac	-2.4215498
115	0xc040fde6	-3.0154967
116	0xc0474665	-3.1136715
117	0xc048009b	-3.125037
118	0xc0267804	-2.6010752
119	0xc040bbdf	-3.0114667
120	0xc043e0db	-3.060599
121	0xbfe98efc	-1.824676
122	0xc03720c9	-2.861376
123	0xc041aa4d	-3.0260193
124	0xc03848f6	-2.8794532
125	0xc0411dde	-3.017448
126	0xc04d4a85	-3.2076733
127	0xc031d875	-2.7788365
128	0xba2c26b9	-0.00065670494
129	0x3c8c43f3	0.017122244
130	0xbe98f652	-0.29875427
131	0xbdff5a91	-0.12468446
132	0x3cb5372c	0.022121035
133	0x3f41d5da	0.75716937
134	0xc014ce2e	-2.3250842
135	0xc000a564	-2.0100946
136	0xc00566cc	-2.0843992
137	0xbe898155	-0.26856485
138	0xbea509de	-0.3223409
139	0x3ebf877c	0.37408054
140	0x3e6881a9	0.22705711
141	0x3e343635	0.17598803
142	0x3f86cb76	1.0530841
143	0x3f97531f	1.1822242
144	0xc01b0015	-2.42188
145	0x3f437111	0.763444
146	0x3f64faf6	0.89445436
147	0xbf0a990e	-0.5413979
148	0xbf9c3b45	-1.2205588
149	0xbfaa87fb	-1.3322748
150	0xbe53e67f	-0.20693396
151	0x3ec55b66	0.38546294
152	0xbe67c0dc	-0.22632164
153	0x3ed671a4	0.41883576
154	0x3e84b334	0.2591797
155	0x3f83b88e	1.0290697
156	0x3ec4fee0	0.38475704
157	0x3cff7064	0.031181522
158	0x3f425a4c	0.7591903
159	0xbfc667d4	-1.5500436
160	0xbd60c964	-0.05487956
161	0x3e0364f9	0.12831487
162	0x3e8a18f5	0.26972166
163	0x3e6156cf	0.22005771
164	0x3f0974bf	0.53693765
165	0x3ecfd8f3	0.40595207
166	0xbffc8860	-1.9729118
167	0xbfcae1f4	-1.5850205
168	0xbf859d3e	-1.0438612
169	0xbcd8c0ac	-0.02645906
170	0xbf6c0d19	-0.92207485
171	0xbede7471	-0.43448213
172	0xbde2b39a	-0.110694125
173	0x3e58f2ae	0.21186325
174	0xbed4e0a9	-0.41577652
175	0x3f63d582	0.8899766
176	0xc01022e7	-2.2521303
177	0x3f3a5467	0.7278504
178	0x3f2df7ee	0.67956436
179	0xbea6fdfc	-0.3261565
180	0xbe1e2b8a	-0.15446296
181	0xbfb0088a	-1.3752606
182	0xbe830df6	-0.2559659
183	0x3e1c913c	0.15289778
184	0x3ec9e790	0.3943448
185	0xbe21569b	-0.15755694
186	0xbe37656c	-0.17909783
187	0x3dccd7da	0.10002108
188	0xbf7aeb48	-0.9801526
189	0xbf3b4a8d	-0.7316063
190	0xbe8d3244	-0.27577412
191	0xbe7eaa0e	-0.24869558
192	0x3f2834fd	0.65705854
193	0x3e9be4ba	0.30447942
194	0x3fc6cd78	1.5531454
195	0x3f45b3db	0.7722756
196	0x3f727a07	0.9471745
197	0x3f919a6b	1.137525
198	0xbff4434c	-1.9083037
199	0xbfe38676	-1.7775409
200	0xbe288a41	-0.1645899
201	0x3f3c59cf	0.7357454
202	0xbf78e92a	-0.9723078
203	0xbf9ad7a8	-1.2097063
204	0x3f2c816d	0.6738499
205	0xbc6a783a	-0.014310891
206	0xbfa108c4	-1.25808
207	0x3f1c2bb4	0.61004186
208	0xc004fad9	-2.0778105
209	0x3e4f1d99	0.20226134
210	0x3f052344	0.52006936
211	0xc0008c42	-2.0085607
212	0x3f84b796	1.0368526
213	0xbfad2967	-1.352826
214	0xbc879a29	-0.016553001
215	0x3f41d1ba	0.7571064
216	0x3fbe1816	1.48511
217	0xbea90895	-0.3301436
218	0x3f3d3ba7	0.7391915
219	0xbe0f1536	-0.13972935
220	0xbfebc6e3	-1.842007
221	0xbfaefe96	-1.3671443
222	0xbf5e7807	-0.869019
223	0x3f84836c	1.0352607
224	0x3f5312ac	0.82450366
225	0x3fbd170b	1.4772657
226	0x3effa60b	0.49931368
227	0x3fcc3580	1.5953827
228	0x3f91b680	1.138382
229	0x3f6cd244	0.9250834
230	0xc0104d3a	-2.2547135
231	0x3f1d201b	0.61377114
232	0x3f2c7a1b	0.6737382
233	0x3f6804c5	0.9063228
234	0x3fe1b930	1.763464
235	0x4049da13	3.1539352
236	0x3fd21947	1.6413964
237	0x3f9a3b46	1.2049339
238	0x4041fb56	3.0309653
239	0x4004552c	2.0676985
240	0xc015fd11	-2.343571
241	0x3fef4f07	1.8695992
242	0x400db144	2.2139444
243	0x40286318	2.6310482
244	0xbbb1dd14	-0.005427966
245	0x3f6ec024	0.93261933
246	0x3f80dacc	1.0066772
247	0x3fdec8a3	1.740498
248	0x3f2171dd	0.63064367
249	0x4018a0d8	2.3848171
250	0x3f8f0fdf	1.1176718
251	0x40128436	2.2893195
252	0x40476018	3.11524
253	0x4038536e	2.8800921
254	0x4040182a	3.0014749
255	0x3f4198b3	0.75623626

layers.2.bias f4 [32]
0	0xc0341edc	-2.8143835
1	0x405b1a49	3.4234793
2	0x40653641	3.5814364
3	0xc03225cb	-2.7835567
4	0x406051a2	3.5049825
5	0x40538c4c	3.305438
6	0x4052e992	3.295506
7	0x4063ae27	3.5575044
8	0xc03450b4	-2.8174257
9	0x40446359	3.0685637
10	0x3ddea8d9	0.10872049
11	0xc032d0be	-2.7939906
12	0x40510f9f	3.2665784
13	0x405ecbf7	3.481199
14	0x40666fa5	3.6005642
15	0xc044ed99	-3.0770018
16	0xc038d551	-2.8880198
17	0x4063049a	3.5471559
18	0xc03bb85b	-2.9331272
19	0xc03198a8	-2.7749424
20	0x406a046c	3.65652
21	0x40592b69	3.3932745
22	0x405fc644	3.4964762
23	0x4068ebac	3.6393843
24	0x40562bb4	3.3464174
25	0x405661c0	3.3497162
26	0xc03eb8ce	-2.9800296
27	0x405d16d8	3.4545193
28	0x4065107d	3.5791314
29	0x406022a6	3.5021148
30	0xc035aa10	-2.8385048
31	0x40679575	3.6184971

out.0.weight f4 [21, 32]
0	0xc034003e	-2.8125148
1	0xbc3e626a	-0.011620143
2	0x3d1354e9	0.03596965
3	0xc0350a2c	-2.8287458
4	0xbcf82c63	-0.030294603
5	0xbdd1c2b3	-0.10242214
6	0xbd06178e	-0.032737307
7	0xbda893ce	-0.082313165
8	0xc0395957	-2.8960779
9	0x3dcbf01c	0.099579066
10	0xbd8e8640	-0.069592
11	0xc03ec75f	-2.9809186
12	0xbd342025	-0.043975968
13	0xbe3aed5c	-0.18254608
14	0x3dae40de	0.08508466
15	0xc0282918	-2.6275082
16	0xc043ec3c	-3.0612936
17	0xbe8b0f2b	-0.2716001
18	0xc0465f1c	-3.099555
19	0xc05f34d4	-3.4875994
20	0xbdedb24a	-0.116062716
21	0xbe2f342b	-0.17109744
22	0xbd9c9e91	-0.07647432
23	0xbe9bf33e	-0.30459017
24	0xbe66247f	-0.2247486
25	0x3e5356c6	0.2063857
26	0xc0217d26	-2.5232635
27	0xbeac786a	-0.3368562
28	0xbe665e2b	-0.2249686
29	0xbedd5a78	-0.43233085
30	0xc010c59f	-2.2620618
31	0x3e094bb1	0.1340778
32	0xc0336134	-2.8028078
33	0x3e32f7fc	0.17477411
34	0x3e462ac3	0.1935225
35	0xc04943da	-3.1447663
36	0xbd9fed3d	-0.078089215
37	0xbe9c32ef	-0.3050761
38	0xbe96efe3	-0.29479894
39	0xbd9afaa5	-0.07567338
40	0xc036b5cd	-2.8548462
41	0x3e097b63	0.13425975
42	0x3e6111d9	0.21979465
43	0xc029947c	-2.6496878
44	0xbe90124f	-0.28138968
45	0xbe3f2f33	-0.18670349
46	0x3e0b92bd	0.13630195
47	0xc034aca2	-2.8230367
48	0xc0392cdc	-2.893363
49	0x3e26c092	0.16284397
50	0xc0496c16	-3.147222
51	0xc041933c	-3.0246115
52	0xbe1d558b	-0.15364663
53	0xbf031833	-0.512088
54	0xbe2d7c4c	-0.16941947
55	0xbe0e844f	-0.13917659
56	0xbe7f2d5a	-0.24919644
57	0xbdc57fb2	-0.096434966
58	0xc04a8f98	-3.1650143
59	0xbd6d41ef	-0.057924207
60	0xbed4e4d5	-0.41580835
61	0xbe234215	-0.15943177
62	0xc04660c8	-3.099657
63	0xbc4edccb	-0.012625883
64	0xc042b8e5	-3.042535
65	0x3d30779a	0.04308281
66	0x3dc9db9b	0.098563395
67	0xc036d122	-2.8565145
68	0x3e3643e7	0.1779934
69	0x3ce3255c	0.027727775
70	0xbef7dcb2	-0.48410565
71	0xbd857967	-0.06517296
72	0xc044f134	-3.0772219
73	0x3ec515ca	0.38493186
74	0xbe27667e	-0.16347691
75	0xc03f2ee8	-2.987238
76	0xbeeff47e	-0.4686622
77	0x3c22d048	0.009937353
78	0x3da8bfdb	0.082397185
79	0xc04f886a	-3.242701
80	0xc03b2c54	-2.9245806
81	0xbe5fdeba	-0.21862307
82	0xc04474d5	-3.0696309
83	0xc03279ff	-2.788696
84	0x3d23898b	0.039926093
85	0x3e2f3cf2	0.17113093
86	0x3d8abfc2	0.06774856
87	0xbd886c10	-0.06661236
88	0xbe067c26	-0.13133296
89	0xbdaa8004	-0.08325198
90	0xc033ae5c	-2.807517
91	0x3e2b02f9	0.16700353
92	0xbe0f3e56	-0.13988623
93	0xbdef75c9	-0.116923876
94	0xc04dd038	-3.2158337
95	0xbd9a1c0a	-0.07524879
96	0xc046a95a	-3.1040864
97	0x3d1172c6	0.035509847
98	0xbe42b233	-0.1901329
99	0xc038f69c	-2.8900518
100	0xbe73753f	-0.23775195
101	0xbe1e5338	-0.15461433
102	0x3e3ee750	0.18642926
103	0xbe600f8f	-0.21880935
104	0xc0324788	-2.785616
105	0x3e783757	0.2423986
106	0xbd926d0b	-0.071497045
107	0xc0428cc6	-3.0398421
108	0xbe6734a9	-0.22578682
109	0xbe08134b	-0.1328861
110	0xbf0bff8b	-0.546868
111	0xc03f9a56	-2.993795
112	0xc05062d0	-3.256031
113	0xbe71749e	-0.23579642
114	0xc0421b4d	-3.0329163
115	0xc03241f2	-2.785275
116	0xbe66347d	-0.2248096
117	0xbef720a9	-0.48267105
118	0x3d6a3910	0.057183325
119	0xbe4a35c8	-0.19747078
120	0x3e028473	0.12745838
121	0x3c581b78	0.013190143
122	0xc034921b	-2.8214176
123	0xbd9dc2d4	-0.07703176
124	0xbe816250	-0.2527032
125	0xbe5bcaec	-0.21464127
126	0xc036adf5	-2.8543675
127	0xbdab4f79	-0.083647676
128	0xc03606b7	-2.8441598
129	0x3e19383d	0.1496286
130	0x3e9bd285	0.3043405
131	0xc05c80ee	-3.4453692
132	0x3bad8d70	0.0052964017
133	0x3d497f18	0.04919347
134	0xbf204060	-0.6259823
135	0xbda71114	-0.08157554
136	0xc03c2c4d	-2.940204
137	0x3e9cc1a5	0.3061649
138	0xbcc76c93	-0.024343764
139	0xc0604238	-3.5040417
140	0xbeb77696	-0.3583266
141	0xbdf6c909	-0.12050063
142	0xbef61dd7	-0.4806964
143	0xc02cdc64	-2.7009516
144	0xc015ed52	-2.34261
145	0xbeba5f05	-0.3640062
146	0xc049752f	-3.1477773
147	0xc031e136	-2.7793708
148	0x3d94e55e	0.07270311
149	0xbec96ae5	-0.39339367
150	0xbd02c9eb	-0.031930845
151	0xbe5201a5	-0.2050844
152	0xbc75f712	-0.015012519
153	0xbe8de499	-0.2771347
154	0xc04d3c33	-3.2067993
155	0xbe07cfda	-0.13262883
156	0x3db345c7	0.08753543
157	0xbcc2838c	-0.023744367
158	0xc01d19c9	-2.4546988
159	0xbea001d1	-0.31251386
160	0x403c0352	2.9377027
161	0x3f80c797	1.006091
162	0x3f3db2ab	0.7410075
163	0x40548936	3.3208747
164	0x3f00c2bd	0.5029715
165	0x3f9bde53	1.2177223
166	0x3f5f64d3	0.8726322
167	0x3f0d6e15	0.55246097
168	0x402b1a6e	2.6734881
169	0x3f38f5ac	0.72249866
170	0x3d778a59	0.060434673
171	0x404b6b83	3.178437
172	0x3f08298a	0.53188384
173	0x3f6c3e1a	0.9228226
174	0x3f7bad3e	0.9831122
175	0x40375392	2.8644757
176	0x403c085b	2.93801
177	0x3f47f6e6	0.7811111
178	0x4039809d	2.898475
179	0x402b4ef4	2.676694
180	0x3fa681b7	1.3008336
181	0xbe9867bc	-0.29766643
182	0x3f7cba4e	0.9872178
183	0x3de756d0	0.11295855
184	0x3e4d575f	0.2005286
185	0x3f8221c2	1.0166552
186	0x403748cb	2.863818
187	0x3f5ce279	0.8628307
188	0x3ea2f7f1	0.3182979
189	0x3fb8d584	1.444016
190	0x403cae6b	2.9481456
191	0x3f472d87	0.77803844
192	0xc0465be1	-3.0993578
193	0xbc9c9006	-0.019111644
194	0x3ddfad3d	0.109217145
195	0xc04a2e86	-3.1590896
196	0xbd9ceb87	-0.07662111
197	0xbe6d722e	-0.23188087
198	0xbef39513	-0.47574672
199	0xbe366ce5	-0.17814977
200	0xc044d93c	-3.075759
201	0x3f08a023	0.5336935
202	0x3cf87eba	0.030333865
203	0xc02589ce	-2.586536
204	0xbe13ff8b	-0.1445295
205	0xbd06aba7	-0.032878544
206	0xbe8dccca	-0.27695304
207	0xc0336720	-2.8031693
208	0xc043a972	-3.0572171
209	0x3c9938c1	0.01870382
210	0xc041ba2e	-3.0269885
211	0xc047fb5c	-3.1247168
212	0xbec9c9b5	-0.39411703
213	0x3c9e1f5a	0.019302059
214	0x3e5e83b9	0.21729936
215	0xbe6b8ba1	-0.23002483
216	0x3cb99253	0.02265278
217	0xbeb52828	-0.353822
218	0xc03e4eea	-2.9735665
219	0xbf26d63e	-0.6517066
220	0xbb1e0987	-0.0024114565
221	0xbebd723b	-0.37001213
222	0xc0589c51	-3.3845408
223	0xbee9a8a6	-0.4563648
224	0xc03c8f36	-2.946241
225	0x3d34ac9e	0.044109933
226	0xbe0055e8	-0.1253277
227	0xc03ea368	-2.9787235
228	0x3e0ea330	0.13929439
229	0xbe0869a8	-0.13321555
230	0xbf3fe0f2	-0.74952614
231	0xbf2b28e3	-0.66859263
232	0xc054d737	-3.3256357
233	0x3e6ad03b	0.22930996
234	0x3cdbf1aa	0.026848633
235	0xc04145e8	-3.0198917
236	0xbe98eb6a	-0.29867107
237	0xbeeba075	-0.46020856
238	0xbdd0943d	-0.10184524
239	0xc03ba032	-2.9316525
240	0xc02654ae	-2.5989184
241	0x3ead5dfe	0.33860773
242	0xc03845b5	-2.8792546
243	0xc049ba88	-3.15201
244	0xbdb50792	-0.088393345
245	0x3e250864	0.16116482
246	0x3bba5f56	0.0056876345
247	0x3d0b2f19	0.033980463
248	0xbcb55bce	-0.022138502
249	0xbe9347e7	-0.28765795
250	0xc046d66a	-3.1068368
251	0xbeab9e4a	-0.33519202
252	0x3e135eb7	0.143916
253	0xbe4bd614	-0.19905883
254	0xc029e49e	-2.6545787
255	0xbe88bad8	-0.2670505

out.0.bias f4 [21]
0	0xbfbe15a9	-1.485036
1	0xc010d609	-2.2630637
2	0xbf3386e0	-0.7012768
3	0xc00c856d	-2.1956437
4	0xc00dd8bd	-2.2163537
5	0x404ebebc	3.2303915
6	0xc02953c8	-2.6457386
7	0xc03176eb	-2.7728832
8	0x40453150	3.0811348
9	0xc03f3a9f	-2.987953
10	0xc04160e2	-3.0215383
11	0x405b8e1a	3.4305482
12	0xc0157009	-2.334963
13	0xc037a940	-2.8697052
14	0x406c3c89	3.6911948
15	0xc03c1538	-2.938795
16	0xc03d6c4f	-2.9597356
17	0x4062ea47	3.5455492
18	0xc03b1237	-2.9229867
19	0xc048728f	-3.131992
20	0x4083e43d	4.121611
