results/FC_PRIMNET/ABAQUS32/weights/epoch_196.pth (torch, 10847 bytes, 10 tensors)

motor_std f4 [3]
000000 f4 9d 66 3e 82 68 6a 3d a9 df bc 3b
       0.22521192 0.057228573 0.005763967

motor_mean f4 [3]
000000 c2 4d 83 be 80 8e 51 39 94 39 b8 bd
       -0.25645262 0.00019984879 -0.08995357

position_std f4 [3, 1]
000000 00 00 80 3f 00 00 80 3f 00 00 80 3f
       1.0 1.0 1.0

position_mean f4 [3, 1]
000000 00 00 00 00 00 00 00 00 00 00 00 00
       0.0 0.0 0.0

layers.0.weight f4 [32, 3]
000000 d0 50 58 3f 6e 4f 70 bf df 20 47 3f ed 27 53 bf
       0.8449831 -0.938712 0.7778453 -0.82482797
000010 80 b8 fb 3e 11 4c e5 3c c9 bb 88 bf d6 b1 a1 3e
       0.491642 0.027990373 -1.0682307 0.3158099
000020 aa 97 51 3d 4a a9 76 3e 77 ca cf 3e e5 31 94 3e
       0.05117003 0.24088016 0.40584156 0.28944317
000030 c6 20 0d bf 8e e7 3c be 7b 59 1f bf c6 8e 1b be
       -0.55128133 -0.18447706 -0.6224591 -0.15191182
000040 8f 34 02 be 3e 4f cd be 44 cc 90 3e b6 c6 c2 3e
       -0.12715362 -0.4009952 0.28280842 0.3804223
000050 88 7e 37 bf 8a 1d 8c 3e 2a 41 21 3f 96 ae 0b 3f
       -0.71677446 0.27366287 0.6299006 0.5456327
000060 af f1 18 3f ef f6 03 bf 2c 43 43 3f e5 29 1e bf
       0.5974378 -0.51548666 0.7627437 -0.61782676
000070 0f a0 3f 3f c4 44 35 be db d1 f0 be 31 e9 88 3d
       0.74853605 -0.17702013 -0.47035107 0.06685103
000080 78 11 84 3e ee fa 07 bf a8 0b 3b 3f f3 28 c6 3b
       0.25794578 -0.53117263 0.7306466 0.006047362
000090 7f 7e 8b bf 60 28 aa 3f 72 d9 32 bf 5e 51 3d bf
       -1.0897979 1.3293571 -0.69863045 -0.7395228
0000a0 9f 52 89 3e 09 bd a4 be 5c c4 50 bf aa 6d a5 3f
       0.26820847 -0.32175472 -0.8154962 1.2924092
0000b0 30 86 d1 be 3a 0d bb 3e 71 b5 2a be 3c 09 4e 3e
       -0.4092269 0.3653353 -0.16670777 0.2012071
0000c0 6b 66 26 3f 78 5f 3f 3e e6 7e c4 be 39 4f 71 3e
       0.6500003 0.18688762 -0.38378066 0.23565377
0000d0 6c 4e be 3e c3 f0 ae be c4 f7 27 3e b6 51 e2 3e
       0.37169206 -0.34168062 0.16403109 0.44202965
0000e0 ff 09 76 be c7 81 ae 3e 80 da 6a 3d 59 28 50 be
       -0.2402725 0.34083387 0.057337284 -0.20327891
0000f0 36 4f 16 3f 07 22 79 3e 97 61 6f 3e db 87 40 bf
       0.58714616 0.24329387 0.23377071 -0.752073
000100 5e bb 54 3f ed 00 1f bd 58 a9 8c bf a8 74 be 3e
       0.830984 -0.038819242 -1.098918 0.37198377
000110 f6 f1 53 3d 51 38 3e bf 05 a9 89 3f b0 c2 01 bf
       0.051744424 -0.7430468 1.0754706 -0.50687695
000120 e3 0e 0c 3e cb c9 d1 be c5 da 0d 3f 6b 44 1f bf
       0.13677554 -0.40974268 0.5541194 -0.6221377
000130 94 5c 85 3f 5c 2b 90 bd 2e b5 22 bf 5c 9c 91 3f
       1.0418878 -0.0703952 -0.6355771 1.1375842
000140 0a 2e 59 bf ae 0a f6 bd 3a 06 7c 3e 6b f9 04 bc
       -0.84835875 -0.12013756 0.2461175 -0.0081161065
000150 c9 b4 6a be e4 f9 bc bd 0c e8 ae be fd e4 82 3d
       -0.22920527 -0.0922735 -0.34161413 0.06391332
000160 3c 51 8d 3e 46 09 51 be ac 09 8e bf 7c f3 a2 3f
       0.2760104 -0.20413694 -1.1096702 1.2730556
000170 0c ef d3 be 70 cd b1 3e e1 f4 46 3c b0 99 70 be
       -0.41393316 0.3472705 0.012143345 -0.23496127

layers.0.bias f4 [32]
000000 eb 4d 0a 40 53 02 4d 3f 0e eb 94 bf 6e 6e 37 bf
       2.1610057 0.8008167 -1.1634233 -0.7165288
000010 62 3f 10 40 a4 90 22 40 2e 8f 30 c0 74 84 13 c0
       2.2538686 2.5400782 -2.758739 -2.3049593
000020 61 b1 ff bf dc ee 21 3f 21 64 9c bf 8a 30 52 bf
       -1.9976007 0.63255095 -1.2218057 -0.82105315
000030 fa aa 06 be e6 82 cd 3f e0 55 22 3d 7c 24 3c 40
       -0.1315116 1.6055572 0.039632678 2.9397268
000040 07 98 3a c0 94 5c 1a 40 bf ff 26 40 a4 8c f9 bf
       -2.915529 2.4119005 2.6093595 -1.9496045
000050 25 c1 73 3e 26 9d c9 bf af a6 ac 3e 55 36 cc 3f
       0.23804148 -1.5751083 0.3372092 1.5954081
000060 0f 7f 18 40 0b 1a 2c 3f 97 d8 60 bf d6 e3 14 40
       2.382755 0.6722724 -0.8783049 2.326406
000070 be 5b 9c bf cb ab 8e bf 35 2d 48 be fa 03 33 c0
       -1.2215497 -1.1146177 -0.19548495 -2.7971177

layers.2.weight f4 [32, 32]
000000 0d df 35 c0 ab f3 2a c0 96 b6 29 c0 e3 5e 29 c0
       -2.841739 -2.6711223 -2.6517692 -2.6464164
000010 82 43 3c c0 ed a1 39 c0 43 fb 2a c0 47 06 1b c0
       -2.9416203 -2.9005082 -2.6715858 -2.4222581
000020 6e 4c 2d c0 69 7a 27 c0 bd c5 3e c0 f1 40 40 c0
       -2.70779 -2.6168463 -2.980819 -3.0039637
000030 90 9d 21 c0 ad 68 2c c0 56 6d 2b c0 c2 86 25 c0
       -2.5252419 -2.693889 -2.6785483 -2.58635
000040 90 a2 28 c0 6a d0 33 c0 03 1a 35 c0 c9 e3 2e c0
       -2.634922 -2.8095956 -2.8297126 -2.732653
000050 aa 58 26 c0 56 2e 3f c0 79 f4 1e c0 f7 f8 45 c0
       -2.5991616 -2.9872031 -2.4836714 -3.0933206
000060 97 23 40 c0 1f 3b 3b c0 ee 5a 19 c0 38 19 2e c0
       -3.0021722 -2.9254835 -2.396175 -2.7202892
000070 5d 94 2e c0 74 31 34 c0 fd 44 34 c0 d0 ca 23 c0
       -2.7278054 -2.8155184 -2.8167107 -2.5592537
000080 ab 4a 9f 3d 63 cf e8 be 60 76 e3 be c6 e9 b5 3d
       0.07777914 -0.45470724 -0.4442625 0.08882479
000090 41 ea 3d 3f 1b 39 56 3f 53 24 0f c0 2b 4e f0 bf
       0.7418557 0.83680886 -2.236592 -1.8773855
0000a0 4b 97 a4 bf b4 b8 88 be 38 19 6d bf 4a 07 75 3e
       -1.2858671 -0.26703417 -0.92616606 0.23928562
0000b0 eb c8 03 be 8c b8 80 be ff c4 a2 3d 8e 42 a3 3f
       -0.12869613 -0.25140798 0.0794773 1.2754686
0000c0 c0 3e 0f c0 f4 a5 0b 3f a2 c7 03 3f 12 b9 07 bf
       -2.238205 0.545501 0.5147649 -0.5301677
0000d0 0a 4a bd be b2 1e 97 bf 08 ba 18 bf 11 fb 58 3e
       -0.3697055 -1.1806242 -0.5965886 0.21189524
0000e0 d1 9f 16 3e c4 c1 21 be 2e b2 86 be b0 3c d6 3e
       0.14709403 -0.15796572 -0.26307815 0.41843176
0000f0 3c aa 6d be 63 4a 82 bf 9e ae 88 bd 29 4a 9c bf
       -0.2320947 -1.0178951 -0.066739306 -1.2210132
000100 dd 9a 7a 3f 46 a1 cc be ac 11 89 bf 98 96 93 be
       0.9789255 -0.39966792 -1.0708518 -0.2882583
000110 1f b6 1b 3f 1d d1 01 3f 0a 1b ed bf 34 c1 08 c0
       0.6082477 0.50709707 -1.8523877 -2.1367922
000120 bc ac ab bf a9 18 30 bf 44 00 84 bf 80 19 e0 bc
       -1.3412089 -0.6878763 -1.0312581 -0.02735591
000130 ae c5 38 bf a8 38 1e 3e 4a 46 66 bf ee 2a 51 3f
       -0.72176635 0.154513 -0.89951 0.8170613
000140 75 ad f2 bf de 19 59 3f 99 ca 02 3f 0d c9 d2 be
       -1.8959185 0.84805095 0.5109039 -0.41169015
000150 e6 5f cf bb 88 10 bb be 18 14 6c bf 8c 28 06 bf
       -0.0063285707 -0.3653605 -0.9221816 -0.5240562
000160 db 47 0e 3f a6 bb 61 bf 91 cc 3c bf d3 76 51 bd
       0.5557839 -0.88176954 -0.73749644 -0.05113871
000170 58 d8 2c bf a3 5d 29 bf 3e 89 44 bf 82 16 e8 bf
       -0.67517614 -0.66158503 -0.76771915 -1.8131869
000180 83 ff 23 c0 40 fe 10 c0 ba 17 3f c0 c7 9d 33 c0
       -2.5624702 -2.2655182 -2.9858232 -2.806505
000190 22 2e 26 c0 d8 8a 2e c0 d5 6c 3f c0 3a a0 27 c0
       -2.5965657 -2.7272243 -2.9910176 -2.6191545
0001a0 56 6b 36 c0 a3 c8 3a c0 e9 73 28 40 e1 0d d7 3f
       -2.8503013 -2.918496 2.6320746 1.680111
0001b0 37 36 0f c0 d9 d4 1d c0 e4 f7 2f 40 61 ca 30 c0
       -2.237684 -2.4661162 2.749505 -2.7623522
0001c0 38 e9 45 c0 4e 82 20 c0 56 7a 0f c0 64 7c 35 c0
       -3.0923595 -2.5079532 -2.2418418 -2.8357172
0001d0 45 c5 3b c0 19 7f 3c c0 ae f7 1a c0 5d 3a 35 c0
       -2.9339154 -2.9452574 -2.4213672 -2.8316872
0001e0 59 5f 38 c0 9a a2 d2 bf 47 9f 2b c0 2f 29 36 c0
       -2.8808196 -1.6455872 -2.6815965 -2.8462636
0001f0 bc c8 2c c0 5c 9c 35 c0 03 c9 41 c0 f3 56 26 c0
       -2.6997519 -2.8376684 -3.0278938 -2.599057
000200 67 06 35 3e f5 e6 0e be 48 c0 84 be 2f fd 90 be
       0.17678224 -0.1395529 -0.2592795 -0.28318164
000210 5a 51 f3 3d a3 8f 5a 3f 38 57 09 c0 82 b6 ea bf
       0.11880751 0.8537542 -2.1459484 -1.8336947
000220 d8 d4 ff bf af b1 e4 be 28 29 dc be 3c 16 c4 3e
       -1.998683 -0.44666812 -0.4300015 0.38298213
000230 bc ab 0a 3e 9d 5a 63 3e 60 40 68 3f 95 05 a4 3f
       0.13542074 0.22202535 0.9072323 1.2814204
000240 4f 81 0f c0 e8 29 56 3f c0 a7 70 3f 76 62 2c bf
       -2.2422674 0.83657694 0.94005966 -0.6733774
000250 a6 30 92 bf 19 8d 8b bf bd 2a b7 be 13 93 ad 3e
       -1.1421096 -1.0902435 -0.35774794 0.3390127
000260 18 d2 e8 bd 05 46 80 3e 01 65 a7 3e b5 ec 8a 3f
       -0.11368197 0.2505342 0.32694247 1.0853487
000270 fd 0e 4e 3e 9b b5 1f be 8b 7a 1b 3f b9 23 bc bf
       0.20122905 -0.1559662 0.6073386 -1.4698402
000280 1b 8d 8c 3d 7c 89 11 3e 52 73 f3 3e 66 3e c8 3d
       0.06862851 0.14212602 0.4754892 0.097775266
000290 2d 04 35 3f f8 5c 11 3f 63 98 e5 bf f7 40 b4 bf
       0.70709497 0.56782484 -1.793713 -1.4082326
0002a0 af 9e 86 bf f2 63 eb 3c db ee 45 bf 3a 9e 58 be
       -1.0517176 0.028734181 -0.7731759 -0.21154109
0002b0 32 a8 ba 3d 17 be c1 3e b8 cc 71 be 09 1f 7f 3f
       0.09114112 0.3784034 -0.2361325 0.9965673
0002c0 d3 a5 04 c0 25 3d 64 3f 34 72 52 3f 80 3c e8 be
       -2.072621 0.891558 0.8220551 -0.45358658
0002d0 58 c8 59 be 62 c4 8e bf a4 c7 70 be e3 d9 a1 3e
       -0.21267831 -1.1153681 -0.23513657 0.31611547
0002e0 1a 29 f3 3e eb c3 4a bd 35 35 91 3d c8 08 7c 3e
       0.47492296 -0.04950325 0.070902266 0.24612725
0002f0 20 9e 5a bf a5 c0 26 bf 6b 9a bd bd c0 38 d8 be
       -0.8539753 -0.651377 -0.092579685 -0.42230797
000300 d1 88 20 3f 0e 2e 42 3e 48 15 c9 3f ca 08 20 3f
       0.62708765 0.18962881 1.570962 0.6251341
000310 c2 3b 73 3f cd d9 8e 3f 30 e1 dd bf d6 ea cc bf
       0.9501306 1.1160218 -1.7334347 -1.6009166
000320 65 c3 b8 be d0 0e 20 3f 86 6f 4f bf ee 27 77 bf
       -0.36086574 0.625226 -0.81029546 -0.965453
000330 b6 d3 4a 3f 6f bd a3 bb db 92 8a bf 1f bb 0e 3f
       0.79229295 -0.0049969475 -1.0826067 0.55754274
000340 91 fd f2 bf 02 5b 7a 3e 0d 69 07 3f 2c f4 ea bf
       -1.8983632 0.24448779 0.5289467 -1.8355765
000350 77 e5 5c 3f 5a 13 8c bf 61 2d 0b be cf 73 4d 3f
       0.86287636 -1.0943406 -0.1359153 0.80254835
000360 f6 4b b4 3f 0b 0a ab be 94 ad 6c 3f 8f 43 0b be
       1.4085681 -0.334061 0.9245236 -0.1359999
000370 f9 9f d5 bf df 5f 9f bf 92 3b 32 bf 96 24 5b 3f
       -1.6689445 -1.2451133 -0.6962215 0.856027
000380 08 05 7f 3f 44 ac a2 3f f1 4b f5 3e 0a 67 b5 3f
       0.9961705 1.2708821 0.479095 1.417207
000390 81 a1 9b 3f 7c 7d 7c 3f 13 d2 04 c0 ad 2a de 3e
       1.2158662 0.98628974 -2.075322 0.43391934
0003a0 e0 2e ea 3e 21 0e 35 3f 99 0d ca 3f ff 34 44 40
       0.45738888 0.70724684 1.57854 3.0657346
0003b0 79 b7 c6 3f 60 be 92 3f c7 38 38 40 aa d9 05 40
       1.5524741 1.1464348 2.8784654 2.0914102
0003c0 ae 84 0a c0 b2 07 ed 3f c7 1d 09 40 a6 c7 1c 40
       -2.1643481 1.8517973 2.1424425 2.4496856
0003d0 1a ae 8c 3d 6b 53 91 3f 13 d2 50 3f b8 3b c7 3f
       0.06869145 1.1353582 0.8157055 1.55651
0003e0 ee e4 2f 3f af 42 0b 40 ed fc 96 3f de 67 0c 40
       0.68708694 2.175945 1.1795937 2.1938396
0003f0 10 a7 3b 40 e9 53 2c 40 cf 0a 37 40 17 51 13 3f
       2.9320717 2.6926215 2.8600347 0.5754561

layers.2.bias f4 [32]
000000 5a 9d 28 c0 0f e4 50 40 37 15 59 40 49 a4 26 c0
       -2.634604 3.2639196 3.3919199 -2.6037772
000010 67 1d 54 40 89 49 49 40 fc 28 48 40 47 1e 57 40
       3.3142946 3.1451132 3.1275015 3.361223
000020 32 cf 28 c0 b9 de 3a 40 d9 a8 de 3d 3c 4f 27 c0
       -2.6376462 2.919844 0.10872049 -2.614211
000030 6f d3 45 40 c3 6a 53 40 2f 40 5a 40 7b 6c 39 c0
       3.09103 3.3033912 3.4101675 -2.8972461
000040 cf 53 2d c0 62 48 57 40 d9 36 30 c0 26 17 26 c0
       -2.7082403 3.363793 -2.7533476 -2.5951629
000050 e7 92 5f 40 b8 cb 4f 40 0d 09 54 40 f3 87 5b 40
       3.4933412 3.246809 3.3130524 3.4301727
000060 fa 10 4a 40 0c c6 4a 40 4c 37 33 c0 d1 e8 50 40
       3.1572862 3.1683378 -2.80025 3.26421
000070 a8 01 5b 40 68 50 56 40 8e 28 2a c0 d8 ed 5b 40
       3.421976 3.3486576 -2.6587253 3.4363918

out.0.weight f4 [21, 32]
000000 bc 7e 28 c0 60 24 af bd 8e 01 d6 bc aa 88 29 c0
       -2.6327353 -0.0855186 -0.026123788 -2.6489663
000010 24 ef 8e bd cf 4c 10 be da 78 9b bd e5 67 0d be
       -0.06979206 -0.140918 -0.0759141 -0.13809164
000020 d5 d7 2d c0 9a ee c8 3c 40 86 8e bd dd 45 33 c0
       -2.7162983 0.024527837 -0.069592 -2.801139
000030 b3 9f 9c bd 90 e1 6f be 0a e4 a5 3c 96 a7 1c c0
       -0.07647648 -0.23425889 0.020250339 -2.4477286
000040 1e 6b 38 c0 2d e1 a0 be 9a dd 3a c0 52 b3 53 c0
       -2.881538 -0.31421795 -2.9197755 -3.3078198
000050 f4 f9 20 be ca d8 25 be 5b eb fe bd 93 9c ae be
       -0.1572035 -0.1619598 -0.12447234 -0.34103832
000060 5a 09 8c be 8a a8 0a 3e 08 fc 15 c0 a4 0c d0 be
       -0.27350885 0.13540855 -2.3435078 -0.40634644
000070 ad c5 8a be ce ec f7 be 1d 44 05 c0 03 a4 80 3d
       -0.2710394 -0.48422855 -2.0822823 0.06281283
000080 b2 df 27 c0 38 f2 0b 3e 46 17 d8 3d 58 c2 3d c0
       -2.6230283 0.13666618 0.10551314 -2.9649868
000090 b9 97 9c bd 1d 7f a1 be 60 28 99 be bb 0c 83 bd
       -0.07646126 -0.31542292 -0.29913616 -0.063989125
0000a0 4b 34 2b c0 c3 ed 76 3d d9 11 61 3e fa 12 1e c0
       -2.6750667 0.06028534 0.21979465 -2.4699082
0000b0 05 49 8d be 94 34 4f be f2 24 05 3e 20 2b 29 c0
       -0.27594772 -0.202349 0.13002375 -2.6432571
0000c0 be ab 2d c0 1c 47 bd 3d 94 ea 3d c0 ba 11 36 c0
       -2.7136073 0.09242079 -2.9674425 -2.844832
0000d0 04 f0 3b be 94 bc 19 bf cf 2f 6b be b5 a3 5f be
       -0.18353277 -0.6005337 -0.22967456 -0.21839793
0000e0 df ca aa be 8d fa 37 be 7a 0e 3f c0 0e 43 6d bd
       -0.33357903 -0.17966671 -2.9852586 -0.057925276
0000f0 59 20 e5 be 75 5b 26 be 46 df 3a c0 5f c5 32 bd
       -0.44751242 -0.16245826 -2.9198775 -0.04364526
000100 63 37 37 c0 5c 20 c9 ba db 2b e2 3d a0 4f 2b c0
       -2.8627555 -0.0015344727 0.11043521 -2.676735
000110 d3 24 12 3e 3f fa 04 bc 60 8d f5 be ec 8f 0c be
       0.1427186 -0.008116304 -0.47959423 -0.13726777
000120 b2 6f 39 c0 7e 13 b0 3e 7e 66 27 be 66 ad 33 c0
       -2.8974423 0.3438987 -0.16347691 -2.8074584
000130 e8 5b 03 bf 63 7e 24 bd 7d 00 2d 3b 4c 07 44 c0
       -0.5131211 -0.040159594 0.0026397996 -3.0629454
000140 9a ab 2f c0 9b c2 66 be 53 f3 38 c0 e1 f8 26 c0
       -2.7448487 -0.22535174 -2.8898513 -2.6089404
000150 3c 02 85 3c 47 f7 47 3e 8c e8 aa 3d 50 c2 bf bc
       0.016236417 0.19527923 0.08345136 -0.023408085
000160 15 7e d5 bd 13 4c f7 bd 3e 2d 28 c0 44 6b af 3d
       -0.10424439 -0.12075057 -2.6277614 0.08565381
000170 33 93 5c be 19 33 3c be b6 4e 42 c0 82 e4 10 be
       -0.21540527 -0.18378867 -3.0360541 -0.14149669
000180 d8 27 3b c0 43 9e 96 3b 8e ef 69 be 1a 75 2d c0
       -2.9243069 0.004596503 -0.22845289 -2.7102723
000190 19 34 76 be ac 25 26 be 8b f9 3c 3e bd a4 67 be
       -0.24043311 -0.16225308 0.18454568 -0.22621436
0001a0 06 c6 26 c0 a0 29 50 3e 0b 6d 92 bd 44 0b 37 c0
       -2.6058364 0.20328379 -0.071497045 -2.8600626
0001b0 d0 26 68 be 97 08 12 be 3e 44 11 bf d4 18 34 c0
       -0.22671056 -0.1426109 -0.56744754 -2.8140154
0001c0 b2 e1 44 c0 8c bf 83 be cb 99 36 c0 70 c0 26 c0
       -3.0762753 -0.25732076 -2.8531368 -2.6054955
0001d0 68 86 70 be 99 e8 05 bf d6 05 29 3d 2c bb 5e be
       -0.23488772 -0.5230804 0.04126533 -0.21751088
0001e0 4c 25 bf 3d 65 c6 04 bd fd 10 29 c0 0b a9 c9 bd
       0.09333286 -0.032415766 -2.641662 -0.098466955
0001f0 20 bd 93 be 03 7f 6b be 73 2c 2b c0 db f5 f2 bd
       -0.28855228 -0.2299767 -2.674588 -0.118632995
000200 35 85 2a c0 61 db 2f 3e 09 72 a0 3e 6c ff 50 c0
       -2.6643803 0.1717353 0.31337002 -3.2655897
000210 92 d8 6d 3a 66 af 76 3d 33 b6 20 bf 76 15 7c bd
       0.0009073104 0.060225867 -0.62778014 -0.061543904
000220 cb aa 30 c0 f1 86 b6 3e 93 6c c7 bc b6 c0 54 c0
       -2.7604244 0.35649827 -0.024343764 -3.3242621
000230 9c 8b a8 be 5a 80 a6 bd 9a 12 db be e2 5a 21 c0
       -0.32919014 -0.0812995 -0.4278763 -2.521172
000240 34 6c 0a c0 4c ec be be ad f3 3d c0 b4 5f 26 c0
       -2.1628542 -0.37289655 -2.9679978 -2.5995913
000250 f7 59 8f 3d 53 e0 d0 be 9a e1 e9 bc ab 39 62 be
       0.06999581 -0.40796146 -0.028549958 -0.22092311
000260 78 a8 9b bc 26 d6 77 be 15 bb 41 c0 46 60 cc bd
       -0.01900123 -0.24202785 -3.0270436 -0.099793
000270 bb c1 05 3e ff 54 d5 3c 47 98 11 c0 5e 1c 91 be
       0.13062184 0.026041506 -2.2749193 -0.28341955
000280 d0 81 30 40 2c f5 89 3f b6 50 42 3f b4 07 49 40
       2.7579231 1.0777946 0.75904405 3.1410952
000290 7b eb 1a 3f 13 23 a4 3f 9c ef 6b 3f d0 f6 2c 3f
       0.60515565 1.2823204 0.9216249 0.67564106
0002a0 ec 98 1f 40 65 af 44 3f 59 8a 77 3d 01 ea 3f 40
       2.4937086 0.7683013 0.060434673 2.9986575
0002b0 32 1e 1f 3f 4c 8b 81 3f f7 4c 8d 3f 10 d2 2b 40
       0.6215545 1.0120635 1.1039113 2.6846962
0002c0 3d 87 30 40 84 66 52 3f 1b ff 2d 40 72 cd 1f 40
       2.7582543 0.82187676 2.7186954 2.4969144
0002d0 34 ec ad 3f fe c9 a8 be 49 37 81 3f 67 8a 0a 3e
       1.3587708 -0.32966608 1.0094997 0.13529359
0002e0 57 cb 6b 3e ac 67 8a 3f ad c7 2b 40 a2 f5 7c 3f
       0.23026787 1.0812888 2.6840622 0.98812306
0002f0 62 ee d4 3e 18 f9 c2 3f e9 2c 31 40 2a 66 62 3f
       0.41588122 1.5232267 2.768366 0.8843714
000300 5f da 3a c0 ef 61 08 be 41 72 c4 3c 04 ad 3e c0
       -2.9195783 -0.13318609 0.023980262 -2.97931
000310 23 80 34 be 10 45 b3 be ff ee 13 bf 81 eb 89 be
       -0.17627005 -0.35013628 -0.57786554 -0.26937488
000320 ba 57 39 c0 45 0a 00 3f ba 7e f8 3c 4c 08 1a c0
       -2.8959794 0.5001567 0.030333865 -2.4067564
000330 82 45 6a be 9a 49 d7 bd 5a 34 af be 9e e5 27 c0
       -0.22878078 -0.10512085 -0.3421963 -2.6233897
000340 54 28 38 c0 02 21 cc bd ac 38 36 c0 da 79 3c c0
       -2.8774614 -0.09967233 -2.847209 -2.9449372
000350 c4 75 04 bf 13 41 2d bd 76 4d 03 3e 0e 41 a3 be
       -0.51742196 -0.042298388 0.12822518 -0.3188557
000360 34 4d 8d bd 63 56 d4 be cc cd 32 c0 40 4f 3d bf
       -0.06899491 -0.41472158 -2.7938108 -0.7394905
000370 23 63 d8 bd 08 37 f9 be cf 1a 4d c0 40 17 09 bf
       -0.10565784 -0.48674798 -3.2047613 -0.535511
000380 b4 0d 31 c0 f0 4a a7 3d a8 a3 08 be e6 21 33 c0
       -2.7664614 0.0816859 -0.1334368 -2.798944
000390 68 4d 1a 3e 28 05 c3 bd 7b aa 3b bf 9f 93 1e bf
       0.1506859 -0.09522468 -0.7330701 -0.61944
0003a0 b5 55 49 c0 76 8b 8b 3e aa f1 db 3c 66 c4 35 c0
       -3.1458561 0.27254838 0.026848633 -2.8401122
0003b0 8a 11 7f be 24 28 ce be 30 62 c1 bc b0 1e 30 c0
       -0.24909034 -0.40265 -0.02360639 -2.751873
0003c0 90 d3 1a c0 83 52 ac 3e 33 c4 2c c0 06 39 3e c0
       -2.4191628 0.336567 -2.699475 -2.9722304
0003d0 86 bf 7e bd be 37 f3 3d 51 6a c9 3a 9b 9b 98 bb
       -0.06219437 0.11875866 0.0015366768 -0.0046572215
0003e0 fd 49 25 bd d2 95 6c be 4c 55 3b c0 35 28 89 be
       -0.040353764 -0.23104027 -2.927081 -0.26788488
0003f0 4e 81 44 3e 19 2f 0c be 1c 63 1e c0 b8 cf 51 be
       0.19189951 -0.13689841 -2.4747992 -0.20489395

out.0.bias f4 [21]
000000 15 dc c2 bf 18 97 0f c0 6c 11 3e bf 41 d0 0a c0
       -1.5223414 -2.243597 -0.74245334 -2.1689608
000010 d1 1f 09 c0 aa ca 4b 40 12 5a 2b c0 5e e4 29 c0
       -2.142567 3.1842446 -2.6773725 -2.6545634
000020 40 80 3a 40 ce 62 34 c0 3a 32 36 c0 13 ae 50 40
       2.9140778 -2.8185306 -2.8468156 3.2606246
000030 54 43 1e c0 e7 88 2b c0 b5 b7 5f 40 18 d0 35 c0
       -2.4728594 -2.6802309 3.4955876 -2.840826
000040 c6 a1 35 c0 bc f7 59 40 23 95 2d c0 64 40 39 c0
       -2.8379989 3.4057455 -2.7122276 -2.894555
000050 0f 2e 7b 40
       3.9246862
