results/FC_PRIMNET/FINGER/weights/epoch_495.pth (torch, 4959 bytes, 10 tensors)

motor_std f4 [4]
000000 06 11 bf 43 31 b2 c0 43 60 60 bb 43 60 57 b9 43
       382.133 385.39212 374.75293 370.68262

motor_mean f4 [4]
000000 2f 7a 0b 44 5e de 0c 44 73 a7 0d 44 a7 3a 0a 44
       557.9091 563.4745 566.6164 552.91644

position_std f4 [3, 1]
000000 00 00 80 3f 00 00 80 3f 00 00 80 3f
       1.0 1.0 1.0

position_mean f4 [3, 1]
000000 00 00 00 00 00 00 00 00 00 00 00 00
       0.0 0.0 0.0

layers.0.weight f4 [16, 4]
000000 7c c6 35 c0 f2 ad 37 c0 2f 69 3b 40 1c 37 42 c0
       -2.8402395 -2.8699918 2.928295 -3.0346136
000010 23 83 32 c0 2a 01 3a 40 bf 3a 2b c0 15 1a 47 40
       -2.789254 2.906321 -2.6754606 3.110967
000020 7f d0 49 40 05 f9 0f c0 13 cd 14 40 a3 89 44 c0
       3.1533506 -2.249574 2.3250167 -3.0709007
000030 c5 3c bd 3e c8 08 05 40 21 b7 a4 bf 65 31 25 c0
       0.36960426 2.078661 -1.2868387 -2.5811398
000040 27 b3 1a c0 62 85 24 40 6b e2 1b c0 c7 ee 2b c0
       -2.4171846 2.570641 -2.4356945 -2.6864488
000050 54 9a 06 40 e2 7d 2f 40 c7 b2 3e 40 ac be 37 c0
       2.1031694 2.7420583 2.9796617 -2.8710127
000060 05 eb 9f 3d bf 2d c7 3c 7a e7 da 3d a3 24 13 3e
       0.07808498 0.024313806 0.10688682 0.14369445
000070 e0 8c 2c c0 ad 33 24 40 81 1f 4d 40 3d c2 68 c0
       -2.6960983 2.565654 3.2050478 -3.6368554
000080 b1 c5 4f c0 6b 14 1d 40 b7 96 38 c0 a8 76 44 40
       -3.2464411 2.4543712 -2.884199 3.0697422
000090 68 9c 31 c0 38 2d 7f 3f 22 6a 32 40 64 cd 27 c0
       -2.7751713 0.99678373 2.7877278 -2.621911
0000a0 79 11 28 c0 37 a5 30 40 60 c0 14 c0 b1 74 3c 40
       -2.6260664 2.760084 -2.3242416 2.9446223
0000b0 56 a0 3d 40 c2 40 32 c0 c0 b5 5f 40 26 39 2d c0
       2.9629111 -2.7852025 3.4954681 -2.706613
0000c0 d8 62 2b 40 54 ed d6 bf 96 79 35 40 16 cf 37 c0
       2.677908 -1.6791177 2.835546 -2.8720145
0000d0 04 0f 25 c0 18 5c 3d 40 76 73 1b c0 4a 51 2f 40
       -2.5790415 2.958746 -2.4289222 2.7393365
0000e0 e1 0d 2c 40 bc 35 27 c0 94 33 27 40 6e 18 25 3f
       2.688347 -2.6126547 2.612523 0.644904
0000f0 d4 7c 41 40 a2 5c 02 40 26 48 ee 3f 30 eb 09 c0
       3.023244 2.0369039 1.8615768 -2.1549797

layers.0.bias f4 [16]
000000 f6 39 38 c0 33 58 3e c0 29 e6 31 c0 6f f5 3b c0
       -2.8785377 -2.9741333 -2.7796729 -2.936855
000010 c1 65 31 c0 53 b5 25 c0 96 47 c5 be d6 ef 34 c0
       -2.7718356 -2.5891922 -0.38531178 -2.8271384
000020 7a d9 1f c0 bd 62 2f c0 30 dc 1d c0 f2 bf 24 c0
       -2.4976487 -2.7404015 -2.4665642 -2.5742154
000030 4c b4 48 c0 9d 3d 5f c0 a8 1e 49 c0 54 c4 5c c0
       -3.1360044 -3.4881356 -3.142496 -3.449483

layers.2.weight f4 [16, 16]
000000 09 3d 37 c0 6f 8c 33 c0 d2 79 52 c0 dc fa 89 bf
       -2.8631003 -2.8054464 -3.2886853 -1.0779681
000010 0c 8b 42 c0 c2 26 22 40 94 b9 3f 3e 96 6a 54 c0
       -3.0397367 2.5336156 0.18723136 -3.3190055
000020 da 13 08 40 32 55 36 c0 f7 73 37 c0 7a c5 28 c0
       2.1262116 -2.84895 -2.866453 -2.637053
000030 20 5c fb be 28 0e 51 c0 97 d9 ed bf 3f 3f 67 c0
       -0.49093723 -3.266489 -1.8582028 -3.6132352
000040 26 3f 16 c0 0a e2 30 c0 0d 92 47 c0 7c de 2e c0
       -2.3476043 -2.7637963 -3.1182892 -2.7323294
000050 70 ec 2b c0 d4 2d 38 c0 7c 64 03 be 88 21 41 c0
       -2.686306 -2.8777971 -0.128313 -3.0176716
000060 36 d8 3f c0 05 ea 32 c0 12 2a 41 c0 6b f7 3c c0
       -2.9975715 -2.7955334 -3.0181928 -2.9526012
000070 99 1d 1e c0 0c 10 16 40 20 49 2a c0 b4 0e 3c 40
       -2.4705565 2.3447294 -2.6607132 2.9383974
000080 9d c1 47 c0 85 58 43 c0 70 df 20 c0 85 25 27 40
       -3.1211922 -3.0522778 -2.5136375 2.611665
000090 44 48 0d c0 39 a6 44 c0 4e 73 f3 bd 24 fa 1e c0
       -2.2075357 -3.0726454 -0.11887227 -2.4840174
0000a0 3e 7d 3e c0 82 58 e7 bf ac 30 2b c0 fd bc 28 c0
       -2.9763942 -1.8073885 -2.6748457 -2.636535
0000b0 58 77 c0 3f fc 9a 4d 40 b3 49 44 c0 ba 00 ea bf
       1.5036421 3.2125845 -3.0669982 -1.8281472
0000c0 ec c2 3c c0 89 50 42 3e ce aa 4a c0 c9 45 38 c0
       -2.949397 0.18976034 -3.166675 -2.8792593
0000d0 90 e7 3d c0 4e 7d 43 c0 ff 18 a9 3d af 35 18 bf
       -2.9672585 -3.054523 0.08256721 -0.59456915
0000e0 bb 48 5b c0 68 36 3a c0 59 58 59 c0 1f 9d 41 c0
       -3.426314 -2.9095707 -3.3960173 -3.025215
0000f0 35 6e 3e c0 e8 83 55 c0 23 a8 28 c0 ce 7c 73 c0
       -2.9754765 -3.336176 -2.6352623 -3.8044925
000100 83 ed 49 c0 fb fa 47 c0 e8 29 46 c0 70 4e 5a c0
       -3.1551216 -3.1246936 -3.0963078 -3.4110374
000110 ea 17 41 c0 56 f9 2d c0 5c fc cb 3e d3 68 5b c0
       -3.0170846 -2.7183433 0.39840972 -3.428273
000120 7b 41 42 c0 90 1a 36 c0 5c 2d 3d c0 c8 41 4c c0
       -3.0352466 -2.8453712 -2.9558935 -3.191515
000130 7b 9a 52 c0 a2 54 26 c0 90 76 4f c0 11 b3 37 c0
       -3.2906787 -2.5989156 -3.2416115 -2.8703043
000140 9e 15 13 bf 36 8d 40 c0 b0 f9 0c c0 93 d4 34 be
       -0.5745486 -3.0086188 -2.2027397 -0.17659216
000150 66 31 46 c0 4a 0b ce bf b2 f2 83 be df 1b 3a c0
       -3.096765 -1.6097195 -0.257711 -2.907951
000160 b4 67 45 c0 de 2e 38 c0 35 a5 60 c0 3d 57 3e c0
       -3.0844545 -2.8778605 -3.5100834 -2.9740746
000170 d2 61 14 c0 6a 47 5b c0 81 e5 39 c0 ba 8f 5b c0
       -2.3184705 -3.4262338 -2.9046328 -3.4306474
000180 c8 6b 4d c0 6e 6f 26 40 c1 66 4b c0 14 7a 33 c0
       -3.2097034 2.6005511 -3.1781466 -2.804326
000190 e5 bc 34 c0 1d 8e 40 c0 38 c8 da 3e 98 92 47 c0
       -2.8240292 -3.008674 0.4273088 -3.1183224
0001a0 b2 c4 47 c0 f4 6f 39 c0 a0 31 4c c0 ea 47 2c c0
       -3.1213803 -2.897458 -3.1905289 -2.6918893
0001b0 70 f5 38 c0 9d 29 2a c0 73 dd 48 c0 b3 35 31 c0
       -2.8899803 -2.6587899 -3.1385162 -2.7689025
0001c0 7c 1c 38 c0 f3 d6 3a c0 ed ca 47 c0 f6 65 41 c0
       -2.8767385 -2.9193695 -3.1217606 -3.0218482
0001d0 3b 93 3a c0 93 42 47 c0 2e 6d c3 bd c9 2e 27 c0
       -2.9152362 -3.1134384 -0.09542309 -2.6122305
0001e0 4d 63 31 c0 20 ec 00 40 5d f7 07 c0 f9 fc 9b 3f
       -2.7716858 2.014412 -2.1244729 1.2186576
0001f0 12 ed 39 c0 7d 82 30 40 e3 a2 3d c0 09 b0 2e c0
       -2.9050946 2.7579644 -2.9630668 -2.7294943
000200 68 6f 2a c0 af 48 0b c0 bc 6b 47 c0 12 72 51 c0
       -2.6630497 -2.1763113 -3.1159506 -3.2725873
000210 0a 9a 45 c0 6d cd 62 c0 7d 98 c0 3c 08 3e 3c c0
       -3.0875268 -3.5437882 0.023510212 -2.941286
000220 25 fd 33 c0 37 09 1d c0 c1 e2 3b c0 78 e3 37 c0
       -2.8123257 -2.4536874 -2.935715 -2.8732586
000230 b8 62 30 c0 43 c4 1b c0 80 6d 42 c0 a1 35 40 40
       -2.7560253 -2.4338539 -3.0379333 3.0032732
000240 a6 e7 3f c0 f7 85 3a 40 b6 4c 06 3f 85 df 3f c0
       -2.9985137 2.9144266 0.524608 -2.9980175
000250 f3 9e 40 c0 34 d8 2f c0 b1 0d 77 be 0e 49 2b c0
       -3.0097015 -2.747571 -0.24126317 -2.676334
000260 0c 28 43 c0 74 13 51 c0 25 08 44 c0 83 a4 5c c0
       -3.0493193 -3.2668123 -3.062997 -3.447541
000270 f4 60 3c c0 20 26 17 c0 de 92 3d c0 40 61 4c c0
       -2.9434175 -2.361702 -2.962089 -3.1934357
000280 62 bb 11 c0 2a 97 43 c0 71 8c 28 c0 68 10 48 c0
       -2.277062 -3.0561013 -2.6335719 -3.1260014
000290 0f 9d 3f c0 79 df 2b c0 1d ce 8c bd b6 3c 30 c0
       -2.993961 -2.6855147 -0.068752505 -2.7537055
0002a0 9a 8a 3b c0 db 95 42 c0 6e 9a 8f bf 34 c6 75 c0
       -2.9303346 -3.0403965 -1.1219003 -3.8402224
0002b0 b7 82 07 40 58 ab 4a c0 81 69 08 c0 22 53 37 c0
       2.1173532 -3.166708 -2.1314394 -2.864449
0002c0 b8 9c 33 c0 4e 36 2d 40 a6 b1 6a bf 86 55 30 c0
       -2.8064404 2.7064395 -0.9167732 -2.75522
0002d0 cf 71 34 c0 cc ec 48 c0 e6 48 4f 3d cb eb 3a c0
       -2.8194463 -3.139453 0.05060663 -2.9206417
0002e0 32 9e 35 c0 6b 82 24 c0 e9 7f 29 c0 01 ff 46 c0
       -2.8377805 -2.57046 -2.648432 -3.1093142
0002f0 39 99 38 c0 21 b0 18 c0 ed a3 20 bf e1 de 1a c0
       -2.884352 -2.38575 -0.6275013 -2.4198534
000300 01 cd 3f c0 f0 40 4d c0 55 fd 31 c0 b9 f0 43 c0
       -2.9968874 -3.2070885 -2.7810872 -3.0615675
000310 77 ba 44 c0 86 cd 32 c0 e9 b6 8d be 66 c0 fe bf
       -3.073881 -2.7937942 -0.27678612 -1.9902465
000320 35 49 4c c0 cb 1a 47 c0 e6 98 43 c0 75 60 40 c0
       -3.1919682 -3.1110103 -3.0562072 -3.0058873
000330 0b 1b 18 c0 6a a8 19 c0 01 c7 53 c0 66 15 86 be
       -2.3766506 -2.4009042 -3.3090212 -0.261882
000340 7a ce 48 c0 2a 48 49 c0 ea 06 4f c0 d2 92 4c c0
       -3.1376023 -3.1450295 -3.234797 -3.1964612
000350 f5 36 42 c0 04 ff 2e c0 2d bd a7 3e ec e2 45 c0
       -3.0346043 -2.734315 0.32761517 -3.0919752
000360 b3 5f 4d c0 91 69 43 c0 15 65 63 c0 08 fb 34 c0
       -3.208966 -3.0533183 -3.5530446 -2.8278217
000370 bf 04 3c c0 de 86 6a 3d 62 82 2c c0 54 d1 56 c0
       -2.9377897 0.057257526 -2.695458 -3.3565264
000380 07 b3 27 c0 3e 7d 4d c0 c4 8e 42 c0 4a 98 38 c0
       -2.620302 -3.2107692 -3.0399637 -2.884295
000390 98 76 35 c0 50 95 28 c0 47 a9 19 3e c7 9f 14 c0
       -2.8353634 -2.6341133 0.1500598 -2.322252
0003a0 85 eb 3c c0 33 81 16 c0 9a 7c 57 c0 89 d0 32 c0
       -2.951875 -2.3516357 -3.36698 -2.793978
0003b0 98 93 2e 40 77 ff 0d 40 a5 c3 2e c0 df d2 17 c0
       2.7277584 2.2187173 -2.7306912 -2.3722456
0003c0 e5 1c 45 c0 c0 a3 1e c0 fd 30 4a c0 72 00 26 c0
       -3.0798886 -2.4787445 -3.15924 -2.5937772
0003d0 1a ee 4f c0 9b 88 30 c0 ee 08 00 3f 80 78 39 c0
       -3.2489076 -2.7583377 0.50013626 -2.8979797
0003e0 e2 1f 4c c0 bd 1a 39 c0 de f1 40 c0 5e c2 3d c0
       -3.189446 -2.892257 -3.0147624 -2.9649882
0003f0 55 79 16 c0 a0 43 28 40 ac 74 44 c0 1f 9f 3e 40
       -2.3511555 2.6291275 -3.069621 2.978462

layers.2.bias f4 [16]
000000 36 9f 40 c0 9b 20 3d c0 f2 3d 44 c0 a8 99 35 c0
       -3.0097175 -2.955115 -3.0662808 -2.8375034
000010 c4 c3 3a c0 dc 91 63 c0 12 7f 30 c0 7e 75 32 c0
       -2.9181986 -3.5557775 -2.7577558 -2.7884212
000020 69 db 42 c0 10 f8 3a c0 d3 8f 52 c0 76 10 51 c0
       -3.0446417 -2.9213905 -3.2900283 -3.2666297
000030 0b ad 32 c0 b8 f3 3f c0 96 2f 4c c0 15 19 45 c0
       -2.7918117 -2.9992504 -3.1904044 -3.079656

out.0.weight f4 [3, 16]
000000 a2 f7 30 c0 46 bb 2e 40 62 c4 22 40 7d 6c 20 c0
       -2.7651143 2.7301803 2.5432363 -2.5066216
000010 69 a1 39 c0 14 99 25 40 1c be 2c c0 a8 2d 2c c0
       -2.9004767 2.5874681 -2.6991034 -2.6902866
000020 d8 73 31 40 dc e4 37 c0 00 69 33 c0 bf 7c 1d c0
       2.7726955 -2.8733435 -2.8032837 -2.460739
000030 16 4d 33 40 f7 26 32 c0 9b a0 32 c0 a3 49 12 40
       2.80158 -2.7836282 -2.7910526 2.2857444
000040 1d 42 e4 3f 39 2a 37 40 65 79 26 40 d2 ed 1f c0
       1.7832676 2.861952 2.6011593 -2.4988904
000050 b8 e6 2d 40 44 22 0e 40 64 43 1f c0 da 74 1b 40
       2.717207 2.2208414 -2.4884882 2.429007
000060 e9 90 38 c0 b4 29 de 3f 78 f5 4f 40 9f 5a 23 c0
       -2.8838446 1.7356477 3.2493572 -2.552406
000070 0a 01 dd 3f 8a 7d 58 c0 60 33 22 40 e9 69 2f 40
       1.7265942 -3.3826623 2.5343857 2.7408392
000080 7f b5 28 c0 a1 aa 35 40 dc dc 2e c0 6a af 31 40
       -2.6360776 2.8385394 -2.7322302 2.7763314
000090 ed 33 35 c0 a6 55 08 c0 94 83 24 40 c6 3b 09 c0
       -2.8312943 -2.1302276 2.570531 -2.1442733
0000a0 1e 12 28 40 40 7b 32 40 ab 17 26 c0 01 2f 35 c0
       2.6261058 2.7887726 -2.5951946 -2.830994
0000b0 ca 33 36 40 29 0b 2c c0 9f 97 22 c0 83 7d 3c 40
       2.846911 -2.6881812 -2.5405042 2.9451606

out.0.bias f4 [3]
000000 ef f5 0c bc de 61 43 bc 9b fc db 3d
       -0.008603557 -0.011925189 0.1074154
