results/FC_PRIMNET/FINGER/weights/epoch_215.pth (torch, 4959 bytes, 10 tensors)

motor_std f4 [4]
0	0x43bf1106	382.133
1	0x43c0b231	385.39212
2	0x43bb6060	374.75293
3	0x43b95760	370.68262

motor_mean f4 [4]
0	0x440b7a2f	557.9091
1	0x440cde5e	563.4745
2	0x440da773	566.6164
3	0x440a3aa7	552.91644

position_std f4 [3, 1]
0	0x3f800000	1.0
1	0x3f800000	1.0
2	0x3f800000	1.0

position_mean f4 [3, 1]
0	0x00000000	0.0
1	0x00000000	0.0
2	0x00000000	0.0

layers.0.weight f4 [16, 4]
0	0xc02ed9a2	-2.7320333
1	0xc030c118	-2.7617855
2	0x40347c55	2.8200886
3	0xc03b4a42	-2.9264073
4	0xc02b9649	-2.6810477
5	0x40331450	2.7981148
6	0xc0244d81	-2.5672305
7	0x40402d3b	3.0027606
8	0x4042e3a5	3.0451443
9	0xc0090c2b	-2.1413677
10	0x400de039	2.2168105
11	0xc03d9cc9	-2.9626944
12	0x3eb02a06	0.3440706
13	0x3ffc3919	1.9704925
14	0xbf96f853	-1.1794533
15	0xc01e44fc	-2.4729605
16	0xc013c7dd	-2.3090737
17	0x401d9800	2.4624023
18	0xc014f307	-2.3273332
19	0xc0250189	-2.5782187
20	0x3fff5bbb	1.9949869
21	0x40289108	2.633852
22	0x4037c59d	2.8714364
23	0xc030d1d2	-2.7628064
24	0x3d9feb05	0.07808498
25	0x3cc72dbf	0.024313806
26	0x3ddae77a	0.10688682
27	0x3e1324a3	0.14369445
28	0xc025a06a	-2.587916
29	0x401d4737	2.4574716
30	0x40463437	3.096937
31	0xc061d4ff	-3.5286252
32	0xc048da67	-3.1383302
33	0x40162412	2.3459516
34	0xc031b157	-2.776449
35	0x403d8b90	2.9616432
36	0xc02aaf8e	-2.666965
37	0x3f638fba	0.88891184
38	0x402b7d48	2.6795216
39	0xc020e0ee	-2.5137286
40	0xc02123d7	-2.5178125
41	0x4029b85d	2.6518776
42	0xc00dd3ea	-2.2160592
43	0x403587d7	2.836416
44	0x4036b37c	2.8547049
45	0xc02b53e8	-2.6769962
46	0x4058c8e6	3.3872619
47	0xc0264c4c	-2.5984068
48	0x40247662	2.5697255
49	0xbfc91009	-1.5708019
50	0x402e8cbc	2.7273397
51	0xc030e23c	-2.7638083
52	0xc01e222a	-2.4708352
53	0x40366f3e	2.8505397
54	0xc014869c	-2.320716
55	0x40286470	2.6311302
56	0x40252438	2.5803356
57	0xc0204aa4	-2.5045557
58	0x402045f2	2.5042691
59	0x3f3bc102	0.7334138
60	0x403aca78	2.9186077
61	0x3ff6e728	1.9289293
62	0x3fe051d6	1.7524974
63	0xc002fb60	-2.0465927

layers.0.bias f4 [16]
0	0xc0314d1c	-2.7703314
1	0xc0376af5	-2.8659031
2	0xc02af9b3	-2.6714904
3	0xc0350895	-2.8286488
4	0xc02a794b	-2.6636531
5	0xc01ec879	-2.4809859
6	0xbec54796	-0.38531178
7	0xc02e0234	-2.7188845
8	0xc018e486	-2.388948
9	0xc02875e3	-2.6321952
10	0xc016efba	-2.3583817
11	0xc01dd318	-2.4660091
12	0xc041c772	-3.0277982
13	0xc05850c3	-3.3799293
14	0xc042316a	-3.034266
15	0xc055d4f0	-3.3411217

layers.2.weight f4 [16, 16]
0	0xc030502f	-2.754894
1	0xc02c9f95	-2.69724
2	0xc04b8cf8	-3.180479
3	0xbf78507e	-0.9699782
4	0xc03b9e32	-2.9315305
5	0x401b3b6d	2.425502
6	0x3e3fb994	0.18723136
7	0xc04d7dbc	-3.2107992
8	0x40015561	2.020836
9	0xc02f6858	-2.7407436
10	0xc030871d	-2.7582467
11	0xc021d8a0	-2.5288467
12	0xbec3fca8	-0.382787
13	0xc04a214e	-3.1582828
14	0xbfdffcc3	-1.7499012
15	0xc0605201	-3.5050051
16	0xc00f524c	-2.239398
17	0xc029f530	-2.65559
18	0xc040a533	-3.010083
19	0xc027f1a2	-2.624123
20	0xc024ff96	-2.5780997
21	0xc03140fa	-2.7695909
22	0xbe03647c	-0.128313
23	0xc03a34ae	-2.9094653
24	0xc038eb5c	-2.8893652
25	0xc02bfd2b	-2.6873271
26	0xc03a3d38	-2.9099865
27	0xc0360a91	-2.844395
28	0xc01730bf	-2.3623502
29	0x400f2332	2.2365232
30	0xc0235c46	-2.552507
31	0x403521da	2.8301911
32	0xc040d4c3	-3.012986
33	0xc03c6bab	-2.9440715
34	0xc019f296	-2.4054313
35	0x40203e23	2.5037925
36	0xc0065b06	-2.0993056
37	0xc03db95f	-2.9644392
38	0xbdf3734e	-0.11887227
39	0xc0180d4a	-2.375811
40	0xc0379064	-2.868188
41	0xbfd97fc8	-1.6992121
42	0xc02443d2	-2.5666394
43	0xc021d023	-2.5283287
44	0x3fb2d71e	1.3971899
45	0x4046ae22	3.1043782
46	0xc03d5cd9	-2.958792
47	0xbfdc2350	-1.7198277
48	0xc035d612	-2.8411908
49	0x3e975fcc	0.29565275
50	0xc043bdf4	-3.0584688
51	0xc03158ef	-2.771053
52	0xc036fab6	-2.8590522
53	0xc03c9074	-2.9463167
54	0x3da918ff	0.08256721
55	0xbef8f2e9	-0.48622826
56	0xc0545be1	-3.3181078
57	0xc033498e	-2.8013644
58	0xc0526b7f	-3.287811
59	0xc03ab045	-2.9170086
60	0xc037815b	-2.8672702
61	0xc04e970e	-3.2279696
62	0xc021bb49	-2.527056
63	0xc06c8ff4	-3.6962862
64	0xc04300a9	-3.0469153
65	0xc0410e21	-3.0164874
66	0xc03f3d0e	-2.9881015
67	0xc0536196	-3.3028312
68	0xc03a2b10	-2.9088783
69	0xc0270c7c	-2.610137
70	0x3ecbfc5c	0.39840972
71	0xc0547bf9	-3.3200667
72	0xc03b54a1	-2.9270403
73	0xc02f2db6	-2.737165
74	0xc0364082	-2.8476872
75	0xc04554ee	-3.0833087
76	0xc04bada1	-3.1824725
77	0xc01f67c8	-2.4907093
78	0xc04889b6	-3.1334052
79	0xc030c637	-2.762098
80	0xbeeebcbe	-0.46628374
81	0xc039a05c	-2.9004126
82	0xc0060cd6	-2.0945334
83	0xbe34d493	-0.17659216
84	0xc03f448c	-2.9885588
85	0xbfc0314f	-1.5015048
86	0xbe83f2b2	-0.257711
87	0xc0332f05	-2.7997448
88	0xc03e7ada	-2.9762483
89	0xc0314204	-2.7696543
90	0xc059b85b	-3.4018772
91	0xc0376a63	-2.8658683
92	0xc00d74f8	-2.2102642
93	0xc0545a90	-3.3180275
94	0xc032f8a7	-2.7964265
95	0xc054a2e0	-3.322441
96	0xc0467eee	-3.1014972
97	0x401f8294	2.4923449
98	0xc04479e7	-3.0699403
99	0xc02c8d3a	-2.6961198
100	0xc02dd00b	-2.715823
101	0xc039a143	-2.9004676
102	0x3edac838	0.4273088
103	0xc040a5be	-3.010116
104	0xc040d7d8	-3.013174
105	0xc032831a	-2.7892518
106	0xc04544c6	-3.0823226
107	0xc0255b10	-2.583683
108	0xc0320896	-2.781774
109	0xc0233cc3	-2.5505836
110	0xc041f099	-3.03031
111	0xc02a48d9	-2.6606963
112	0xc0312fa2	-2.7685323
113	0xc033ea19	-2.8111632
114	0xc040de13	-3.0135543
115	0xc03a7980	-2.9136658
116	0xc033a661	-2.80703
117	0xc04055b9	-3.005232
118	0xbdc36d2e	-0.09542309
119	0xc02041ef	-2.5040243
120	0xc02a7673	-2.6634796
121	0x3ff400e0	1.9062767
122	0xc0010a83	-2.0162666
123	0x3f8e27c3	1.1105884
124	0xc0330038	-2.7968884
125	0x402995a3	2.649758
126	0xc036b609	-2.8548605
127	0xc027c32f	-2.621288
128	0xc023828e	-2.5548434
129	0xc0045c39	-2.0681288
130	0xc0407ee2	-3.0077443
131	0xc04a8538	-3.164381
132	0xc03ead30	-2.9793205
133	0xc05be093	-3.435582
134	0x3cc0987d	0.023510212
135	0xc035512e	-2.8330798
136	0xc02d104b	-2.7041194
137	0xc0161c5d	-2.3454812
138	0xc034f5e7	-2.8275087
139	0xc030f69e	-2.7650523
140	0xc02975de	-2.647819
141	0xc014d769	-2.3256476
142	0xc03b80a6	-2.929727
143	0x403948c7	2.895067
144	0xc038facc	-2.8903074
145	0x4033991d	2.8062203
146	0x3eda975d	0.42693606
147	0xc038f2ab	-2.8898113
148	0xc039b219	-2.9014952
149	0xc028eb5a	-2.6393647
150	0xbe770db1	-0.24126317
151	0xc0245c34	-2.5681276
152	0xc03c3b32	-2.941113
153	0xc04a269a	-3.158606
154	0xc03d1b4b	-2.9547908
155	0xc055b7a9	-3.3393347
156	0xc035741a	-2.8352113
157	0xc0103946	-2.2534957
158	0xc036a604	-2.8538828
159	0xc0457466	-3.0852294
160	0xc00ad006	-2.1689467
161	0xc03caa50	-2.947895
162	0xc0219f97	-2.5253656
163	0xc041238e	-3.017795
164	0xc038b035	-2.8857548
165	0xc024f29f	-2.5773084
166	0xbd8cce1d	-0.068752505
167	0xc0294fdc	-2.6454992
168	0xc0349dc0	-2.8221283
169	0xc03ba901	-2.9321902
170	0xbf81e047	-1.0146569
171	0xc06ed95a	-3.732016
172	0x4000992f	2.0093496
173	0xc043be7e	-3.0585017
174	0xc0017ca7	-2.0232332
175	0xc0306648	-2.7562428
176	0xc02cafde	-2.698234
177	0x40264974	2.5982332
178	0xbf4f2d27	-0.8092827
179	0xc02968ac	-2.6470137
180	0xc02d84f5	-2.71124
181	0xc041fff2	-3.0312467
182	0x3d4f48e6	0.05060663
183	0xc033fef1	-2.8124354
184	0xc02eb158	-2.7295742
185	0xc01d9591	-2.4622538
186	0xc022930f	-2.5402257
187	0xc0401227	-3.001108
188	0xc031ac5f	-2.7761457
189	0xc011c347	-2.2775438
190	0xbf04e919	-0.5191818
191	0xc013f207	-2.3116472
192	0xc038e027	-2.8886812
193	0xc0465416	-3.0988822
194	0xc02b107b	-2.672881
195	0xc03d03df	-2.9533613
196	0xc03dcd9d	-2.9656746
197	0xc02be0ac	-2.685588
198	0xbe8db6e9	-0.27678612
199	0xbff0e45a	-1.8819687
200	0xc0455c5b	-3.083762
201	0xc0402df1	-3.002804
202	0xc03cac0c	-2.948001
203	0xc039739b	-2.897681
204	0xc0112e31	-2.2684443
205	0xc012bbf4	-2.2927217
206	0xc04cda27	-3.200815
207	0xbe1d35cb	-0.15352552
208	0xc041e1a0	-3.029396
209	0xc0425b50	-3.0368233
210	0xc0481a10	-3.1265907
211	0xc045a5f8	-3.088255
212	0xc03b4a1b	-2.926398
213	0xc028122a	-2.6261086
214	0x3ea7bd2d	0.32761517
215	0xc03ef612	-2.983769
216	0xc04672d9	-3.1007597
217	0xc03c7cb7	-2.945112
218	0xc05c783b	-3.4448383
219	0xc02e0e2e	-2.7196155
220	0xc03517e5	-2.8295834
221	0x3d6a86de	0.057257526
222	0xc0259588	-2.5872517
223	0xc04fe47a	-3.24832
224	0xc020c62d	-2.5120957
225	0xc0469064	-3.102563
226	0xc03ba1ea	-2.9317575
227	0xc031ab70	-2.7760887
228	0xc02e89be	-2.727157
229	0xc021a876	-2.525907
230	0x3e19a947	0.1500598
231	0xc00db351	-2.2140696
232	0xc035feab	-2.8436687
233	0xc00f9459	-2.2434294
234	0xc0508fc0	-3.2587738
235	0xc02be3af	-2.6857717
236	0x4027a6be	2.6195521
237	0x400715d4	2.1107073
238	0xc027d6cb	-2.622485
239	0xc010e605	-2.2640393
240	0xc03e300b	-2.9716823
241	0xc017b6e6	-2.3705382
242	0xc0434423	-3.0510337
243	0xc01f1334	-2.485547
244	0xc0490140	-3.1407013
245	0xc0299bc1	-2.6501315
246	0x3f0008ee	0.50013626
247	0xc0328ba6	-2.7897735
248	0xc0453308	-3.0812397
249	0xc0322de3	-2.7840507
250	0xc03a0504	-2.9065561
251	0xc036d584	-2.856782
252	0xc00f8c7b	-2.2429492
253	0x402156c6	2.5209212
254	0xc03d87d2	-2.9614148
255	0x4037efd4	2.874013

layers.2.bias f4 [16]
0	0xc039afd2	-2.9013562
1	0xc03633c1	-2.8469088
2	0xc03d5103	-2.9580696
3	0xc02eacce	-2.7292972
4	0xc033d6ea	-2.8099923
5	0xc05ca502	-3.4475713
6	0xc0299238	-2.6495495
7	0xc02b88a4	-2.680215
8	0xc03bee8f	-2.9364355
9	0xc0340b36	-2.8131843
10	0xc04ba2f9	-3.181822
11	0xc04a239c	-3.1584234
12	0xc02bc031	-2.6836054
13	0xc03906de	-2.8910441
14	0xc04542bc	-3.0821981
15	0xc03e2b73	-2.971402

out.0.weight f4 [3, 16]
0	0xc02a0ac8	-2.656908
1	0x4027ce6c	2.621974
2	0x401bd788	2.43503
3	0xc0197fa3	-2.3984153
4	0xc032b48f	-2.7922704
5	0x401eac3a	2.4792619
6	0xc025d142	-2.590897
7	0xc0254132	-2.5821042
8	0x402a86fe	2.6644893
9	0xc030f802	-2.7651372
10	0xc02c7c26	-2.6950774
11	0xc0168fe5	-2.3525326
12	0x402c603c	2.6933737
13	0xc02b3a1d	-2.675422
14	0xc02bb3c1	-2.6828463
15	0x400b5cc9	2.1775382
16	0x3fd66a40	1.6751175
17	0x40303d5f	2.7537458
18	0x401f8c8b	2.492953
19	0xc01900f8	-2.3906841
20	0x4026f9de	2.6090007
21	0x40073dfb	2.113158
22	0xc018568a	-2.380282
23	0x40148800	2.3208008
24	0xc031a40f	-2.7756383
25	0x3fd0547e	1.6275785
26	0x4049089e	3.141151
27	0xc01c6dc5	-2.4441998
28	0x3fcf2904	1.6184392
29	0xc05190b0	-3.274456
30	0x401b4686	2.4261794
31	0x40287d0f	2.632633
32	0xc021c8a5	-2.5278714
33	0x402ebdc7	2.730333
34	0xc027f002	-2.624024
35	0x402ac290	2.6681252
36	0xc02e4713	-2.723088
37	0xc0016a5c	-2.0221167
38	0x401d96ba	2.4623246
39	0xc002509b	-2.0361698
40	0x40212544	2.5178995
41	0x402b8e66	2.6805663
42	0xc01f2ad1	-2.4869883
43	0xc02e4227	-2.7227876
44	0x402f46f0	2.7387047
45	0xc0251e4f	-2.579975
46	0xc01baac5	-2.432298
47	0x403590a9	2.8369544

out.0.bias f4 [3]
0	0x3d22e478	0.039768666
1	0xbd43562e	-0.04768961
2	0x3de387d2	0.1110989
