results/FC_PRIMNET/FINGER/weights/epoch_308.pth (torch, 4959 bytes, 10 tensors)

motor_std f4 [4]
0	0x43bf1106	382.133
1	0x43c0b231	385.39212
2	0x43bb6060	374.75293
3	0x43b95760	370.68262

motor_mean f4 [4]
0	0x440b7a2f	557.9091
1	0x440cde5e	563.4745
2	0x440da773	566.6164
3	0x440a3aa7	552.91644

position_std f4 [3, 1]
0	0x3f800000	1.0
1	0x3f800000	1.0
2	0x3f800000	1.0

position_mean f4 [3, 1]
0	0x00000000	0.0
1	0x00000000	0.0
2	0x00000000	0.0

layers.0.weight f4 [16, 4]
0	0xc03431c2	-2.815537
1	0xc0361938	-2.8452892
2	0x4039d475	2.9035923
3	0xc040a262	-3.009911
4	0xc030ee69	-2.7645514
5	0x40386c70	2.8816185
6	0xc029a605	-2.650758
7	0x4045855b	3.0862644
8	0x40483bc5	3.128648
9	0xc00e644b	-2.2248714
10	0x40133859	2.3003142
11	0xc042f4e9	-3.0461981
12	0x3eb62c4f	0.3558068
13	0x4003740e	2.0539584
14	0xbfa18bb9	-1.2620765
15	0xc0239cab	-2.5564373
16	0xc0191e6d	-2.392482
17	0x4022f0a8	2.5459385
18	0xc01a4db1	-2.410992
19	0xc02a5a0d	-2.6617463
20	0x4005059a	2.078467
21	0x402de928	2.7173557
22	0x403d1e0d	2.9549592
23	0xc03629f2	-2.8463101
24	0x3d9feb05	0.07808498
25	0x3cc72dbf	0.024313806
26	0x3ddae77a	0.10688682
27	0x3e1324a3	0.14369445
28	0xc02af826	-2.6713958
29	0x40229ef3	2.5409515
30	0x404b8ac7	3.1803453
31	0xc0672d83	-3.6121528
32	0xc04e30f7	-3.2217386
33	0x401b7fb1	2.4296687
34	0xc03701fd	-2.8594964
35	0x4042e1ee	3.0450397
36	0xc03007ae	-2.7504687
37	0x3f78d762	0.9720365
38	0x4030d568	2.7630253
39	0xc02638aa	-2.5972085
40	0xc0267cbf	-2.601364
41	0x402f107d	2.7353814
42	0xc0132ba6	-2.299539
43	0x403adff7	2.9199197
44	0x403c0b9c	2.9382086
45	0xc030ac08	-2.7605
46	0x405e2106	3.4707656
47	0xc02ba46c	-2.6819105
48	0x4029ce1e	2.6532054
49	0xbfd3c188	-1.6543436
50	0x4033e4dc	2.8108435
51	0xc0363a5c	-2.847312
52	0xc0237a4a	-2.554339
53	0x403bc75e	2.9340434
54	0xc019debc	-2.4042196
55	0x402dbc90	2.714634
56	0x402a7927	2.6636446
57	0xc025a102	-2.5879521
58	0x40259eda	2.5878205
59	0x3f2b4f52	0.6691791
60	0x403fe87e	2.9985652
61	0x4000c7e8	2.0122013
62	0x3feb1b92	1.8367789
63	0xc0085676	-2.1302772

layers.0.bias f4 [16]
0	0xc036a53c	-2.853835
1	0xc03cc379	-2.9494307
2	0xc030516f	-2.7549703
3	0xc03a60b5	-2.9121525
4	0xc02fd107	-2.747133
5	0xc0242099	-2.5644896
6	0xbec54796	-0.38531178
7	0xc0335b1c	-2.8024359
8	0xc01e44c0	-2.4729462
9	0xc02dce03	-2.715699
10	0xc01c4776	-2.4418616
11	0xc0232b38	-2.5495129
12	0xc0471f92	-3.111302
13	0xc05da8e3	-3.463433
14	0xc04789ee	-3.1177936
15	0xc05b2f9a	-3.4247804

layers.2.weight f4 [16, 16]
0	0xc035a84f	-2.8383977
1	0xc031f7b5	-2.7807438
2	0xc050e518	-3.2639828
3	0xbf86cf10	-1.053194
4	0xc040f652	-3.0150342
5	0x40209208	2.508913
6	0x3e3fb994	0.18723136
7	0xc052d5dc	-3.294303
8	0x40067f84	2.101533
9	0xc034c078	-2.8242474
10	0xc035df3d	-2.8417504
11	0xc02730c0	-2.6123505
12	0xbeeeaeda	-0.46617776
13	0xc04f796e	-3.2417865
14	0xbfeaadcb	-1.8334287
15	0xc065aa85	-3.5885327
16	0xc014aa6c	-2.3229017
17	0xc02f4d50	-2.7390938
18	0xc045fd53	-3.0935867
19	0xc02d49c2	-2.7076268
20	0xc02a57b6	-2.6616035
21	0xc036991a	-2.8530946
22	0xbe03647c	-0.128313
23	0xc03f8cce	-2.992969
24	0xc03e437c	-2.972869
25	0xc031554b	-2.7708309
26	0xc03f9558	-2.9934902
27	0xc03b62b1	-2.9278986
28	0xc01c88df	-2.445854
29	0x40147b52	2.3200269
30	0xc028b466	-2.6360106
31	0x403a79fa	2.9136949
32	0xc0462ce3	-3.0964897
33	0xc041c3cb	-3.0275753
34	0xc01f4ab6	-2.488935
35	0x402590cb	2.5869625
36	0xc00bb38a	-2.1828332
37	0xc043117f	-3.0479429
38	0xbdf3734e	-0.11887227
39	0xc01d656a	-2.4593148
40	0xc03ce884	-2.9516916
41	0xbfe42cb6	-1.7826145
42	0xc0299bf2	-2.6501431
43	0xc0272843	-2.6118324
44	0x3fbd4c54	1.4788918
45	0x404c0642	3.187882
46	0xc042b4f9	-3.0422957
47	0xbfe6d4ee	-1.8033731
48	0xc03b2e32	-2.9246945
49	0x3e5ba2af	0.21448778
50	0xc0491614	-3.1419725
51	0xc036b10f	-2.8545568
52	0xc03c52d6	-2.942556
53	0xc041e894	-3.0298204
54	0x3da918ff	0.08256721
55	0xbf11df39	-0.56981236
56	0xc059b401	-3.4016116
57	0xc038a1ae	-2.8848681
58	0xc057c39f	-3.3713148
59	0xc0400865	-3.0005124
60	0xc03cd97b	-2.950774
61	0xc053ef2e	-3.3114734
62	0xc0271369	-2.6105597
63	0xc071e814	-3.77979
64	0xc04858c9	-3.130419
65	0xc0466641	-3.099991
66	0xc044952e	-3.0716052
67	0xc058b9b6	-3.386335
68	0xc03f8330	-2.992382
69	0xc02c649c	-2.6936407
70	0x3ecbfc5c	0.39840972
71	0xc059d419	-3.4035704
72	0xc040acc1	-3.010544
73	0xc03485d6	-2.8206687
74	0xc03b98a2	-2.931191
75	0xc04aad0e	-3.1668124
76	0xc05105c1	-3.2659762
77	0xc024bfe8	-2.574213
78	0xc04de1d6	-3.216909
79	0xc0361e57	-2.8456018
80	0xbf0cbf28	-0.5497918
81	0xc03ef87c	-2.9839163
82	0xc00b64f6	-2.1780372
83	0xbe34d493	-0.17659216
84	0xc0449cac	-3.0720625
85	0xbfcadf7e	-1.5849454
86	0xbe83f2b2	-0.257711
87	0xc0388725	-2.8832486
88	0xc043d2fa	-3.059752
89	0xc0369a24	-2.853158
90	0xc05f107b	-3.485381
91	0xc03cc283	-2.949372
92	0xc012cd18	-2.293768
93	0xc059b2b0	-3.4015312
94	0xc03850c7	-2.8799303
95	0xc059fb00	-3.4059448
96	0xc04bd70e	-3.185001
97	0x4024dab4	2.5758486
98	0xc049d207	-3.153444
99	0xc031e55a	-2.7796235
100	0xc033282b	-2.7993267
101	0xc03ef963	-2.9839714
102	0x3edac838	0.4273088
103	0xc045fdde	-3.0936198
104	0xc0462ff8	-3.0966778
105	0xc037db3a	-2.8727555
106	0xc04a9ce6	-3.1658263
107	0xc02ab330	-2.6671867
108	0xc03760b6	-2.8652778
109	0xc02894e3	-2.6340873
110	0xc04748b9	-3.1138136
111	0xc02fa0f9	-2.7442
112	0xc03687c2	-2.852036
113	0xc0394239	-2.894667
114	0xc0463633	-3.097058
115	0xc03fd13c	-2.9971457
116	0xc038fe81	-2.8905337
117	0xc045add9	-3.0887358
118	0xbdc36d2e	-0.09542309
119	0xc0259a0f	-2.587528
120	0xc02fce93	-2.7469833
121	0x3ffeae12	1.9896872
122	0xc00662a3	-2.0997703
123	0x3f98d12d	1.1938835
124	0xc0385858	-2.880392
125	0x402eedc3	2.7332618
126	0xc03c0e29	-2.9383643
127	0xc02d1b4f	-2.7047918
128	0xc028daae	-2.6383471
129	0xc009b3f5	-2.1516087
130	0xc045d702	-3.091248
131	0xc04fdd58	-3.2478848
132	0xc0440550	-3.0628242
133	0xc06138b3	-3.5190856
134	0x3cc0987d	0.023510212
135	0xc03aa94e	-2.9165835
136	0xc032686b	-2.7876232
137	0xc01b747d	-2.4289849
138	0xc03a4e07	-2.9110124
139	0xc0364ebe	-2.848556
140	0xc02ecdfe	-2.7313228
141	0xc01a2f89	-2.4091513
142	0xc040d8c6	-3.0132308
143	0x403ea0e7	2.9785707
144	0xc03e52ec	-2.9738111
145	0x4038f13d	2.889724
146	0x3f0004cd	0.50007325
147	0xc03e4acb	-2.973315
148	0xc03f0a39	-2.984999
149	0xc02e437a	-2.7228684
150	0xbe770db1	-0.24126317
151	0xc029b454	-2.6516314
152	0xc0419352	-3.0246167
153	0xc04f7eba	-3.2421098
154	0xc042736b	-3.0382946
155	0xc05b0fc9	-3.4228384
156	0xc03acc3a	-2.918715
157	0xc0159166	-2.3369994
158	0xc03bfe24	-2.9373865
159	0xc04acc86	-3.1687331
160	0xc01026a8	-2.2523594
161	0xc0420270	-3.0313988
162	0xc026f7b7	-2.6088693
163	0xc0467bae	-3.1012988
164	0xc03e0855	-2.9692585
165	0xc02a4abf	-2.6608121
166	0xbd8cce1d	-0.068752505
167	0xc02ea7fc	-2.729003
168	0xc039f5e0	-2.905632
169	0xc0410121	-3.015694
170	0xbf8c6f16	-1.0971401
171	0xc074317a	-3.8155198
172	0x4005edfd	2.0926507
173	0xc049169e	-3.1420054
174	0xc006d4c7	-2.106737
175	0xc035be68	-2.8397465
176	0xc03207fe	-2.7817378
177	0x402ba194	2.681737
178	0xbf645d60	-0.8920498
179	0xc02ec0cc	-2.7305174
180	0xc032dd15	-2.7947438
181	0xc0475812	-3.1147504
182	0x3d4f48e6	0.05060663
183	0xc0395711	-2.895939
184	0xc0340978	-2.813078
185	0xc022edb1	-2.5457575
186	0xc027eb2f	-2.6237295
187	0xc0456a47	-3.0846117
188	0xc037047f	-2.8596494
189	0xc0171b67	-2.3610475
190	0xbf1a4d77	-0.6027445
191	0xc0194a27	-2.395151
192	0xc03e3847	-2.972185
193	0xc04bac36	-3.182386
194	0xc030689b	-2.7563846
195	0xc0425bff	-3.036865
196	0xc04325bd	-3.0491784
197	0xc03138cc	-2.7690916
198	0xbe8db6e9	-0.27678612
199	0xbffb949a	-1.9654725
200	0xc04ab47b	-3.1672657
201	0xc0458611	-3.0863078
202	0xc042042c	-3.0315046
203	0xc03ecbbb	-2.9811847
204	0xc0168651	-2.351948
205	0xc01813b0	-2.3762016
206	0xc0523247	-3.2843187
207	0xbe72d015	-0.2371219
208	0xc04739c0	-3.1128998
209	0xc047b370	-3.120327
210	0xc04d7230	-3.2100945
211	0xc04afe18	-3.1717587
212	0xc040a23b	-3.0099018
213	0xc02d6a4a	-2.7096124
214	0x3ea7bd2d	0.32761517
215	0xc0444e32	-3.0672727
216	0xc04bcaf9	-3.1842635
217	0xc041d4d7	-3.0286157
218	0xc061d05b	-3.528342
219	0xc033664e	-2.8031192
220	0xc03a7005	-2.9130871
221	0x3d6a86de	0.057257526
222	0xc02aeda8	-2.6707554
223	0xc0553c9a	-3.3318238
224	0xc0261e4d	-2.5955994
225	0xc04be884	-3.1860666
226	0xc040fa0a	-3.0152612
227	0xc0370390	-2.8595924
228	0xc033e1de	-2.8106608
229	0xc0270096	-2.6094108
230	0x3e19a947	0.1500598
231	0xc0130b0d	-2.2975495
232	0xc03b56cb	-2.9271724
233	0xc014ec79	-2.3269331
234	0xc055e7e0	-3.3422775
235	0xc0313bcf	-2.7692754
236	0x402cfede	2.7030559
237	0x400c6abd	2.1940148
238	0xc02d2eeb	-2.7059886
239	0xc0163e25	-2.347543
240	0xc043882b	-3.055186
241	0xc01d0f06	-2.454042
242	0xc0489c43	-3.1345375
243	0xc0246bb8	-2.5690746
244	0xc04e5960	-3.224205
245	0xc02ef3e1	-2.7336352
246	0x3f0008ee	0.50013626
247	0xc037e3c6	-2.8732772
248	0xc04a8b28	-3.1647434
249	0xc0378603	-2.8675544
250	0xc03f5d24	-2.9900599
251	0xc03c2da4	-2.9402857
252	0xc014e49b	-2.326453
253	0x4026aee6	2.604425
254	0xc042dff2	-3.0449185
255	0x403d0ac9	2.9537833

layers.2.bias f4 [16]
0	0xc03f0a7c	-2.985015
1	0xc03b8be1	-2.9304125
2	0xc042a938	-3.0415783
3	0xc03404ee	-2.812801
4	0xc0392f0a	-2.893496
5	0xc061fd22	-3.531075
6	0xc02eea58	-2.7330532
7	0xc030e0c4	-2.7637186
8	0xc04146af	-3.0199392
9	0xc0396356	-2.896688
10	0xc050fb19	-3.2653258
11	0xc04f7bbc	-3.2419271
12	0xc0311851	-2.7671092
13	0xc03e5efe	-2.9745479
14	0xc04a9adc	-3.1657019
15	0xc043845b	-3.0549533

out.0.weight f4 [3, 16]
0	0xc02f62e8	-2.7404118
1	0x402d268c	2.7054777
2	0x40212fa8	2.5185337
3	0xc01ed7c3	-2.481919
4	0xc0380caf	-2.8757741
5	0x4024045a	2.5627656
6	0xc02b2962	-2.6744008
7	0xc02a98ee	-2.665584
8	0x402fdf1e	2.747993
9	0xc0365022	-2.848641
10	0xc031d446	-2.7785811
11	0xc01be805	-2.4360363
12	0x4031b85c	2.7768774
13	0xc030923d	-2.7589257
14	0xc0310be1	-2.76635
15	0x4010b4e9	2.2610419
16	0x3fe11651	1.7584935
17	0x4035957f	2.8372495
18	0x4024e4ab	2.5764568
19	0xc01e5918	-2.4741879
20	0x402c51fe	2.6925044
21	0x400c8d8a	2.1961389
22	0xc01daeaa	-2.4637856
23	0x4019e020	2.4043045
24	0xc036fc2f	-2.859142
25	0x3fdafde8	1.7108736
26	0x404e60be	3.2246547
27	0xc021c5e5	-2.5277035
28	0x3fd9d53e	1.7018201
29	0xc056e8d0	-3.3579597
30	0x40209ea6	2.5096831
31	0x402dd52f	2.7161367
32	0xc02720c5	-2.611375
33	0x403415e7	2.8138368
34	0xc02d4822	-2.7075276
35	0x40301ab0	2.7516289
36	0xc0339f33	-2.8065917
37	0xc006c0ec	-2.105525
38	0x4022eeda	2.5458283
39	0xc007a70c	-2.1195707
40	0x40267d64	2.6014032
41	0x4030e686	2.76407
42	0xc02482f1	-2.570492
43	0xc0339a47	-2.8062913
44	0x40349f10	2.8222084
45	0xc02a766f	-2.6634786
46	0xc02102e5	-2.5158017
47	0x403ae8c9	2.920458

out.0.bias f4 [3]
0	0xbd252962	-0.04032267
1	0x3ca6d02b	0.020362934
2	0x3d9e272a	0.07722314
