results/PRIMNET/FINGER32/weights/epoch_477.pth (torch, 16456 bytes, 33 tensors)

motor_std f4 [4]
382.133 385.39212 374.75293 370.68262
00000000: 0611 bf43 31b2 c043 6060 bb43 6057 b943

motor_mean f4 [4]
557.9091 563.4745 566.6164 552.91644
00000000: 2f7a 0b44 5ede 0c44 73a7 0d44 a73a 0a44

position_std f4 [3, 1]
1.0 1.0 1.0
00000000: 0000 803f 0000 803f 0000 803f

position_mean f4 [3, 1]
0.0 0.0 0.0
00000000: 0000 0000 0000 0000 0000 0000

ACT_EMBED.layers.0.weight f4 [32, 4]
-0.714465 0.80057144 -0.33703646 -0.73035234 0.30854452 1.0807866 -0.0777074 -1.6009196
0.83916974 1.6339018 -1.2659502 -0.51130563 -0.9263183 0.76770175 -1.5554895 1.960485
0.87916774 -0.68153715 -0.034859087 0.10952564 -0.4392752 0.48645023 -0.41171932 0.3621027
0.20024318 0.24530485 -0.5443077 1.7646166 0.098952994 -0.48300996 0.4712337 -0.879109
0.7448951 -1.2816097 -0.2055669 0.68218565 -0.58303106 0.8632984 -1.1395597 -0.86808616
-0.28355938 -0.3775986 -0.92654175 1.5707144 0.30806196 0.04142054 0.5695804 -1.4103558
-0.5167249 0.4867149 -0.65423274 -1.2243686 1.13374 -1.3397673 0.61925524 -1.5193055
-1.1791222 1.4765167 -0.31895405 -0.87609094 0.095201686 0.36109683 -0.3397149 -0.38366622
0.56123495 -0.90282357 0.06807744 -1.6744896 0.11011397 0.50435114 1.1872411 -0.4914723
0.68706596 -0.5597361 0.06562606 -0.89811456 1.1741647 -0.746488 -0.45619714 -0.10007156
0.3699628 -1.1231235 -0.10821064 -0.9307878 -0.37301925 0.25982696 -0.19363725 -1.5885127
1.2350008 -1.9146986 0.31424016 -1.450379 -0.71082807 0.74209577 0.13269228 -0.32990465
-1.4750702 1.6494818 -1.1696475 0.7958918 -0.5151085 0.48540542 -0.18534659 0.5814019
0.021858895 -0.18207261 -0.50303847 -0.28406727 -0.74057573 0.8392335 0.54197323 -1.0977614
1.3673202 -1.162594 1.1350014 -1.5936449 0.33050886 0.57795197 1.202505 -0.24390677
0.11325079 0.9867453 -0.52341074 -0.4844989 -1.0907892 1.5486265 0.4516153 -1.583779
00000000: 2ee7 36bf 40f2 4c3f 0b90 acbe 5ff8 3abf
00000010: 8cf9 9d3e 3757 8a3f 0f25 9fbd efea ccbf
00000020: d4d3 563f b223 d13f a80a a2bf ede4 02bf
00000030: 3223 6dbf 1a88 443f 481a c7bf 2cf1 fa3f
00000040: 2311 613f 3879 2ebf 67c8 0ebd fb4e e03d
00000050: aee8 e0be 0110 f93e e0cc d2be 8665 b93e
00000060: 8c0c 4d3e 3231 7b3e c057 0bbf f5de e13f
00000070: dea7 ca3d 154d f7be 8b45 f13e 4a0d 61bf
00000080: 72b1 3e3f c90b a4bf 2180 52be b8a3 2e3f
00000090: 8641 15bf 2001 5d3f 18dd 91bf e53a 5ebf
000000a0: b22e 91be 9b54 c1be d731 6dbf 2b0d c93f
000000b0: 4cba 9d3e 96a8 293d 05d0 113f 8a86 b4bf
000000c0: 1548 04bf b232 f93e cc7b 27bf 1cb8 9cbf
000000d0: 641e 913f 7f7d abbf 8387 1e3f 9a78 c2bf
000000e0: 7aed 96bf 80fe bc3f f24d a3be 7f47 60bf
000000f0: 1af9 c23d afe1 b83e 1def adbe e66f c4be
00000100: 18ad 0f3f 721f 67bf 2f6c 8b3d ad55 d6bf
00000110: 6f83 e13d 281d 013f 84f7 973f 42a2 fbbe
00000120: 8ee3 2f3f dd4a 0fbf f566 863d d6ea 65bf
00000130: 074b 963f d619 3fbf ac92 e9be 51f2 ccbd
00000140: c46b bd3e 83c2 8fbf 8a9d ddbd 1c48 6ebf
00000150: 61fc bebe 0a08 853e d848 46be 6254 cbbf
00000160: 8214 9e3f d814 f5bf 16e4 a03e 05a6 b9bf
00000170: d4f8 35bf fdf9 3d3f 7ce0 073e 43e9 a8be
00000180: 1acf bcbf 3822 d33f 02b7 95bf 91bf 4b3f
00000190: 27de 03bf 0f87 f83e 7fcb 3dbe c1d6 143f
000001a0: 6d11 b33c 3e71 3abe 21c7 00bf 4471 91be
000001b0: 5f96 3dbf 02d8 563f c2be 0a3f 7283 8cbf
000001c0: 5904 af3f e1cf 94bf ba47 913f 8efc cbbf
000001d0: 7538 a93e a9f4 133f afeb 993f b2c2 79be
000001e0: 08f0 e73d 579b 7c3f 3ffe 05bf 3d10 f8be
000001f0: fb9e 8bbf 6539 c63f 1f3a e73e 45b9 cabf

ACT_EMBED.layers.2.weight f4 [32, 32]
-0.8447354 -1.1220461 -1.3463517 -0.8028096 -1.4785448 -1.0926769 -0.8648152 -0.14015712
0.0012872585 -1.1656349 -1.0805546 -0.7982991 -0.630402 -0.848303 -0.23832048 -0.3540199
-1.4331021 -0.15266997 -0.28621006 -1.5186248 -0.2807445 -0.8847319 -1.5070324 -0.75862306
-0.027496964 -0.26586774 -0.67459977 -0.27302352 -1.1681716 -0.55056375 -0.16993463 -0.2951715
-1.9768103 -1.001093 -1.3022199 -1.5637765 -0.92544067 -1.1651566 -1.688227 -1.792861
-0.96621644 -1.8054787 0.36104283 -1.18181 -1.7257218 -0.9560853 -1.9823002 -0.7135072
-0.20021482 -2.176949 -1.215761 0.41558152 -1.0058254 -0.47765264 -0.5902503 -2.2121913
-1.8745468 -1.2622976 -1.0039 -2.2993817 -0.84058625 -1.4257601 -1.3708801 -1.6113936
-1.6297369 -0.24580808 -0.8377822 -1.6874772 -0.47279358 -0.606783 -1.8746676 -1.5035739
-0.35811716 -1.4329227 -1.035981 -1.2801135 -1.3150978 -1.0717345 -1.7101089 -0.7715514
-1.0451772 -1.8762971 -1.1647674 0.8466369 -0.91831726 -1.3227216 -0.82101595 -1.2948256
-1.0496087 -1.3297685 -1.3186871 -1.0140493 -0.82297987 -1.2371767 -0.5137933 -1.5659518
-1.557597 -1.1659384 -0.6977119 -1.6018038 -0.51723546 -1.1864868 -0.8215713 -1.9751482
-0.95604354 0.010656027 -1.4411222 -0.7244092 -1.4609228 -1.4268845 -1.6632642 -0.6653027
-1.4867072 -2.231071 -0.8764537 -1.0370576 -1.2695829 -0.9378286 -1.1970223 -0.7980236
-1.6995529 -0.8308826 -1.0573218 -1.8790962 -1.6998178 -0.5044623 -0.90744406 -0.8265722
-0.5497658 -0.6147627 -0.15837076 -0.8408233 -0.46782076 -0.56475663 -0.40737733 -1.2617416
-0.0824798 -0.65677047 -1.2652763 0.00791437 -0.8282355 -0.41247323 -0.45457453 -1.0403357
-0.68277 -0.34770656 -0.8006129 -0.6816776 -0.60890543 -1.0371866 -0.90879595 -0.47561148
-0.7191603 -0.77397186 -0.6583634 -0.3243783 -0.8049483 0.20166975 -0.40372804 -0.055932555
-0.67000407 -1.37325 -1.3569055 -1.7929071 -1.1586968 -1.6939968 -0.77272046 -0.8786203
-0.0653009 -0.4583699 -0.39083663 -0.93378025 -0.7703259 0.06090913 -0.792824 0.19730598
-0.86597246 -0.7086911 0.33397833 -0.6844939 -0.8945348 -0.25628358 -0.9760971 -0.79723203
-1.340931 -0.839171 -1.1254885 -1.2912802 -1.115115 0.20575924 -0.15058196 -0.49839315
-1.6128736 -0.34724668 -0.7652158 -1.0614995 -0.44007206 -0.4579205 -0.8892578 -1.5009192
-0.78294116 -0.75189507 -1.0807225 -0.4088671 -0.7758141 -1.0671312 -1.4700768 -0.45962977
-0.29303917 -1.8906103 -1.0485053 -0.66341275 -1.0313288 -0.02342688 -0.6093477 -0.66305876
-1.4417832 -0.95907015 -0.0987077 -1.8014588 -0.7369453 -0.42715707 -1.0644718 -1.0889244
-0.4788907 -0.4735055 -0.8880878 -1.0429467 -0.75581133 -0.18501806 -0.6623086 -0.1395526
-0.112764806 -0.8389974 -0.24392523 -0.46341053 -0.55373305 -0.619324 -0.05592253 0.12537713
-0.59219563 -0.72757375 -0.074253544 -0.8623843 -0.27089852 -0.43363965 -0.96697754 -0.7307543
-0.49969134 -0.3085415 -0.5541345 -0.38009736 -0.78719455 -0.03591577 -0.35144728 -0.76720285
00000000: 9440 58bf 359f 8fbf 4155 acbf ee84 4dbf
00000010: f540 bdbf d6dc 8bbf 8764 5dbf 5985 0fbe
00000020: 3ab9 a83a 8633 95bf 9d4f 8abf 545d 4cbf
00000030: 0762 21bf 632a 59bf 490a 74be 1942 b5be
00000040: e46f b7bf 8455 1cbe 208a 92be 4c62 c2bf
00000050: bebd 8fbe ca7d 62bf 70e6 c0bf 1f35 42bf
00000060: 5041 e1bc d11f 88be 92b2 2cbf bdc9 8bbe
00000070: a686 95bf bff1 0cbf 5803 2ebe b820 97be
00000080: 1f08 fdbf d123 80bf 24af a6bf d429 c8bf
00000090: aee9 6cbf da23 95bf d317 d8bf 787c e5bf
000000a0: f659 77bf ed19 e7bf 9bda b83e 8d45 97bf
000000b0: 74e4 dcbf 02c2 74bf 03bc fdbf 68a8 36bf
000000c0: 1d05 4dbe 2253 0bc0 0e9e 9bbf 1ac7 d43e
000000d0: e3be 80bf e38e f4be a51a 17bf 8b94 0dc0
000000e0: 26f1 efbf f892 a1bf cc7f 80bf 1229 13c0
000000f0: a930 57bf 4f7f b6bf 0079 afbf 2542 cebf
00000100: 389b d0bf 1db5 7bbe e578 56bf 41ff d7bf
00000110: 0012 f2be 2156 1bbf 1cf5 efbf 1c75 c0bf
00000120: 225b b7be 036a b7bf 079b 84bf c2da a3bf
00000130: 2055 a8bf 992e 89bf d9e4 dabf 6484 45bf
00000140: 5ec8 85bf 812a f0bf 1917 95bf 32bd 583f
00000150: d716 6bbf f14e a9bf 1a2e 52bf d8bc a5bf
00000160: 9459 86bf db35 aabf bdca a8bf 5ecc 81bf
00000170: cfae 52bf ce5b 9ebf f587 03bf 1c71 c8bf
00000180: 575f c7bf 783d 95bf 3f9d 32bf e807 cdbf
00000190: 8b69 04bf cdde 97bf 7f52 52bf a8d1 fcbf
000001a0: 45bf 74bf 9e96 2e3c b176 b8bf e272 39bf
000001b0: 85ff babf 27a4 b6bf d7e5 d4bf 4751 2abf
000001c0: 6c4c bebf dec9 0ec0 455f 60bf 4ebe 84bf
000001d0: b181 a2bf 8915 70bf 0738 99bf 464b 4cbf
000001e0: f38a d9bf b9b4 54bf 5256 87bf 3986 f0bf
000001f0: a193 d9bf 7124 01bf 414e 68bf 3c9a 53bf
00000200: 74bd 0cbf 1761 1dbf f22b 22be 3240 57bf
00000210: 3486 efbe e493 10bf c393 d0be c080 a1bf
00000220: 2beb a8bd 1c22 28bf 93f4 a1bf 46ab 013c
00000230: 3e07 54bf b12f d3be febd e8be b829 85bf
00000240: 04ca 2ebf 9806 b2be f8f4 4cbf 6c82 2ebf
00000250: 3ae1 1bbf 88c2 84bf daa6 68bf 5983 f3be
00000260: e41a 38bf 0523 46bf 818a 28bf ea14 a6be
00000270: 1711 4ebf 8482 4e3e 71b5 cebe 8919 65bd
00000280: 6385 2bbf a8c6 afbf 14af adbf fb7d e5bf
00000290: 2d50 94bf e3d4 d8bf 02d1 45bf 43ed 60bf
000002a0: 7abc 85bd 76af eabe bd1b c8be 390c 6fbf
000002b0: 1434 45bf da7b 793d 83f6 4abf 940a 4a3e
000002c0: 5fb0 5dbf c86c 35bf 35ff aa3e fe3a 2fbf
000002d0: 3c00 65bf 9a37 83be 80e1 79bf 6617 4cbf
000002e0: a1a3 abbf e9d3 56bf 0210 90bf ab48 a5bf
000002f0: 17bc 8ebf 8db2 523e 2832 1abe 632d ffbe
00000300: a472 cebf 51ca b1be 2fe5 43bf 37df 87bf
00000310: 2051 e1be 8e74 eabe 66a6 63bf 1f1e c0bf
00000320: d56e 48bf 327c 40bf 1d55 8abf 0757 d1be
00000330: c19b 46bf c197 88bf 7a2b bcbf 9854 ebbe
00000340: 3b09 96be 85ff f1bf 6c35 86bf 6bd5 29bf
00000350: 9502 84bf bae9 bfbc 36fe 1bbf 38be 29bf
00000360: 5a8c b8bf 9f85 75bf 4327 cabd 3496 e6bf
00000370: 72a8 3cbf 55b4 dabe 9d40 88bf e061 8bbf
00000380: 2931 f5be 506f f2be b959 63bf 477f 85bf
00000390: da7c 41bf 6075 3dbe 0e8d 29bf e0e6 0ebe
000003a0: 3cf1 e6bd 89c8 56bf 89c7 79be 2544 edbe
000003b0: 73c1 0dbf 058c 1ebf 060f 65bd dd62 003e
000003c0: 229a 17bf 4642 3abf 3e12 98bd 38c5 5cbf
000003d0: 36b3 8abe 0406 debe d78b 77bf b712 3bbf
000003e0: 8bd7 ffbe 27f9 9dbe c2db 0dbf 1f9c c2be
000003f0: 9585 49bf 6a1c 13bd e6f0 b3be 6867 44bf

ACT_EMBED.layers.4.weight f4 [4, 32]
0.23571691 0.6641932 -1.4813514 1.8675166 0.21566837 -1.3751016 -1.9005368 -0.5886571
-1.5159562 0.06818544 -1.1071346 1.2330871 1.3842686 -0.8083907 1.9923164 -0.0809208
-0.35058546 -0.31475237 0.093615904 -1.9364352 -0.8364741 -0.32760385 -1.2933501 1.7561113
-0.46993637 -1.9882579 0.15435436 -1.1976054 -0.60531205 -1.9280815 -1.4922563 -2.0733197
-0.28591895 -2.4512422 -2.3408434 -2.1551383 -0.24912122 -1.6469585 -0.64555776 -1.3451726
-0.6988657 -1.0703819 -0.68812966 -1.3812164 -0.10872802 -0.025773007 -1.0393288 -0.00090916373
-0.67624307 -0.8871625 -1.9798083 -1.7597798 0.123687744 -0.18460667 -2.18643 -2.1243021
-1.6508646 -1.7268565 0.16285779 -0.6735182 -1.614161 -2.1123743 -1.0531718 -0.3176079
0.120589435 -0.34446925 -2.4605403 -2.2556353 -0.65696555 -1.2414879 2.2301552 0.10188369
0.5060154 -1.2282737 0.5422934 -1.6242303 -1.6143159 -1.3917043 1.1280903 0.18123643
-1.6921945 -0.91329294 -2.1774628 -2.2783623 1.0413809 0.28684437 0.88896906 -2.197625
-2.1520367 -2.1507065 0.13411078 -0.8093815 -1.6888425 -2.5780272 -0.5571687 0.14163482
-0.22102894 -0.10266153 -1.3098308 -0.5080832 0.01671206 -0.034831725 -0.33305454 -0.7274086
-0.41766715 0.1708001 0.21021664 0.6766267 -0.24560899 0.11314221 -0.5373803 0.065322645
-0.71491283 0.040951554 -0.14995909 -0.17963351 -0.27885342 0.042633865 -0.39261177 0.030530022
0.6346666 -0.5512547 -0.04733629 -0.2742509 0.16166142 -0.99084073 -0.31903267 -0.0987607
00000000: c65f 713e 9108 2a3f ec9c bdbf c90a ef3f
00000010: 2bd8 5c3e 5403 b0bf ca44 f3bf 3bb2 16bf
00000020: da0a c2bf cfa4 8b3d 96b6 8dbf ccd5 9d3f
00000030: b72f b13f b1f2 4ebf 3904 ff3f ceb9 a5bd
00000040: f07f b3be 3927 a1be b2b9 bf3d 1cdd f7bf
00000050: 2b23 56bf b1bb a7be 7f8c a5bf 41c8 e03f
00000060: 809b f0be 3c7f febf 120f 1e3e 224b 99bf
00000070: bbf5 1abf 60cb f6bf 4102 bfbf 45b1 04c0
00000080: f863 92be 27e1 1cc0 61d0 15c0 c9ed 09c0
00000090: a219 7fbe 89cf d2bf 4643 25bf 9e2e acbf
000000a0: dde8 32bf 4602 89bf 4429 30bf b3cb b0bf
000000b0: ccac debd ea21 d3bc ba08 85bf f254 6eba
000000c0: 441e 2dbf 151d 63bf 5c6a fdbf 7740 e1bf
000000d0: 0050 fd3d 8809 3dbe 78ee 0bc0 91f4 07c0
000000e0: 884f d3bf a209 ddbf 31c4 263e b06b 2cbf
000000f0: d49c cebf 2431 07c0 55ce 86bf 819d a2be
00000100: 98f7 f63d 465e b0be 7e79 1dc0 545c 10c0
00000110: e52e 28bf 13e9 9ebf ddba 0e40 65a8 d03d
00000120: 3a8a 013f 1338 9dbf bed3 0a3f c7e6 cfbf
00000130: e7a1 cebf 5e23 b2bf 4365 903f 0b96 393e
00000140: d499 d8bf 91cd 69bf 8d5b 0bc0 b0d0 11c0
00000150: f84b 853f 44dd 923e 7a93 633f e3a5 0cc0
00000160: f8ba 09c0 2da5 09c0 5654 093e a033 4fbf
00000170: fe2b d8bf 66fe 24c0 9ca2 0ebf b808 113e
00000180: 6955 62be 3540 d2bd 89a8 a7bf be11 02bf
00000190: bbe7 883c b6ab 0ebd 2086 aabe 7337 3abf
000001a0: 78d8 d5be 39e6 2e3e 0843 573e 6837 2d3f
000001b0: ec80 7bbe 1ab7 e73d c191 09bf e1c7 853d
000001c0: 8704 37bf d1bc 273d e08e 19be d9f1 37be
000001d0: e0c5 8ebe d9a0 2e3d 6904 c9be 191a fa3c
000001e0: 8379 223f 071f 0dbf b3e3 41bd 9d6a 8cbe
000001f0: 928a 253e bda7 7dbf 4058 a3be 0d43 cabd

FK_LAYER.joints.0.p_offset f4 [3, 1]
-0.20384368 -0.504718 2.3788207
00000000: 66bc 50be 3335 01bf 993e 1840

FK_LAYER.joints.0.rpy_offset f4 [3]
0.003506937 -0.004842281 0.010994895
00000000: a4d4 653b ffab 9ebb ef23 343c

FK_LAYER.joints.1.p_offset f4 [3, 1]
0.010258857 -0.36880377 1.9167544
00000000: c414 283c d9d3 bcbe 3558 f53f

FK_LAYER.joints.1.rpy_offset f4 [3]
-0.002493714 -0.0050597545 0.007557985
00000000: 946d 23bb 4ccc a5bb f9a8 f73b

FK_LAYER.joints.1.axis f4 [3, 1]
-0.27566946 0.3394025 -1.4735572
00000000: 8c24 8dbe 2ac6 ad3e 869d bcbf

FK_LAYER.joints.1.q_layer.0.weight f4 [1, 4]
0.37250677 -0.99580467 0.9737505 0.17913075
00000000: 35b9 be3e 0eed 7ebf b647 793f 0d6e 373e

FK_LAYER.joints.2.p_offset f4 [3, 1]
0.0035540366 -0.012704499 0.3542655
00000000: d7ea 683b 8826 50bc 4a62 b53e

FK_LAYER.joints.2.rpy_offset f4 [3]
-0.018186402 -0.000159281 0.0008069877
00000000: a6fb 94bc ab04 27b9 078c 533a

FK_LAYER.joints.2.axis f4 [3, 1]
2.4783638 1.848085 -0.24901767
00000000: 839d 1e40 0d8e ec3f 7dfe 7ebe

FK_LAYER.joints.2.q_layer.0.weight f4 [1, 4]
0.38516816 1.4196702 -0.037754823 1.0581099
00000000: c334 c53e c1b7 b53f cda4 1abd 2570 873f

FK_LAYER.joints.3.p_offset f4 [3, 1]
0.08639286 0.43483612 -1.8267394
00000000: bdee b03d d7a2 de3e 99d2 e9bf

FK_LAYER.joints.3.rpy_offset f4 [3]
0.020683033 -0.0062902495 -0.01640903
00000000: 776f a93c 701e cebb 3b6c 86bc

FK_LAYER.joints.3.axis f4 [3, 1]
0.64637655 0.7440811 0.72950464
00000000: ef78 253f 197c 3e3f d1c0 3a3f

FK_LAYER.joints.3.q_layer.0.weight f4 [1, 4]
0.64147097 0.2916164 0.7009849 -0.60166
00000000: 7137 243f bf4e 953e bf73 333f 6406 1abf

FK_LAYER.joints.4.p_offset f4 [3, 1]
0.055126436 0.25341028 -1.3723549
00000000: 42cc 613d febe 813e 53a9 afbf

FK_LAYER.joints.4.rpy_offset f4 [3]
0.0046249866 -0.014593297 -0.008426886
00000000: 338d 973b b918 6fbc ec10 0abc

FK_LAYER.joints.4.axis f4 [3, 1]
0.04842086 -0.21065332 1.0672897
00000000: f454 463d 81b5 57be f39c 883f

FK_LAYER.joints.4.q_layer.0.weight f4 [1, 4]
-0.23830001 -0.09876584 0.1727326 -0.51934355
00000000: eb04 74be bf45 cabd d1e0 303e b3f3 04bf

FK_LAYER.joints.5.p_offset f4 [3, 1]
-0.00874517 0.15343893 -1.0641084
00000000: e747 0fbc 181f 1d3e b434 88bf

FK_LAYER.joints.5.rpy_offset f4 [3]
0.014611648 0.00588959 0.00047259027
00000000: b265 6f3c 76fd c03b fec5 f739

FK_LAYER.joints.5.axis f4 [3, 1]
-2.4292445 -1.2361978 -0.19889116
00000000: be78 1bc0 bb3b 9ebf 20aa 4bbe

FK_LAYER.joints.5.q_layer.0.weight f4 [1, 4]
-0.22875285 1.5736232 -0.37031946 -0.5213841
00000000: 303e 6abe 7c6c c93f 839a bdbe 6e79 05bf

FK_LAYER.joints.6.p_offset f4 [3, 1]
-0.0012055517 0.03671028 -0.2817502
00000000: 9a03 9eba 855d 163d 9041 90be

FK_LAYER.joints.6.rpy_offset f4 [3]
-0.013195881 -0.009387906 -0.0025604104
00000000: 8933 58bc bbcf 19bc 8fcc 27bb

FK_LAYER.joints.6.axis f4 [3, 1]
0.22259438 0.043488372 0.03038915
00000000: c8ef 633e dd20 323d abf2 f83c

FK_LAYER.joints.6.q_layer.0.weight f4 [1, 4]
-0.6894521 0.13108008 0.17552458 0.4902949
00000000: ef7f 30bf db39 063e b7bc 333e ef07 fb3e
