results/PRIMNET/FINGER32/weights/epoch_439.pth (torch, 16456 bytes, 33 tensors)

motor_std f4 [4]
382.133 385.39212 374.75293 370.68262
00000000: 0611 bf43 31b2 c043 6060 bb43 6057 b943

motor_mean f4 [4]
557.9091 563.4745 566.6164 552.91644
00000000: 2f7a 0b44 5ede 0c44 73a7 0d44 a73a 0a44

position_std f4 [3, 1]
1.0 1.0 1.0
00000000: 0000 803f 0000 803f 0000 803f

position_mean f4 [3, 1]
0.0 0.0 0.0
00000000: 0000 0000 0000 0000 0000 0000

ACT_EMBED.layers.0.weight f4 [32, 4]
-0.7150745 0.8020514 -0.33571643 -0.72891647 0.30968624 1.0797946 -0.07816495 -1.6004691
0.8377606 1.6352322 -1.2672329 -0.5103921 -0.92781633 0.7688798 -1.5569117 1.9589869
0.8801941 -0.68072414 -0.036228634 0.110571064 -0.43802217 0.48786905 -0.41126913 0.3635617
0.20172717 0.2438779 -0.5432544 1.7635938 0.09810921 -0.48440588 0.4698166 -0.88041973
0.74627984 -1.2801988 -0.2062026 0.6810818 -0.58243066 0.86471564 -1.1383402 -0.86677545
-0.28404775 -0.37907436 -0.92527205 1.5710998 0.30663502 0.042852834 0.5681915 -1.4089503
-0.51549053 0.4853285 -0.6553396 -1.2255726 1.1322463 -1.3411849 0.6177401 -1.5179108
-1.1779182 1.4751112 -0.32037416 -0.87685746 0.09656497 0.35963205 -0.34093958 -0.38468862
0.56265885 -0.90354013 0.06940834 -1.673083 0.10887663 0.50296354 1.1874509 -0.49278092
0.68571156 -0.56102365 0.06411669 -0.89686924 1.173054 -0.74726653 -0.45645213 -0.09872555
0.36866036 -1.1243924 -0.1095508 -0.93163884 -0.37367535 0.26124495 -0.19333926 -1.5871465
1.2353603 -1.9133464 0.3128089 -1.4509996 -0.7096706 0.7410205 0.13133126 -0.3291493
-1.4763283 1.6480274 -1.171066 0.79445 -0.51618665 0.484064 -0.18674397 0.58009714
0.022268195 -0.18065329 -0.5016713 -0.28265733 -0.7419913 0.83796716 0.5434294 -1.0967202
1.365842 -1.1611553 1.1364771 -1.5922797 0.32904795 0.5765645 1.2039117 -0.24531059
0.114649065 0.9853595 -0.52355886 -0.4858231 -1.0903038 1.5472211 0.4528609 -1.5850223
00000000: 1f0f 37bf 3e53 4d3f 06e3 abbe 459a 3abf
00000010: 328f 9e3e b636 8a3f f214 a0bd 2cdc ccbf
00000020: 7b77 563f 4a4f d13f b034 a2bf 0fa9 02bf
00000030: 5f85 6dbf 4ed5 443f e248 c7bf 15c0 fa3f
00000040: 6754 613f f043 2ebf 7a64 14bd 1573 e23d
00000050: 7144 e0be f9c9 f93e de91 d2be c224 ba3e
00000060: 9191 4e3e 21bb 793e b812 0bbf 71bd e13f
00000070: 7bed c83d 0c04 f8be cd8b f03e 3063 61bf
00000080: 320c 3f3f 8edd a3bf c626 53be 605b 2e3f
00000090: 2d1a 15bf 015e 5d3f 22b5 91bf ffe4 5dbf
000000a0: b56e 91be 0916 c2be a1de 6cbf cc19 c93f
000000b0: 44ff 9c3e 7486 2f3d 0075 113f 7c58 b4bf
000000c0: 30f7 03bf fa7c f83e 56c4 27bf 90df 9cbf
000000d0: 72ed 903f f2ab abbf 3724 1e3f e74a c2bf
000000e0: 06c6 96bf 72d0 bc3f 1508 a4be bb79 60bf
000000f0: dbc3 c53d b121 b83e a28f aebe e8f5 c4be
00000100: 690a 103f 684e 67bf f625 8e3d 9527 d6bf
00000110: b6fa de3d 38c2 003f 64fe 973f c84d fcbe
00000120: cb8a 2f3f 3f9f 0fbf 9c4f 833d 3999 65bf
00000130: a226 963f dc4c 3fbf 18b4 e9be 9f30 cabd
00000140: 0dc1 bc3e 17ec 8fbf 2b5c e0bd e27f 6ebf
00000150: 6052 bfbe e6c1 853e bafa 45be 9e27 cbbf
00000160: 4920 9e3f 89e8 f4bf 7d28 a03e 5bba b9bf
00000170: f9ac 35bf 85b3 3d3f b47b 063e 4286 a8be
00000180: 53f8 bcbf 90f2 d23f 7ee5 95bf 1361 4b3f
00000190: cf24 04bf 3dd7 f73e d039 3fbe 3f81 143f
000001a0: ca6b b63c 2dfd 38be 886d 00bf 76b8 90be
000001b0: 24f3 3dbf 0485 563f 301e 0b3f 5461 8cbf
000001c0: e9d3 ae3f bda0 94bf 1578 913f d2cf cbbf
000001d0: f978 a83e bb99 133f c719 9a3f b332 7bbe
000001e0: 21cd ea3d 8540 7c3f f407 06bf cebd f8be
000001f0: 138f 8bbf 570b c63f 62dd e73e 03e2 cabf

ACT_EMBED.layers.2.weight f4 [32, 32]
-0.8443986 -1.1215359 -1.3455673 -0.80247283 -1.4776722 -1.0922024 -0.8645422 -0.13997234
0.0012910117 -1.1650615 -1.0800802 -0.79792655 -0.630197 -0.8478113 -0.23820098 -0.35389534
-1.4323571 -0.1526281 -0.2861135 -1.5178404 -0.2806509 -0.8842163 -1.5063112 -0.75809497
-0.027496964 -0.26583377 -0.67399657 -0.27294573 -1.1674623 -0.55037063 -0.16973749 -0.29495335
-1.9756039 -1.000671 -1.301575 -1.5627203 -0.9245323 -1.1641123 -1.6870075 -1.7916939
-0.96507144 -1.8044475 0.3620406 -1.1810256 -1.7245786 -0.9551412 -1.9810938 -0.7127663
-0.1997344 -2.1758022 -1.2147536 0.41626877 -1.004917 -0.47699043 -0.58933 -2.2110445
-1.8736265 -1.2612903 -1.0030274 -2.2981634 -0.83957237 -1.4249758 -1.3699718 -1.6102623
-1.6287689 -0.24558903 -0.8371969 -1.6866082 -0.47236443 -0.60581917 -1.8736115 -1.5024068
-0.357688 -1.4320263 -1.0351967 -1.2791419 -1.3142288 -1.0705281 -1.7092005 -0.77064896
-1.044158 -1.875341 -1.1636242 0.8461213 -0.9171365 -1.3218895 -0.8197732 -1.2938933
-1.0490866 -1.328673 -1.3176798 -1.0131052 -0.82169896 -1.2363446 -0.51337725 -1.5648956
-1.5569235 -1.1651933 -0.69733936 -1.6007202 -0.5168069 -1.1858419 -0.82119876 -1.9740527
-0.95548385 0.01073871 -1.440178 -0.72410464 -1.4601778 -1.4259881 -1.6622568 -0.6647746
-1.4859622 -2.2298527 -0.8759679 -1.0364366 -1.2688497 -0.937257 -1.1962498 -0.7975873
-1.6985217 -0.83016735 -1.0566888 -1.8778778 -1.6988462 -0.50409573 -0.90696603 -0.8259809
-0.5495167 -0.614476 -0.15824977 -0.8402201 -0.46757787 -0.56445205 -0.407203 -1.2611325
-0.08243621 -0.656603 -1.2647542 0.007986566 -0.82780695 -0.41224018 -0.4543665 -1.0398493
-0.682354 -0.34766275 -0.8000908 -0.6814904 -0.6084691 -1.0365894 -0.9083239 -0.47531286
-0.7188933 -0.7735993 -0.65802664 -0.32414824 -0.80453223 0.20177376 -0.4036443 -0.0558544
-0.669588 -1.3725765 -1.3563321 -1.7918998 -1.1580399 -1.6932124 -0.77232826 -0.87828356
-0.06503424 -0.45800036 -0.39054784 -0.93328255 -0.7698717 0.061019436 -0.7923382 0.19721732
-0.8652757 -0.7083365 0.33373544 -0.6841214 -0.8941003 -0.25604457 -0.9755255 -0.7969948
-1.3401467 -0.8385994 -1.1247792 -1.2906066 -1.1143306 0.20574225 -0.15032998 -0.4980853
-1.6120164 -0.3469889 -0.764674 -1.0608546 -0.4399475 -0.4577244 -0.888772 -1.5000108
-0.78232545 -0.7515464 -1.0802242 -0.40865907 -0.7753301 -1.066522 -1.4692447 -0.45926023
-0.29294857 -1.8894552 -1.048032 -0.6631457 -1.0308305 -0.023430977 -0.60909855 -0.6625986
-1.4409988 -0.95849854 -0.098645486 -1.8003514 -0.7364291 -0.42675892 -1.0638269 -1.0882509
-0.47857 -0.47318184 -0.8875162 -1.0425605 -0.7552576 -0.18476608 -0.6620219 -0.13951981
-0.11258383 -0.8386249 -0.24378084 -0.46305588 -0.55353993 -0.61897534 -0.055873133 0.1254284
-0.5917355 -0.7272513 -0.074229404 -0.8620118 -0.27075517 -0.43335086 -0.9665293 -0.7304557
-0.4994553 -0.30823693 -0.5538299 -0.3798673 -0.7866468 -0.03571911 -0.35126698 -0.7669418
00000000: 822a 58bf 7d8e 8fbf 8d3b acbf dc6e 4dbf
00000010: 5d24 bdbf 4acd 8bbf a352 5dbf e954 0fbe
00000020: 2a37 a93a bc20 95bf 1140 8abf ea44 4cbf
00000030: 9754 21bf 290a 59bf f5ea 73be c531 b5be
00000040: 7a57 b7bf 8a4a 1cbe 787d 92be 9848 c2bf
00000050: 7ab1 8fbe 005c 62bf cece c0bf 8312 42bf
00000060: 5041 e1bc 5d1b 88be 0a8b 2cbf 8bbf 8bbe
00000070: 686f 95bf 17e5 0cbf aacf 2dbe 2004 97be
00000080: 97e0 fcbf fd15 80bf 029a a6bf 3807 c8bf
00000090: 26ae 6cbf a201 95bf ddef d7bf 3a56 e5bf
000000a0: ec0e 77bf 23f8 e6bf 635d b93e d92b 97bf
000000b0: febe dcbf 2284 74bf 7b94 fdbf da77 36bf
000000c0: 2d87 4cbe 5840 0bc0 0c7d 9bbf 2e21 d53e
000000d0: 1fa1 80bf 1738 f4be 55de 16bf c181 0dc0
000000e0: fed2 efbf f671 a1bf 3463 80bf 1c15 13c0
000000f0: 37ee 56bf 9b65 b6bf 3c5b afbf 131d cebf
00000100: 807b d0bf b17b 7bbe 8952 56bf c7e2 d7bf
00000110: c0d9 f1be f716 1bbf 80d2 efbf de4e c0bf
00000120: e222 b7be a34c b7bf 5381 84bf ecba a3bf
00000130: a638 a8bf 1107 89bf 15c7 dabf 4049 45bf
00000140: f8a6 85bf 2d0b f0bf a3f1 94bf 689b 583f
00000150: 75c9 6abf ad33 a9bf a8dc 51bf 4c9e a5bf
00000160: 7848 86bf f511 aabf bba9 a8bf 6ead 81bf
00000170: dd5a 52bf 8a40 9ebf b16c 03bf 804e c8bf
00000180: 4549 c7bf 0e25 95bf d584 32bf 66e4 ccbf
00000190: 754d 04bf abc9 97bf 153a 52bf c2ad fcbf
000001a0: 979a 74bf 6af1 2f3c c157 b8bf ec5e 39bf
000001b0: 1be7 babf c786 b6bf d5c4 d4bf ab2e 2abf
000001c0: 0234 bebf e8b5 0ec0 6f3f 60bf f4a9 84bf
000001d0: ab69 a2bf 13f0 6fbf b71e 99bf ae2e 4cbf
000001e0: 2969 d9bf d985 54bf 9441 87bf 4d5e f0bf
000001f0: cb73 d9bf 6b0c 01bf ed2e 68bf 7c73 53bf
00000200: 20ad 0cbf 4d4e 1dbf 3a0c 22be aa18 57bf
00000210: 5e66 efbe ee7f 10bf e97c d0be ca6c a1bf
00000220: 51d4 a8bd 2217 28bf 77e3 a1bf 16da 023c
00000230: 28eb 53bf 2511 d3be baa2 e8be c819 85bf
00000240: c0ae 2ebf da00 b2be c0d2 4cbf 2876 2ebf
00000250: a2c4 1bbf f6ae 84bf ea87 68bf 355c f3be
00000260: 6409 38bf 9b0a 46bf 6f74 28bf c2f6 a5be
00000270: d3f5 4dbf c89d 4e3e 77aa cebe 95c7 64bd
00000280: 1f6a 2bbf 96b0 afbf 4a9c adbf f95c e5bf
00000290: a73a 94bf 2fbb d8bf 4eb7 45bf 31d7 60bf
000002a0: ac30 85bd 067f eabe e3f5 c7be 9beb 6ebf
000002b0: 5016 45bf 84ef 793d add6 4abf 56f3 493e
000002c0: b582 5dbf 8a55 35bf 5fdf aa3e 9422 2fbf
000002d0: c2e3 64bf 4618 83be 0abc 79bf da07 4cbf
000002e0: ed89 abbf 73ae 56bf c4f8 8fbf 9932 a5bf
000002f0: 63a2 8ebf 19ae 523e 1af0 19be 0905 ffbe
00000300: 8e56 cebf 87a8 b1be adc1 43bf 15ca 87bf
00000310: cc40 e1be da5a eabe 9086 63bf 5b00 c0bf
00000320: 7b46 48bf 5865 40bf c944 8abf c33b d1be
00000330: 097c 46bf cb83 88bf 3610 bcbf 2824 ebbe
00000340: 5bfd 95be abd9 f1bf ea25 86bf ebc3 29bf
00000350: 41f2 83bf 52f2 bfbc e2ed 1bbf 10a0 29bf
00000360: a672 b8bf 2960 75bf a506 cabd ea71 e6bf
00000370: 9e86 3cbf 2580 dabe 7b2b 88bf ce4b 8bbf
00000380: 2107 f5be e444 f2be 4334 63bf 9f72 85bf
00000390: 9058 41bf 5233 3dbe 447a 29bf 48de 0ebe
000003a0: 5a92 e6bd 1fb0 56bf afa1 79be a915 edbe
000003b0: cbb4 0dbf 2b75 1ebf 3adb 64bd 4d70 003e
000003c0: fa7b 17bf 242d 3abf 9605 98bd ceac 5cbf
000003d0: 6ca0 8abe 2ae0 ddbe 776e 77bf 25ff 3abf
000003e0: 9bb8 ffbe 3bd1 9dbe ccc7 0dbf f77d c2be
000003f0: af61 49bf 344e 12bd 44d9 b3be 4c56 44bf

ACT_EMBED.layers.4.weight f4 [4, 32]
0.23587531 0.66358346 -1.4799328 1.8664211 0.21551757 -1.37413 -1.8995295 -0.58828455
-1.5149488 0.0680789 -1.1063895 1.2324171 1.3835236 -0.808104 1.99111 -0.080765456
-0.35038936 -0.3146278 0.09387865 -1.9352288 -0.8360378 -0.32734904 -1.2926408 1.7549406
-0.46986157 -1.9870908 0.15441814 -1.1965492 -0.6049753 -1.9266629 -1.4914957 -2.0726495
-0.28586024 -2.450024 -2.3396251 -2.15392 -0.24892557 -1.6459023 -0.6451912 -1.3443882
-0.69875425 -1.0697083 -0.6876457 -1.3803724 -0.10855703 -0.02560671 -1.0387197 -0.00089771196
-0.6759701 -0.8864532 -1.9787247 -1.7585734 0.123575985 -0.18458983 -2.1852832 -2.1231554
-1.6499956 -1.7260721 0.16285779 -0.6731957 -1.6132884 -2.1110845 -1.0527378 -0.31747738
0.12078136 -0.34345955 -2.4592505 -2.2545433 -0.65652925 -1.2409145 2.2288082 0.10180672
0.5058664 -1.2274166 0.5420443 -1.6234971 -1.6133598 -1.3908079 1.127369 0.18095808
-1.6913254 -0.91300625 -2.1766903 -2.2772703 1.0406358 0.2866143 0.8884469 -2.1962063
-2.150642 -2.1492164 0.13411123 -0.80896544 -1.6879854 -2.5766802 -0.55653334 0.14313498
-0.22092493 -0.1027601 -1.3092848 -0.50781024 0.01670217 -0.034870207 -0.33311325 -0.7270164
-0.41736555 0.17078312 0.21017626 0.6763537 -0.24560899 0.11322066 -0.53717524 0.06533114
-0.71491283 0.04090536 -0.15000439 -0.17933668 -0.2787819 0.042633865 -0.39263055 0.03046997
0.63447946 -0.5510437 -0.04733629 -0.27428487 0.16175947 -0.990287 -0.31891406 -0.098793335
00000000: 4c89 713e 9be0 293f 706e bdbf e3e6 ee3f
00000010: a3b0 5c3e 7ee3 afbf c823 f3bf d199 16bf
00000020: d8e9 c1bf f36c 8b3d 2c9e 8dbf d8bf 9d3f
00000030: 4d17 b13f e7df 4ebf b1dc fe3f 5c68 a5bd
00000040: 3c66 b3be e516 a1be 7343 c03d 94b5 f7bf
00000050: 9306 56bf 4b9a a7be 4175 a5bf e5a1 e03f
00000060: b291 f0be fe58 febf ca1f 1e3e 8628 99bf
00000070: a9df 1abf e49c f6bf 55e9 bebf 4aa6 04c0
00000080: 465c 92be 31cd 1cc0 6bbc 15c0 d3d9 09c0
00000090: 58e6 7ebe edac d2bf 402b 25bf ea14 acbf
000000a0: 8fe1 32bf 34ec 88bf 8c09 30bf 0bb0 b0bf
000000b0: 2653 debd 2ac5 d1bc c4f4 84bf 6e54 6bba
000000c0: 600c 2dbf 99ee 62bf da46 fdbf ef18 e1bf
000000d0: 6815 fd3d 1e05 3dbe aedb 0bc0 c7e1 07c0
000000e0: 0e33 d3bf eeef dcbf 31c4 263e 8e56 2cbf
000000f0: 3c80 cebf 021c 07c0 1dc0 86bf 658c a2be
00000100: 385c f73d eed9 afbe 5c64 1dc0 704a 10c0
00000110: 4d12 28bf 49d6 9ebf cba4 0e40 0b80 d03d
00000120: 7680 013f fd1b 9dbf 6ac3 0a3f c1ce cfbf
00000130: 9382 cebf fe05 b2bf a14d 903f 134d 393e
00000140: 5a7d d8bf c7ba 69bf e54e 0bc0 ccbe 11c0
00000150: 8e33 853f 1cbf 923e 4271 633f a58e 0cc0
00000160: 1ea4 09c0 c38c 09c0 7454 093e 5c18 4fbf
00000170: e80f d8bf 54e8 24c0 f878 0ebf fa91 123e
00000180: 253a 62be e373 d2bd a596 a7bf daff 01bf
00000190: fdd2 883c 10d4 0ebd d28d aabe bf1d 3abf
000001a0: f0b0 d5be c5e1 2e3e 7238 573e 8425 2d3f
000001b0: ec80 7bbe 3ce0 e73d 5184 09bf 55cc 853d
000001c0: 8704 37bf 618c 273d c09a 19be 09a4 37be
000001d0: 80bc 8ebe d9a0 2e3d df06 c9be 299c f93c
000001e0: 3f6d 223f 3311 0dbf b3e3 41bd 116f 8cbe
000001f0: 46a4 253e 7383 7dbf b448 a3be 2954 cabd

FK_LAYER.joints.0.p_offset f4 [3, 1]
-0.20538984 -0.50479114 2.377252
00000000: b751 52be fe39 01bf e624 1840

FK_LAYER.joints.0.rpy_offset f4 [3]
0.003506937 -0.004842281 0.010994895
00000000: a4d4 653b ffab 9ebb ef23 343c

FK_LAYER.joints.1.p_offset f4 [3, 1]
0.011805317 -0.36726004 1.9152019
00000000: 176b 413c 8209 bcbe 5625 f53f

FK_LAYER.joints.1.rpy_offset f4 [3]
-0.002493714 -0.0050597545 0.007557985
00000000: 946d 23bb 4ccc a5bb f9a8 f73b

FK_LAYER.joints.1.axis f4 [3, 1]
-0.27720034 0.33787194 -1.4750357
00000000: 34ed 8dbe 8dfd ac3e f8cd bcbf

FK_LAYER.joints.1.q_layer.0.weight f4 [1, 4]
0.37198037 -0.9953886 0.97526044 0.17914312
00000000: 3674 be3e cad1 7ebf abaa 793f 4b71 373e

FK_LAYER.joints.2.p_offset f4 [3, 1]
0.0020298876 -0.011170604 0.3543955
00000000: dd07 053b e904 37bc 5473 b53e

FK_LAYER.joints.2.rpy_offset f4 [3]
-0.018186402 -0.000159281 0.0008069877
00000000: a6fb 94bc ab04 27b9 078c 533a

FK_LAYER.joints.2.axis f4 [3, 1]
2.4769452 1.8465856 -0.24748807
00000000: 4586 1e40 eb5c ec3f 836d 7dbe

FK_LAYER.joints.2.q_layer.0.weight f4 [1, 4]
0.38670096 1.4185866 -0.03629244 1.0581099
00000000: abfd c53e 3f94 b53f 62a7 14bd 2570 873f

FK_LAYER.joints.3.p_offset f4 [3, 1]
0.08642162 0.4363727 -1.8251874
00000000: d1fd b03d 3e6c df3e be9f e9bf

FK_LAYER.joints.3.rpy_offset f4 [3]
0.020683033 -0.0062902495 -0.01640903
00000000: 776f a93c 701e cebb 3b6c 86bc

FK_LAYER.joints.3.axis f4 [3, 1]
0.644853 0.7425496 0.7280628
00000000: 1615 253f bb17 3e3f 5362 3a3f

FK_LAYER.joints.3.q_layer.0.weight f4 [1, 4]
0.63993555 0.29182145 0.6994885 -0.60166
00000000: d1d2 233f 9f69 953e ae11 333f 6406 1abf

FK_LAYER.joints.4.p_offset f4 [3, 1]
0.05661207 0.25190157 -1.3708124
00000000: 0fe2 673d 3ef9 803e c876 afbf

FK_LAYER.joints.4.rpy_offset f4 [3]
0.0046249866 -0.014593297 -0.008426886
00000000: 338d 973b b918 6fbc ec10 0abc

FK_LAYER.joints.4.axis f4 [3, 1]
0.04702431 -0.20916104 1.0684568
00000000: 909c 403d 502e 56be 31c3 883f

FK_LAYER.joints.4.q_layer.0.weight f4 [1, 4]
-0.23692994 -0.09883901 0.17156325 -0.51934355
00000000: c39d 72be 1b6c cabd 47ae 2f3e b3f3 04bf

FK_LAYER.joints.5.p_offset f4 [3, 1]
-0.010261202 0.15190993 -1.0625676
00000000: 9a1e 28bc 478e 1b3e 3702 88bf

FK_LAYER.joints.5.rpy_offset f4 [3]
0.014611648 0.00588959 0.00047259027
00000000: b265 6f3c 76fd c03b fec5 f739

FK_LAYER.joints.5.axis f4 [3, 1]
-2.4306283 -1.2347825 -0.19737706
00000000: 6a8f 1bc0 5a0d 9ebf 361d 4abe

FK_LAYER.joints.5.q_layer.0.weight f4 [1, 4]
-0.23028903 1.5723798 -0.36918965 -0.5213841
00000000: e3d0 6bbe be43 c93f 6d06 bdbe 6e79 05bf

FK_LAYER.joints.6.p_offset f4 [3, 1]
0.00033670262 0.035232972 -0.28329745
00000000: 7687 b039 7350 103d 5d0c 91be

FK_LAYER.joints.6.rpy_offset f4 [3]
-0.013195881 -0.009387906 -0.0025604104
00000000: 8933 58bc bbcf 19bc 8fcc 27bb

FK_LAYER.joints.6.axis f4 [3, 1]
0.22259438 0.043488372 0.03038915
00000000: c8ef 633e dd20 323d abf2 f83c

FK_LAYER.joints.6.q_layer.0.weight f4 [1, 4]
-0.6894521 0.13108008 0.17552458 0.4902949
00000000: ef7f 30bf db39 063e b7bc 333e ef07 fb3e
