results/PRIMNET/FINGER32/weights/epoch_246.pth (torch, 16456 bytes, 33 tensors)

motor_std f4 [4]
000000 06 11 bf 43 31 b2 c0 43 60 60 bb 43 60 57 b9 43
       382.133 385.39212 374.75293 370.68262

motor_mean f4 [4]
000000 2f 7a 0b 44 5e de 0c 44 73 a7 0d 44 a7 3a 0a 44
       557.9091 563.4745 566.6164 552.91644

position_std f4 [3, 1]
000000 00 00 80 3f 00 00 80 3f 00 00 80 3f
       1.0 1.0 1.0

position_mean f4 [3, 1]
000000 00 00 00 00 00 00 00 00 00 00 00 00
       0.0 0.0 0.0

ACT_EMBED.layers.0.weight f4 [32, 4]
000000 2c 44 29 bf b8 95 55 3f 3c ed 90 be 1f 42 39 bf
       -0.6611965 0.8343158 -0.28305995 -0.7236652
000010 10 26 b7 3e 50 51 85 3f cc 4d ea bd db f0 c7 bf
       0.35771227 1.041544 -0.1144062 -1.5620378
000020 75 3e 5a 3f 91 fc cd 3f 2b 2d 9f bf 88 65 0d bf
       0.8525155 1.6092702 -1.2435659 -0.5523305
000030 3d dc 7c bf 61 3b 43 3f 94 75 cd bf b6 b7 f2 3f
       -0.98773557 0.7626248 -1.6051507 1.8962314
000040 e9 2c 6c 3f b0 92 23 bf 3f 3c b8 bd d3 17 19 3e
       0.9225603 -0.638957 -0.08995866 0.14950494
000050 ff 2c c7 be 46 34 f2 3e 90 45 b9 be a9 8e d3 3e
       -0.38901517 0.47305506 -0.36185884 0.4131978
000060 44 d8 85 3e be 98 3f 3e e9 31 04 bf 5c 0b dc 3f
       0.2614156 0.1871061 -0.51638657 1.7190967
000070 1d a8 8d 3d e1 ab 0a bf 75 35 d5 3e cf a6 5e bf
       0.06916831 -0.54168516 0.41642347 -0.8697328
000080 13 fe 4d 3f ef b8 9c bf 0a b0 25 be 91 55 3a 3f
       0.8046581 -1.2243937 -0.16180435 0.72786814
000090 06 af 08 bf 62 c5 65 3f b4 15 8b bf d7 23 5c bf
       -0.53392065 0.8975431 -1.0865998 -0.8599219
0000a0 72 11 72 be cf 02 e2 be b7 f8 5d bf 11 bb c6 3f
       -0.23639467 -0.44142768 -0.86707634 1.5525838
0000b0 ae 60 7d 3e b2 cc b8 3d 25 94 12 3f bd d7 ad bf
       0.24743912 0.090234175 0.572573 -1.3581463
0000c0 63 61 ef be 2d ad de 3e 49 1e 36 bf b8 11 98 bf
       -0.46753988 0.43491498 -0.7113996 -1.1880407
0000d0 9b d9 88 3f 00 9f ad bf a2 dd 0e 3f 9b b5 c7 bf
       1.0691408 -1.3564148 0.55806935 -1.5602297
0000e0 cc f5 92 bf 2f 10 b7 3f 5b 92 af be ba 9b 6d bf
       -1.1481261 1.4301814 -0.34291348 -0.92815745
0000f0 49 cf 0f 3e 0a 36 9a 3e d0 b0 cb be 70 82 ab be
       0.14043917 0.30119354 -0.39783335 -0.33497953
000100 b8 93 1e 3f eb 5d 5c bf 5d a6 c1 3d 1f 23 cf bf
       0.6194415 -0.8608081 0.094555594 -1.6182593
000110 37 79 03 3e 85 f8 e5 3e cb 40 91 3f 29 69 0b bf
       0.12839209 0.44916168 1.1347898 -0.54457337
000120 a9 0b 20 3f d5 2e 1e bf 1b f7 15 3b 8a a7 6a bf
       0.6251779 -0.6179021 0.0022882882 -0.91661894
000130 15 69 9c 3f 43 e2 39 bf 4b 03 d4 be 43 f5 26 bd
       1.2219568 -0.72610873 -0.41408762 -0.040761244
000140 9b b6 a5 3e d8 5f 95 bf f0 0d 27 be 32 1e 68 bf
       0.3236588 -1.1669874 -0.1631391 -0.90671074
000150 e3 31 d0 be 01 73 a2 3e 85 43 24 be ee 7c c5 bf
       -0.4066306 0.31728366 -0.16041382 -1.542875
000160 8e 22 9f 3f 01 87 ed bf de 0c 83 3e 75 99 b4 bf
       1.243242 -1.8556825 0.25595754 -1.4109331
000170 9d 2d 2d bf 06 e7 3d 3f 44 90 bf 3d 1e 76 b0 be
       -0.67647725 0.7418064 0.09353688 -0.34465116
000180 b0 6f c3 bf 4b ff cb 3f 52 11 9d bf 6b ca 3c 3f
       -1.5268459 1.5937284 -1.2270911 0.73746365
000190 14 41 03 bf ed c9 d9 3e 57 d8 66 be f1 0b 07 3f
       -0.51271176 0.4253687 -0.22543465 0.52752596
0001a0 51 e1 72 3d cf 68 08 be 95 be e3 be 33 33 71 be
       0.05929691 -0.13321231 -0.4448134 -0.23554687
0001b0 89 ce 4c bf a9 1d 57 3f 59 bc 18 3f 1f ef 84 bf
       -0.8000265 0.8402963 0.59662396 -1.0385474
0001c0 4b e2 a6 3f 2d ad 8d bf 89 2c 99 3f 90 5d cb bf
       1.3037809 -1.1068474 1.1966716 -1.5887928
0001d0 fb 9c a9 3e 66 5f 06 3f 29 61 96 3f 45 ea 98 be
       0.3312758 0.52489316 1.1748401 -0.29866233
0001e0 43 fa 03 3e 5a 5c 7c 3f cf 0c 12 bf 01 40 e8 be
       0.12888436 0.9857842 -0.57050794 -0.4536133
0001f0 2b 3e 91 bf 07 51 c3 3f b4 71 f9 3e 05 bb c6 bf
       -1.1347097 1.5259103 0.4871956 -1.5525824

ACT_EMBED.layers.2.weight f4 [32, 32]
000000 e0 93 54 bf 5b d6 8c bf f5 0e a8 bf e2 d5 49 bf
       -0.8303814 -1.1002916 -1.3129565 -0.78841984
000010 bf 67 b8 bf 5c 45 89 bf ad 6e 5a bf 41 78 07 be
       -1.4406661 -1.0724292 -0.8532513 -0.13229467
000020 ee bd bd 3a 3c 12 92 bf df ba 87 bf dc 33 48 bf
       0.0014476159 -1.1411815 -1.0603904 -0.7820413
000030 07 23 1f bf 35 c2 53 bf 7f cf 6e be 13 87 b2 be
       -0.6216282 -0.8271821 -0.23321341 -0.34868678
000040 b4 4e b3 bf 80 83 1a be 04 62 90 be 80 05 be bf
       -1.4008393 -0.15089226 -0.2819978 -1.4845428
000050 d6 a7 8d be 54 e0 5c bf 24 eb bc bf 8b 6a 3c bf
       -0.2766711 -0.862798 -1.4759259 -0.7360007
000060 50 41 e1 bc bb 7c 87 be c6 25 26 bf 5d 26 8a be
       -0.027496964 -0.2646235 -0.6490139 -0.26982394
000070 ae a0 91 bf 2f cf 0a bf 2c 60 25 be 22 52 92 be
       -1.137716 -0.5422239 -0.16149968 -0.28578287
000080 17 71 f6 bf cb a1 7b bf 6a 35 a3 bf 3c 63 c2 bf
       -1.9253262 -0.9829375 -1.2750676 -1.5186534
000090 76 f4 62 bf 16 6b 8f bf 75 63 d1 bf 84 17 df bf
       -0.8865427 -1.1204555 -1.6358477 -1.7429051
0000a0 12 c3 6a bf 87 76 e1 bf 31 c5 ce 3e d1 00 93 bf
       -0.91703904 -1.7614297 0.4038482 -1.1484624
0000b0 88 9f d6 bf 1e 79 6a bf 53 36 f7 bf 24 8b 2e bf
       -1.6767435 -0.9159106 -1.9313453 -0.6818106
0000c0 41 0a 38 be a0 23 08 c0 7c 17 96 bf 6c d9 e3 3e
       -0.17972662 -2.1271744 -1.1725917 0.44501817
0000d0 38 9d 77 bf 37 03 e6 be 61 fa 0c bf b5 6d 0a c0
       -0.9672427 -0.44924328 -0.5506955 -2.162946
0000e0 70 e3 ea bf f6 0d 9c bf 28 56 77 bf 04 d6 0f c0
       -1.8350658 -1.219176 -0.9661584 -2.2474375
0000f0 8b 1d 4c bf e7 31 b2 bf a2 8b aa bf a1 17 c8 bf
       -0.7973258 -1.3921479 -1.3323863 -1.5632211
000100 6e 51 cb bf eb 1d 72 be 5d 07 50 bf a7 43 d3 bf
       -1.5884225 -0.23644225 -0.81261235 -1.6505021
000110 82 a3 e8 be b5 c7 10 bf 04 27 ea bf c4 0f ba bf
       -0.45437247 -0.5655473 -1.8293157 -1.4536061
000120 f8 f2 ad be 7d 86 b2 bf 77 57 80 bf 40 7b 9e bf
       -0.33974433 -1.3947293 -1.0026692 -1.2381363
000130 32 a2 a3 bf 85 99 82 bf b7 f2 d5 bf 00 9d 3b bf
       -1.2783873 -1.02031 -1.6714696 -0.7328644
000140 b4 36 80 bf 27 ee ea bf 89 d0 8e bf 90 1e 53 3f
       -1.0016694 -1.8353928 -1.115739 0.8246851
000150 6f 36 5e bf 1d b4 a4 bf 38 8c 44 bf b6 9d a0 bf
       -0.8680181 -1.2867466 -0.76776457 -1.254813
000160 9e 89 83 bf 17 32 a4 bf 1f 46 a3 bf 4d 4a 79 bf
       -1.0276372 -1.2827786 -1.2755774 -0.97379
000170 f3 ac 44 bf 42 d8 99 bf ce 2a fe be c0 a5 c2 bf
       -0.768264 -1.2019122 -0.49642032 -1.5206833
000180 6b b3 c3 bf 00 23 91 bf af 95 2e bf 50 23 c7 bf
       -1.5289129 -1.1338806 -0.6819715 -1.5557652
000190 cd 79 ff be 87 6e 94 bf 43 42 4e bf c8 c6 f6 bf
       -0.49897614 -1.159623 -0.8056986 -1.9279413
0001a0 81 9d 6e bf ee 84 68 3c 73 50 b3 bf 44 0f 36 bf
       -0.9320908 0.014191849 -1.4008926 -0.71117043
0001b0 55 ed b6 bf 59 b8 b1 bf b9 68 cf bf db 8b 24 bf
       -1.4291178 -1.3884383 -1.6203834 -0.642759
0001c0 d8 39 ba bf 50 6f 0b c0 af 09 5b bf b4 56 81 bf
       -1.4548903 -2.178669 -0.8556165 -1.0104585
0001d0 d5 84 9e bf 65 e0 69 bf 07 05 95 bf a4 7e 47 bf
       -1.2384287 -0.91358024 -1.1642159 -0.77927613
0001e0 f1 e7 d3 bf cd d5 4c bf d0 ea 83 bf 35 dc e9 bf
       -1.6555158 -0.80013734 -1.0306034 -1.8270327
0001f0 fb 43 d4 bf da 46 fa be 67 19 63 bf 80 25 4d bf
       -1.6583246 -0.4888218 -0.88710636 -0.80135345
000200 86 fe 09 bf 89 42 1a bf 28 e2 1c be ba aa 50 bf
       -0.53903997 -0.60257775 -0.15320647 -0.8151051
000210 8e 36 ea be f2 47 0d bf af c4 cc be 4e 1e 9e bf
       -0.45744747 -0.55187905 -0.39993808 -1.2352998
000220 13 20 a5 bd 6c 47 26 bf d1 18 9f bf c0 3a 34 3c
       -0.08062758 -0.6495273 -1.2429448 0.011000335
000230 f8 60 4f bf a7 0c ce be 16 3c e4 be da 82 82 bf
       -0.8100734 -0.40244028 -0.44577092 -1.0196183
000240 b0 54 2a bf 9a 0a b1 be 50 43 47 bf ec 68 2c bf
       -0.6653547 -0.345784 -0.77837086 -0.673476
000250 5c 0a 17 bf 36 81 81 bf 48 7a 63 bf 61 04 ed be
       -0.5900018 -1.0117557 -0.8885846 -0.46292403
000260 5e 2b 35 bf 1d fb 41 bf 79 e6 24 bf 44 01 a1 be
       -0.707693 -0.75773793 -0.64414173 -0.31446278
000270 b3 83 49 bf 94 18 53 3e c1 da cc be fb 5f 57 bd
       -0.7871658 0.20614845 -0.40010646 -0.05258177
000280 fb 0a 27 bf 9c 08 ac bf e6 85 aa bf b1 ff df bf
       -0.6525113 -1.3440127 -1.3322113 -1.7499906
000290 87 bd 90 bf 27 81 d4 bf 0a 73 41 bf bf 4c 5d bf
       -1.1307839 -1.6601914 -0.7556616 -0.8644523
0002a0 9e e4 5c bd 76 9e e2 be c5 c9 c1 be 0f a0 69 bf
       -0.053928964 -0.4426152 -0.3784925 -0.91259855
0002b0 fe 3f 40 bf 84 59 86 3d 0d a4 45 bf 28 2a 46 3e
       -0.75097644 0.065600425 -0.77203447 0.19352019
0002c0 91 1c 56 bf fc 78 31 bf 87 ad a5 3e 3e 27 2b bf
       -0.8363734 -0.6932523 0.32358953 -0.66856754
0002d0 4e 4d 60 bf 10 f8 7b be d8 a8 73 bf c0 7e 49 bf
       -0.8761796 -0.24606347 -0.9517951 -0.7870903
0002e0 bd 59 a7 bf 8d 90 50 bf de 37 8c bf 5b 8d a1 bf
       -1.3074261 -0.81470567 -1.0954549 -1.2621263
0002f0 73 64 8a bf cf 02 52 3e 42 2d 0f be 1d 66 f8 be
       -1.0811905 0.20508884 -0.13982108 -0.48515406
000300 fe c7 c9 bf eb 26 ac be 9b ed 3d bf fd 6c 84 bf
       -1.5764158 -0.33623442 -0.7419068 -1.034576
000310 32 a1 de be c6 31 e6 be fc 51 5e bf 71 26 bb bf
       -0.43482357 -0.4495985 -0.8684385 -1.4621106
000320 8f a7 41 bf 3e b0 3c bf 03 a4 87 bf 13 b9 cc be
       -0.756463 -0.73706424 -1.0596927 -0.3998495
000330 77 59 41 bf 23 34 85 bf 8a 98 b7 bf f0 45 e3 be
       -0.7552714 -1.0406536 -1.4343426 -0.44389296
000340 4b 00 94 be 29 ad eb bf dc a9 83 bf 81 e5 26 bf
       -0.28906474 -1.8412219 -1.0286212 -0.65193945
000350 13 3c 81 bf 90 58 c1 bc 30 52 19 bf b2 bc 24 bf
       -1.0096458 -0.0236018 -0.59891033 -0.64350426
000360 62 2e b4 bf e3 4c 6f bf 2d bb c4 bd 2c 77 e0 bf
       -1.4076655 -0.93476695 -0.096060134 -1.7536368
000370 92 f7 36 bf 7d f9 d1 be ab b8 84 bf 5c c1 87 bf
       -0.7147151 -0.41010657 -1.0368856 -1.0605884
000380 5b 24 ee be ca 4c eb be e1 19 5d bf 9b 64 83 bf
       -0.46512112 -0.45957023 -0.86367613 -1.0265077
000390 c6 5f 3b bf aa 6d 32 be b4 71 26 bf b6 71 0d be
       -0.73193014 -0.17424646 -0.6501725 -0.13812909
0003a0 d6 2a d7 bd c9 c3 52 bf 49 6d 73 be 5d 7d e5 be
       -0.10506217 -0.82329994 -0.23772158 -0.44822207
0003b0 d3 a4 0b bf ed c0 1a bf 5a 64 5c bd a5 a2 02 3e
       -0.54548377 -0.6045063 -0.05380664 0.12757356
0003c0 60 8e 12 bf 54 c9 36 bf 9e f5 95 bd cc b7 58 bf
       -0.57248497 -0.7140095 -0.073222384 -0.8465545
0003d0 08 7b 87 be d4 b4 d7 be 6d a0 72 bf dd d1 37 bf
       -0.26461053 -0.42130148 -0.9477604 -0.718046
0003e0 19 ae fa be fb 49 97 be d0 8f 0a bf cd 8e bd be
       -0.4896095 -0.2954863 -0.5412569 -0.3702301
0003f0 a1 7a 43 bf d8 57 e1 bc c6 f6 af be c6 7f 41 bf
       -0.7635899 -0.027507707 -0.3436796 -0.7558559

ACT_EMBED.layers.4.weight f4 [4, 32]
000000 e0 43 78 3e eb 4b 23 3f b8 c4 b5 bf cd 07 e9 3f
       0.24244642 0.63787717 -1.4200659 1.8205506
000010 2b 48 56 3e 7a a1 aa bf d4 cc ed bf cf 95 12 bf
       0.20925967 -1.3330529 -1.8578134 -0.5725984
000020 c8 8b bc bf 9d 58 82 3d 3a b2 89 bf b4 37 9a 3f
       -1.4730158 0.06364558 -1.0757515 1.2048249
000030 fb 17 ad 3f 1b cd 4b bf 01 66 f8 3f d0 2e 98 bd
       1.3522943 -0.7960984 1.9406129 -0.07430804
000040 50 42 af be 43 75 9e be f7 c6 c9 3d b8 4c f1 bf
       -0.3423028 -0.3094884 0.09852403 -1.8851538
000050 95 54 51 bf d7 2c a2 be fb af a1 bf b9 56 da 3f
       -0.81769687 -0.31674835 -1.263183 1.7057716
000060 14 09 ef be b8 18 f8 bf b4 d8 20 3e d2 7d 93 bf
       -0.46686614 -1.9382544 0.15707666 -1.1522772
000070 4f 33 17 bf 90 02 ef bf 81 d0 ba bf b1 9b 02 c0
       -0.59062666 -1.8672657 -1.459488 -2.0407526
000080 0a 17 91 be 21 90 19 c0 5b 7f 12 c0 bb 9a 06 c0
       -0.2833789 -2.399422 -2.2890232 -2.103194
000090 fa 92 76 be d9 0c cd bf 3e 45 21 bf 6e e0 a7 bf
       -0.24079505 -1.6019546 -0.6299628 -1.3115366
0000a0 f7 ac 31 bf 06 41 85 bf d2 e1 2a bf 5b 2d ac bf
       -0.6940455 -1.0410469 -0.66750824 -1.3451341
0000b0 d8 dc cf bd fa e2 98 bc d4 ba 81 bf c4 0a dc b9
       -0.101495445 -0.018662918 -1.013514 -0.0004196969
0000c0 ea 11 2a bf 25 51 5b bf 0c 7f f7 bf ab b3 da bf
       -0.66433585 -0.8567069 -1.9335647 -1.708608
0000d0 be 91 f3 3d 0c 86 3c be de d1 08 c0 9f c6 04 c0
       0.118930325 -0.1841051 -2.1378093 -2.0746229
0000e0 1e a0 ce bf 46 ba d8 bf a1 e0 26 3e ae f8 28 bf
       -1.6142614 -1.6931846 0.16296627 -0.66004455
0000f0 f6 c5 c9 bf ae a5 03 c0 65 6b 84 bf 4f c3 9f be
       -1.5763538 -2.0569873 -1.0345274 -0.31203696
000100 da e7 03 3e d0 58 9a be fc ef 19 c0 ee 51 0d c0
       0.12881413 -0.30145884 -2.4052725 -2.2081256
000110 43 53 23 bf 81 bf 9b bf f1 ff 0a 40 bb e0 c9 3d
       -0.6379892 -1.2167817 2.1718714 0.09857317
000120 5f f8 ff 3e 29 90 98 bf b4 2b 08 3f 27 e5 cb bf
       0.4999418 -1.1918994 0.53191686 -1.5929307
000130 7d 6b c9 bf d8 3f ad bf 2b 6d 8c 3f 33 75 2d 3e
       -1.5735928 -1.3535109 1.0970815 0.16939239
000140 a2 e9 d3 bf e7 98 66 bf 1e b2 08 c0 86 c1 0e c0
       -1.6555674 -0.9007706 -2.1358714 -2.2305617
000150 c8 48 81 3f a6 c1 8d 3e 16 df 5d 3f 13 b6 08 c0
       1.0100336 0.27686805 0.8666853 -2.136113
000160 e4 eb 05 c0 0d 9c 05 c0 36 9c 09 3e 28 b0 4a bf
       -2.0925226 -2.0876496 0.13438496 -0.79175043
000170 bc 81 d3 bf a6 53 21 c0 f6 a9 07 bf f4 5e 41 3e
       -1.6523967 -2.5207305 -0.52993715 0.18883878
000180 05 c8 5d be 39 de da bd c3 99 a4 bf bc 0c fe be
       -0.21658333 -0.10686917 -1.2859424 -0.4961909
000190 9d 7c 85 3c d4 6d 15 bd 46 d2 ab be 57 df 35 bf
       0.016294772 -0.036481693 -0.33558863 -0.71043915
0001a0 2c 44 cf be 53 13 2e 3e d8 7e 55 3e ae 35 2a 3f
       -0.404817 0.16999559 0.20849168 0.6648816
0001b0 ec 80 7b be c4 8d ee 3d 6d 4c 07 bf af 53 86 3d
       -0.24560899 0.116481334 -0.5285099 0.0655893
0001c0 c7 05 37 bf 89 b2 1f 3d 38 94 1b be d3 e6 2a be
       -0.7149319 0.038988624 -0.1519326 -0.16689615
0001d0 62 4a 8d be 61 b9 2e 3d 1d 69 c9 be dd 0b e5 3c
       -0.27595812 0.04265726 -0.39338008 0.027959758
0001e0 57 66 20 3f a3 d0 0a bf a3 e9 41 bd a3 31 8d be
       0.6265616 -0.54224604 -0.047341954 -0.27576932
0001f0 c2 e7 29 3e 19 98 77 bf 0a be a0 be 3b 21 cd bd
       0.16592315 -0.9671646 -0.31394988 -0.10016104

FK_LAYER.joints.0.p_offset f4 [3, 1]
000000 56 c7 4b be fd 82 e4 be 6e 04 14 40
       -0.1990026 -0.44631186 2.3127704

FK_LAYER.joints.0.rpy_offset f4 [3]
000000 a4 d4 65 3b ff ab 9e bb ef 23 34 3c
       0.003506937 -0.004842281 0.010994895

FK_LAYER.joints.1.p_offset f4 [3, 1]
000000 5a b1 b9 3c 92 18 9b be 23 e2 ec 3f
       0.022667576 -0.30292183 1.8506511

FK_LAYER.joints.1.rpy_offset f4 [3]
000000 94 6d 23 bb 4c cc a5 bb f9 a8 f7 3b
       -0.002493714 -0.0050597545 0.007557985

FK_LAYER.joints.1.axis f4 [3, 1]
000000 95 f0 9d be 5a 93 a5 3e 09 bd b9 bf
       -0.30847612 0.32338983 -1.4510814

FK_LAYER.joints.1.q_layer.0.weight f4 [1, 4]
000000 4b c1 c4 3e 6e 55 7a bf 9f d5 77 3f 09 db 37 3e
       0.3842872 -0.97786605 0.96810335 0.17954649

FK_LAYER.joints.2.p_offset f4 [3, 1]
000000 c6 c6 25 bd a6 7b e8 bc 56 69 a4 3e
       -0.04047277 -0.028379273 0.32111615

FK_LAYER.joints.2.rpy_offset f4 [3]
000000 a6 fb 94 bc ab 04 27 b9 07 8c 53 3a
       -0.018186402 -0.000159281 0.0008069877

FK_LAYER.joints.2.axis f4 [3, 1]
000000 d9 83 1a 40 b5 45 e4 3f 5b 06 3c be
       2.4142973 1.7833773 -0.183618

FK_LAYER.joints.2.q_layer.0.weight f4 [1, 4]
000000 e8 89 ba 3e 65 ce af 3f 8e e4 dc 3c 41 86 87 3f
       0.3643334 1.3734862 0.026964452 1.0587846

FK_LAYER.joints.3.p_offset f4 [3, 1]
000000 a5 2f d0 3d 04 ea c4 3e 57 5d e1 bf
       0.101653375 0.3845979 -1.760661

FK_LAYER.joints.3.rpy_offset f4 [3]
000000 77 6f a9 3c 70 1e ce bb 3b 6c 86 bc
       0.020683033 -0.0062902495 -0.01640903

FK_LAYER.joints.3.axis f4 [3, 1]
000000 43 64 15 3f dd 93 3e 3f 6a d4 40 3f
       0.5835611 0.7444437 0.7532412

FK_LAYER.joints.3.q_layer.0.weight f4 [1, 4]
000000 7f 25 21 3f 8b ba 99 3e 2c 0f 2f 3f 64 06 1a bf
       0.6294784 0.30025133 0.68382525 -0.60166

FK_LAYER.joints.4.p_offset f4 [3, 1]
000000 b6 9e 57 3d bf 62 40 3e 91 3c a7 bf
       0.052641593 0.18787669 -1.3065358

FK_LAYER.joints.4.rpy_offset f4 [3]
000000 33 8d 97 3b b9 18 6f bc ec 10 0a bc
       0.0046249866 -0.014593297 -0.008426886

FK_LAYER.joints.4.axis f4 [3, 1]
000000 84 ad 89 3d 5e 1f 59 be 6a 78 86 3f
       0.067225486 -0.21203372 1.0505497

FK_LAYER.joints.4.q_layer.0.weight f4 [1, 4]
000000 5a 1c 45 be d3 ad d0 bd 88 48 0a 3e ab f1 04 bf
       -0.19249097 -0.10189404 0.13504231 -0.51931256

FK_LAYER.joints.5.p_offset f4 [3, 1]
000000 88 18 87 3b 15 82 27 3e 75 89 7f bf
       0.0041227974 0.16358216 -0.9981912

FK_LAYER.joints.5.rpy_offset f4 [3]
000000 b2 65 6f 3c 76 fd c0 3b fe c5 f7 39
       0.014611648 0.00588959 0.00047259027

FK_LAYER.joints.5.axis f4 [3, 1]
000000 9c f5 18 c0 79 fe 99 bf 20 24 09 be
       -2.3899908 -1.2030784 -0.13392687

FK_LAYER.joints.5.q_layer.0.weight f4 [1, 4]
000000 d1 33 52 be 9e a1 c2 3f 37 4e d2 be d6 39 05 bf
       -0.20527579 1.5205572 -0.41075298 -0.52041376

FK_LAYER.joints.6.p_offset f4 [3, 1]
000000 d2 06 53 b8 4f b8 0d 3d 23 c9 a0 be
       -5.0312672e-05 0.0345996 -0.31403455

FK_LAYER.joints.6.rpy_offset f4 [3]
000000 89 33 58 bc bb cf 19 bc 8f cc 27 bb
       -0.013195881 -0.009387906 -0.0025604104

FK_LAYER.joints.6.axis f4 [3, 1]
000000 c8 ef 63 3e dd 20 32 3d ab f2 f8 3c
       0.22259438 0.043488372 0.03038915

FK_LAYER.joints.6.q_layer.0.weight f4 [1, 4]
000000 ef 7f 30 bf db 39 06 3e b7 bc 33 3e ef 07 fb 3e
       -0.6894521 0.13108008 0.17552458 0.4902949
